Model_Files/bpiNoRepeat/EventPredictor_parameters_binary_0.0001.pt (torch, 280586 bytes, 8 tensors)

layer1.weight f4 [4, 1]
0	0x3ecbd62b	0.39811835
1	0xbe4e307d	-0.20135684
2	0xbe52e6e4	-0.2059589
3	0x3f2cbac4	0.6747248

layer1.bias f4 [6]
0	0xbe3be5c6	-0.1834937
1	0xbe2b235f	-0.16712712
2	0x3f3a066d	0.72666055
3	0x3e20396a	0.15646902
4	0x3f27f48c	0.65607524
5	0x3e90ebca	0.28304893

layer2.1.weight f4 [256, 6]
0	0x3eae8042	0.34082228
1	0xbe6cfaad	-0.231425
2	0xbeb0b947	-0.34516355
3	0xbd9c1211	-0.076206334
4	0x3e14da16	0.14536318
5	0x3ec062e3	0.37575445
6	0xbd67d6a6	-0.05660119
7	0xbd77233a	-0.06033633
8	0x3df214ed	0.118203975
9	0x3c6b3d22	0.014357837
10	0xbeef8257	-0.4677913
11	0xbdfbbcf5	-0.122919
12	0xbdded905	-0.10881237
13	0xbe34b38f	-0.17646621
14	0xbd4eeb59	-0.050517414
15	0xbe4b004b	-0.1982433
16	0xbd409f92	-0.047027178
17	0x3e1b3d78	0.15160167
18	0x3df7aed6	0.12093894
19	0xbea821f4	-0.32838404
20	0xbf0c08bc	-0.5470083
21	0x3ecb1360	0.3966322
22	0xbf0f8903	-0.5606844
23	0x3eca4e0b	0.39512667
24	0x3e0e740c	0.13911456
25	0x3e9247b9	0.28570345
26	0x3f56cabd	0.83903104
27	0xbe26dcbc	-0.16295141
28	0x3ed82bbc	0.42220867
29	0xbbaa2699	-0.0051925895
30	0x3cff024c	0.031129025
31	0xbe9939fc	-0.2992705
32	0xbc57e240	-0.013176501
33	0x3dbb9508	0.09159285
34	0x3da05969	0.07829554
35	0x3e9fe202	0.31227118
36	0x3e8ac508	0.27103448
37	0xbe9ad1c2	-0.30238158
38	0xbe97e3cb	-0.2966598
39	0xbe7105e6	-0.23537406
40	0x3e7feac9	0.24991907
41	0x3eaf296e	0.34211296
42	0x3d805563	0.06266286
43	0xbe53262e	-0.20620033
44	0x3dcb8881	0.099381454
45	0x3c47a24f	0.0121846935
46	0x3cd81e52	0.026381645
47	0xbcfa3f98	-0.030547902
48	0x3e137ac5	0.14402302
49	0xbe4f9220	-0.20270586
50	0xbe624bec	-0.22099274
51	0xbe26f335	-0.16303714
52	0x3e42da69	0.1902863
53	0x3e5641a6	0.2092348
54	0x3e489beb	0.19590728
55	0x3e777e05	0.24169166
56	0xbde7bb51	-0.11315025
57	0xbdf0a7c1	-0.117507465
58	0xbe92d5ae	-0.2867865
59	0x3e82fa19	0.25581434
60	0xbd8115f3	-0.063030146
61	0xbd47f0f8	-0.04881379
62	0xbe1e2e40	-0.1544733
63	0x3cbdad24	0.023153849
64	0x3e5fb838	0.21847618
65	0xbd54f1d6	-0.051988445
66	0x3ec045d9	0.3755329
67	0x3df9ca94	0.12196842
68	0x3db5b317	0.08872049
69	0x3e3cb5da	0.18428746
70	0xbc32a914	-0.010904569
71	0x3cce15b9	0.025156843
72	0xbe271adf	-0.16318844
73	0xbdfffde3	-0.12499597
74	0xbcced957	-0.02525012
75	0xbd997978	-0.074938715
76	0xbdf2c38e	-0.11853705
77	0x3e164479	0.14674558
78	0xbeadec7c	-0.33969486
79	0xbeb23fc8	-0.34814286
80	0x3e043ab5	0.1291302
81	0x3cabb792	0.020961557
82	0xbe176e0e	-0.14788076
83	0x3c194911	0.009355799
84	0x3eb9d89e	0.36298078
85	0xbe0d278a	-0.13784614
86	0x3e8b1891	0.2716718
87	0x3f1b3782	0.60631573
88	0x3f3838c2	0.71961606
89	0x3dede967	0.116167836
90	0xbe3c05ba	-0.1836156
91	0xbec47a84	-0.38374722
92	0xbecc709e	-0.3992967
93	0x3e37c1cc	0.17945021
94	0x3e2cf9fa	0.16892233
95	0x3e6ac750	0.22927594
96	0xbe447fd1	-0.19189383
97	0x3ed2093d	0.41022673
98	0x3dd4219e	0.103579745
99	0x3e17b910	0.1481669
100	0x3e34b1db	0.17645971
101	0xbdb59692	-0.0886661
102	0x3eb2cb11	0.34920552
103	0xbdf4a1ba	-0.119449094
104	0x3fe6751a	1.8004487
105	0x3dd16635	0.102245726
106	0x3f5e4fae	0.8684033
107	0x3edb2b82	0.4280663
108	0x3dcddf3b	0.100523435
109	0x3de58674	0.112072855
110	0x3d8b0556	0.06788127
111	0xbc112650	-0.008859232
112	0x3e24e780	0.16103935
113	0xbe59d736	-0.21273503
114	0x3e994adc	0.29939926
115	0xbd06aaa1	-0.03287757
116	0x3defe9d3	0.1171452
117	0xbe56621b	-0.20935862
118	0x3d3c0af5	0.045908887
119	0x3dfbe5d8	0.122996986
120	0x3ea0bdbc	0.31394756
121	0xbe89abb9	-0.26888826
122	0xbb5df3d3	-0.0033867254
123	0x3e4806d2	0.19533852
124	0x3e681b54	0.22666675
125	0xbc9f0697	-0.019412322
126	0x3e20eab0	0.15714526
127	0xbee4ac83	-0.44662866
128	0x3e8bf739	0.27337053
129	0x3e05bcdf	0.1306033
130	0x3eab0811	0.33404592
131	0xbda0008c	-0.07812604
132	0xbd976226	-0.07391767
133	0x3dfc86ba	0.123303846
134	0xbc662e17	-0.014049075
135	0xbb5f6858	-0.0034089293
136	0x3da3cf80	0.07998562
137	0xbb5e0f60	-0.0033883676
138	0xbe1eba80	-0.15500832
139	0x3d179234	0.037004665
140	0xbe1fb303	-0.15595631
141	0x3f50b8a5	0.81531745
142	0x3dd594e5	0.1042879
143	0x3f0e775a	0.55650866
144	0xbdd39a17	-0.10332125
145	0xbe9e95dd	-0.30973712
146	0xbe13eab2	-0.14444998
147	0xbe6eb332	-0.23310545
148	0x3e9ff556	0.31241864
149	0x3e5865a0	0.21132517
150	0x3d2892dd	0.041155685
151	0x3ea04aca	0.3130706
152	0xbd99358f	-0.074809186
153	0xbe5fb01c	-0.21844524
154	0x3d7c7272	0.06163258
155	0x3d3be99c	0.045877084
156	0x3acc412c	0.0015583388
157	0xbeac42af	-0.33644626
158	0x3fcebac8	1.6150751
159	0xbef3958b	-0.4757503
160	0x3fd66f35	1.6752688
161	0x3e98e51a	0.2986229
162	0x3e195e73	0.14977436
163	0x3ecf336b	0.40468916
164	0x3d58af67	0.05290165
165	0x3c91e892	0.017811093
166	0xbd5956ab	-0.05306117
167	0x3de63f5d	0.11242554
168	0xbeaa71d1	-0.3328996
169	0xbe637171	-0.22211243
170	0xbe3adc60	-0.18248129
171	0x3e0426dc	0.12905449
172	0x3d3d19ab	0.046167057
173	0xbe98d07a	-0.29846555
174	0x3e58a789	0.2115766
175	0xbed585ee	-0.41703743
176	0x3b41a487	0.0029547529
177	0x3e891d78	0.26780295
178	0xbc76eb7e	-0.015070794
179	0xbc8adb16	-0.016950171
180	0x3e4378b0	0.19089007
181	0x3e4ecca8	0.20195258
182	0x3d6a52b1	0.057207767
183	0x3c3b9f42	0.011451544
184	0x3d7d7680	0.06188059
185	0x3e06a6b6	0.13149533
186	0xbe1f57d4	-0.15560848
187	0x3e824e98	0.25450587
188	0x3cc00738	0.023440942
189	0xbe942941	-0.28937724
190	0x3ba01f1e	0.004886522
191	0xbd13a293	-0.036043715
192	0x3e8d6b6b	0.27621016
193	0x3ddda715	0.10822884
194	0x3d943b90	0.07237923
195	0xbecf7378	-0.40517783
196	0xbea5dfe4	-0.32397377
197	0x3e8c813c	0.27442348
198	0x3ecc5a45	0.3991262
199	0x3d90ddf5	0.07073585
200	0xbd98da49	-0.074635096
201	0x3f488e0f	0.78341764
202	0xbc067566	-0.008206701
203	0x3da776fc	0.08176991
204	0x3e88da1e	0.2672891
205	0xbdbf1fa5	-0.093322076
206	0x3e367ff7	0.17822252
207	0x3e42cc02	0.19023135
208	0x3e662171	0.22473694
209	0xbe778198	-0.2417053
210	0x3e25ca7b	0.16190521
211	0xbe6268e9	-0.22110333
212	0x3e26ab50	0.16276288
213	0x3e68c72a	0.22732225
214	0xbc12bd27	-0.00895623
215	0xbe82cff9	-0.25549296
216	0xbe27c6eb	-0.16384475
217	0x3e85f61d	0.26164332
218	0x3ea5b5c0	0.32365227
219	0x3e58fbb9	0.21189775
220	0xbe6f78bd	-0.23385902
221	0x3e018a9a	0.12650529
222	0x3b521461	0.0032055604
223	0x3e99eea3	0.30064878
224	0xbe896058	-0.26831317
225	0x3c8d5075	0.017250279
226	0x3e93623f	0.28785893
227	0xbf0e0900	-0.5548248
228	0x3ec1fa1a	0.37886125
229	0x3ee7f765	0.45305935
230	0xbf1cb14a	-0.6120802
231	0xbe8f8dbc	-0.28037822
232	0xbf23eb37	-0.64030784
233	0xbe9b18ab	-0.30292258
234	0xbe53661f	-0.20644425
235	0x3ebf5dab	0.3737615
236	0x3de9afaa	0.114104584
237	0xbe13ae7a	-0.14422026
238	0x3c0b4b51	0.008501844
239	0xbe6ee33f	-0.23328875
240	0x3e22f2cf	0.15912937
241	0x3ed383ec	0.41311586
242	0x3f1d23e4	0.6138289
243	0xbdff25c3	-0.12458374
244	0x3e3598db	0.17734091
245	0xbecb43dc	-0.3970021
246	0xbe77465b	-0.24147932
247	0xbe2c0e53	-0.1680234
248	0xbe88bfc7	-0.26708815
249	0x3db3f35e	0.08786653
250	0xbd2a7707	-0.04161742
251	0xbeab453d	-0.33451262
252	0xbe93b916	-0.28852147
253	0xbeda60ba	-0.42651922
254	0x3f6b2e78	0.9186778
255	0x3db06e37	0.08614772

layer2.1.bias f4 [256]
0	0x3ec6f473	0.38858375
1	0xbf5bfce7	-0.85932773
2	0xbda4f29c	-0.080540866
3	0x3bc3f131	0.00597968
4	0xbdbdd129	-0.0926841
5	0x3f6061be	0.8764914
6	0xbe1b1f6e	-0.15148708
7	0x3ecfd621	0.40593055
8	0x3eeb5e31	0.459703
9	0xbea64bab	-0.32479605
10	0x3ed25b82	0.4108544
11	0xbe54ca8a	-0.20780388
12	0xbe320d6f	-0.17387937
13	0xbf1b8a70	-0.60758114
14	0x3dd8835d	0.105719306
15	0x3e9439aa	0.28950244
16	0x3eaee070	0.34155607
17	0xbee468e2	-0.4461127
18	0x3e2de395	0.16981347
19	0x3e3d0972	0.18460634
20	0x3f275031	0.6535674
21	0x3eb43c0a	0.35202056
22	0x3d8b8522	0.068125024
23	0x3ea15f02	0.31517798
24	0xbde671b2	-0.112521544
25	0xbe32e969	-0.17471851
26	0xbefa27da	-0.4885853
27	0x3bfd289b	0.007725788
28	0xbe9deb20	-0.3084345
29	0x3f2b83b8	0.6699786
30	0x3f0782d5	0.5293401
31	0xbec360df	-0.38159844
32	0x3ecde8fc	0.40216815
33	0x3f263755	0.6492818
34	0x3d124076	0.035706006
35	0x3e72626d	0.23670359
36	0x3f0fbed5	0.5615056
37	0xbef2e6a3	-0.47441587
38	0x3e0dd9fa	0.13852683
39	0xbee5dcbd	-0.44894972
40	0x3ef07707	0.4696581
41	0xbe189038	-0.14898765
42	0xbec4b1f3	-0.38417014
43	0x3e8e4079	0.27783564
44	0xbe725361	-0.23664619
45	0x3f7f7010	0.9978037
46	0xbe822977	-0.2542226
47	0xbf05e3e3	-0.5230085
48	0xbf1eac9c	-0.6198213
49	0x3d916526	0.07099371
50	0x3efec0ed	0.49756566
51	0x3e5fd475	0.2185839
52	0x3e1a627f	0.15076636
53	0x3eeb37ed	0.45941105
54	0x3e01c275	0.12671836
55	0x3e9a0e16	0.30088872
56	0x3e6f13b7	0.23347364
57	0x3e9df444	0.30850422
58	0x3e73664d	0.23769493
59	0xbf25c041	-0.6474648
60	0x3ebf1360	0.3731947
61	0x3d7abf59	0.06121764
62	0xbece0286	-0.402363
63	0xbd0e7c35	-0.03478642
64	0xbe63e30b	-0.22254579
65	0xbe45f507	-0.19331752
66	0xbd911663	-0.07084348
67	0xbda10178	-0.07861608
68	0x3f4801de	0.7812785
69	0xbdab5de6	-0.08367519
70	0xbde9887b	-0.11402985
71	0x3e96366c	0.29338396
72	0xbd3a0a8b	-0.04542021
73	0xbf2cae54	-0.67453504
74	0x3d81819d	0.0632355
75	0xbef0e579	-0.47050074
76	0xbf061af5	-0.52384883
77	0x3de98538	0.114023626
78	0xbe95e85d	-0.29278842
79	0xbe76f0e8	-0.24115336
80	0x3eaeb87a	0.3412512
81	0xbde764c6	-0.11298518
82	0x3e8c7625	0.27433887
83	0x3e840b16	0.25789708
84	0x3ee6975c	0.45037353
85	0x3e2196a7	0.15780126
86	0xbe7c15c0	-0.24617672
87	0xbf0d1068	-0.5510316
88	0x3dc364c9	0.095407076
89	0xbb58c20e	-0.003307465
90	0xbeccf4f1	-0.40030625
91	0xbf267db4	-0.6503556
92	0xbe9ef0a8	-0.3104298
93	0x3ede87da	0.43463022
94	0xbe862603	-0.26200876
95	0xbe687097	-0.226992
96	0xbecb120f	-0.39662215
97	0x3db4a3ec	0.08820328
98	0x3dddc76e	0.10829054
99	0x3dec3765	0.11534003
100	0xbe523f70	-0.20532012
101	0x3ebc4183	0.3676873
102	0xbeeb861f	-0.46000764
103	0x3e13a6cd	0.14419098
104	0x3f405d1b	0.7514207
105	0xbf5d06ee	-0.863387
106	0x3ec56ded	0.3856043
107	0x3eed643d	0.46365538
108	0xbe9bfba8	-0.30465436
109	0x3e8dbaeb	0.2768167
110	0x3e04b6f6	0.12960419
111	0x3d8a6b8a	0.06758793
112	0x3dac2f97	0.084075145
113	0x3ed39f10	0.41332293
114	0x3df1a837	0.117996626
115	0x3e32cc4d	0.17460747
116	0xbeea0646	-0.4570791
117	0xbd587cc9	-0.05285338
118	0x3e14853c	0.1450395
119	0xbf47fbb7	-0.7811846
120	0x3f3f180a	0.74646056
121	0xbf156a71	-0.5836554
122	0xbf03b16d	-0.51442605
123	0x3e91c93a	0.28473836
124	0xbe9c9beb	-0.30587706
125	0x3f327fde	0.6972636
126	0xbec45852	-0.38348633
127	0xbf4ab317	-0.7917952
128	0xbe955848	-0.29168916
129	0x3e7694ec	0.24080247
130	0xbe16bf16	-0.14721331
131	0x3dab01b1	0.08349932
132	0xbda1172e	-0.07865749
133	0x3e521212	0.20514706
134	0xbe2f3e8e	-0.17113706
135	0xbf1d6ff0	-0.6149893
136	0x3ed085d4	0.40727103
137	0xbea7b9c5	-0.32758918
138	0xbe191a73	-0.14951496
139	0x3e6c3226	0.23066005
140	0x3df54896	0.11976735
141	0xbd97033f	-0.07373666
142	0x3f14fd0e	0.5819863
143	0xbe8b8e9f	-0.2725725
144	0xbd406d99	-0.04697952
145	0xbeaba5cd	-0.33524933
146	0x3e8ff8c2	0.28119475
147	0xbe5cf064	-0.21576077
148	0xbe92b668	-0.2865479
149	0xbeb9f9dc	-0.3632344
150	0xbf40d69a	-0.75327456
151	0xbf15a1bd	-0.5844992
152	0x3edc142c	0.4298414
153	0xbebe2d1c	-0.3714379
154	0xbe3048e5	-0.17215307
155	0xbe7e5ae5	-0.24839361
156	0xbedeadd9	-0.4349201
157	0x3d8d72b8	0.069066465
158	0xbe706364	-0.23475415
159	0xbe1ca0f1	-0.1529577
160	0xbe0d8b6e	-0.1382272
161	0x3e83ef0d	0.2576832
162	0xbf3c8b1e	-0.73649776
163	0x3e3b816f	0.18311094
164	0xbea33538	-0.3187654
165	0x3ea8a41f	0.32937714
166	0x3f071a02	0.5277406
167	0x3ebc2145	0.36744133
168	0x3dc0e01f	0.09417748
169	0x3e01597d	0.12631793
170	0xbd8a727a	-0.06760116
171	0x3ce95cdb	0.02848666
172	0x3ec12296	0.377217
173	0xbee6381a	-0.44964677
174	0x3f2e9f59	0.68211895
175	0x3d428fb5	0.04750033
176	0xbf1f667f	-0.6226577
177	0xbea6d794	-0.32586348
178	0xbcce2687	-0.025164856
179	0xbdef3d0f	-0.11681568
180	0xbeffc8dc	-0.4995793
181	0xbf0b3b9f	-0.5438785
182	0xbcc33a95	-0.023831645
183	0x3f0116f8	0.5042567
184	0x3e2e26e4	0.17007023
185	0xbe90e3e5	-0.2829887
186	0x3f1e4b77	0.618339
187	0xbecfa852	-0.40558106
188	0xbe9c89b1	-0.305738
189	0x3f250f77	0.6447672
190	0x3e5cd8a7	0.21567021
191	0xbe945822	-0.2897349
192	0x3ee6ddc2	0.45091063
193	0x3f474bad	0.7784985
194	0x3f07861c	0.5293901
195	0x3f0c82e1	0.54887205
196	0x3e464ffb	0.19366448
197	0x3f274d72	0.6535255
198	0x3d69999c	0.05703126
199	0xbe8993e7	-0.26870653
200	0xbd8d8905	-0.069109
201	0xbae28d07	-0.0017284461
202	0xbdf30658	-0.11866444
203	0x3d974cd2	0.07387699
204	0xbe086aa3	-0.13321929
205	0x3c490afd	0.012270686
206	0xbda083a2	-0.07837607
207	0xbf647aa7	-0.8924965
208	0x3e927201	0.28602603
209	0xbee5163e	-0.44743532
210	0xbe3da409	-0.18519606
211	0x3e2204ea	0.15822187
212	0x3e847616	0.25871342
213	0xbf0632d7	-0.52421325
214	0xbed0c9ef	-0.40779063
215	0x3f30675d	0.6890772
216	0x3ecf19c2	0.4044934
217	0x3de0908e	0.109650716
218	0x3e908365	0.28225246
219	0x3d806cf1	0.06270779
220	0xbb92b923	-0.0044776364
221	0x3f274dec	0.65353274
222	0xbe9a295b	-0.30109677
223	0xbd7d436a	-0.06183187
224	0x3f0c2f2b	0.5475947
225	0x3dd20d05	0.102563895
226	0x3f15d50c	0.5852821
227	0x3e889c0a	0.26681548
228	0xbea6b336	-0.32558602
229	0xbeaeb8e0	-0.34125423
230	0x3eef0315	0.4668204
231	0xbeac94f3	-0.3370739
232	0x3eacb29c	0.33730018
233	0x3ec84ab1	0.39119485
234	0xbd98a3b6	-0.074531004
235	0x3d795961	0.060876254
236	0xbe6af86f	-0.22946332
237	0xbdbc8b3e	-0.09206246
238	0x3ecc86a2	0.39946467
239	0xbd38f89b	-0.045158964
240	0xbe13c22a	-0.14429536
241	0xbec00911	-0.37506917
242	0x3d36d3e5	0.044635672
243	0x3e88d7a4	0.2672702
244	0x3b125550	0.0022328682
245	0xbe1b9f47	-0.15197478
246	0xbf5ff1bf	-0.8747825
247	0xbf22963d	-0.63510495
248	0xbea551a7	-0.32288858
249	0x3ee03555	0.4379069
250	0x3ea1e388	0.31618905
251	0xba212f8e	-0.0006148749
252	0xbe4d0e20	-0.2002492
253	0x3eea2fee	0.45739692
254	0xbf14fc8d	-0.5819786
255	0xbc477acf	-0.012175276

layer2.3.weight f4 [256, 256]
0	0x3c6e70e3	0.0145532815
1	0xbd8cb899	-0.06871147
2	0x3d073e15	0.03301819
3	0xbd5bd645	-0.05367114
4	0xbe0317c5	-0.12802036
5	0x3bbc54f8	0.0057474338
6	0xbc3fc36c	-0.011704307
7	0xbd8c5c59	-0.068535514
8	0xbd31921a	-0.043352224
9	0xbd5485d0	-0.051885426
10	0x3d902173	0.0703763
11	0x3c9d2a11	0.019185098
12	0xbc022fc1	-0.007945956
13	0x3c80bcc7	0.015715016
14	0x3dce0489	0.10059459
15	0x3d4b8dfd	0.049695957
16	0xbd399cc9	-0.045315538
17	0x3ca78dae	0.0204533
18	0xbc9f2a3c	-0.019429319
19	0x3cd30952	0.02576128
20	0x3d3bf87d	0.045891274
21	0xbd1d0cca	-0.038342275
22	0x3c86d953	0.01646105
23	0x3c6b66aa	0.014367739
24	0x3cc52f3a	0.024070371
25	0xbd94b095	-0.07260243
26	0x3c6465b4	0.013940264
27	0xba2a8bb9	-0.00065058056
28	0xbcdc030c	-0.026856922
29	0xbb6bdf37	-0.00359912
30	0x3e045353	0.1292241
31	0xbdfff2d7	-0.1249749
32	0xbcedbfb6	-0.029022079
33	0xbd755778	-0.05989787
34	0xbda5d463	-0.0809715
35	0xbb025642	-0.001988784
36	0x3c89c24e	0.016816285
37	0x3ddcd9bf	0.10783719
38	0xbdb39e72	-0.087704554
39	0xbd19b933	-0.037530135
40	0xbcb9b654	-0.022669949
41	0xbc700b82	-0.014651181
42	0x3e04f1a7	0.12982808
43	0xbc92cea9	-0.017920809
44	0x3bd6a490	0.006550379
45	0xbbe4f9ec	-0.006987801
46	0x3cdf79eb	0.027279815
47	0xbd950290	-0.072758794
48	0x3c79544e	0.015217854
49	0x3d6262f8	0.055270165
50	0xbe2674b6	-0.16255459
51	0xbda4becd	-0.08044205
52	0xbcf24e75	-0.029578427
53	0xbbc5effe	-0.006040572
54	0x3dcbae6e	0.09945379
55	0xbd731c2f	-0.05935305
56	0xbdebb201	-0.11508561
57	0xbd0cc9ee	-0.034372263
58	0xbcf59c63	-0.029981798
59	0x3cb39dfa	0.021925915
60	0x3d340e41	0.043958906
61	0x3daa1a9f	0.08305859
62	0xbd82a774	-0.063795954
63	0xbd326d1b	-0.043561082
64	0xbd89d6aa	-0.06730397
65	0x3d2fb7a7	0.042899754
66	0xbc70eeb2	-0.014705347
67	0xbe06b5ec	-0.13155335
68	0xbd61baa9	-0.055109654
69	0xbc8a8253	-0.016907847
70	0x3bd4dd12	0.00649608
71	0xbdbd8348	-0.092535555
72	0x3da73070	0.081635356
73	0xbcb731fa	-0.022362698
74	0x3b7a210b	0.0038166668
75	0xbd8e42bc	-0.06946322
76	0xbd58e8fc	-0.052956566
77	0xbd2d3977	-0.04229113
78	0x3dab1ca2	0.08355071
79	0xbc4ec109	-0.012619265
80	0xbdcb0467	-0.09912949
81	0xbcf40be7	-0.029790832
82	0x3d727eb9	0.059202883
83	0x3d7070b5	0.058701236
84	0xbd38a5c1	-0.04507995
85	0xbc64a317	-0.013954899
86	0x3cc0ddf4	0.023543335
87	0x3c6d493b	0.014482792
88	0x3dbc63e3	0.091987394
89	0xbd1c90e2	-0.03822411
90	0x3e03f7fe	0.1288757
91	0xbd44a7c9	-0.048011575
92	0xbc5d2a1c	-0.013498809
93	0x3b06931d	0.0020534464
94	0x3dfd6697	0.12373083
95	0x3d96dd8f	0.07366478
96	0x3d2eb537	0.04265329
97	0x3cf10ff8	0.02942656
98	0x3d79eed6	0.061018787
99	0xbd449391	-0.047992293
100	0xbda59db4	-0.0808672
101	0xbc509b11	-0.012732283
102	0x3d02d1f2	0.0319385
103	0x3d070ad8	0.032969326
104	0x3cdf6d27	0.027273728
105	0x3da52b24	0.08064869
106	0x3d9162c5	0.07098917
107	0xbc988e20	-0.018622458
108	0x3d73ec74	0.05955167
109	0xbb6a1e6a	-0.0035723695
110	0xbc6986f1	-0.014253364
111	0xbd8b3b9d	-0.0679848
112	0xbdd11499	-0.10209007
113	0xbd89b9c1	-0.06724883
114	0x3db3d884	0.087815315
115	0xbd40e22e	-0.0470907
116	0x3d8156bd	0.06315372
117	0x3d5fb93f	0.054620024
118	0xbcde7971	-0.027157517
119	0xbdfa377f	-0.12217616
120	0xbdb34347	-0.087530665
121	0xbde7b71e	-0.11314224
122	0xbd5f6606	-0.054540657
123	0x3db2130a	0.08695038
124	0x3bf1a2aa	0.0073741274
125	0x3d109b0a	0.035304107
126	0xbc13b89b	-0.009016181
127	0x3d1bee6f	0.038069185
128	0xbd02fc5f	-0.03197896
129	0x3d5ed9df	0.054406997
130	0x3d021b9a	0.031764604
131	0x3d37e35a	0.044894554
132	0xbd2e9cb3	-0.04262991
133	0xba075a0f	-0.0005163261
134	0x3d59de1e	0.053190343
135	0x3dd6a4b0	0.104806304
136	0xbd23b315	-0.039965708
137	0x3d18b6ab	0.03728358
138	0xbe15d6d3	-0.1463273
139	0xba65ef37	-0.00087713025
140	0xbd5985e8	-0.05310622
141	0xbd44c4f6	-0.0480394
142	0xbcd6bf4a	-0.02621426
143	0x3c318477	0.010834805
144	0xbd4bea9e	-0.049784295
145	0xbdf21b24	-0.11821583
146	0xbd257e04	-0.04040338
147	0x3de45f17	0.111509494
148	0x3d8b0d1f	0.06789612
149	0x3bc5fb55	0.006041924
150	0x3c2d8ab0	0.010592148
151	0xbdbd1c21	-0.09233881
152	0xbd596e51	-0.05308372
153	0x3cdeed56	0.02721278
154	0xbd5f714e	-0.054551415
155	0xbc99f3bc	-0.01879298
156	0xbc0418f1	-0.008062587
157	0x3d0227bf	0.031776186
158	0xbd097959	-0.03356299
159	0x3d4dc582	0.050237186
160	0xbd224142	-0.039613016
161	0x3daf9842	0.08573963
162	0xbbf47042	-0.0074596712
163	0xbdc94de2	-0.09829308
164	0x3d7c935b	0.061663967
165	0xbdcd3dba	-0.10021539
166	0x3cb055c3	0.02152527
167	0x3cde4263	0.027131265
168	0xbcffba12	-0.031216655
169	0xbd7a60a7	-0.06112733
170	0x3d53b85e	0.051689498
171	0xbd5dee2d	-0.05418222
172	0xbe39abff	-0.18132018
173	0x3e127962	0.14304116
174	0xbdb28e44	-0.08718541
175	0x3d0332c4	0.032030836
176	0x3cabaee0	0.02095741
177	0x3d15cb12	0.036570616
178	0xbd773983	-0.06035758
179	0xbe275e57	-0.16344582
180	0x3d36e2a2	0.044649728
181	0x3dcfb4ce	0.10141908
182	0xbcbd81ed	-0.023133243
183	0xbd169462	-0.036762603
184	0xbd4d6864	-0.050148383
185	0xbc05869d	-0.00814977
186	0xbdf086eb	-0.117444836
187	0xbdde69b5	-0.10860006
188	0x3e666896	0.22500834
189	0x3c33b662	0.010968776
190	0xbdafade0	-0.08578086
191	0x3dcaa086	0.09893899
192	0xbb86789c	-0.004103733
193	0xbd9bbe0b	-0.07604607
194	0xbc2ec84b	-0.010667871
195	0xbd7bc910	-0.061471045
196	0xbcce8084	-0.025207765
197	0xbda3c3e8	-0.079963505
198	0x3e03412d	0.12817831
199	0x3cf93d58	0.030424759
200	0x3cfe16c6	0.031016719
201	0x3dbd3ccd	0.092401125
202	0x3d537a6a	0.051630415
203	0xbdb84f4c	-0.089995
204	0xbc4d1bb6	-0.012518814
205	0x3ccb2a4b	0.02480044
206	0x3d53af91	0.051681105
207	0xbb800712	-0.003907093
208	0x3d9da192	0.07696833
209	0xbde51dee	-0.11187349
210	0xbe2bb60c	-0.16768664
211	0xbe0e6bf8	-0.13908374
212	0xbc2d7cd3	-0.010588842
213	0xbca54efa	-0.02017926
214	0xbdc00fb9	-0.09377999
215	0xbca5a68f	-0.020221023
216	0xbd394675	-0.04523321
217	0x3b81cab9	0.003960934
218	0xbd59e2a6	-0.053194664
219	0x3dd9ddf5	0.10638038
220	0xbcfcd0df	-0.030861316
221	0x3d1fc0ff	0.039002415
222	0xbc76499c	-0.015032198
223	0x3ddf939a	0.10916825
224	0x3e0b8801	0.136261
225	0xbbfa5ec4	-0.0076406915
226	0xbd59f568	-0.053212553
227	0x3cb377b0	0.021907657
228	0x3c6bb524	0.014386449
229	0xbc9e7e08	-0.019347206
230	0xbb909a8b	-0.004412954
231	0xbd629094	-0.05531366
232	0x3c5f420a	0.013626585
233	0xbde8154d	-0.11332188
234	0xbd82ca7e	-0.063862786
235	0xbda2d658	-0.07951039
236	0xbcbc593b	-0.022991767
237	0xbdbac874	-0.09120265
238	0x3dd57742	0.10423137
239	0x3cdca6ff	0.026935099
240	0x3cdfa5e2	0.027300779
241	0x3d0f9dad	0.03506248
242	0x3d1996ef	0.037497457
243	0xbd2fb930	-0.042901218
244	0xbd0e840d	-0.034793902
245	0x3de19843	0.1101537
246	0x3da19816	0.07890336
247	0x3dba06d1	0.090833314
248	0x3d672741	0.05643392
249	0xbd8ad916	-0.06779687
250	0x3d89f434	0.06736031
251	0xbde6e1af	-0.112735145
252	0xbd63632a	-0.055514492
253	0xbd1b4c22	-0.037914403
254	0xbbe0f848	-0.006865535
255	0xbd3a765e	-0.04552304

layer2.3.bias f4 [256]
0	0xbef9f145	-0.48816887
1	0x3d3a7aed	0.045527387
2	0xbf6f6b57	-0.9352316
3	0xbf54852f	-0.8301572
4	0xbf335949	-0.70058113
5	0x3f38245b	0.71930474
6	0xbf705b11	-0.93888956
7	0x3f52cc2b	0.82342786
8	0x3f586784	0.8453295
9	0x3c934539	0.017977344
10	0x3f6fef20	0.9372425
11	0x3f62e225	0.8862632
12	0xbf1e7396	-0.6189512
13	0x3f05c128	0.5224786
14	0xbf22dada	-0.6361519
15	0x3ee26d24	0.44223893
16	0x3f111f27	0.5668816
17	0xbe9054ac	-0.281896
18	0x3e94a88e	0.29034847
19	0x3f897f0b	1.0741895
20	0x3f283b10	0.6571512
21	0x3f6da88e	0.9283532
22	0xbf267cdd	-0.65034276
23	0x3c883588	0.016627088
24	0x3e9cd2d0	0.30629587
25	0xbf53a7db	-0.82678
26	0x3f4e78db	0.8065316
27	0xbf94197b	-1.1570276
28	0xbf5fd3ca	-0.8743254
29	0x3dcea6ed	0.10090432
30	0xbf7931d6	-0.9734167
31	0xbec39452	-0.38199097
32	0x3f39f38b	0.7263724
33	0x3deaec0e	0.11470805
34	0x3f5a48cb	0.85267323
35	0x3f8ca456	1.0987651
36	0xbe22b9b8	-0.15891159
37	0x3f43c904	0.764786
38	0x3f189aca	0.5961119
39	0x3dba0fe3	0.090850614
40	0xbf5f78b8	-0.8729358
41	0xbf0b59b8	-0.54433775
42	0xbf65338e	-0.8953179
43	0xbd614004	-0.05499269
44	0x3f48cfaa	0.7844187
45	0xbefcbfd5	-0.49365106
46	0xbf33f3dc	-0.70293975
47	0x3f211f86	0.62938726
48	0xbf6bfdd3	-0.9218418
49	0x3f601841	0.8753701
50	0x3cbe2142	0.023209218
51	0x3f23be63	0.6396238
52	0x3f0f1e76	0.55905855
53	0xbf461560	-0.77376366
54	0xbf75d13f	-0.9602241
55	0xbf554033	-0.83301085
56	0x3f4721c8	0.7778592
57	0xbe4dd539	-0.20100869
58	0x3ef7180c	0.48260534
59	0xbf0d3b4b	-0.551686
60	0xbb8289f2	-0.0039837295
61	0x3f73f666	0.9529785
62	0xbf751711	-0.9573832
63	0x3f618cbd	0.88105375
64	0xbf35d202	-0.7102357
65	0xbf624ca9	-0.88398224
66	0x3f6cf499	0.92560726
67	0x3dfdafec	0.1238707
68	0xbf408d2a	-0.752154
69	0x3f07699a	0.5289551
70	0x3f609d21	0.8773976
71	0xbf96a72e	-1.1769769
72	0xbf752e74	-0.95774007
73	0xbf39a20c	-0.7251289
74	0xbf6f5622	-0.93490803
75	0x3f01cafd	0.5070036
76	0xbf18fa32	-0.5975677
77	0xbf186354	-0.5952656
78	0x3f65f991	0.89833933
79	0x3e0879a6	0.13327655
80	0xbf830973	-1.0237259
81	0x3f8933fa	1.0718987
82	0x3f782771	0.9693518
83	0x3da1da29	0.07902939
84	0xbd492ffa	-0.04911802
85	0xbf56dd3f	-0.83931345
86	0xbf4af9c8	-0.79287386
87	0x3f75db15	0.9603742
88	0xbf801470	-1.0006237
89	0x3f36898f	0.7130365
90	0x3f2b1cbf	0.6684074
91	0x3f77fdef	0.96871847
92	0xbf77d7f2	-0.9681388
93	0xbf4f140c	-0.80889964
94	0x3f6d5938	0.9271426
95	0xbf57d096	-0.8430265
96	0xbf73f47f	-0.95294946
97	0xbf554f25	-0.8332389
98	0xbe436f56	-0.1908544
99	0x3f23a907	0.6392979
100	0xbf71a974	-0.9439919
101	0x3e44efb1	0.1923206
102	0xbf96283f	-1.1731032
103	0xbdfd386a	-0.12364276
104	0xbf08b465	-0.5340026
105	0xbee49fae	-0.44653076
106	0x3f1544bc	0.58308005
107	0xbf8838b5	-1.0642306
108	0x3f257b89	0.64641625
109	0xbf6ca2c5	-0.92435867
110	0xbf5629d7	-0.8365759
111	0xbf9bd718	-1.2175016
112	0xbf2f1a50	-0.68399525
113	0x3f4e283c	0.8053014
114	0xbf7af9c4	-0.9803736
115	0xbddd7122	-0.10812594
116	0x3e7b0b08	0.24515927
117	0x3f1d5f35	0.614734
118	0xbf41ca63	-0.7569944
119	0x3f6889b7	0.90835136
120	0xbf58c84c	-0.8468063
121	0x3f85f945	1.0466696
122	0xbf7e8d89	-0.99434716
123	0x3e922e05	0.28550735
124	0x3f705d04	0.9389193
125	0x3e7850f1	0.24249627
126	0xbf7fc97f	-0.99916834
127	0xbf3ab80e	-0.72937095
128	0xbf45a97c	-0.7721174
129	0xbf758ef7	-0.9592127
130	0xbf1cbb95	-0.6122373
131	0x3f5ff006	0.8747562
132	0x3f4f0646	0.8086895
133	0x3eeffe1c	0.46873558
134	0x3e82bb9e	0.25533766
135	0x3f265dd0	0.64986897
136	0xbf72fc47	-0.94916195
137	0x3eb3085c	0.34967315
138	0x3f866fbf	1.0502852
139	0xbf322faa	-0.6960398
140	0xbf3b69e4	-0.7320845
141	0xbf0b0f7d	-0.5432051
142	0xbf7376c6	-0.9510311
143	0x3f1c5ec2	0.6108209
144	0xbf72d38b	-0.9485404
145	0xbf828e26	-1.019963
146	0xbf57ad41	-0.8424874
147	0x3d5bee85	0.053694267
148	0x3e3c6c87	0.18400775
149	0x3e096bde	0.13420054
150	0x3f4bd83b	0.79626817
151	0x3e81bb40	0.25338173
152	0x3f4c3e08	0.7978215
153	0xbf5c9abe	-0.8617362
154	0x3f54a891	0.8306971
155	0xbf75efb7	-0.960689
156	0xbf28ee7f	-0.65988916
157	0xbf80cd21	-1.00626
158	0x3f87019b	1.0547365
159	0x3f3d514e	0.73952186
160	0x3ea0f919	0.31440046
161	0xbefdc167	-0.49561617
162	0xbf73edb3	-0.95284575
163	0xbf8d9feb	-1.1064428
164	0xbe843d43	-0.2582799
165	0xbf6ea8e3	-0.9322645
166	0x3e14c9ba	0.14530078
167	0x3f6137a4	0.87975526
168	0xbf52707b	-0.8220288
169	0x3f337944	0.7010691
170	0x3dc8fa18	0.098133266
171	0xbee44c77	-0.44589588
172	0xbf6e24ab	-0.930247
173	0xbe9939e6	-0.29926986
174	0x3f31977e	0.69371784
175	0xbf002543	-0.50056857
176	0xbf173a60	-0.5907345
177	0x3f6d3d48	0.9267163
178	0x3f767245	0.9626811
179	0xbe1c3730	-0.15255427
180	0x3dc1d919	0.09465236
181	0xbf733ad5	-0.95011646
182	0x3f81ee36	1.0150821
183	0xbf0885e8	-0.53329325
184	0xbf841545	-1.0318991
185	0x3f3ff18d	0.7497795
186	0x3e223278	0.15839565
187	0x3f8191b3	1.0122589
188	0x3f3df464	0.74201035
189	0xbf0eb00c	-0.55737376
190	0xbe5befa7	-0.21478139
191	0xbf7e0f01	-0.99241644
192	0x3f7ca759	0.9869285
193	0x3f56456a	0.8369967
194	0xbf07722b	-0.5290858
195	0x3efb7df2	0.49119526
196	0x3e8e1790	0.27752352
197	0x3f3579eb	0.7088916
198	0x3e45ec3b	0.19328396
199	0xbf6cd560	-0.92513084
200	0x3f6b2751	0.9185687
201	0x3f611af8	0.87931776
202	0x3f842a9f	1.0325507
203	0x3d2906cc	0.041266248
204	0x3f6f6c95	0.9352506
205	0x3f54f3f2	0.8318473
206	0x3e55cfde	0.20880076
207	0xbf38af3e	-0.721424
208	0x3d758b80	0.05994749
209	0xbf848f17	-1.0356168
210	0xbd4c0417	-0.049808588
211	0xbf09f5d6	-0.5389074
212	0xbf6e9d92	-0.93209183
213	0xbdcc0430	-0.09961736
214	0xbf545896	-0.8294767
215	0x3f234789	0.6378103
216	0x3f786804	0.97033715
217	0x3f396d2f	0.72432226
218	0x3f3fc982	0.7491685
219	0xbf2442b8	-0.64164305
220	0xbf670d6f	-0.90254873
221	0xbf52c428	-0.8233056
222	0xbf699f52	-0.9125873
223	0x3d1c7958	0.03820166
224	0x3dee9fdc	0.116515845
225	0xbf801ac9	-1.0008174
226	0x3e7ca997	0.24674068
227	0x3f464806	0.7745365
228	0xbf5fbfbc	-0.8740194
229	0xbf4dd03c	-0.80395865
230	0xbf255943	-0.6458933
231	0xbf64121c	-0.8909013
232	0x3f76ce2a	0.9640833
233	0xbf2dc64a	-0.6788069
234	0x3f4a5b8a	0.7904593
235	0xbf11b79f	-0.5692081
236	0x3f6886c5	0.9083064
237	0x3f9afd48	1.2108545
238	0x3f0161bc	0.50539756
239	0xbf7f8522	-0.9981252
240	0x3f65267e	0.8951186
241	0xbf8c852c	-1.0978141
242	0xbf7d55e8	-0.9895921
243	0x3f599460	0.8499203
244	0xbf7c2560	-0.9849453
245	0x3f51ee23	0.8200399
246	0xbf00b953	-0.5028278
247	0x3f80a18f	1.0049304
248	0xbda370ad	-0.079804756
249	0x3f780437	0.9688143
250	0x3f0de69e	0.5543002
251	0x3f5ff19a	0.8747803
252	0xbf7db930	-0.991107
253	0xbe76ccc4	-0.2410155
254	0x3f4af4b9	0.7927967
255	0x3f560c14	0.8361218

layer2.6.weight f4 [7, 256]
0	0x3d7cbb71	0.061702196
1	0x3a6f89ac	0.0009137641
2	0x3dae70ce	0.085176095
3	0x3d39a3ec	0.045322344
4	0x3d2f67a1	0.042823438
5	0xbd91c2f0	-0.071172595
6	0x3dc2ecc4	0.09517816
7	0xbd0e923a	-0.03480742
8	0xbdcd5063	-0.10025098
9	0x3c13c407	0.0090189045
10	0xbda4ad33	-0.08040848
11	0xbd2c525a	-0.042070724
12	0x3d499766	0.04921665
13	0xbceac0b4	-0.028656341
14	0x3b943813	0.004523286
15	0x3c074ec5	0.008258526
16	0x3b9bbdfc	0.0047528725
17	0xbc4a933a	-0.012364203
18	0x3c92d346	0.017923009
19	0xbd565497	-0.052326765
20	0xbc94f88d	-0.018184924
21	0xbdf37e26	-0.11889295
22	0x3d9b5e97	0.07586401
23	0xbc125ccb	-0.008933256
24	0xbd810989	-0.06300647
25	0x3d501349	0.05079964
26	0xbd976d30	-0.07393873
27	0x3e06fa5c	0.13181442
28	0x3db795d8	0.08964127
29	0x3d02d4ab	0.031941097
30	0x3b64e0f5	0.0034924124
31	0x3d194cc1	0.037426714
32	0xbd2c2f5b	-0.04203735
33	0x3ac0329b	0.0014663519
34	0xbd929d1c	-0.071588725
35	0xbd1bce99	-0.038038824
36	0x3d0a0347	0.03369453
37	0xbcbfe793	-0.023425853
38	0xbd51c51c	-0.05121337
39	0xbd87581e	-0.06608604
40	0xbd2fa570	-0.042882383
41	0xbcbe5c23	-0.023237294
42	0x3d3949a8	0.04523626
43	0x3da9c28e	0.082890615
44	0xbda0f497	-0.07859152
45	0xbd142345	-0.03616645
46	0x3c3285d8	0.010896169
47	0xbcfdfabb	-0.031003347
48	0x3e0d8157	0.1381887
49	0xbd4a3aad	-0.049372364
50	0x3b4a8e71	0.0030907656
51	0xbcf1893c	-0.029484384
52	0xbcb6174b	-0.022227904
53	0xbd18aa2f	-0.037271675
54	0x3d47a3e6	0.04874029
55	0x3d5174c1	0.051136736
56	0xbd59db35	-0.053187568
57	0x3d986e78	0.07442945
58	0xbc4e18ea	-0.012579182
59	0x3cb76be4	0.022390313
60	0xbcf58132	-0.029968832
61	0xbd98752f	-0.07444226
62	0x3d9ecd9b	0.0775406
63	0xbddccee8	-0.10781652
64	0x3cb2f19d	0.021843726
65	0x3d7d0b1c	0.061778173
66	0xbced50ad	-0.028969133
67	0x3c4459bd	0.011984286
68	0x3d58361d	0.05278598
69	0xbdb32f78	-0.08749288
70	0x3be7b5f9	0.0070712534
71	0x3d8e6fb6	0.06954901
72	0x3decd604	0.11564258
73	0x3d2d5db3	0.042325687
74	0x3d3bc8da	0.045845844
75	0xbca90057	-0.020630045
76	0x3cc26eb8	0.023734435
77	0x3c2af748	0.010434933
78	0xbdded630	-0.10880697
79	0x3d4192cf	0.04725915
80	0x3dd4c624	0.10389355
81	0xbdab3bc0	-0.08361006
82	0xbd5bfe30	-0.05370921
83	0x3d3010f7	0.04298493
84	0x3b3162f8	0.0027067047
85	0x3d82cf89	0.063872404
86	0x3c922b4d	0.017842913
87	0xbd047fbe	-0.032348387
88	0x3d21c6cd	0.03949623
89	0xbd991cde	-0.07476209
90	0xbd101404	-0.03517534
91	0xbcf233b1	-0.029565664
92	0x3d5ef2a3	0.054430615
93	0x3cefc3cb	0.029268166
94	0xbd530dcd	-0.051526833
95	0x3d0a4f1e	0.03376686
96	0x3d8f4e66	0.06997375
97	0x3da371a5	0.0798066
98	0x3cc2c192	0.023773942
99	0xbcdc08ac	-0.026859604
100	0x3db3ff6f	0.087889545
101	0xbd116975	-0.035500962
102	0x3d860ca4	0.0654538
103	0x3d1de908	0.038552314
104	0x3c903621	0.017603936
105	0x3ca5199d	0.020153815
106	0x36b54f37	5.403442e-06
107	0x3da6ce96	0.08144872
108	0xbcc0004d	-0.023437643
109	0x3d175809	0.03694919
110	0x3d7e04b0	0.06201619
111	0x3d8daf45	0.06918196
112	0x3d2eba93	0.0426584
113	0xbc498e23	-0.012301954
114	0x3d1cc492	0.0382734
115	0x3cc0c0b7	0.023529394
116	0xbd00b41d	-0.03142177
117	0xbd63c305	-0.055605907
118	0xbc85f5c3	-0.01635254
119	0xbd71a57b	-0.058995705
120	0x3dc3da0c	0.095630735
121	0xbd283a8e	-0.041071467
122	0x3e342f09	0.17596067
123	0x3b9b49da	0.0047390284
124	0xbd5751aa	-0.052568115
125	0x3b6e225f	0.0036336405
126	0x3d026f0f	0.031844195
127	0xbc03a720	-0.008035451
128	0xbce00530	-0.027346224
129	0x3da08ed3	0.078397416
130	0x3c88f550	0.016718537
131	0xbda64ff4	-0.081207186
132	0xbd1cd072	-0.038284726
133	0x3d02088d	0.031746436
134	0x3b5022a9	0.003175894
135	0x3c0a183a	0.008428628
136	0x3dd07742	0.101789966
137	0xbd337e8a	-0.04382185
138	0xbd53bce0	-0.051693797
139	0x3d87db64	0.06633642
140	0x3d18d485	0.03731205
141	0x3d5fade5	0.054609198
142	0x3cb9b59a	0.022669602
143	0xbcc28243	-0.023743754
144	0x3d9d4551	0.07679237
145	0x3dacd981	0.08439923
146	0x3da1dacb	0.079030596
147	0x389f5888	7.598201e-05
148	0x3c12b16e	0.008953435
149	0xbbcae40d	-0.0061917366
150	0xbca506a4	-0.020144768
151	0x3cab9a17	0.0209475
152	0xbd8a1c10	-0.06743634
153	0x3dc93087	0.09823709
154	0xbc87543a	-0.016519655
155	0x3d983854	0.07432619
156	0x3c0a2a2b	0.008432905
157	0x3d052a23	0.032510888
158	0xbd1556f6	-0.036459886
159	0xbda85e83	-0.08221152
160	0xbc9bb4f6	-0.019007187
161	0xbc4d9bf4	-0.012549389
162	0x3db54a16	0.088520214
163	0x3d948050	0.07251036
164	0x3d5e2f92	0.054244585
165	0x3cdda268	0.02705498
166	0xbbab65e3	-0.0052306517
167	0xbb473bdc	-0.003040067
168	0x3cc56bca	0.02409925
169	0x3d1925f1	0.0373897
170	0xbd013017	-0.031540003
171	0xbd75461d	-0.05988132
172	0x3d440a6f	0.047861513
173	0xbd33a193	-0.04385526
174	0xbd541ac5	-0.051783342
175	0x3bbd7228	0.0057814308
176	0x3cbd4f46	0.02310909
177	0xbd4da2fb	-0.05020426
178	0xbd8909cd	-0.066913225
179	0xbc6f1406	-0.014592176
180	0xbd2bca69	-0.04194108
181	0x3d850a16	0.06496064
182	0xbd91bcbc	-0.07116076
183	0xbadccf28	-0.0016846405
184	0x3dc16d24	0.09444645
185	0xbc2525f0	-0.010079846
186	0xbd81b249	-0.06332833
187	0xbd1e7e80	-0.03869486
188	0x3d09f599	0.033681486
189	0x3c8b5ea2	0.017012898
190	0x3da6ced6	0.081449196
191	0x3df37252	0.11887039
192	0xbd815388	-0.063147604
193	0xbe157997	-0.14597164
194	0x3c34ba8a	0.0110308025
195	0xbc51030e	-0.012757076
196	0x3ccf9c5d	0.025343115
197	0xbcfe5e1e	-0.031050738
198	0x3ce6831d	0.028138692
199	0x3da4452c	0.08021006
200	0xbc0b868b	-0.008515964
201	0xbb9b259e	-0.004734709
202	0xbcf03320	-0.029321253
203	0xba6d1db5	-0.0009045259
204	0xbd52c50e	-0.051457457
205	0xba7a2701	-0.0009542555
206	0xbd0a038a	-0.03369478
207	0x3c932390	0.017961293
208	0x3bc9602f	0.006145499
209	0x3d8e7db7	0.06957572
210	0xbd28d8a1	-0.04122222
211	0x3d23dec2	0.04000736
212	0x3da35096	0.07974355
213	0xbd269412	-0.040668555
214	0x3cf577ef	0.029964415
215	0xbd500d33	-0.050793838
216	0xbd4fe84b	-0.05075864
217	0xbd23e7c8	-0.040015966
218	0xbd052d8d	-0.032514144
219	0x3e049818	0.12948644
220	0x3d5a649d	0.05331861
221	0x3d4ac91c	0.0495082
222	0x3de1f317	0.11032694
223	0x3cb1ace1	0.02168888
224	0xbb80e78e	-0.0039338535
225	0x3c8e0895	0.017338077
226	0xbd13f6e9	-0.036124144
227	0x3c303641	0.010755123
228	0x3d7bdee3	0.06149186
229	0x3d0ea308	0.034823447
230	0x3cc7c662	0.024386588
231	0x3cd9f162	0.026604358
232	0xbdd21ce5	-0.102594174
233	0x3de58a7a	0.11208053
234	0xbd054ff6	-0.03254696
235	0x3dcc5125	0.099764146
236	0xbe2ee516	-0.17079577
237	0xbda79ec8	-0.08184582
238	0xbbb6e876	-0.0055819107
239	0x3dfebbc4	0.12438157
240	0x3c8e47f4	0.017368294
241	0x3d0ee905	0.034890193
242	0x3c82909f	0.015938101
243	0xbc755315	-0.014973422
244	0x3c6e5521	0.0145466635
245	0xbe26da86	-0.16294298
246	0x3ca800d7	0.020508213
247	0xbd646a70	-0.05576557
248	0x3d109261	0.035295848
249	0xbdacf100	-0.084444046
250	0x3bd316d2	0.0064419294
251	0xbd78984a	-0.06069211
252	0x3ceaf2b8	0.02868019
253	0x3d27324a	0.040819444
254	0xbd71fcbf	-0.059078928
255	0xbda5d690	-0.08097565

layer2.6.bias f4 [7]
0	0xbf84b4ec	-1.0367713
1	0xbf2ccf47	-0.6750378
2	0xbf17b4d1	-0.5926028
3	0xbe8a4e8b	-0.2701305
4	0xbe4333f0	-0.19062781
5	0x3dc63ab5	0.09679166
6	0x3f61a1be	0.88137424
