Model_Files/bpiNoRepeat/EventPredictor_parameters_laplacianOnBinary_0.0001.pt (torch, 280585 bytes, 8 tensors)

layer1.weight f4 [4, 1]
00000000: ac5b d93d 0d00 bdbe 1b87 503e 0a05 eb3f
0.10613188 -0.369141 0.20364039 1.8360913

layer1.bias f4 [6]
00000000: 100e 40be a490 c5be eb09 8fbf 1968 2abe
00000010: b621 263f ed34 a73e
-0.18755364 -0.38586915 -1.1174902 -0.16641273 0.6489519 0.32657567

layer2.1.weight f4 [256, 6]
00000000: e745 acbd a83d 873e 707c dd3d 1326 abbc
00000010: dc55 a9bc 5b58 353e 2002 a2bd 10b8 6e3b
00000020: 9495 6cbb 5ea1 c0be a2eb 87bd 6949 643e
00000030: 5c9d a13e 7d88 e13c 30e1 5f3e 0fad 5bbd
00000040: 290f 24be 03b2 433e afe1 a3be f6b5 7c3d
00000050: 50ad 04bc b023 debc 79eb 93be 3d1b 293e
00000060: 0edd a5bc 34d4 85bc f055 f4bd 3719 e7ba
00000070: fdf9 963d 0774 843e 23a6 703e 5b37 37be
00000080: e80b c7be e719 b43d 7b5c 863e a244 eebd
00000090: 7d4b 97be 6248 8abd 1915 073d 4ed4 3fbd
000000a0: cea0 eb3d b288 ab3d 69bd 48be 66e3 c43c
000000b0: 3b5d 543e a6ce e23d 441e 563c 90a5 823d
000000c0: 0263 e0bd 8011 87be 957e ab3d 7923 c4bd
000000d0: 85a4 763e 9a8a 943d 4562 063d e21c 143e
000000e0: 4c0d 55bd b6a4 1abd 479e 973d 8ffe a23e
000000f0: 590f 80bd 5949 cb3c 6d41 febd 86ec d8bd
00000100: 14a9 c03e 5624 db3e 1b36 8e3d b338 a3be
00000110: b3c7 623f 5e00 2cbe d846 a5be c44c 6fbd
00000120: 74b5 a3be 1d40 c83c 3785 3bbd 3483 ef3d
00000130: e160 e2be f276 5dbe 35c1 c7bc 786e e3be
00000140: cb0e d13e 18ae c83d 4f93 0d3d 76cb 9f3c
00000150: 9eea 8dbd 517f b23d a35c 433e bd04 37be
00000160: f5eb 1fbf 4a32 5d3c 8390 5b3d fc0a 23be
00000170: d41e 833e e201 f13c 652d 4cbc f795 9f3e
00000180: 7960 073f e8c3 f03e 76c7 84bd 25f9 563e
00000190: 4852 113f 8ecc 5e3e b8c7 bebe ecef 41be
000001a0: 4dce a7be 5336 6dbe c574 5bbe 4003 21be
000001b0: df65 06be c45a abbe d1bd 41bf 64cd 813d
000001c0: d2ed cd3e a29e ff3d c200 3dbd 6a48 dabc
000001d0: 14f2 9a3e d7d2 413d 2e08 69be 858d 57be
000001e0: 6c12 453d 841a 553e a30f 0bbe 5b78 90bd
000001f0: 8793 083c f3be 9e3c 6bfb 523b 44be ac3d
00000200: 2f99 86bd dc61 c03c c143 d53d 6949 043f
00000210: 17ab 753e b892 543e 56dd 9f3e 3b69 1fbe
00000220: c0e8 84be 3d38 b33d cac2 103d 4253 acbe
00000230: b596 193f 8253 4dbc 3c84 91be c904 013c
00000240: 87dc 9fbe 3baa b0be bd9d 3a3e 7f46 153e
00000250: 7af9 ac3c 0a1c 12be df65 043e f19e 0c3e
00000260: d748 343d 85fd d5bd 0987 dcbd 367b 123c
00000270: a726 883d 47ba 093e b54f 97be b495 5bbd
00000280: de9a 5e3d c4b4 933d 00bc b3be 993d b5be
00000290: c2b7 bf3f cc70 3a3e 12ea f5bf 73b6 043f
000002a0: a889 903e 5fdd 8bbe 49e9 27bf 6499 033e
000002b0: 256f ba3e ad18 b2be cb8d 2a3e a318 2bbd
000002c0: f67a 443d 0bf9 513e 4359 1a3e c464 07be
000002d0: 8fca eb3c 1fda 1dbe f6b2 dfbd aaae ad3d
000002e0: 8861 f53d c67d 0dbf dd87 cebe cba6 013d
000002f0: 7c7a bdbe 3e99 ad3d 4231 a03e 781c e7bd
00000300: 2340 ec3d 9969 da3c c040 d63c c621 68bd
00000310: 4c24 5abb b7ae ab3e 0cef aa3e 0dc3 883e
00000320: a311 343c 1603 5abc fffe ccbc 70b4 b83f
00000330: f728 7f3d 1df3 c53d 68cf 06bc 2854 cd3d
00000340: a288 703e 6727 82be 73e3 c13d 78b3 8bbe
00000350: 429a 993f fc38 05bf 42bb 84bf a0bc 783d
00000360: 060a 963d c4b6 983e 735f 50bd c58a a53d
00000370: 6442 323f ebc9 eb3d 046f 3dbe cc5e e3bd
00000380: ae74 8cbf 546b 81bf 4e65 51bb b8d4 de3f
00000390: 87e4 623d c409 dcbe 9879 cdbb 39ee 013d
000003a0: 7c0e 9c3c 3969 9fbe 2027 283e 2e3c 76be
000003b0: 1e4e f93c 31d5 a83c 0a2c 4d3c 341b 54bc
000003c0: 22e2 96bc 1871 0c3e ed9a ae3e d380 8bbe
000003d0: e64b e0be 519d 8f3c 0ecf 1dbe a68f 043d
000003e0: cb1b c03e cc7a 3b3e 0468 97bc 2544 77bd
000003f0: ab35 5dbe 89c9 0cbe 653c 943e 1932 193f
-0.0841177 0.26414227 0.1081475 -0.020892179 -0.020670824 0.17709486 -0.079105616 0.0036425628
-0.0036099898 -0.37623113 -0.0663674 0.22293629 0.31565368 0.027530903 0.21863246 -0.05363184
-0.16021408 0.19110875 -0.3200812 0.06169697 -0.008097962 -0.027116627 -0.2889059 0.16514297
-0.020247009 -0.016336538 -0.11930454 -0.0017631416 0.073719 0.25869772 0.23500876 -0.1789221
-0.3887627 0.08794003 0.26242432 -0.116341844 -0.2954978 -0.06752087 0.032979105 -0.04683333
0.115052804 0.08375682 -0.19603504 0.024034213 0.2073869 0.11074571 0.013068739 0.06379235
-0.10956384 -0.2638054 0.08373753 -0.09577078 0.24086197 0.07252999 0.03280856 0.14464143
-0.052014634 -0.037754737 0.07403236 0.31834838 -0.06252927 0.024815248 -0.12414823 -0.10591988
0.37628996 0.4280116 0.069439135 -0.31879196 0.88585967 -0.16797015 -0.32280612 -0.05842282
-0.31974375 0.024444634 -0.04578134 0.11694947 -0.44214538 -0.21627405 -0.02438412 -0.44420218
0.408316 0.09798831 0.034564313 0.019506197 -0.06929515 0.0871569 0.19078307 -0.17872901
-0.62469417 0.013500759 0.053604614 -0.15922159 0.25609457 0.029419843 -0.012461995 0.31169102
0.5288158 0.47024465 -0.06483357 0.20993479 0.56766176 0.21757719 -0.37261748 -0.18939179
-0.32774583 -0.23165254 -0.21431263 -0.15723896 -0.13124798 -0.33467686 -0.7568026 0.06338003
0.40220505 0.12481429 -0.0461433 -0.026645858 0.30262816 0.047320213 -0.22757027 -0.21050079
0.04811327 0.20810896 -0.13580184 -0.07054206 0.0083359545 0.019378161 0.0032193314 0.08434728
-0.06572186 0.023484163 0.10413314 0.51674515 0.23991047 0.20759094 0.31223553 -0.15567486
-0.25958824 0.08750961 0.035342015 -0.3365727 0.59995586 -0.012532117 -0.284212 0.007874676
-0.31222937 -0.34504876 0.18224235 0.14577673 0.021115053 -0.14268509 0.12929486 0.13732506
0.044014778 -0.10448746 -0.107679434 0.008940509 0.06647997 0.13449965 -0.29553 -0.053609565
0.05434691 0.07212213 -0.3510437 -0.35398558 1.4977953 0.18207091 -1.9212058 0.51840895
0.28230023 -0.2731733 -0.6559034 0.12851483 0.36412922 -0.3478445 0.16655652 -0.041771542
0.047968827 0.20505159 0.15073113 -0.13222033 0.02878311 -0.15415238 -0.10922806 0.0848058
0.11981493 -0.5527004 -0.4033803 0.031653207 -0.3700751 0.08476494 0.3128758 -0.11284727
0.115356706 0.026661681 0.026153922 -0.056672834 -0.0033285795 0.33531734 0.33385503 0.26711312
0.010990533 -0.0133064 -0.025023935 1.4430065 0.062294926 0.09665511 -0.00822816 0.10025817
0.23489621 -0.25420687 0.094672106 -0.2728536 1.2000201 -0.52040076 -1.0369647 0.06072676
0.073261306 0.2982694 -0.050872277 0.08083109 0.69632554 0.11513122 -0.1849938 -0.111020654
-1.0973108 -1.0110879 -0.0031951251 1.7408667 0.055393722 -0.429762 -0.0062705986 0.031721327
0.019049875 -0.31134966 0.16421175 -0.24046394 0.030432757 0.02060947 0.012522707 -0.012945939
-0.018418375 0.13715017 0.34102574 -0.27246723 -0.43807906 0.017531069 -0.15411016 0.032363556
0.37521204 0.18308562 -0.018482216 -0.060367722 -0.21602504 -0.13748755 0.28952327 0.5984207

layer2.1.bias f4 [256]
00000000: 714c a23e 617b 283f efbb 383c 68df a6be
00000010: d828 183c e31e 26bd 4090 633d 71c3 28bf
00000020: dfb0 883b ae04 df3e 3eef b03e 7b44 9a3d
00000030: 42f3 ddbe 8c47 48bd 2a53 513e 2f7f 303f
00000040: a621 8abc 2be2 8cbe d86a b9be 6cd6 febe
00000050: 338a 803e 9c21 ab3e 6080 b7be e1c2 8fbe
00000060: 5350 cabe 7b8d bdbe 709a 133f 4810 f33e
00000070: c7f0 81bd be9d 20bf 86d7 73bd bee4 233e
00000080: d244 783d 129f 0f3f f623 883e a3f7 6ebe
00000090: d2bc fb3e 7073 f73d 859e 7dbe d58b ce3e
000000a0: 7391 babe 38a1 053d 6ecc 41bc 6f34 ae3e
000000b0: 3b0b 3f3e a543 93bd 8f85 96be bbf1 4ebc
000000c0: 0eb9 3abd aa4b 1abe d891 ecbb 62b9 893e
000000d0: 7788 7cbe 8b97 06bf c751 283e 3a4e fa3d
000000e0: f2fe fb3d 71e7 103f a210 e5be 941b 933e
000000f0: ddfe c2be ea14 3f3e 51f3 a6be 3e9a bdbd
00000100: 7ee1 33be 767c ca3e 343f 8d3e 3d43 bdbe
00000110: c1bb 093f 6594 cabe 7b56 283c 2c7c 5bbe
00000120: 4c32 d6be 05da 153e 1ed7 713e c5e3 8abe
00000130: 902f 85be e863 a8bc e3b4 a33d 3c39 c03e
00000140: 77f1 983d c97b 0d3e a9d8 123d c603 e93e
00000150: b226 2fbd f35b cdbe 11ee 00be 0194 f33d
00000160: 6fa7 e23d 470b 1ebd 93d7 93be 7584 fcbe
00000170: 68b4 74be e15c 3e3e 9efc bfbe 7e1d db3d
00000180: 2618 343e 22a6 07bf 1216 c8be ca31 673e
00000190: d07e 9ebd 9b20 1fbf b77b b73d 6723 cabe
000001a0: d228 5b3e 1005 fcbe 4155 99be 4a98 ff3d
000001b0: ec8d 78be 681d 983d 3d46 31be 6498 0ebf
000001c0: 426d 0f3f 416f 0bbe 9805 debe 3d0a b73e
000001d0: e8a4 9a3e 57c1 f3bc 6278 47be 302c bc3e
000001e0: 5b86 833d a98a d33d fe07 123f 4942 a7be
000001f0: bcf0 a2bf db1c e2be 7358 c63e 7c35 78bd
00000200: 18e4 8b3e c854 12bf e59e 5abe 0bc5 b4be
00000210: 1adf 443e 8adb 833e 4f7e 91bd e488 afbe
00000220: 4370 80bd 0ac9 ecbe 965d 4dbd 9c25 83bc
00000230: d02f 20bf 1ea7 9ebe e35f 283d 6be0 383e
00000240: a5d7 fd3e 63c6 87be f045 94be 4f5f 063e
00000250: a1d9 c8bd 716f dd3e 75e9 ed3e 069a cabe
00000260: 0f57 0a3e 83f3 16bf ceb4 c2be da67 c73e
00000270: 24b2 fa3e 28f8 8b3d d42a bcbe c0d8 503e
00000280: 96c5 3ebd 2c5e d53e f46c c03e be6a 943e
00000290: a956 50bb 253e 4a3e 3630 28bf 5f62 be3e
000002a0: c791 bcbe 8efd 03bf 3cdb 133e 2271 453f
000002b0: b774 55bd 5dfd b53e 1be7 443e 02d4 c6bd
000002c0: 5ede e0be ef2e a0be a1b3 cbbe 6c10 bfbe
000002d0: 5885 b2bd b045 833e 23a2 f63e 5e54 01bf
000002e0: 3a38 f2bd 7f4b d0be 55dc bf3e 0d1e 913e
000002f0: 1f2a 023e ac8e 62be f473 2ebf 4635 e0bd
00000300: a43e b9be db07 c2bd 0201 303b ae2d 853e
00000310: 5e0b 46be 7858 a6bc 2b5b 8ebe 77fb 35bd
00000320: 00e2 6b3e af49 983e c392 e23e d6af c43d
00000330: 6fdc 00bf 38d8 20be 26b8 0b3e 3b33 753d
00000340: 7c23 bfbe 5071 663d b9b9 5f3d e15b 683f
00000350: b51a cb3d 6ded e9bd 03b8 efbe 2a60 963d
00000360: c720 edbe ee9d 0e3e b0c8 c0be 9bbd 05bf
00000370: 4067 b93e 6a09 0abf 4b36 c6be e5f3 ebbb
00000380: f4fa b43e 3455 223f a2d4 19be efea d7be
00000390: e183 ee3d 095b b13e bd48 47be c048 5abe
000003a0: 8d6d 76be b288 87be 3123 85bd b088 033e
000003b0: 9f1c 4e3d 1691 7fbe 17ba 87be bf4b 11bf
000003c0: 3c79 2cbf a3ed c6be 288b 39be b836 53be
000003d0: 2c0e 12be bbb2 15be 2fb1 843d 6c2b 5a3e
000003e0: 9e50 173b f90b 1d3f a5f5 c8bd 0941 523e
000003f0: 8321 253e ca8d 17bf f2f7 4c3e 4913 46bf
0.31698945 0.6581326 0.011275276 -0.3259232 0.009287082 -0.0405568 0.05555749 -0.6592322
0.0041714753 0.43558258 0.34557527 0.07532593 -0.43349653 -0.048896357 0.20441881 0.68944067
-0.016861748 -0.27516302 -0.36214328 -0.49772966 0.25105438 0.3342408 -0.3584013 -0.28078368
-0.39514408 -0.37022004 0.5765753 0.4747336 -0.06344753 -0.62740695 -0.05953171 0.16005227
0.060612507 0.561021 0.26589936 -0.23336653 0.49167496 0.12082565 -0.24767502 0.40341058
-0.36439094 0.032624453 -0.011828525 0.3402438 0.18656628 -0.071906365 -0.29398772 -0.012630875
-0.04558664 -0.15067926 -0.0072195344 0.26899248 -0.24661432 -0.52574986 0.16437446 0.12221952
0.12304486 0.5660315 -0.44739252 0.28731978 -0.3808507 0.18660322 -0.3260751 -0.09257935
-0.17566487 0.3954808 0.27587283 -0.3696536 0.53802115 -0.3956634 0.010274525 -0.21434087
-0.41835248 0.14633949 0.23617217 -0.271269 -0.2601285 -0.020555452 0.07993486 0.37543666
0.07467931 0.13816752 0.035851154 0.4551069 -0.042761512 -0.40109214 -0.12590815 0.11893464
0.11067092 -0.038584974 -0.28875408 -0.49319807 -0.23896945 0.18590118 -0.3749742 0.106989846
0.17587337 -0.52987874 -0.39079338 0.22577587 -0.07739031 -0.62159127 0.089591436 -0.39480135
0.2140229 -0.49222612 -0.29947856 0.12480219 -0.24272889 0.07427484 -0.1731195 -0.5570128
0.5602609 -0.13616659 -0.43363643 0.3575 0.30203938 -0.029755278 -0.19479516 0.36752462
0.06422111 0.10329182 0.57043445 -0.3266776 -1.2729716 -0.4416264 0.38739356 -0.06059788
0.2732246 -0.57160616 -0.21349676 -0.35306582 0.19225731 0.25753433 -0.071041696 -0.34284127
-0.06271412 -0.4624713 -0.05013808 -0.016009144 -0.62572956 -0.30986875 0.04110707 0.18054359
0.49578586 -0.26518545 -0.28959608 0.13122295 -0.098071344 0.43249086 0.46467176 -0.39570636
0.13509773 -0.5896532 -0.38028568 0.3894642 0.48964036 0.068344414 -0.36751425 0.20395184
-0.04657515 0.4167341 0.37583125 0.28987688 -0.0031789935 0.19750269 -0.65698564 0.37184426
-0.3682997 -0.5155877 0.144391 0.7712575 -0.05211326 0.35544863 0.19228785 -0.09708406
-0.43919653 -0.31285807 -0.39785483 -0.37317216 -0.087168396 0.25639105 0.48170575 -0.5051936
-0.118271306 -0.406826 0.37472787 0.2834324 0.1271138 -0.22124738 -0.6814568 -0.10947661
-0.36180604 -0.094741546 0.002685607 0.26011413 -0.19340274 -0.020305857 -0.2780393 -0.04442927
0.23035431 0.29743716 0.44252595 0.096038505 -0.50336355 -0.15707481 0.13644466 0.05986331
-0.3733176 0.056260407 0.05462048 0.90765196 0.09917203 -0.114222385 -0.46820077 0.073425606
-0.4631407 0.13927433 -0.37653112 -0.5224244 0.36211586 -0.53920615 -0.38713297 -0.0072007054
0.35347712 0.6341126 -0.15022519 -0.42171428 0.11646248 0.34639767 -0.19461341 -0.21316814
-0.24065228 -0.26471478 -0.06500853 0.12845111 0.050320264 -0.2495769 -0.26509163 -0.56756204
-0.6737249 -0.38853177 -0.1811949 -0.20626342 -0.14263219 -0.14618962 0.064791076 0.21305627
0.0023088823 0.61346394 -0.09812478 0.20532621 0.16126065 -0.5920073 0.20016459 -0.77373177

layer2.3.weight f4 [256, 256]
00000000: ce64 ecbc 06c6 123e a83f 143e ff92 9cbc
00000010: 2067 9c3d f16b 23bc 879d 553d 55ca 38bd
00000020: 4299 91be 4702 063d e34c 773d 73c5 393d
00000030: 9090 aabd 9a97 15be 1408 4e3e 9517 953c
00000040: 8028 173e 7f40 9fbe d000 bfbd b073 c8bd
00000050: 5b19 45be 3bb9 693e ec73 a5bd 7b7d d6bd
00000060: ce0e 88be 7599 adbc 14d9 09bd d36f 053e
00000070: 47e1 b6bd 4109 c6bc 5bdc e0bd 6fee 29be
00000080: 7825 323d 6dce 93bd 9443 23be 9c5c ce3d
00000090: f32d c33d 3c2a 813e 0a93 f1bd 2a17 ffbc
000000a0: 2292 213d 6827 0e3c fc3a 143e 1159 ac3d
000000b0: 4b9c 97bb c0f8 043e 0e9b 62bd c670 57bd
000000c0: 9044 3bbe 1dd6 b6bc 4589 90bd d54a a3bc
000000d0: ae12 61bd a1b6 2a3d 8b9a 4a3e cefb 9cbd
000000e0: c784 103e 8ef9 ba3d b525 ed3d 5bd6 9a3d
000000f0: 0b5f c53b 95e0 a83d 1beb d13d 7971 28be
00000100: c4c3 91be b3c3 45bd c4d4 333e 8b67 823d
00000110: 2b37 793d 8ff1 3a3d 51b0 373d 85ef d3bd
00000120: cc51 4a3e 0730 80be bd77 7abd c709 de3d
00000130: 6c18 903d 65d5 2bbd 48ad 623d b94c 483e
00000140: 235c 3b3c c011 9f3c 33db 02be c7cc 383e
00000150: 31f1 3a3d e0b9 e13d 24dd a4bd 9145 ec3d
00000160: a1cd 4ebe 4603 0a3e 3bf7 b83a bf75 07be
00000170: d819 b23e 4b0f 6dbe 9c47 efbd 7517 493d
00000180: 0892 a5bd 32b4 6abe 5abd ce3c be2e cb3b
00000190: d3bb c23d fe41 aebe 9096 d83c c767 e83c
000001a0: 61fc a13d 1f9b 073e 20cd 853e d9f6 6fbe
000001b0: c050 613c 1492 203e 5db0 1bbd abbc a73d
000001c0: d6fd 383e e7e2 2ebd 8f89 87be 018d a4bd
000001d0: e106 993d 7d83 c43d 787b 673e 3e66 913d
000001e0: e055 86bd 163b 17be 0f8c 603e c91c af3c
000001f0: c0d0 38be 163f 27bb 8fbe 4fba 62a4 083d
00000200: 67b5 2f3e 507b adbc ef26 13be 6a0b 483e
00000210: 6029 bd3d ed82 f5bc 83f0 07be d71f b5bc
00000220: 2db7 74be edf1 0b3d ae0e d8bd aea7 b0bd
00000230: b705 4d3c b8c5 c5bd e43e 8ebe 4afc d53b
00000240: 5006 853d 1a5a 82bd 0814 333e 92e8 a93d
00000250: 31d6 f33d 70c4 463e c5ae 2bbd 8d34 ddbd
00000260: 8b9e 713c 3999 20be 8a65 07be 0ca0 0a3e
00000270: c4b6 a1bd 09f7 60be fd29 9bbc 73c5 373c
00000280: 1c6d 803d a266 3d3e 943f 2c3e 0cb8 b4bc
00000290: 74e1 10bd d283 e3bd df7e bdbd 6be0 da3d
000002a0: 6ef6 9cbc f00e 16be 3f10 a63c 3a4f c7bd
000002b0: 8cb4 b6bc 9fd3 5b3e 9025 93bd b925 d93d
000002c0: f4ff 093d 534b 893e 882e 3d3d 9767 b43d
000002d0: f1c5 52bd 6e19 28bd 52a6 9f3d 5575 643e
000002e0: 61f4 393e 2f7b 27bc 7313 a9bc 472f fa3d
000002f0: 092b e4bc 45bb e93d fca6 c1bd 81b4 673c
00000300: 67ad 44be 7404 91bc 1b8f b4bd bd39 5a3d
00000310: 440a 763e 47e6 cebd ebac 303e a473 a83c
00000320: 7686 443e 7664 ca3d 5c04 033e ab4c 153c
00000330: 3b18 5a3e b9c4 1b3e ced8 3bbe a3ac a83b
00000340: 7b39 493d dc23 dd3d 8bb9 083d 3c72 3b3b
00000350: 9ad5 f13c bcbe 9c3d 251a dbbd 481c 94bd
00000360: cee9 e53d 0b72 ddbd 4d7a 12be 6584 01bd
00000370: c958 cb3d 8f6e f2bd f407 03bd be46 f83c
00000380: 80d9 e9bd 9301 003d 8511 16bd bbd9 443d
00000390: 13a3 86bc 83a6 8f3d 8cdf 5fbd 3d49 45bd
000003a0: fd3f 81be c01f 173c 88e1 69bd d24c f73d
000003b0: 0d2d 4f3e 388d 0ebe aac6 bcbd a807 963e
000003c0: 731b 703b 11d3 b73d 2632 ecbd fa80 69bc
000003d0: eefc 9cbd 4619 f3bd 0e6f 013e 9a1b 103e
000003e0: aff3 f53d c0fb 7e3e 6387 edbd 4799 623e
000003f0: 6d07 123e fd2b b13d 4c9d 9a3c ced1 87bd
-0.028856661 0.14333352 0.14477408 -0.019113062 0.07636857 -0.009974466 0.052152183 -0.045114834
-0.2843724 0.032717016 0.06037606 0.045354318 -0.08328354 -0.14608613 0.20120269 0.018199721
0.14761543 -0.31103894 -0.09326327 -0.09787691 -0.19247954 0.22824566 -0.08078751 -0.10473152
-0.26573795 -0.021191338 -0.033654287 0.13030939 -0.08929687 -0.024174334 -0.109795295 -0.16594861
0.043492764 -0.07217107 -0.15943748 0.100762576 0.095302485 0.25227535 -0.117956236 -0.031138975
0.039446004 0.008676387 0.14475626 0.084154256 -0.004626786 0.12985516 -0.055323653 -0.052597784
-0.18287873 -0.022318894 -0.07057432 -0.019933144 -0.054949455 0.041678075 0.19785516 -0.076652154
0.1411315 0.0912963 0.11579458 0.07560416 0.006023293 0.082459606 0.10249921 -0.16449536
-0.2846967 -0.048282336 0.17561632 0.063674055 0.060843628 0.045640524 0.044845883 -0.10348419
0.19757766 -0.25036642 -0.061149348 0.10841709 0.07035908 -0.041951556 0.055341035 0.19560517
0.011435541 0.019417644 -0.1277893 0.18046866 0.045640174 0.11021781 -0.08049992 0.11536706
-0.20195629 0.13477811 0.0014111766 -0.1322851 0.34785342 -0.23150365 -0.1168358 0.049094636
-0.08084494 -0.22920302 0.025236774 0.0062006405 0.09508481 -0.34034723 0.026438981 0.028369797
0.079094656 0.13242768 0.2613306 -0.23434009 0.013752162 0.15680724 -0.03800999 0.081902824
0.1806558 -0.04269686 -0.26472136 -0.08034707 0.07472015 0.09595392 0.22605693 0.07099579
-0.06559348 -0.14768633 0.21928428 0.02137603 -0.18048382 -0.002551978 -0.0007924819 0.033359893
0.17159043 -0.021176964 -0.1437032 0.19535604 0.09236407 -0.029969657 -0.13275342 -0.022109909
-0.23898001 0.034166265 -0.10549675 -0.08625732 0.01251357 -0.096568525 -0.27782357 0.0065303193
0.06495345 -0.06364842 0.1748811 0.082963124 0.11906088 0.19410872 -0.04191472 -0.10801039
0.014747272 -0.1568345 -0.13222328 0.13537616 -0.07896188 -0.21969236 -0.01894092 0.011216509
0.06270811 0.18496183 0.16821128 -0.022060417 -0.03537126 -0.11109127 -0.09252714 0.106873356
-0.019160476 -0.14654136 0.020271419 -0.09731908 -0.022302888 0.21467446 -0.07184899 0.10602898
0.03369136 0.2681528 0.046186954 0.08808821 -0.051458303 -0.041039877 0.07795395 0.22310384
0.1815963 -0.01022224 -0.020639157 0.12216049 -0.027852552 0.11412672 -0.09455678 0.014142157
-0.19206773 -0.017702319 -0.08816358 0.05327772 0.24027354 -0.10102516 0.17253463 0.020562954
0.19191918 0.09882443 0.12794632 0.009112517 0.21298306 0.15211762 -0.18344423 0.005147533
0.049127083 0.10797855 0.033380073 0.0028602025 0.029520798 0.07653567 -0.10698346 -0.07231957
0.11226235 -0.108127676 -0.14304467 -0.031620402 0.09929044 -0.11837494 -0.031990007 0.03030717
-0.11418438 0.0312515 -0.0366378 0.048059206 -0.016435182 0.070141815 -0.05465655 -0.04816555
-0.25244132 0.009223878 -0.05709985 0.12075199 0.2023203 -0.13921058 -0.0921758 0.29302716
0.0036637455 0.089758046 -0.115330026 -0.014251942 -0.0766543 -0.11870055 0.1264002 0.14073029
0.120093696 0.24900723 -0.115980886 0.22128783 0.14260645 0.08650968 0.018873833 -0.06631814

layer2.3.bias f4 [256]
00000000: 0f9d 85bf a3d2 97bf f036 7c3f 2256 84bf
00000010: 7f7e a53f 410d 693f 833d 96bf eabb 853f
00000020: 7bbe b43f 2757 b63f cb82 21be 6554 acbf
00000030: 04e4 7fbf 6e58 1a3f e8ce 823f 1694 85bf
00000040: 33dd a4bf 57c7 f3be f351 9cbf 32de 4f3f
00000050: 47a7 8cbf 0def 953f b82b 9c3f d03d acbf
00000060: d31d 55be cd4c a5bf 2809 94bf 4fc7 ae3f
00000070: 3507 af3e 4816 0b3f 0cbf 91bf e598 20be
00000080: 4660 323f c744 90bf 49fd 603f 3968 ff3e
00000090: d207 89bf 6331 a3bf 8890 bdbf 6fff 933f
000000a0: 26e3 8bbf 7c7c a1bf 5c19 b7bf 5e96 c8bf
000000b0: ab48 b13f 5f38 c03f f890 96bf 0f7b bf3f
000000c0: 2c72 dfbf 99cc 2a3f 1037 aa3f e9c6 9dbf
000000d0: ddff 6dbe 9bee aa3f 9532 b43e 02c1 a83f
000000e0: 23ec 6f3e d1dd e33e 355a aa3f ca4c 8bbf
000000f0: 72c2 7b3f 6c8a 30bf 3134 bc3f c9c2 7f3f
00000100: 119e f03e 585e b53f 96c8 7fbf b5ff b83f
00000110: f4f8 ea3b 5b03 afbf bf0e b1bf a196 d03f
00000120: 000c fdbe ec47 d93f 3b30 a43f a9d7 a1bf
00000130: a791 8abe b0a5 033f 5d70 3b3f 37f2 823f
00000140: b796 c1bf 8878 963f 621b 0b3e 9795 80bf
00000150: 2ae9 9b3f 33d4 c0be 4210 383f 60b9 b03f
00000160: adaa e5be e560 a73f 37fa 603f aeae 9e3f
00000170: 9234 9dbf 61a0 52be 41af b1bf cdec 13be
00000180: d940 95bf 5f68 a33f 4401 8bbf ad26 8fbe
00000190: dd43 7bbf c025 b6bf 1c99 cb3f 8cfb acbf
000001a0: 2e15 c9be bef7 863e f66d 9b3f 8b83 f5be
000001b0: 978e 8dbf 0cd8 c3bf 37a0 d9bf ae2e 54bf
000001c0: 17ff 92bf d14d 95bf 622f debf 33e4 c13f
000001d0: 8b4d 8b3f 0d9c c43f 4712 b33f 690c ec3f
000001e0: 8093 e4be 9afa d5bf 1adb c1bd 2b77 a4bf
000001f0: 0184 94bf 7522 5fbf fc5a 82bf 8732 d63f
00000200: 9f88 d5bf ebc8 8bbf 68eb abbf 9585 a23f
00000210: 52d6 b13f 9e11 d3bf 0898 7a3f 1529 9cbf
00000220: acd1 a83f 92f9 64bf b047 5a3f 1943 853f
00000230: ed26 143f 24a9 abbf 2566 72bf 99b5 aebf
00000240: 19a2 90bf b091 86bf 5419 9fbf 8018 4dbf
00000250: 5e9d 7dbf 7665 95bf aceb 42bf 4a8b a73f
00000260: 4cfa 893f 63f8 723f f9a3 793f 3e14 8cbf
00000270: 6e6f aebf ad3f 6ebf b3d2 9ebf 794b 57bf
00000280: 4fd0 9a3f 7726 943f e092 aa3f 6264 763f
00000290: 3328 983f a704 c3bf 8c3e babf b171 a83f
000002a0: c6f0 f53b 72a7 5dbf 106b b2bf 9c97 f8bd
000002b0: 8198 ddbf 2943 b4bf aa22 29bf a2b6 aabf
000002c0: a1c5 b53f f2b7 ccbd d459 9bbf 280c 9fbf
000002d0: 3989 7cbf adf2 babf 7092 5d3e b6ab aabf
000002e0: fbbc 093f 8e7a a9bf 3455 5f3f c057 453f
000002f0: 61eb bb3f 0ae5 c63f 138a 8cbf ddba a8bf
00000300: 6b3f 1c3f 9876 acbf 9820 8bbf c4ca 97bf
00000310: f322 69bf de37 33bf 0682 76bf 2496 a5bf
00000320: db4b d9bf 9191 733f 7aaa 38bf 3340 893f
00000330: 9a1b 7a3f a72a 01be 7cb8 c83f 329d 313f
00000340: 7277 b53f b808 a3bf 210e 98bf 1455 a7bf
00000350: f136 68bf 627e 84bf c8d4 8b3f 2737 02bf
00000360: faaa e2be 8ef8 24be 685d 9dbe b1de 8fbf
00000370: 87b1 cebf 0aef c5bf 83ca 7c3e f827 a3bf
00000380: 8c4b 993f 45b5 9dbe 1489 29bf 33a5 fb3e
00000390: 2d45 bcbf 16ec cdbf dc49 943f 8e6d ab3f
000003a0: d470 8b3f a378 9a3f ce68 e8bf dde7 5dbf
000003b0: 0888 9ebe c377 c43f 1b01 d3be ad75 9bbf
000003c0: 17cd fb3e 53dc db3f a3a7 6fbf 1641 053f
000003d0: 62e6 90bf 6d92 a0bf 99cd b3bf 027a bc3f
000003e0: 3d62 90bf afb2 a5bf 65df 823f 2f51 ab3f
000003f0: b6af 2dbf adf3 b93f b355 6fbf f659 2fbf
-1.0438555 -1.1861156 0.9852133 -1.0338786 1.2929229 0.9103585 -1.1737522 1.0447972
1.412063 1.4245347 -0.1577255 -1.3463255 -0.999573 0.60291183 1.0219393 -1.0435817
-1.2880005 -0.47613022 -1.2212509 0.8119842 -1.0988549 1.1713578 1.2200842 -1.3456364
-0.20812158 -1.2914063 -1.1565294 1.3654574 0.34185186 0.54330873 -1.1386428 -0.15683325
0.6967815 -1.1270989 0.8788648 0.49884203 -1.0705512 -1.2749447 -1.4809732 1.1562327
-1.0928695 -1.2616115 -1.4304614 -1.5670888 1.3850302 1.5017203 -1.1762991 1.495943
-1.7456717 0.6671844 1.3298054 -1.2326328 -0.23242135 1.3354067 0.3519484 1.3183901
0.23429923 0.4450517 1.3308779 -1.0882809 0.98343575 -0.68961215 1.4703428 0.99906594
0.46995595 1.4169416 -0.99915445 1.4453036 0.007170791 -1.3672899 -1.3832625 1.6295968
-0.49423218 1.6975074 1.2827219 -1.2643939 -0.2706425 0.51424694 0.7321833 1.0230168
-1.512412 1.1755533 0.13584664 -1.0045651 1.2180531 -0.37661895 0.7189981 1.3806572
-0.44856778 1.3076445 0.878818 1.2397058 -1.2281668 -0.20568992 -1.3881608 -0.14445801
-1.1660415 1.2766227 -1.0859761 -0.27959195 -0.98150426 -1.423027 1.59061 -1.3514266
-0.3927397 0.26360887 1.2142932 -0.47951922 -1.105914 -1.5300307 -1.7002019 -0.8288373
-1.1484097 -1.1664373 -1.735821 1.5147766 1.0883039 1.5360123 1.3989953 1.8441287
-0.44643784 -1.6717103 -0.094656184 -1.2848867 -1.1602784 -0.8716195 -1.0184016 1.673417
-1.6682318 -1.092069 -1.3431215 1.2697016 1.389353 -1.6489751 0.9788823 -1.2200037
1.3188987 -0.89443314 0.85265636 1.0411102 0.57871896 -1.3410993 -0.9468711 -1.3649169
-1.1299468 -1.051321 -1.2429605 -0.8011551 -0.9906825 -1.1671588 -0.76140857 1.3089383
1.077951 0.9491026 0.9751583 -1.0943677 -1.3627756 -0.9306591 -1.240805 -0.8409954
1.2094821 1.1574239 1.3326073 0.9624692 1.1887268 -1.5235795 -1.4550338 1.3159696
0.007505509 -0.86583626 -1.3938923 -0.12138292 -1.7312165 -1.4082996 -0.6606852 -1.3336985
1.4200937 -0.09996022 -1.2136788 -1.2425585 -0.98646885 -1.4605309 0.21637893 -1.3333652
0.53803986 -1.3240526 0.87239385 0.7708702 1.4681207 1.5538647 -1.0979637 -1.3182026
0.6103427 -1.3473692 -1.0869322 -1.1858754 -0.91068953 -0.7000712 -0.9629215 -1.2936444
-1.6976274 0.9514399 -0.72135127 1.0722717 0.97698367 -0.12613927 1.56813 0.69380486
1.4177077 -1.2737036 -1.1879312 -1.3072839 -0.90708834 -1.0351069 1.0924311 -0.50865406
-0.4427107 -0.16110441 -0.30735326 -1.1239835 -1.6147927 -1.5463574 0.24686627 -1.2746572
1.197618 -0.3080236 -0.6622479 0.49149475 -1.4708611 -1.6087673 1.158504 1.3392808
1.0893807 1.2068065 -1.8156984 -0.8668192 -0.3096316 1.5349048 -0.4121178 -1.2145287
0.4917991 1.7176613 -0.9361517 0.5205244 -1.1320307 -1.2544686 -1.4047118 1.4724734
-1.127998 -1.2945155 1.0224425 1.338415 -0.6784624 1.4527489 -0.9349014 -0.68496644

layer2.6.weight f4 [7, 256]
00000000: 0a6e a13d b6ed bb3d 56fb 32bd 12bd 9c3d
00000010: e1a9 1bbe 1be5 46bd 10d8 893c 8ef7 17be
00000020: f97b 5cbd 6137 d5bd 533c cd3b 42e2 de3d
00000030: 93f8 ec3d b0b8 d6bc d3f9 62ba 0cd6 973d
00000040: 9880 ce3d 09f9 793c 4595 1e3e 2eba adbc
00000050: 6705 0a3d f242 95bd 5837 263a 0890 fb3d
00000060: ea38 c03c 6836 f23d 60f3 a13d 2274 a8bd
00000070: 2544 34bd 4d95 a2bd a98c b63d 6aa4 e6bc
00000080: cdec 22bc c7a4 2c3d 87ea 7bbd 5b38 36bd
00000090: d624 893c 41e5 9b3d a304 d53d 8b83 d6bd
000000a0: 2f48 493d 4849 103e 70cf 0a3d 62d8 de3d
000000b0: c0ed 17be 3b17 10be 41a4 173e 9f31 02be
000000c0: 3612 9e3d aeef 67bc 7801 d7bd a3b3 873d
000000d0: c916 8abb 0518 1bbd b817 fabc 7588 e0bd
000000e0: a68f e2bc 7faf b7bc 1080 9ebd 31a1 753d
000000f0: 77d4 c9bd 6aac 283d c627 fcbd 9f31 21bd
00000100: bb51 b2bd b24a 59bd e69a ee3d 1ac9 1abe
00000110: cd05 f23c 3f31 d33d 98b4 e03d e62d 13be
00000120: 1945 a23d 8718 c9bd 8114 26bd c35f 7d3d
00000130: 09e1 123d c635 83bb 4a15 acbc cd27 5bbd
00000140: 3a65 1a3c 1ffb 10bd 4477 bc3c 1d6f e03d
00000150: 1837 d2bd 1e6c e33b 0b03 adbd bc85 e3bd
00000160: 7265 ebba ee60 25bc 58ff 14bd 693f 99bd
00000170: 50a4 3f3c 68c5 c9bc 6d1c f13d 7842 7d3b
00000180: 1d4e a13d 039c 81bd c1ee ef3b e3b5 473c
00000190: b26f a13d b776 363e 70cd b2bd 146f fe3d
000001a0: a8ad 383c 98a7 06bd 55ce f1bd 5333 773d
000001b0: 16e8 133e 952d e43d 409c c73d d03c 3b3d
000001c0: f4ed 0e3e 56e8 903d 6c67 273e f0d8 28be
000001d0: eb4e 2dbd 85b9 64bd 9c7e bcbd cb94 10be
000001e0: 6751 723d 94fd 243e 335b e3bb 060e 763d
000001f0: 3353 403d 70d2 923d 1b05 593d ed98 a8bd
00000200: 0363 0e3e bde9 833d 08c3 8f3d 9cf3 11be
00000210: 491e a1bd 8af6 0e3e f1d7 3c3c 3e2c e13c
00000220: 19e3 c3bd 98ae 7d3d 1917 d6bd 4725 54bd
00000230: 238d 87bd 81a4 773d 8963 ab3d 3685 fe3d
00000240: ba35 063d ffee 9a3a 9f65 3f3d 0ef1 b53d
00000250: d768 873d 1cc8 723d 0564 023d 89d8 6abd
00000260: 6a99 97bb e9ad a8bc 9a8a 37bd 1e94 cf3d
00000270: 6ecc fd3c 0d61 2f3b de4d 8a3d 476a fc3c
00000280: ad02 04be 7f42 81bd a299 01be 12c0 24bd
00000290: 4df8 23bb 6da2 d53d 8ed2 753d 8baa b0bc
000002a0: 06cd 8a3c a159 4b3d 0c0f 383e c86c 9f3b
000002b0: 00c0 f53d 321e e23d 47d9 163d f170 023e
000002c0: b081 dfbd eaec 0fbd 1ec5 e83d 9fa2 323d
000002d0: c31d 4c3d 75b3 e33d 73e1 1dbc 16b0 c23d
000002e0: c23c 763c 1d1f 8dbc 2265 10bd bc63 e4bc
000002f0: afd2 7dbd 6afb 05be a519 e23d e22f 143e
00000300: d02e ffbc bbb3 a23b f52b 963c 3461 a83d
00000310: 9222 9e3d e3a5 d93d ee6e 333d a1d9 ff3c
00000320: 868b eb3d 1db3 86bc 00c3 383c fca3 3abd
00000330: 7c2a 41bd b4dd 15bc acfa 03bd e681 08bd
00000340: 354c a2bd 35d5 a23d 1f9a 973d 58b7 e23d
00000350: 5739 843d 15bd 5d3d 6126 0bbc 0943 453d
00000360: 0b53 283d e105 50bd 2527 3d3d 3ec3 083e
00000370: 5bde 9c3d 6be0 2a3d 3d49 cabd 1ed9 a33d
00000380: ea47 6ebd 4047 f2bb 8e39 a53d 77b3 b03c
00000390: a595 b53d cd82 803d d0c4 85bd 2c3b 2ebe
000003a0: 454b d4bd 6cfa 8bbc 2871 043e 78c9 823d
000003b0: 50cf 5cbd e1ad 11bd 6e35 1cbc 9cb2 953a
000003c0: be63 ffbb 4d43 d4bd 7bdf 0d3c 03c1 90bd
000003d0: 2589 a33d 6bd3 083e 6d04 b73d c2a2 c4bd
000003e0: 2bc1 863d 5fb7 df3d d943 78bd 5bb4 88bd
000003f0: b4f4 1cbc 95d7 f6bd cc35 0b3d d646 95bc
0.078823164 0.09176199 -0.043696724 0.0765325 -0.15201522 -0.048558336 0.01682666 -0.14840528
-0.053829167 -0.10410953 0.0062632947 0.10882999 0.11570849 -0.026211113 -0.00086584425 0.07413873
0.10083121 0.0152571285 0.1548663 -0.021206941 0.03369656 -0.072881594 0.00063406443 0.12283331
0.023464639 0.118267834 0.07907748 -0.082252756 -0.0440103 -0.07938633 0.089135475 -0.02815457
-0.009944153 0.04214933 -0.06150296 -0.04448734 0.016741198 0.07612086 0.10401275 -0.104743086
0.049141105 0.14090455 0.033889234 0.108811155 -0.14836788 -0.14071362 0.14808752 -0.12714241
0.07718317 -0.014156265 -0.10498327 0.0662606 -0.004214142 -0.037864704 -0.030528888 -0.10963527
-0.027656388 -0.02242255 -0.0773927 0.059968177 -0.098549776 0.041180052 -0.12312274 -0.039353963
-0.08706995 -0.05304975 0.11650638 -0.15115777 0.029543782 0.10312127 0.109719455 -0.14372978
0.079233356 -0.09819131 -0.040546898 0.061858904 0.03585914 -0.004004213 -0.021006245 -0.053504754
0.009423548 -0.035395738 0.023006089 0.10958693 -0.102644145 0.006940379 -0.08447846 -0.11109492
-0.001795931 -0.010093911 -0.036376327 -0.07482798 0.01169689 -0.024630263 0.11773 0.0038644355
0.07876227 -0.06328585 0.007322163 0.012189361 0.07882632 0.17818724 -0.0873059 0.1242353
0.011271872 -0.032874674 -0.11806933 0.06035168 0.14444003 0.111415066 0.09746599 0.045712292
0.1395796 0.070755646 0.16348046 -0.16489005 -0.04231159 -0.055840988 -0.09203836 -0.1411926
0.059159663 0.16112357 -0.006938362 0.060071968 0.046954345 0.07169044 0.052983385 -0.08232293
0.13904957 0.064410664 0.07019621 -0.14253086 -0.078671046 0.13961235 0.011526094 0.027486917
-0.095648 0.061934084 -0.10453624 -0.051793363 -0.066187166 0.060459618 0.08368594 0.12427752
0.03276608 0.0011820494 0.046727773 0.08883868 0.066117935 0.05927287 0.031833667 -0.05733541
-0.0046264427 -0.02059074 -0.044809915 0.10135673 0.030981269 0.0026760728 0.06753133 0.030812396
-0.12891646 -0.06311511 -0.12656263 -0.040222235 -0.0025019825 0.10431371 0.060015254 -0.021565696
0.016943466 0.049646024 0.1797449 0.0048652627 0.11999512 0.110409155 0.036828306 0.12738396
-0.10913408 -0.03513805 0.11365722 0.04361212 0.04983307 0.11118213 -0.009636271 0.09506242
0.015029134 -0.01722675 -0.035252698 -0.027879588 -0.0619685 -0.13084188 0.110400476 0.14471391
-0.031150252 0.004965273 0.018331507 0.08221665 0.077214375 0.106273435 0.043806963 0.031231703
0.11501221 -0.01644283 0.01127696 -0.045566544 -0.047159657 -0.009147096 -0.03222148 -0.033327006
-0.079246916 0.07950822 0.07402443 0.11070126 0.06456249 0.0541354 -0.008493037 0.048159633
0.04109482 -0.050786857 0.04617991 0.13355729 0.076595984 0.041717928 -0.0987725 0.08000396
-0.05817405 -0.0073937476 0.08067618 0.02156995 0.08866433 0.06274948 -0.0653168 -0.1701476
-0.10365919 -0.017087184 0.1293379 0.06386083 -0.053908646 -0.035566214 -0.009534223 0.0011421028
-0.0077938726 -0.10364399 0.008659239 -0.07068064 0.079851426 0.133619 0.08936391 -0.09601356
0.065798126 0.10923647 -0.06061158 -0.06675025 -0.009579826 -0.12052838 0.03398685 -0.018222254

layer2.6.bias f4 [7]
00000000: e9bd 9fbf 96ec 2fbf 86b2 12bf 5981 80bf
00000010: 388e 88be 18ed 933e 3768 813f
-1.2479831 -0.68720376 -0.57303655 -1.0039474 -0.26671004 0.28891826 1.0109929
