Model_Files/bpiNoRepeat/EventPredictor_parameters_feedforward_0.0001.pt (torch, 298375 bytes, 6 tensors)

layer2.0.weight f4 [256, 24]
0.0394544 -0.16741146 -0.10147954 0.0080046505 -0.15073943 -0.0762667 -0.048608348 0.0472794
-0.2544513 -0.18281709 0.090359494 0.30085146 -0.043553986 0.17695148 0.04597657 0.20121983
0.19730464 -0.08935561 0.14157031 0.14552249 0.11127866 0.17890155 -0.14751579 -0.11101958
-0.122010335 -0.09617308 -0.19328941 -0.098824576 0.06519809 0.08053681 -0.06880702 -0.20095661
0.06399409 0.087059 0.017105527 0.15211125 0.12391093 -0.17420109 0.11577513 0.049132492
-0.15813471 0.014650045 0.074649855 -0.106037706 0.077123225 -0.16932239 -0.055176944 0.031833455
0.16688733 0.06761406 -0.28517994 -0.23661558 0.11499058 5.0796658e-05 0.1542395 -0.10387648
0.039149012 -0.10515145 -0.118748054 0.0010569928 -0.012529614 -0.13253771 -0.006439833 -0.00630485
0.059509765 -0.19957207 -0.105396695 -0.187678 -0.16773005 0.12331207 0.056060165 0.018356446
-0.08104766 -0.05643825 0.14389081 -0.02836737 0.109452546 0.0932854 0.14935686 -0.10413171
-0.13821283 -0.20663863 0.0777366 0.038776632 -0.054014448 0.12687713 -0.052980345 0.09240679
-0.16387813 -0.039183255 0.08768026 -0.010671214 -0.073490664 0.1425095 0.20882826 -0.086139426
0.17735691 -0.06873161 0.09472026 -0.1965567 -0.059332628 -0.16741014 0.05738096 -0.10127705
-0.1946704 0.15960446 -0.096156865 -0.14078216 0.10683066 0.02608706 -0.17802212 0.04421303
-0.10890767 -0.042341273 0.19614188 0.055928472 0.090784416 0.037912443 -0.07794423 -0.10898915
-0.1212873 -0.01339426 -0.13799067 0.034426372 -0.028296115 0.038607616 0.012587094 -0.14357273
-0.14190619 0.027200932 0.15603298 -0.018146766 -0.09989464 -0.11762624 0.0057581807 0.049978226
-0.18318264 0.18499091 0.16719078 -0.03861563 0.08178263 -0.09647554 -0.07094836 -0.06560627
0.15222041 0.06761918 0.12018946 0.19047181 -0.027378758 0.187432 -0.060723554 0.19925843
-0.11019821 0.16228318 0.11220078 -0.14762259 -0.090652175 0.20046838 -0.16114415 0.059118543
0.19706345 0.052933488 -0.037790503 -0.050287694 -0.16478671 0.006172107 -0.20322694 -0.18569402
0.008578819 0.12020267 -0.15630479 0.070150316 -0.047874205 -0.1800026 -0.059346076 -0.18309142
0.16858053 -0.11659119 0.029849442 0.25467318 0.14325437 -0.10449238 0.014703953 0.075586356
-0.11127225 0.05501555 -0.1558414 -0.06665956 -0.14799401 0.061388668 -0.06338392 0.052498538
-0.1697958 -0.016089307 -0.30558318 -0.1176901 0.14452997 -0.048206892 -0.06677586 -0.11372325
-0.07102871 -0.022610324 0.08300396 -0.09117345 -0.17111942 -0.03746876 -0.11067442 0.07312111
-0.06421443 -0.1702025 -0.18897747 0.10420309 0.10775356 0.0893458 0.16494659 0.090253435
0.16451268 0.16332178 -0.02997095 0.04660211 -0.05420279 -0.1298523 -0.013268434 -0.07463348
0.0828143 0.16412623 -0.052790526 -0.06434583 0.0010667858 0.12633505 0.15672791 -0.17182632
-0.087370574 -0.15980065 0.1730595 0.025207894 0.018363655 -0.063026324 -0.004668491 -0.0023087591
-0.0154092405 -0.0031867079 0.15962808 0.17970897 -0.17914346 -0.10114173 0.09410799 0.100310065
0.080251366 0.25779295 -0.06306752 -0.38295212 -0.022641271 0.14328691 0.100493975 0.19070977
00000000: f09a 213d e96d 2bbe 81d4 cfbd f025 033c
00000010: 705b 1abe b731 9cbd 8c19 47bd 0ba8 413d
00000020: 7147 82be 6734 3bbe 660e b93d 3409 9a3e
00000030: aa65 32bd c532 353e ee51 3c3d 920c 4e3e
00000040: 3a0a 4a3e 1300 b7bd cff7 103e d903 153e
00000050: 11e6 e33d f831 373e 610e 17be 3c5e e3bd
00000060: 8ee0 f9bd 64f6 c4bd a9ed 45be 8a64 cabd
00000070: 9486 853d 7cf0 a43d b2ea 8cbd 92c7 4dbe
00000080: 550f 833d fd4b b23d e420 8c3c 0dc3 1b3e
00000090: 03c5 fd3d c561 32be 831b ed3d 273f 493d
000000a0: 11ee 21be be06 703c 06e2 983d 4c2a d9bd
000000b0: c8f2 9d3d d962 2dbe 3801 62bd cc63 023d
000000c0: 83e4 2a3e 3e79 8a3d 1b03 92be 5b4b 72be
000000d0: 2e80 eb3d 7f0e 5538 f6f0 1d3e 31bd d4bd
000000e0: b75a 203d a559 d7bd 2e32 f3bd cb8a 8a3a
000000f0: 0349 4dbc f7b7 07be 3c05 d3bb ea98 cebb
00000100: 83c0 733d 9f5c 4cbe 39da d7bd a92e 40be
00000110: 6dc1 2bbe 0a8b fc3d 589f 653d 4260 963c
00000120: 51fc a5bd cb2b 67bd 1d58 133e b062 e8bc
00000130: a828 e03d 6a0c bf3d 01f1 183e 0243 d5bd
00000140: aa87 0dbe 1499 53be 5e34 9f3d 3fd4 1e3d
00000150: 413e 5dbd 14ec 013e eb01 59bd c53f bd3d
00000160: abcf 27be 9f7e 20bd b591 b33d 51d6 2ebc
00000170: 4682 96bd 03ee 113e 13d7 553e de69 b0bd
00000180: 0d9d 353e 29c3 8cbd b2fc c13d 2946 49be
00000190: c506 73bd 906d 2bbe 4c08 6b3d 586a cfbd
000001a0: ad57 47be 5a6f 233e e4ed c4bd 3329 10be
000001b0: 08ca da3d 88b4 d53c 6e4b 36be b918 353d
000001c0: fc0a dfbd 0b6e 2dbd 6bd9 483e 4115 653d
000001d0: 2eed b93d 144a 1b3d 39a1 9fbd b435 dfbd
000001e0: 7a65 f8bd 9973 5bbc 6d4d 0dbe ab02 0d3d
000001f0: 41cd e7bc 0523 1e3d 193a 4e3c bb04 13be
00000200: db4f 11be 7dd4 de3c 1cc7 1f3e 87a8 94bc
00000210: 9095 ccbd 07e6 f0bd 1faf bc3b f8b5 4c3d
00000220: 3b94 3bbe 426e 3d3e 0f34 2b3e 6c2b 1ebd
00000230: a77d a73d f894 c5bd 604d 91bd 955c 86bd
00000240: abdf 1b3e ed7b 8a3d e425 f63d 0b0b 433e
00000250: 6b49 e0bc 2dee 3f3e 43b9 78bd 670a 4c3e
00000260: 99af e1bd 902d 263e 86c9 e53d 602a 17be
00000270: d9a7 b9bd 9547 4d3e f902 25be 4926 723d
00000280: 00cb 493e c9d0 583d 37ca 1abd 78fa 4dbd
00000290: d9bd 28be 633f ca3b b91a 50be 9326 3ebe
000002a0: 2d8e 0c3c d12c f63d 5d0e 20be f8aa 8f3d
000002b0: be17 44bd 9a52 38be df14 73bd 517c 3bbe
000002c0: 60a0 2c3e 5dc7 eebd d186 f43c 8664 823e
000002d0: 46b1 123e 1a00 d6bd d9e8 703c 05cd 9a3d
000002e0: b5e2 e3bd fc57 613d e394 1fbe cf84 88bd
000002f0: be8b 17be af72 7b3d 6ecf 81bd b508 573d
00000300: f3de 2dbe b9cd 83bc 6675 9cbe 8207 f1bd
00000310: aaff 133e 9774 45bd c8c1 88bd bce7 e8bd
00000320: 8077 91bd 4939 b9bc fbfd a93d 25b9 babd
00000330: ee39 2fbe d878 19bd 45a9 e2bd 85c0 953d
00000340: db82 83bd 9049 2ebe 4f83 41be 6e68 d53d
00000350: e6ad dc3d eefa b63d c2e7 283e cbd6 b83d
00000360: 0376 283e d33d 273e a385 f5bc dbe1 3e3d
00000370: bf03 5ebd 00f8 04be d963 59bc 70d9 98bd
00000380: 8b9a a93d b510 283e e13a 58bd bfc7 83bd
00000390: 64d3 8b3a fa5d 013e 487d 203e 3df3 2fbe
000003a0: 58ef b2bd c8a2 23be 8236 313e c980 ce3c
000003b0: 606f 963c f213 81bd 24fa 98bb 8d4e 17bb
000003c0: 0a77 7cbc 16d8 50bb 8b75 233e a105 383e
000003d0: 6271 37be 6523 cfbd b1bb c03d 5d6f cd3d
000003e0: d45a a43d 70fd 833e 8b29 81bd 4d12 c4be
000003f0: 307a b9bc ceb9 123e c9cf cd3d 6c49 433e

layer2.0.bias f4 [256]
0.017467903 -0.008460621 -0.17945701 -0.10117817 -0.1178295 -0.18417226 0.17631595 -0.010249829
-0.091891654 0.03965536 0.058592238 0.21680915 0.24963024 0.03437261 0.32185608 0.042739257
-0.039075755 0.08166702 0.06708119 0.025910655 -0.25234774 -0.24645233 0.009656601 0.12934121
-0.055048116 -0.02163353 0.2340899 0.108945325 0.19783069 0.060781 -0.08917554 -0.10702406
0.09543985 0.04791384 0.18950334 0.0024258145 0.13241825 0.030380653 0.16941534 -0.21378317
0.06573151 -0.101259395 0.12564029 -0.09312887 0.10602554 0.21062556 0.04490885 0.16490747
-0.14871648 0.1522331 0.048272945 0.06378556 0.05118221 0.059537824 0.004760522 -0.1772059
0.06874432 0.16061896 0.48791647 -0.08742051 -0.103048086 -0.02566614 -0.0052251318 -0.07615282
-0.023935689 -0.12790886 -0.09512501 0.100337096 -0.0420598 -0.017950462 -0.22892086 -0.045693785
0.15914483 -0.013723565 0.24223654 -0.080063134 -0.15034875 0.16088444 -0.16611877 -0.13856103
-0.045681052 -0.0015236747 0.105607785 -0.09804902 -0.034992542 -0.17586894 0.19230801 -0.21657419
0.07747211 -0.22996582 -0.110635504 -0.303114 0.0023520503 0.0759269 0.06937775 0.02925005
-0.05274667 0.21404654 0.015014641 -0.13733165 0.12849113 -0.17108293 -0.028860169 0.23734856
-0.043827485 -0.059410352 0.018142026 -0.023520477 0.05546821 -0.0036163668 -0.1620115 0.18831387
-0.041400924 -0.24292046 -0.09619543 -0.30811828 0.27115065 0.03407693 0.14974526 -0.15156172
0.10852283 0.14327471 -0.26040456 -0.047089554 -0.06359486 0.11289493 0.30265883 0.15784189
-0.037909456 0.06583072 -0.02840959 -0.14429455 0.13648212 -0.096336454 -0.0012641051 0.028107524
-0.08071275 0.21706614 -0.097669415 -0.18213275 0.18477991 0.12531722 -0.22189093 -0.036127195
0.04518774 -0.07284516 0.031763893 -0.040158264 0.17789082 0.10224411 0.06859163 0.20603101
0.040348347 -0.034512565 0.21648282 0.18476544 -0.052179877 0.11007978 -0.19330196 0.08431136
0.033278637 -0.2826707 -0.21932557 0.17476237 0.19184095 0.02461243 0.01922272 -0.00945204
0.18426697 0.007873329 -0.03346404 0.12504445 -0.0061364505 -0.0878271 -0.080335446 -0.044695586
-0.25182265 -0.05837065 -0.040193263 0.01984003 -0.07602089 0.14686714 -0.013772984 -0.089196965
-0.09096005 -0.036443528 0.11067636 0.22892609 -0.28806517 0.051731147 -0.16436656 -0.101296455
-0.31368092 -0.19185108 -0.272989 -0.24806355 -0.075891145 -0.029541498 -0.086904556 0.017549448
0.32770798 -0.010234856 -0.02411058 -0.065408625 -0.1208663 -0.24456301 -0.26936224 0.29638717
-0.108691685 0.20520152 0.10565817 0.3187214 0.1650418 -0.045478337 0.020371674 -0.2928837
-0.05587741 -0.038583294 -0.07153687 -0.013495514 0.02513209 0.10873988 -0.02004307 0.014696891
-0.2689788 -0.10576253 -0.03297342 -0.014734151 -0.14590572 0.11605952 -0.15504457 -0.1926132
0.22496262 -0.011410132 -0.08354668 -0.0037975719 0.089021474 0.0831668 0.07009479 0.19034281
0.067127556 -0.13021582 0.00675785 -0.1847219 0.24766608 -0.2846778 0.047629856 0.09520796
-0.0061298376 -0.1015413 0.030375436 0.2933092 0.11155365 -0.06880491 -0.080049075 0.26063842
00000000: d918 8f3c 6b9e 0abc 94c3 37be 8036 cfbd
00000010: 9850 f1bd a797 3cbe 2b8c 343e e6ee 27bc
00000020: b131 bcbd a96d 223d 6afe 6f3d 3803 5e3e
00000030: 129f 7f3e 4bca 0c3d 52ca a43e 5c0f 2f3d
00000040: e60d 20bd 0a41 a73d dd61 893d 9542 d43c
00000050: b933 81be 005e 7cbe b836 1e3c 0672 043e
00000060: 227a 61bd cd38 b1bc 43b5 6f3e ba1e df3d
00000070: 2194 4a3e 7ff5 783d aaa1 b6bd 6e2f dbbd
00000080: f875 c33d 4d41 443d 2a0d 423e 6afa 1e3b
00000090: a698 073e d9e0 f83c 377b 2d3e fae9 5abe
000000a0: 3e9e 863d 1661 cfbd d9a7 003e 59ba bebd
000000b0: eb23 d93d 3aae 573e 58f2 373d 81dd 283e
000000c0: 2249 18be fee2 1b3e dab9 453d 01a2 823d
000000d0: 70a4 513d efdd 733d 27fe 9b3b 7775 35be
000000e0: d2c9 8c3d 4c79 243e 30d0 f93e 8609 b3bd
000000f0: e00a d3bd cc41 d2bc 9537 abbb 02f6 9bbd
00000100: c714 c4bc 8afa 02be e7d0 c2bd 897d cd3d
00000110: e646 2cbd d90c 93bc 3b6a 6abe 6829 3bbd
00000120: ddf6 223e ced8 60bc db0c 783e 24f8 a3bd
00000130: 06f5 19be e4be 243e 0a1b 2abe f1e2 0dbe
00000140: 0e1c 3bbd 0ab6 c7ba e548 d83d edcd c8bd
00000150: 5754 0fbd fd16 34be 64ec 443e a0c5 5dbe
00000160: b3a9 9e3d 297c 6bbe de94 e2bd c231 9bbe
00000170: db24 1a3b 907f 9b3d ec15 8e3d cd9d ef3c
00000180: e40c 58bd 042f 5b3e f8ff 753c aba0 0cbe
00000190: 2e93 033e 5d30 2fbe 296c ecbc 800b 733e
000001a0: 7384 33bd 4558 73bd 969e 943c 04ae c0bc
000001b0: a232 633d 9100 6dbb 58e6 25be 5ad5 403e
000001c0: 0494 29bd 24c0 78be 1c02 c5bd aec1 9dbe
000001d0: 42d4 8a3e 4094 0b3d d256 193e ff32 1bbe
000001e0: 3841 de3d 9bb6 123e bf53 85be fae0 40bd
000001f0: 063e 82bd 7535 e73d 19f6 9a3e 4ea1 213e
00000200: f246 1bbd 42d2 863d 3abb e8bc f3c1 13be
00000210: f8c1 0b3e 0c4c c5bd 54b0 a5ba c041 e63c
00000220: ba4c a5bd 9646 5e3e e706 c8bd 0281 3abe
00000230: f236 3d3e 2853 003e 6037 63be 1cfa 13bd
00000240: c816 393d d82f 95bd db1a 023d fe7c 24bd
00000250: 0329 363e 5c65 d13d c579 8c3d cbf9 523e
00000260: 4f44 253d 0c5d 0dbd acad 5d3e 2733 3d3e
00000270: 91ba 55bd 8271 e13d f3f0 45be 6fab ac3d
00000280: 2e4f 083d 37ba 90be e296 60be e8f4 323e
00000290: f471 443e 02a0 c93c f778 9d3c bbdc 1abc
000002a0: 7bb0 3c3e 23ff 003c 9711 09bd a70b 003e
000002b0: 4714 c9bb b2de b3bd e986 a4bd b812 37bd
000002c0: e6ee 80be 1016 6fbd b1a1 24bd 8f87 a23c
000002d0: d7b0 9bbd 5764 163e 15a8 61bc e6ac b6bd
000002e0: 4349 babd cf45 15bd 4aaa e23d 9a6b 6a3e
000002f0: 477d 93be 0ae4 533d b54f 28be 8474 cfbd
00000300: c99a a0be 9c74 44be 37c5 8bbe 5f04 7ebe
00000310: d16c 9bbd 0301 f2bc 04fb b1bd dcc3 8f3c
00000320: 57c9 a73e 19b0 27bc 8d83 c5bc f5f4 85bd
00000330: c088 f7bd ba6e 7abe d9e9 89be 0fc0 973e
00000340: bf99 debd 5920 523e 5063 d83d 742f a33e
00000350: b800 293e 7e47 3abd 7fe2 a63c daf4 95be
00000360: b6df 64bd 8409 1ebd ec81 92bd 4a1c 5dbc
00000370: d0e1 cd3c 04b3 de3d 5d31 a4bc 3bcb 703c
00000380: 97b7 89be 069a d8bd 230f 07bd 8267 71bc
00000390: 4f68 15be 9db0 ed3d 01c4 1ebe 653c 45be
000003a0: 9a5c 663e 90f1 3abc 861a abbd afe0 78bb
000003b0: e450 b63d 5b53 aa3d db8d 8f3d 3ae9 423e
000003c0: 2c7a 893d 4c57 05be f470 dd3b bd27 3dbe
000003d0: 2d9c 7d3e 4ac1 91be 8617 433d 64fc c23d
000003e0: cedc c8bb e3f4 cfbd e8d5 f83c a02c 963e
000003f0: 3d76 e43d 97e9 8cbd c5f0 a3bd 6672 853e

layer2.2.weight f4 [256, 256]
-0.07395021 -0.031723768 -0.024811516 -0.05386252 -0.09737446 -0.17053472 -0.07130924 -0.055027165
-0.12961827 0.0051558274 0.0523259 0.08577357 -0.002577104 0.02643823 0.06454915 -0.118625045
-0.024100458 -0.023364425 0.023462921 -0.024709841 0.19059646 -0.037662983 0.06757036 0.065463744
0.13169698 -0.063549206 -0.0067347926 0.17180082 -0.060920574 0.00040636677 -0.0978895 -0.09166026
0.058336724 -0.013998583 -0.023121536 0.0017199583 -0.13324596 -0.0076485416 0.061470985 0.021791639
0.07535393 0.07276397 -0.20332016 0.0030949323 0.12830332 -0.06666594 0.041885998 -0.05384839
0.012798921 0.0014354379 0.22155584 -0.04731755 -0.070394255 0.06936416 -0.1083008 0.19628456
0.03550044 0.110121526 -0.06920667 -0.025063293 -0.05774146 0.04581363 -0.03539589 0.020311896
0.032094 -0.19694114 -0.04899656 0.07187292 -0.24110596 -0.010184509 0.089124106 0.057991143
-0.025122823 -0.088174276 -0.035427958 0.19219504 -0.094209254 -0.106439196 0.065131634 0.059072576
0.043254644 -0.1302507 -0.055335276 -0.005251312 0.058061596 0.075735666 0.02843302 -0.05824391
0.043803032 0.006520962 0.0002857828 -0.2000684 0.027522653 0.050407037 0.029647812 0.1745861
-0.020266494 -0.12298417 0.07085454 -0.01852323 -0.0016957917 -0.1473621 -0.05789848 -0.17548671
-0.15458395 -0.10462735 0.012773004 0.15068431 -0.014797152 -0.1201719 0.03199338 0.027668439
-0.12780327 0.07599165 -0.14606631 0.067965895 0.059917774 0.13987593 0.037835997 0.030131087
0.05669609 0.0526701 0.085646555 -0.07645279 -0.018231107 -0.23417456 0.11567029 -0.12023279
0.0829415 0.043202963 0.016451262 0.046134975 -0.042613506 0.10578565 -0.02676696 -0.05963841
0.044845853 -0.008799432 -0.0028110223 0.064463206 0.043503813 0.029691778 -0.03542669 -0.06283836
0.08115362 0.13951367 0.09000375 0.0006578205 0.1002283 -0.113887966 0.031791374 0.033199232
0.06585036 0.13275342 -0.14212292 0.020803735 0.07957343 0.14504305 0.12744021 0.124989316
-0.13038929 0.08383437 0.03541235 -0.11885717 0.04857012 0.16906351 0.0027413904 -0.01594245
0.028535534 -0.019220104 0.023489688 -0.112812355 0.0038330306 0.113427594 -0.037308875 -0.035712026
-0.059610162 -0.17889823 0.008232947 -0.04110483 -0.24190487 0.059158646 0.13854164 -0.023128746
0.1525433 -0.24281222 0.117339425 0.039600007 -0.04867604 -0.00014734875 -0.06258193 -0.016789418
-0.06885843 0.04106647 0.090172045 0.10540578 0.018915934 0.0393612 0.08464046 0.15641566
0.045468498 0.22058524 -0.12580134 -0.042543303 -0.07277235 0.046781532 -0.055364024 0.042456586
-0.054945625 -0.016068095 -0.07255256 0.0060642636 -0.10549751 -0.1874812 0.048201293 -0.12389349
0.017694004 0.16987532 -0.023755617 -0.094228074 -0.08840039 -0.011289088 -0.05211947 -0.22646134
-0.005013692 0.3015985 -0.09370997 0.019992743 0.098937444 0.08483219 0.08569379 0.030685656
0.1824258 0.17103225 0.05877527 -0.06710329 0.11923801 0.02786129 0.012487184 0.0126483
0.1145232 0.024754247 0.015189991 0.06864715 0.011488793 0.07332348 -0.029732114 0.03894407
-0.0088878255 -0.058289304 0.06970991 -0.020296002 0.010134313 -0.025363695 -0.009271659 0.011800926
00000000: 3573 97bd c8f0 01bd 8541 cbbc f29e 5cbd
00000010: 436c c7bd a7a0 2ebe 940a 92bd 2a64 61bd
00000020: a7ba 04be 37f2 a83b af53 563d 0eaa af3d
00000030: a1e4 28bb fd94 d83c 5832 843d b0f1 f2bd
00000040: 536e c5bc c066 bfbc 5035 c03c 4b6c cabc
00000050: b82b 433e 8044 1abd 5462 8a3d db11 863d
00000060: 93db 063e 1626 82bd 89af dcbb 8eec 2f3e
00000070: da87 79bd a00d d539 4a7a c8bd 60b8 bbbd
00000080: 7df2 6e3d 505a 65bc 6069 bdbc 3970 e13a
00000090: a171 08be 9ea0 fabb 00c9 7b3d 6184 b23c
000000a0: 2953 9a3d 4705 953d 2933 50be 59d4 4a3b
000000b0: f261 033e 2788 88bd a790 2b3d 2190 5cbd
000000c0: 91b2 513c 4e25 bc3a 89df 623e 0cd0 41bd
000000d0: dd2a 90bd cc0e 8e3d cfcc ddbd d2fe 483e
000000e0: e968 113d 6587 e13d 3abc 8dbd 8951 cdbc
000000f0: 4f82 6cbd 13a7 3b3d 48fb 10bd 2265 a63c
00000100: 0075 033d f0aa 49be 9eb0 48bd 1c32 933d
00000110: 7be4 76be eddc 26bc b386 b63d 1f88 6d3d
00000120: 61ce cdbc b794 b4bd e81c 11bd c7ce 443e
00000130: c8f0 c0bd cbfc d9bd bc63 853d 16f6 713d
00000140: c82b 313d 7160 05be 3ea7 62bd 3313 acbb
00000150: ffd1 6d3d 4d1b 9b3d 5dec e83c 2b91 6ebd
00000160: cf6a 333d cbad d53b 1ed5 9539 bbde 4cbe
00000170: 3077 e13c 9c77 4e3d f8df f23c b3c6 323e
00000180: eb05 a6bc 20df fbbd 2f1c 913d 07be 97bc
00000190: 5445 deba 17e6 16be f526 6dbd cab2 33be
000001a0: 414b 1ebe dd46 d6bd dd45 513c fd4c 1a3e
000001b0: c16f 72bc af1c f6bd 7e0b 033d eca8 e23c
000001c0: dcde 02be 83a1 9b3d 6892 15be b431 8b3d
000001d0: 576c 753d a33b 0f3e ebf9 1a3d 78d5 f63c
000001e0: 293a 683d 9abc 573d 7667 af3d 4893 9cbd
000001f0: 6759 95bc 75cb 6fbe 8ce4 ec3d 9c3c f6bd
00000200: 3cdd a93d 97f5 303d ccc4 863c 07f8 3c3d
00000210: 808b 2ebd 26a6 d83d 6246 dbbc 6847 74bd
00000220: 49b0 373d 7e2b 10bc 2139 38bb 4905 843d
00000230: 0e31 323d 2c3c f33c 941b 11bd 66b1 80bd
00000240: de33 a63d acdc 0e3e e353 b83d 9671 2c3a
00000250: 7f44 cd3d 183e e9bd ac37 023d ebfb 073d
00000260: 8edc 863d 83f0 073e ac88 11be 986c aa3c
00000270: 65f7 a23d 2a86 143e b07f 023e 66fa ff3d
00000280: c584 05be 5bb1 ab3d 8a0c 113d 636b f3bd
00000290: 76f1 463d fc1e 2d3e e6a8 333b be99 82bc
000002a0: 5ac3 e93c 7b73 9dbc 726d c03c 2a0a e7bd
000002b0: 9533 7b3b ba4c e83d 31d1 18bd c646 12bd
000002c0: c929 74bd 1931 37be 7ce3 063c 8a5d 28bd
000002d0: e9b5 77be 5650 723d dcdd 0d3e 7f78 bdbc
000002e0: 5034 1c3e c4a3 78be a74f f03d 9e33 223d
000002f0: 8760 47bd a181 1ab9 f42a 80bd f689 89bc
00000300: a605 8dbd 5135 283d 1fac b83d fcde d73d
00000310: 97f5 9a3c 3639 213d fa57 ad3d 6d2b 203e
00000320: 2d3d 3a3d 19e1 613e 11d2 00be e341 2ebd
00000330: ab09 95bd fe9d 3f3d 63c5 62bd f5e6 2d3d
00000340: aa0e 61bd 3da1 83bc 7096 94bd bbb6 c63b
00000350: 140f d8bd 12fb 3fbe b86e 453d dfbb fdbd
00000360: 04f3 903c ccf3 2d3e 249b c2bc a6fa c0bd
00000370: 440b b5bd def5 38bc 3a7b 55bd 7be5 67be
00000380: e649 a4bb 1e6b 9a3e 03eb bfbd d2c7 a33c
00000390: b79f ca3d 80bc ad3d 3a80 af3d 7c60 fb3c
000003a0: d4cd 3a3e 1423 2f3e 56be 703d 736d 89bd
000003b0: 0f33 f43d 5c3d e43c 0c97 4c3c d13a 4f3c
000003c0: 248b ea3d 6bc9 ca3c 71df 783c e196 8c3d
000003d0: 7e3b 3c3c 9f2a 963d c390 f3bc d183 1f3d
000003e0: 3e9e 11bc c4c0 6ebd 12c4 8e3d cd43 a6bc
000003f0: 640a 263c 86c7 cfbc 28e8 17bc ac58 413c

layer2.2.bias f4 [256]
-0.019534117 0.053330936 -0.20630075 0.12406225 0.2339721 -0.17834044 0.15947616 0.042408973
-0.20035644 -0.03536798 -0.09179583 0.06185575 -0.046590593 0.11607523 -0.2211205 -0.07439914
-0.2367366 0.14977665 0.08707745 0.096575834 0.119095765 0.06280529 -0.15923351 0.0409129
0.053612996 0.049335882 -0.19885951 0.19794251 -0.14260493 -0.20687173 -0.16372633 0.16642517
-0.11711194 0.16005069 -0.027058592 -0.15618946 0.049513873 -0.10887078 -0.15524636 0.2603059
-0.0024190915 -0.10683661 0.021116555 -0.10674934 -0.16026728 -0.17668179 0.13755839 0.075471945
-0.21727787 0.0012658021 0.17026195 -0.117228135 0.19896954 0.09311678 0.12612231 0.099861145
-0.00086152065 -0.065097675 0.05245226 0.2639126 -0.11250823 0.12673058 -0.23073919 0.1530227
-0.14050746 0.10789155 0.14422554 0.083652064 0.08730339 -0.116605364 0.1124754 0.14865942
-0.12707116 0.23960069 -0.12536164 0.12095817 -0.15034892 -0.15244225 -0.13238892 0.082571834
-0.12233012 -0.20724197 -0.026886951 0.103813976 -0.05312609 -0.021029385 0.15850602 -0.077995084
0.099560276 -0.07590135 -0.0061684144 -0.115951665 -0.11710658 -0.11578983 0.047728945 -0.1437567
-0.31028897 0.09437475 0.15057047 0.077137895 0.05016399 -0.25506702 -0.091333725 0.17216918
-0.19477311 -0.062231563 -0.14177956 0.07501762 0.14714992 -0.07688187 0.12543684 0.08946767
0.07994146 -0.062957756 -0.022997977 0.21828677 0.0863136 -0.22350612 -0.13371636 0.06077866
-0.11741655 -0.09763299 -0.14382473 0.0094139725 0.1524483 0.14501807 -0.04680507 -0.16603097
-0.10649238 0.13549812 -0.05409179 0.16747604 0.00029502678 -0.05186417 -0.08042115 0.14311501
-0.1263766 0.22633612 -0.116426885 -0.11673536 -0.112289295 -0.20711924 0.11755384 -0.21321166
0.122667916 0.20023417 -0.039066978 0.12739387 -0.0014773353 -0.15811759 -0.2701891 0.048289545
0.13754568 -0.12908927 -0.18182471 0.040627737 -0.100884914 0.08812442 0.07174806 -0.2731872
-0.14969315 0.009766327 0.10003122 -0.14728409 0.1170699 0.05185452 -0.22989874 0.10990313
0.07167222 -0.014600969 -0.20510809 0.21952972 0.25287533 0.07608669 -0.24313241 0.023229325
0.13105738 -0.07055073 0.07848448 0.086766124 -0.11812095 -0.10466826 -0.13857813 -0.18114996
-0.05073993 0.18013461 -0.06148034 -0.07103802 0.040908564 0.16133001 -0.13857901 0.038086187
-0.0458117 -0.14881384 0.087495156 0.021464057 -0.25052354 0.080211125 -0.15442687 0.079955876
-0.16138169 0.18663366 0.022048596 -0.2539759 -0.19721168 -0.059862535 -0.049635176 -0.07850972
-0.05651589 0.14938766 -0.15626669 0.0784406 -0.0013225465 0.047566123 -0.07975552 0.0054235784
-0.07864875 -0.15536536 0.21697618 0.21694775 0.15600607 0.09975889 -0.27883935 -0.030955479
-0.2003647 -0.075892076 0.21483918 0.14284532 -0.18595396 -0.0076481504 -0.14693701 0.1582332
0.1158776 -0.005498356 -0.08774734 -0.16273803 0.0058745653 0.13005652 -0.18210381 0.082919866
0.09226637 0.061463904 0.21356708 0.029418124 0.012891734 -0.09983833 -0.08790968 -0.06860994
0.055439346 0.067724556 0.08633489 0.18385638 -0.19287711 -0.21203358 -0.19034918 0.18079218
00000000: 0306 a0bc 8a71 5a3d 8140 53be 5914 fe3d
00000010: 6296 6f3e e09e 36be b84d 233e 08b5 2d3d
00000020: 3d2a 4dbe 04de 10bd 74ff bbbd 745c 7d3d
00000030: c7d5 3ebd dab8 ed3d 6a6d 62be 945e 98bd
00000040: 146b 72be 0d5f 193e a955 b23d 8dc9 c53d
00000050: 7be8 f33d 0fa0 803d 1c0e 23be 4994 273d
00000060: 4d99 5b3d 6c14 4a3d d4a1 4bbe 71b1 4a3e
00000070: 0707 12be 2fd6 53be e0a7 27be 5c6b 2a3e
00000080: 63d8 efbd 54e4 233e fba9 ddbc 21f0 1fbe
00000090: 0fcf 4a3d a5f7 debd e7f8 1ebe d146 853e
000000a0: 9f89 1ebb 27cd dabd a0fc ac3c 669f dabd
000000b0: 1b1d 24be 12ec 34be 1bdc 0c3e 0991 9a3d
000000c0: 177e 5ebe 45e9 a53a 2659 2e3e 4e15 f0bd
000000d0: acbe 4b3e 03b4 be3d 3526 013e 0084 cc3d
000000e0: acd7 61ba ee51 85bd 2ed8 563d 8d1f 873e
000000f0: b76a e6bd a9c5 013e e546 6cbe fcb1 1c3e
00000100: 30e1 0fbe 3ff6 dc3d dcaf 133e c651 ab3d
00000110: 1fcc b23d cbce eebd 8159 e63d 2d3a 183e
00000120: f11e 02be e259 753e cd5e 00be ebb8 f73d
00000130: 11f5 19be d219 1cbe f690 07be 6c1b a93d
00000140: 3788 fabd 3d37 54be 0642 dcbc 6c9c d43d
00000150: be9a 59bd d145 acbc 674f 223e e3bb 9fbd
00000160: 42e6 cb3d 2b72 9bbd 6920 cabb 1178 edbd
00000170: 93d5 efbd 3823 edbd 6d7f 433d f534 13be
00000180: 32de 9ebe 8d47 c13d 252f 1a3e 79fa 9d3d
00000190: c278 4d3d 2598 82be 2d0d bbbd 1e4d 303e
000001a0: 9a72 47be 86e6 7ebd a92e 11be d7a2 993d
000001b0: 78ae 163e 3e74 9dbd 8472 003e d33a b73d
000001c0: 59b8 a33d ffef 80bd 4166 bcbc 9186 5f3e
000001d0: 2fc5 b03d cade 64be f1ec 08be 0bf3 783d
000001e0: 1778 f0bd cef3 c7bd ca46 13be 103d 1a3c
000001f0: 681b 1c3e 9e7f 143e acb6 3fbd 0604 2abe
00000200: ad18 dabd 05c0 0a3e 5a8f 5dbd d77e 2b3e
00000210: d3ad 9a39 866f 54bd d8b3 a4bd be8c 123e
00000220: de68 01be a8c4 673e 3871 eebd f312 efbd
00000230: eef7 e5bd 1117 54be 11c0 f03d 2854 5abe
00000240: 5139 fb3d 300a 4d3e b204 20bd 8a73 023e
00000250: 26a3 c1ba 94e9 21be 3a56 8abe 42cb 453d
00000260: c6d8 0c3e fa2f 04be 4230 3abe 4569 263d
00000270: c09c cebd 937a b43d a6f0 923d 31df 8bbe
00000280: 2949 19be f202 203c 2bdd cc3d a4d1 16be
00000290: 58c2 ef3d 6865 543d 936a 6bbe e414 e13d
000002a0: e3c8 923d e738 6fbc db07 52be 66cc 603e
000002b0: e078 813e 57d3 9b3d b4f7 78be 6d4b be3c
000002c0: e833 063e e77c 90bd 79bc a03d 70b2 b13d
000002d0: 66e9 f1bd 505c d6bd 6de7 0dbe 607f 39be
000002e0: acd4 4fbd 3575 383e cfd2 7bbd 627c 91bd
000002f0: bd8f 273d b233 253e a8e7 0dbe 4300 1c3d
00000300: 0da5 3bbd a862 18be a930 b33d 64d5 af3c
00000310: 9f44 80be bb45 a43d 1422 1ebe e8bf a33d
00000320: 3e41 25be e51c 3f3e 429f b43c 2109 82be
00000330: dcf1 49be 6b32 75bd 414e 4bbd b4c9 a0bd
00000340: 357d 67bd 14f9 183e 6004 20be 77a5 a03d
00000350: 4c59 adba b2d4 423d dd56 a3bd 46b8 b13b
00000360: 9912 a1bd 1918 1fbe 012f 5e3e 8d27 5e3e
00000370: 0ec0 1f3e 644e cc3d 08c4 8ebe 5896 fdbc
00000380: 672c 4dbe 4e6d 9bbd cdfe 5b3e 0b46 123e
00000390: b76a 3ebe 569d fabb a876 16be e207 223e
000003a0: 3c51 ed3d 8e2b b4bb e1b4 b3bd cca4 26be
000003b0: 6d7f c03b 892d 053e 6c79 3abe e4d1 a93d
000003c0: 27f6 bc3d 93c1 7b3d 54b1 5a3e 47fe f03c
000003d0: da37 533c 0a78 ccbd fe09 b4bd 5e83 8cbd
000003e0: 5e14 633d 2cb3 8a3d 59d0 b03d d944 3c3e
000003f0: 9481 45be 551f 59be e5ea 42be 9621 393e

layer2.5.weight f4 [7, 256]
0.08550328 -0.00896039 -0.0035158733 0.02347397 0.09057062 -0.07383048 0.017652124 -0.020611074
0.08480002 0.09359909 -0.07942594 -0.027735513 0.13259883 -0.090467416 0.01653257 0.043960623
0.08903589 -0.07095569 -0.12519069 -0.036088213 0.056896366 -0.04783605 -0.082154565 -0.022006
-0.063047856 -0.055489205 0.058562066 0.061934806 0.04885242 0.024840064 0.033652913 0.024814697
0.061192308 -0.0337393 -0.09112664 -0.012784142 -0.11481858 0.001759613 -0.014785869 -0.03571922
0.018744765 0.07647037 -0.039920133 0.043197468 0.010367503 0.07026186 -0.0415262 -0.041349117
0.011895906 0.007067251 -0.035886075 0.04550706 -0.087437056 -0.056756437 -0.027781928 -0.07544092
0.08259957 0.048287813 0.019280469 0.06804991 0.06004657 -0.091012925 0.01382721 0.025662912
0.111556575 0.014064998 -0.037883647 -0.11841083 -0.045398355 0.0036989152 -0.06716256 -0.055862073
0.10743079 -0.004410827 0.025214022 -0.029421559 0.08903507 0.015261661 0.022011312 0.060733218
0.07689064 0.050806534 0.06667592 -0.1199103 -0.10004826 -0.06622509 0.039994333 0.1281577
0.0028011922 -0.026301058 -0.072674565 0.05926278 -0.045314506 0.06755406 -0.03914212 0.019609513
-0.028379953 -0.037565455 -0.09387188 -0.08061325 0.026797544 -0.023227995 0.0007723971 0.060792875
0.16292456 0.06814758 0.075670816 -0.09756721 -0.035154387 -0.0014480636 -0.08001896 -0.09062253
-0.012588223 0.03730438 0.010550238 -0.048826963 -0.10698573 -0.0141143855 0.04373845 -0.03806119
-0.014108683 -0.05527449 0.092147 -0.08104675 -0.03437873 -0.06252684 0.028287789 -0.0114078885
0.13010852 -0.14295541 0.108320296 -0.053904284 -0.029717982 -0.044846814 0.018463679 0.031923708
-0.038796917 -0.079776116 0.0008599937 0.043630395 0.021322537 -0.06632982 0.016400155 -0.0072210194
-0.016361026 0.020680161 0.04097125 -0.03841006 -0.051843528 -0.07851886 -0.0007163681 -0.0065175523
-0.05095546 0.017325293 0.018470176 0.091206886 -0.009615208 -0.031060493 0.10093155 -0.0026696823
-0.012971474 0.06062978 -0.0929755 -0.039513834 -0.12396747 -0.099441715 0.063680984 -0.07267844
0.025766391 -0.075978704 0.06585675 -0.02505994 0.03927114 0.0036381634 0.049388684 -0.095824614
-0.026757602 0.05778007 -0.12415172 -0.14583413 0.012804359 0.033786926 -0.004908514 0.0093989065
-0.062200073 0.08547862 0.17098103 0.027663926 0.026127284 -0.031267084 0.04399494 -0.028764036
0.037617404 0.081030935 0.020226477 0.09552794 0.050504413 0.07766258 0.151329 0.034500305
0.0032974298 -0.05567676 -0.057060685 0.018646024 0.050322704 0.039571263 0.09870804 0.076785564
0.0025159782 -0.022653067 0.02681182 -0.03644565 -0.09907547 -0.028579518 -0.017023468 -0.0234564
0.083045475 0.03394296 -0.04343415 -0.029445488 -0.10155603 -0.012273997 -0.008918782 0.08561453
0.061390314 0.11533581 -0.017216645 0.02373774 0.018415093 0.0035384658 0.0086213155 -0.08908307
-0.027509648 0.08625274 0.029039804 0.020223899 0.067607686 -0.001988629 0.07603072 -0.0029231515
-0.0590941 -0.020217014 -0.049423177 -0.052834067 -0.022575056 0.03336225 0.028395446 0.054862108
0.011291512 -0.11365089 0.048332587 -0.0056461743 -0.021323321 -0.0036720699 0.053943038 0.001206769
00000000: 581c af3d 9ace 12bc 916a 66bb 7c4c c03c
00000010: 177d b93d 6f34 97bd 309b 903c 8ed8 a8bc
00000020: a2ab ad3d e1b0 bf3d 11aa a2bd 9635 e3bc
00000030: fdc7 073e fb46 b9bd 506f 873c 0e10 343d
00000040: 7358 b63d 3851 91bd fd31 00be 3cd1 13bd
00000050: 2a0c 693d bcef 43bd a740 a8bd ed45 b4bc
00000060: 3c1f 81bd a648 63bd c7de 6f3d 5aaf 7d3d
00000070: 7a19 483d 647d cb3c a3d7 093d 3148 cb3c
00000080: c9a4 7a3d 3832 0abd 9ba0 babd 9474 51bc
00000090: 0126 ebbd d1a2 e63a 6e40 72bc 514e 12bd
000000a0: 9f8e 993c 7f9c 9c3d 4b83 23bd d4ef 303d
000000b0: 76dc 293c 73e5 8f3d 6017 2abd b15d 29bd
000000c0: 0ce7 423c 6694 e73b 47fd 12bd 9c65 3a3d
000000d0: 3312 b3bd 7079 68bd ed96 e3bc c580 9abd
000000e0: f729 a93d 71c9 453d 13f2 9d3c c05d 8b3d
000000f0: 64f3 753d fc64 babd 868b 623c 073b d23c
00000100: c677 e43d e170 663c e22b 1bbd 6181 f2bd
00000110: a0f3 39bd 8069 723b 868c 89bd a1cf 64bd
00000120: ad04 dc3d b388 90bb a38d ce3c 7b05 f1bc
00000130: 0558 b63d 0c0c 7a3c 1151 b43c 65c3 783d
00000140: d778 9d3d 831a 503d 628d 883d 8893 f5bd
00000150: 1ae6 ccbd 05a1 87bd 19d1 233d c63b 033e
00000160: 3594 373b 5175 d7bc 67d6 94bd 87bd 723d
00000170: b49b 39bd c859 8a3d 7d53 20bd 21a4 a03c
00000180: 137d e8bc 3cde 19bd e63f c0bd 8f18 a5bd
00000190: 8686 db3c a348 bebc b17a 4a3a f301 793d
000001a0: b2d5 263e f590 8b3d 4df9 9a3d 51d1 c7bd
000001b0: 0cfe 0fbd f4cc bdba fbe0 a3bd 4e98 b9bd
000001c0: d63e 4ebc 7acc 183d e8da 2c3c c8fe 47bd
000001d0: 561b dbbd 0640 67bc 1727 333d 0de6 1bbd
000001e0: 1b28 67bc 8167 62bd 91b7 bc3d d7fb a5bd
000001f0: b6d0 0cbd 120e 80bd cbbb e73c 27e8 3abc
00000200: 2b3b 053e e762 12be 08d7 dd3d bdca 5cbd
00000210: 2073 f3bc 4bb1 37bd 2441 973c 6fc2 023d
00000220: 84e9 1ebd a961 a3bd 3371 613a c9b5 323d
00000230: 9aac ae3c eed7 87bd 9e59 863c 4d9e ecbb
00000240: 8f07 86bc 7169 a93c 78d1 273d de53 1dbd
00000250: e159 54bd 7fce a0bd a6ca 3bba 3191 d5bb
00000260: acb6 50bd c6ed 8d3c c44e 973c adca ba3d
00000270: 1b89 1dbc 9372 febc 33b5 ce3d d6f5 2ebb
00000280: 4e86 54bc ef56 783d f069 bebd 42d9 21bd
00000290: a8e2 fdbd 19a8 cbbd 2d6b 823d 6fd8 94bd
000002a0: 0a14 d33c b99a 9bbd e7df 863d 814a cdbc
000002b0: c6da 203d 416e 6e3b ca4b 4a3d b23f c4bd
000002c0: c232 dbbc cbaa 6c3d 4243 febd 8b55 15be
000002d0: 60c9 513c 2964 0a3d 9ad7 a0bb dffd 193c
000002e0: 81c5 7ebd 6a0f af3d a715 2f3e 759f e23c
000002f0: e308 d63c ea11 00bd 0a34 343d 8ea2 ebbc
00000300: b514 1a3d 8cf3 a53d ffb1 a53c 27a4 c33d
00000310: b7dd 4e3d 8f0d 9f3d fdf5 1a3e 3150 0d3d
00000320: b119 583b 500d 64bd 77b8 69bd 8cbf 983c
00000330: 2e1f 4e3d 7a15 223d 7127 ca3d c041 9d3d
00000340: 1ce3 243b ed92 b9bc 76a4 db3c 0948 15bd
00000350: 14e8 cabd 981f eabc cd74 8bbc a327 c0bc
00000360: bf13 aa3d c607 0b3d 02e8 31bd aa37 f1bc
00000370: 9cfc cfbd e018 49bc 1520 12bc ac56 af3d
00000380: 6974 7b3d 2e35 ec3d ec09 8dbc a675 c23c
00000390: 40db 963c 9be5 673b 6b40 0d3c 2f71 b6bd
000003a0: ea5b e1bc 47a5 b03d e2e4 ed3c 97ac a53c
000003b0: e675 8a3d a953 02bb feb5 9b3d 5892 3fbb
000003c0: a80c 72bd 279e a5bc f56f 4abd 8968 58bd
000003d0: 53ef b8bc dba6 083d 919d e83c 17b7 603d
000003e0: 0900 393c ccc1 e8bd 64f8 453d 8b03 b9bb
000003f0: 3fae aebc 1ca7 70bb 60f3 5c3d 732c 9e3a

layer2.5.bias f4 [7]
-0.30715892 0.025833128 -0.11484459 -0.6493732 -0.113953024 -0.11474992 0.7481718
00000000: ef43 9dbe ff9f d33c a433 ebbd 523d 26bf
00000010: 3460 e9bd 0202 ebbd 3088 3f3f
