Model_Files/bpiNoRepeat/EventPredictor_parameters_weighted_0.0001.pt (torch, 280585 bytes, 8 tensors)

layer1.weight f4 [4, 1]
-0.27349228 0.7535195 -0.45575905 -1.6749512
00000000: 2e07 8cbe a7e6 403f 4059 e9be cd64 d6bf

layer1.bias f4 [6]
-0.1028912 -0.65745306 0.5064507 -0.33673137 0.40223756 -0.45456037
00000000: 9fb8 d2bd d84e 28bf c1a6 013f 0e68 acbe
00000010: 15f2 cd3e 23bc e8be

layer2.1.weight f4 [256, 6]
-0.4321458 0.25022137 1.1064336 -0.21456148 1.9409518 -0.29207113 -0.1891348 -0.28764224
0.013452542 -0.19241041 0.02998335 0.27310273 0.18305486 -0.083324134 0.0085057905 -0.113226146
-0.100396976 0.09501831 -0.22321148 -0.021089945 0.027613487 -0.02242242 -0.018392898 0.017902156
0.08709764 0.14667605 -0.28525412 -0.021426596 0.005004916 -0.16804756 -0.10795032 -0.27911052
-0.0040213135 0.467549 -0.024546975 1.2216125 -0.03307343 -0.013848918 0.1439469 -0.2325892
0.1556877 0.027806705 -0.3314608 0.7029289 2.1148667 -0.08315811 2.423865 -1.1464729
0.12975658 0.0316974 0.012089044 0.06763626 -0.017258015 -0.023205517 -0.080305725 -0.17519052
0.05094358 -0.0018863034 -0.11783813 0.08111155 -0.036036447 0.00045755308 0.010539299 1.4366581
-0.002916312 1.4754292 -0.14509022 -0.062058125 0.034429293 0.44637507 -0.005652893 -0.013537827
-0.17917989 0.007974292 -3.4805176 -0.45538464 -3.7943282 0.030901331 0.37184757 0.1592462
0.046119317 -0.09206415 -0.04310204 -0.25311324 0.24351431 -0.036748063 -0.0069967806 -0.06087082
-0.014347606 0.14479978 0.14937791 -0.01779478 -0.32551637 -0.044384114 0.07021286 0.27100888
-0.07775795 -0.06352168 -0.00907972 0.09288423 0.008888723 0.44773003 -0.046230424 -0.19570921
-0.004573722 0.11529434 -0.016053228 -0.07218467 -0.1780679 -0.70773864 0.21741655 -0.5592649
0.0011077524 0.04726825 -0.044703983 0.031309877 -0.014606773 0.39702287 -0.032797515 -0.18989427
-0.29082522 0.16234475 -0.046696704 0.774769 0.0062406124 -0.026996078 0.1959688 -0.09341064
0.029528808 -0.2713228 0.009695 0.0038113673 0.119244255 0.08776751 0.039158873 -0.26820725
0.008070948 -0.39168373 0.2578345 -0.092727676 -0.42657033 0.44945654 0.0036041932 0.022521231
-0.25078776 -0.633213 -0.020314729 0.48267046 -0.06203314 0.5473022 0.23520859 -0.13096067
-0.152229 0.02555955 0.059573144 0.33159816 0.010046497 -0.061673086 0.18300499 -0.14569642
-0.0073018786 0.09629153 -0.1280667 -0.24023359 0.013516503 0.050945796 -0.09027907 0.0072710193
-0.29045087 -0.7319833 -0.017089576 -0.6671163 -0.48828954 0.61625725 0.23311685 -0.0053490154
-0.44966006 -0.008557965 -0.009037992 0.3442683 -0.057269868 -0.18138362 -0.02687093 -0.24607414
-0.0057387245 0.0069375425 0.21210346 0.29876202 -0.01822241 0.057979297 0.123486556 -0.02106464
-0.25773975 0.43832606 0.6483075 0.14372395 0.6266459 -0.09541158 -0.02519329 -0.3253532
-0.45431942 0.2607722 0.0023895814 0.7064518 0.116480425 0.24396482 0.055924118 0.18937723
0.06453133 -0.6972787 0.2923525 -0.0066364543 -1.06496 -0.2483519 -1.8298783 0.08779963
-0.10045168 -0.40290344 0.013413756 -0.14078607 -0.038301226 0.19257145 0.2966961 -0.12006361
-0.72060543 -0.058613513 -0.034653064 0.6100437 0.2280944 0.21871276 0.013396038 -0.007984649
-0.052639447 -0.015640032 0.2393507 0.045961518 0.40622687 0.17344752 0.3558947 -0.4849063
-0.085377514 -0.44950548 -0.020859785 0.17276306 -0.13090701 0.15694687 -0.12107964 -0.3230364
0.036413588 -0.15039264 -0.07704766 0.17338106 -0.2923878 0.112747625 -0.043686006 0.1515182
00000000: 3742 ddbe 041d 803e 9e9f 8d3f 01b6 5bbe
00000010: 1c71 f83f 598a 95be 8eac 41be d845 93be
00000020: 0d68 5c3c 3c07 45be a49f f53c 1fd4 8b3e
00000030: bc72 3b3e d8a5 aabd df5b 0b3c 1ce3 e7bd
00000040: ee9c cdbd f698 c23d 8d91 64be d2c4 acbc
00000050: ae35 e23c 39af b7bc b4ac 96bc 8ba7 923c
00000060: 3f60 b23d 3f32 163e d40c 92be d486 afbc
00000070: 4700 a43b a914 2cbe 0f15 ddbd 93e7 8ebe
00000080: 39c5 83bb 9562 ef3e bd16 c9bc cc5d 9c3f
00000090: 0178 07bd 92e6 62bc d166 133e dd2b 6ebe
000000a0: 996c 1f3e e3ca e33c 3bb5 a9be 26f3 333f
000000b0: fa59 0740 cd4e aabd 9b20 1b40 a0bf 92bf
000000c0: e9de 043e 22d5 013d 2011 463c e184 8a3d
000000d0: ae60 8dbc 7f19 bebc 5477 a4bd 2565 33be
000000e0: 37aa 503d d73d f7ba 1e55 f1bd d01d a63d
000000f0: f49a 13bd bce3 ef39 06ad 2c3c 6ae4 b73f
00000100: 991f 3fbb ddda bc3f 8892 14be a930 7ebd
00000110: bb05 0d3d 468b e43e e73b b9bb c3cd 5dbc
00000120: ef7a 37be 9ba6 023c cdc0 5ec0 2d28 e9be
00000130: 46d6 72c0 ca24 fd3c ce62 be3e 7011 233e
00000140: 9ce7 3c3d 218c bcbd c48b 30bd 0f98 81be
00000150: d15b 793e 2385 16bd 4045 e5bb ae53 79bd
00000160: 3912 6bbc 6546 143e 86f6 183e 5cc6 91bc
00000170: 15aa a6be 1ecc 35bd c3cb 8f3d adc1 8a3e
00000180: 8f3f 9fbd a817 82bd 1bc3 14bc 163a be3d
00000190: 02a2 113c df3c e53e 1d5c 3dbd ff67 48be
000001a0: 29df 95bb 701f ec3d 0f82 83bc 8ed5 93bd
000001b0: 6e57 36be 5c2e 35bf 72a2 5e3e fc2b 0fbf
000001c0: 0132 913a 5a9c 413d 861b 37bd c93e 003d
000001d0: 3f51 6fbc 9546 cb3e b056 06bd a573 42be
000001e0: 0be7 94be b43d 263e 0b45 3fbd 4357 463f
000001f0: 0d7e cc3b e126 ddbc 0cac 483e 144e bfbd
00000200: 66e6 f13c d2ea 8abe c7d7 1e3c 22c8 793b
00000210: 5536 f43d 74bf b33d 0e65 203d 7652 89be
00000220: 023c 043c c58a c8be e202 843e 02e8 bdbd
00000230: 6d67 dabe 2b1f e63e 5434 6c3b 727e b83c
00000240: 4167 80be 3f1a 22bf 136b a6bc 9520 f73e
00000250: 7616 7ebd ff1b 0c3f 85da 703e 8e1a 06be
00000260: ebe1 1bbe 4362 d13c f802 743d 3cc7 a93e
00000270: 109a 243c eb9c 7cbd a965 3b3e 7131 15be
00000280: 9944 efbb 7e34 c53d eb23 03be cbff 75be
00000290: 5374 5d3c 8aac 503d 3ce4 b8bd bb41 ee3b
000002a0: fab5 94be 4263 3bbf 70ff 8bbc 22c8 2abf
000002b0: 1601 fabe 09c3 1d3f 2fb6 6e3e cb46 afbb
000002c0: d839 e6be b536 0cbc 1614 14bc ef43 b03e
000002d0: cf93 6abd a1bc 39be 6d20 dcbc dcfa 7bbe
000002e0: e90b bcbb 5354 e33b a631 593e 56f7 983e
000002f0: 2a47 95bc b37b 6d3d 85e6 fc3d c08f acbc
00000300: 77f6 83be 466c e03e 7bf7 253f 5f2c 133e
00000310: de6b 203f 2567 c3bd 2962 cebc b294 a6be
00000320: 8e9c e8be ef83 853e 869a 1c3b 06da 343f
00000330: 4a8d ee3d ead1 793e b010 653d 1bec 413e
00000340: 0029 843d db80 32bf 3aaf 953e 9d76 d9bb
00000350: 9c50 88bf f64f 7ebe 7439 eabf 4bd0 b33d
00000360: 9cb9 cdbd 5c49 cebe 5fc5 5b3c 392a 10be
00000370: bfe1 1cbd 7331 453e 8de8 973e e9e3 f5bd
00000380: 9979 38bf b914 70bd 5ff0 0dbd d32b 1c3f
00000390: 9491 693e 3df6 5f3e 0e7b 5b3c 0cd2 02bc
000003a0: 769c 57bd 861f 80bc 5a18 753e 2542 3c3d
000003b0: f8fc cf3e 3a9c 313e d537 b63e a345 f8be
000003c0: 68da aebd 9525 e6be 24e2 aabc cde8 303e
000003d0: 7d0c 06be aeb6 203e 9af8 f7bd 0765 a5be
000003e0: 6a26 153d 8700 1abe 2acb 9dbd ce8a 313e
000003f0: dbb3 95be 3ae8 e63d 19f0 32bd 9627 1b3e

layer2.1.bias f4 [256]
-0.42533904 0.7532384 0.012213346 0.46904618 -0.0824559 -0.7340361 0.49915618 -0.25460374
-0.7727564 -0.13055103 -2.0929344 0.7211683 1.9554473 -0.24765275 -0.2980428 -0.37394428
1.5532746 -1.1144924 0.08072752 -1.137723 -0.5229826 0.22654651 0.14466323 -0.5300277
-0.3627483 -0.042111427 0.4858272 0.32159346 -0.52101225 -0.8512226 0.8722732 0.54281145
0.16532932 -1.6803142 0.04125831 -0.39781284 -0.19413422 0.15937875 -0.7082652 0.4622017
-0.13515167 -0.29749927 -0.049427968 0.1379634 0.42968956 0.77662224 0.30419916 -1.5657762
-0.78696054 -0.28926513 -0.9427074 0.26670197 -0.90478474 1.1563196 -0.6146043 -0.43640432
1.178144 -0.49198133 0.1188356 0.8557669 0.12899607 -0.027931126 0.079965934 0.07999707
-0.21169652 0.14487363 -0.40330866 1.2127113 0.31796935 0.23100452 0.093670875 0.7025748
0.5072483 0.13571042 0.8701266 0.51102823 0.22053112 -0.6393998 -0.009898946 0.7225873
-1.0669551 0.6365337 -0.6781097 0.5319121 0.67573124 0.54350305 -1.6758945 0.25505966
-0.15238787 -0.9869963 -0.35655266 0.38944364 -0.031578545 0.16712676 -0.6676111 0.9315712
-0.1876216 0.24434157 0.057751376 -0.02158099 0.016506478 -0.83090144 0.15083964 -0.6771362
0.23773462 0.81536764 0.65164214 0.47843227 2.3641746 0.41757452 0.46454832 -0.5719722
-0.9900712 0.43987998 1.0190808 -0.013742379 0.5861588 0.33599058 -0.21870477 -0.59347343
-0.10118313 0.036818705 -0.5147574 0.5205505 -0.4547526 -0.5279979 -0.55913156 0.008770952
-0.57991946 0.14207976 0.1777097 0.99256617 0.3848824 -0.6593224 1.0430526 -1.2625461
-0.5429274 0.5881667 -1.0845087 0.009991037 0.7401 -0.6027637 0.32515612 -0.02212054
0.07218943 0.29542828 0.8955129 0.46826988 0.06313183 -0.060657933 -1.095449 -0.075623855
-1.2082474 -1.2038982 0.48508796 0.59909225 0.17984694 -0.7498905 -0.09494981 2.0288184
-0.9627579 0.55281526 -0.33019033 -1.0670108 0.026678469 0.4566012 0.7662928 -1.663762
-0.46339217 0.19729671 -0.24727672 0.5078918 0.5181311 0.9214565 -1.0350884 -0.11601457
0.44679525 0.24376266 0.20229308 0.95287406 0.53265977 0.35735592 0.89586717 0.42767596
0.12640727 -0.78931296 -0.62211144 0.9425405 -0.17809016 0.43351772 -0.57787776 0.86447734
-1.6718448 0.91887236 -0.014347386 -0.032144357 0.7832782 0.5099608 -0.49992034 -0.115285344
0.0050559645 -0.27719188 -0.5957682 -0.01368344 0.021797504 -0.27718922 -0.09962099 0.30471852
0.62319756 -1.3623245 0.18676895 0.99235785 0.13740738 -0.36752787 -0.11921785 1.3508393
1.4990559 -0.120232314 -0.35236174 -0.95795876 0.08727343 -0.2211755 0.7342776 -0.14715521
-0.69311696 0.34135464 0.617043 -0.54289126 0.8678598 -0.11873065 0.40613395 -0.057781875
-0.19196874 0.46224958 0.10036756 0.92273796 -0.1840628 0.29642522 -0.50910515 -1.5963283
0.6647611 -0.16548519 -0.3134162 0.5199806 -0.6320102 0.020970508 -0.12235602 -0.5082614
-0.13235185 -1.0682077 -0.067593195 0.8974827 -0.4584594 0.32447657 0.41670904 0.6073547
00000000: 0ac6 d9be 3bd4 403f 7c1a 483c d226 f03e
00000010: a4de a8bd cae9 3bbf 6691 ff3e 6c5b 82be
00000020: 5dd3 45bf 2baf 05be a3f2 05c0 7c9e 383f
00000030: 194c fa3f af98 7dbe 1199 98be a075 bfbe
00000040: b4d1 c63f b0a7 8ebf 7854 a53d e8a0 91bf
00000050: 30e2 05bf cffb 673e 9922 143e e5af 07bf
00000060: 25ba b9be 087d 2cbd 58be f83e e6a7 a43e
00000070: 0f61 05bf b9e9 59bf 4c4d 5f3f b1f5 0a3f
00000080: 174c 293e 8914 d7bf 79fe 283d 20ae cbbe
00000090: 1fcb 46be 2f34 233e de50 35bf b4a5 ec3e
000000a0: 3365 0abe d351 98be fb74 4abd 4746 0d3e
000000b0: 4500 dc3e b7d0 463f febf 9b3e 5b6b c8bf
000000c0: 3f76 49bf 8f1a 94be 4655 71bf 298d 883e
000000d0: f99f 67bf 4802 943f b556 1dbf 6370 dfbe
000000e0: 6ccd 963f fae4 fbbe 1460 f33d 8a13 5b3f
000000f0: 8c17 043e d1cf e4bc 2ec5 a33d 81d5 a33d
00000100: f9c6 58be c159 143e 797e cebe 203a 9b3f
00000110: e1cc a23e 738c 6c3e 84d6 bf3d f1db 333f
00000120: 06db 013f acf7 0a3e 9ec0 5e3f bfd2 023f
00000130: e9d2 613e b5af 23bf 302f 22bc 7bfb 383f
00000140: fc91 88bf dff3 223f 9998 2dbf 642b 083f
00000150: b9fc 2c3f 0423 0b3f b683 d6bf 2e97 823e
00000160: 910b 1cbe caab 7cbf 128e b6be 2865 c73e
00000170: 8158 01bd 4723 2b3e 90e8 2abf 737b 6e3f
00000180: e01f 40be ad34 7a3e b58c 6c3d 9eca b0bc
00000190: 9838 873c f5b5 54bf b575 1a3e cc58 2dbf
000001a0: b470 733e efbb 503f 05d2 263f 13f5 f43e
000001b0: a34e 1740 54cc d53e 47d9 ed3e c56c 12bf
000001c0: 4e75 7dbf f337 e13e 3d71 823f b727 61bc
000001d0: 810e 163f f506 ac3e 25f4 5fbe e0ed 17bf
000001e0: 1a39 cfbd 36cf 163d 24c7 03bf cc42 053f
000001f0: 55d5 e8be df2a 07bf 3f23 0fbf 0ab4 0f3c
00000200: 9a75 14bf 5b7d 113e 88f9 353e d118 7e3f
00000210: 4e0f c53e 5ac9 28bf bf82 853f 1c9b a1bf
00000220: 4afd 0abf 1892 163f 2ed1 8abf 72b1 233c
00000230: 3277 3d3f b94e 1abf dd7a a63e 2236 b5bc
00000240: 0dd8 933d 6042 973e 5540 653f 12c1 ef3e
00000250: 434b 813d 7474 78bd ac37 8cbf aee0 9abd
00000260: daa7 9abf 5619 9abf 735d f83e 1c5e 193f
00000270: cc29 383e d3f8 3fbf 0c75 c2bd 29d8 0140
00000280: 4d77 76bf 4d85 0d3f b50e a9be cf93 88bf
00000290: ce8c da3c a2c7 e93e c42b 443f 27f6 d4bf
000002a0: bd41 edbe 2608 4a3e 1c36 7dbe 3205 023f
000002b0: 3da4 043f 93e4 6b3f c77d 84bf 0c99 edbd
000002c0: 59c2 e43e eb9c 793e eb25 4f3e 8eef 733f
000002d0: 645c 083f 5bf7 b63e 8d57 653f 58f8 da3e
000002e0: e870 013e 6a10 4abf b242 1fbf 564a 713f
000002f0: 445d 36be 09f6 dd3e ccef 13bf 634e 5d3f
00000300: 03ff d5bf 383b 6b3f 4c11 6bbc cda9 03bd
00000310: ec84 483f ca8c 023f 8ff5 ffbe b91a ecbd
00000320: 81ac a53b 18ec 8dbe 4484 18bf 8230 60bc
00000330: ae90 b23c bfeb 8dbe 1706 ccbd 1104 9c3e
00000340: e089 1f3f a660 aebf 5c40 3f3e 2a0b 7e3f
00000350: 85b4 0c3e 9d2c bcbe 7d28 f4bd 4de8 ac3f
00000360: 10e1 bf3f 5c3c f6bd c268 b4be c93c 75bf
00000370: 69bc b23d d57b 62be 9ef9 3b3f dbaf 16be
00000380: 1d70 31bf 09c6 ae3e 88f6 1d3f ecfa 0abf
00000390: 0f2c 5e3f 0e29 f3bd caf0 cf3e b0ac 6cbd
000003a0: 7493 44be faab ec3e 828d cd3d 8e38 6c3f
000003b0: f57a 3cbe 0cc5 973e b754 02bf 7c54 ccbf
000003c0: c92d 2a3f f374 29be 1778 a0be 731d 053f
000003d0: 6ccb 21bf 58ca ab3c cb95 fabd 6b1d 02bf
000003e0: 3e87 07be 08bb 88bf 4d6e 8abd 6dc1 653f
000003f0: 31bb eabe cb21 a63e e35a d53e 997b 1b3f

layer2.3.weight f4 [256, 256]
0.06576826 0.08673614 -0.035118405 -0.009930416 0.0011431095 0.037810802 -0.050788984 -0.07825989
-0.2218765 0.01053004 -0.167952 -0.087264456 -0.51771164 -0.10789797 -0.11558298 0.01438907
-0.17054391 -0.08597686 -0.12928084 0.042571962 0.03530866 -0.17119798 0.002990589 0.10610182
-0.13019077 -0.033020277 -0.06557561 0.06707093 -0.10982518 -0.2073623 0.04572283 -0.073879026
0.11924919 -0.08330963 -0.0063873036 -0.17533483 -0.15993138 0.076418415 -0.12254297 0.010972025
-0.10255977 0.08831778 0.036521792 -0.12005018 0.17213018 -0.02690586 -0.007967774 -0.0001424383
-0.10409888 -0.08884263 -0.07434777 -0.18430555 -0.18498881 -0.20922603 -0.048636913 0.10021424
0.05367211 0.04700509 0.06551506 0.014949185 -0.10528894 0.21622893 0.039099343 -0.0039480543
0.15261964 0.059880987 -0.11655721 0.04710629 -0.030827971 -0.04417888 -0.07141309 -0.0716629
0.015084455 -0.012089272 -0.006825682 -0.088634305 -0.19381206 -0.03271234 -0.24310137 0.0861307
-0.1170825 0.11142439 0.1004168 0.07111609 0.06537645 -0.15270957 0.039572448 -0.00014783534
-0.12264693 0.061250955 -0.07466392 -0.07021487 0.0042820484 -0.15745287 -0.07858201 0.054125756
0.07704137 0.11796303 -0.03347928 -0.07458322 0.025697557 -0.15930986 0.0025282037 -0.021301655
0.00010596663 0.11911859 -0.51045096 -0.1863569 0.09905535 0.028827403 0.11088179 -0.02485997
0.04256589 -0.10610055 0.07050639 0.02712487 -0.120788306 -0.051354785 -0.123490654 -0.013751085
0.058170665 -0.06773941 0.023219137 -0.068221174 0.20216894 -0.09519944 0.027964013 0.35061473
-0.49630564 0.023855142 -0.016052535 0.16575015 -0.0013618049 0.007185635 -0.041140962 0.04773904
-0.029904237 0.078081265 -0.012529301 -0.11881564 -0.09592753 -0.105494775 0.20780125 0.18892734
0.20382255 -0.084690064 0.031936485 -0.038588494 -0.018683165 0.19513035 -0.0014758058 -0.21403374
-0.097733065 0.13487972 0.002420719 0.17373879 0.045619633 0.20392288 0.003144397 -0.4906157
-0.01294336 -0.07137364 0.09519002 -0.25149077 0.15108876 0.07685567 0.020003662 -0.11698297
-0.059464183 -0.004866469 -0.08463072 0.00010266925 -0.034946505 -0.112623766 0.15555087 0.15827993
-0.011188278 0.011891259 -0.061010726 -0.14226837 -0.013420113 0.022929696 0.29630673 -0.11200319
0.11512326 0.05661437 -0.08235765 0.122659914 0.09934294 0.011295746 -0.01164231 -0.038468134
-0.104972355 -0.10396674 -0.085406974 0.21954997 -0.022994783 0.006214472 -0.1617467 -0.05817978
-0.045487896 -0.20579702 0.20172141 -0.08420841 -0.12930857 -0.09241772 0.09210437 -0.10134218
0.17838928 -0.38993606 0.23752993 0.12310206 -0.051739104 -0.19834542 0.050450385 0.09857734
0.11005142 0.10898928 -0.030062005 0.033821464 -0.1500737 0.102828324 -0.053454686 0.21298216
-0.1452086 0.0729933 -0.11596836 -0.067983106 0.16382638 0.012747649 -0.05352649 -0.16353616
0.0472272 0.09056998 -0.13467246 -0.19175039 -0.080972075 -0.10971039 0.076966755 -0.12592675
0.06333381 0.031224681 -0.08635548 -0.08694813 0.045883235 0.057203565 -0.05927899 -0.07550523
0.11831838 -0.13393141 0.30489227 -0.099578455 -0.027596142 0.07978604 -0.16860335 -0.027524928
00000000: 82b1 863d b8a2 b13d 51d8 0fbd 2fb3 22bc
00000010: 64d4 953a 80df 1a3d 1c08 50bd b946 a0bd
00000020: 9833 63be 3086 2c3c 9cfb 2bbe b5b7 b2bd
00000030: c088 04bf 9cf9 dcbd c5b6 ecbd 22c0 6b3c
00000040: 10a3 2ebe a314 b0bd 3262 04be f05f 2e3d
00000050: d09f 103d 864e 2fbe c2fd 433b e94b d93d
00000060: bb50 05be 4540 07bd 814c 86bd 7c5c 893d
00000070: 06ec e0bd c856 54be dd47 3b3d e34d 97bd
00000080: eb38 f43d 3d9e aabd 964c d1bb f98a 33be
00000090: 0dc5 23be 4281 9c3d cff7 fabd 02c4 333c
000000a0: db0a d2bd f4df b43d e097 153d dedc f5bd
000000b0: e542 303e ae69 dcbc 448b 02bc 7d5b 15b9
000000c0: cb31 d5bd 20f3 b5bd a543 98bd 98ba 3cbe
000000d0: b56d 3dbe 593f 56be 8037 47bd 203d cd3d
000000e0: 49d7 5b3d 6988 403d c32c 863d 6ded 743c
000000f0: baa1 d7bd 1e6b 5d3e a226 203d ae5e 81bb
00000100: 5348 1c3e c445 753d 8cb5 eebd 86f2 403d
00000110: f18a fcbc eaf4 34bd 0741 92bd 00c4 92bd
00000120: ca24 773c 1512 46bc f8a9 dfbb e785 b5bd
00000130: ab76 46be 60fd 05bd 91ef 78be 4b65 b03d
00000140: f3c8 efbd 7832 e43d 53a7 cd3d 50a5 913d
00000150: 17e4 853d e65f 1cbe b816 223d 3f04 1bb9
00000160: 502e fbbd 48e2 7a3d 66e9 98bd d0cc 8fbd
00000170: 6d50 8c3b 533b 21be 9bef a0bd f8b2 5d3d
00000180: dec7 9d3d 9a96 f13d 9221 09bd 16bf 98bd
00000190: af83 d23c 2022 23be 38b0 253b cf80 aebc
000001a0: 673a de38 73f4 f33d eaac 02bf 58d4 3ebe
000001b0: 88dd ca3d 7227 ec3c fe15 e33d 23a7 cbbc
000001c0: 9259 2e3d 3f4b d9bd a765 903d fa34 de3c
000001d0: dc5f f7bd 6559 52bd abe8 fcbd 3b4c 61bc
000001e0: 5d44 6e3d f6ba 8abd 0f36 be3c 8bb7 8bbd
000001f0: 6005 4f3e edf7 c2bd c914 e53c c683 b33e
00000200: c61b febe dc6b c33c 9b80 83bc 68ba 293e
00000210: 977e b2ba 7a75 eb3b 6d83 28bd 038a 433d
00000220: bbf9 f4bc 12e9 9f3d b347 4dbc 9d55 f3bd
00000230: a775 c4bd a50d d8bd dac9 543e 2b76 413e
00000240: dcb6 503e fc71 adbd d5cf 023d f80e 1ebd
00000250: 700d 99bc 40d0 473e d36f c1ba a92b 5bbe
00000260: 4628 c8bd e91d 0a3e eda4 1e3b 95e8 313e
00000270: a7db 3a3d 29d1 503e 3a12 4e3b fb31 fbbe
00000280: 6310 54bc 582c 92bd fcf2 c23d 66c3 80be
00000290: 03b7 1a3e 8166 9d3d b8de a33c c494 efbd
000002a0: b790 73bd e776 9fbb df52 adbd 2250 d738
000002b0: 1124 0fbd 4aa7 e6bd ba48 1f3e 2214 223e
000002c0: 0a4f 37bc 8ed3 423c 62e6 79bd cdae 11be
000002d0: 09e0 5bbc 0fd7 bb3c 84b5 973e ee61 e5bd
000002e0: bec5 eb3d 78e4 673d 21ab a8bd 1f35 fb3d
000002f0: 5074 cb3d cb11 393c 63bf 3ebc c390 1dbd
00000300: bffb d6bd 84ec d4bd dae9 aebd b5d1 603e
00000310: 8e5f bcbc c5a2 cb3b eda0 25be ec4d 6ebd
00000320: 8451 3abd 74bc 52be 0f90 4e3e 7575 acbd
00000330: 7769 04be 8045 bdbd 37a1 bc3d 7d8c cfbd
00000340: aeab 363e b3a5 c7be 0c3b 733e ef1c fc3d
00000350: 62ec 53bd 101b 4bbe 10a5 4e3d ebe2 c93d
00000360: a462 e13d c635 df3d 9844 f6bc 6088 0a3d
00000370: ecac 19be a897 d23d 4df3 5abd ff17 5a3e
00000380: 90b1 14be 837d 953d d280 edbd ba3a 8bbd
00000390: 1ac2 273e 84db 503c 983e 5bbd 0676 27be
000003a0: 4f71 413d c17c b93d 94e7 09be 375a 44be
000003b0: b0d4 a5bd d7af e0bd bfa0 9d3d f1f2 00be
000003c0: 28b5 813d e7ca ff3c 24db b0bd dc11 b2bd
000003d0: 0ff0 3b3d 494e 6a3d 87ce 72bd 7ca2 9abd
000003e0: e850 f23d 5125 09be d71a 9c3e caef cbbd
000003f0: 4e11 e2bc dd66 a33d 5ba6 2cbe f57b e1bc

layer2.3.bias f4 [256]
0.7905496 0.20315734 -1.1807027 -1.0725474 1.1080478 -1.3194206 0.2580563 0.86674815
1.4545265 -0.08019799 -1.0811827 -1.2807338 -1.1223801 -1.4845457 -1.2441082 1.4311904
1.22565 -1.1770849 0.8028453 1.132709 -0.74450004 -0.60027796 1.2317171 -0.053692162
-1.1054709 1.1120578 -1.0455948 -0.83441114 1.2516944 0.9390097 1.076213 1.2799308
1.5531486 -1.091601 -1.0483257 1.2871238 0.80612165 -0.44305292 -1.4842921 0.588722
1.4630889 0.860412 1.0813417 0.90778416 -1.187354 -1.2915338 1.1262261 1.0833371
-1.2915567 -1.2644528 1.2791808 1.091969 0.71713406 -0.22890618 -0.95450914 1.1505309
-0.8114085 1.2527977 -0.9531845 1.58172 1.5083771 -0.90590614 -0.09292873 -1.033933
-1.4516147 -1.3608335 -0.65187603 1.1955625 1.2771732 -1.3055671 -1.2963493 -0.10656279
1.1618047 1.4391632 0.44898385 -1.1391785 -1.1262257 0.94158363 -0.7622761 1.0788614
0.10699869 -1.2385648 0.5408888 -0.10809743 -1.212816 -1.4040443 1.4971311 1.1167823
-0.16610315 -0.70839655 1.0678267 1.102696 -1.2930666 1.5442593 1.1703082 1.0100837
0.28300646 0.7744655 0.9096359 -0.6651654 0.4235475 0.92879975 -1.1193337 -0.5845547
-1.3540958 1.5120677 1.1435106 -1.447272 1.1069744 0.9882206 -0.89166975 1.0417787
1.077432 1.2159923 -0.9856717 -1.1247456 0.31644893 1.4144778 1.2153127 -1.1181701
-1.3878559 1.2133583 -1.3200063 -0.18833515 -1.3400092 0.96467924 0.95509535 0.3375775
-0.7928238 -0.59983355 1.0295947 -1.1349243 0.2302702 0.99393237 1.2675189 -1.3360616
1.1543937 0.83125985 -1.1105629 1.1583682 0.88637745 0.6506982 -0.53255475 -1.4805423
-1.1051404 1.0336192 1.060211 -1.3241359 -1.1333557 1.0993451 1.0246351 -0.6206329
-1.2280723 -1.0748138 1.1190002 0.6191277 -0.9428385 1.1411846 0.08959844 1.0794897
-1.3698939 -0.061017454 0.7804357 -1.3639853 -0.92797226 -0.021449568 -0.83417696 1.2429571
-1.4651598 -0.39775565 0.5989589 1.0507122 0.749096 0.92657566 -1.1951879 0.13174623
-1.0468532 -1.3158118 1.0781331 1.6099119 0.87361395 -1.567966 -1.0320182 1.5100077
-1.1128056 -0.17495576 -0.45669454 -0.02832049 0.014353746 -1.3104945 -1.249393 -0.94033265
1.2583653 -1.308848 -0.657164 1.0699296 -0.3932154 -1.2921562 -1.3647584 -1.2412517
-0.0366276 -1.0027949 -0.8748096 -1.3156517 0.81572604 -0.94026464 -0.7679531 -1.309028
-0.7365965 0.7228659 0.68036336 0.49105418 1.0526341 -0.99563634 -1.3898919 -1.1769669
1.2723898 1.1979587 -0.96305305 1.215989 -0.71066564 -1.0621186 -1.3872501 0.89938045
-0.096888565 0.0028750494 0.9321082 1.0686313 -1.1251915 -0.9632923 0.5375979 1.1799088
-1.415064 -0.5741923 1.531399 1.1686016 1.0085723 0.8806306 0.09189348 0.9891706
-0.13304895 -1.2704337 -1.05519 0.38543722 -0.12041992 0.78129715 -0.18235329 -1.1511114
-1.1112604 1.3934637 0.27873737 -1.0954888 0.7681128 1.0376705 -1.1566603 -1.2482989
00000000: 7561 4a3f 7a08 503e 4421 97bf 3c49 89bf
00000010: 83d4 8d3f c6e2 a8bf f51f 843e 35e3 5d3f
00000020: ed2d ba3f d83e a4bd 3264 8abf 16ef a3bf
00000030: 27aa 8fbf 9805 bebf f03e 9fbf 3f31 b73f
00000040: 19e2 9c3f b8aa 96bf 4587 4d3f 9cfc 903f
00000050: 8e97 3ebf d1ab 19bf e8a8 9d3f 50ec 5bbd
00000060: 1280 8dbf e957 8e3f 0dd6 85bf f89b 55bf
00000070: 8637 a03f f162 703f 59c1 893f c6d4 a33f
00000080: 93cd c63f 95b9 8bbf 892f 86bf 79c0 a43f
00000090: fd5d 4e3f d5d7 e2be 49fd bdbf 7cb6 163f
000000a0: 7f46 bb3f f643 5c3f 6869 8a3f 8b64 683f
000000b0: 37fb 97bf fb50 a5bf 2d28 903f caaa 8a3f
000000c0: bb51 a5bf 97d9 a1bf 32bc a33f a4c5 8b3f
000000d0: 1996 373f 6266 6abe b65a 74bf 9944 933f
000000e0: 78b8 4fbf ad5b a03f e603 74bf cd75 ca3f
000000f0: 8012 c13f 77e9 67bf 6b51 bebd eb57 84bf
00000100: 83ce b9bf cb2f aebf 59e1 26bf 3108 993f
00000110: 697a a33f d31c a7bf c6ee a5bf 983d dabd
00000120: 04b6 943f 8036 b83f 36e1 e53e 9ad0 91bf
00000130: 2a28 90bf a00b 713f 8724 43bf 2118 8a3f
00000140: 2122 db3d 4b89 9ebf b077 0a3f 2f62 ddbd
00000150: 8e3d 9bbf b9b7 b3bf fea1 bf3f b9f2 8e3f
00000160: f216 2abe 7a59 35bf 8cae 883f 2425 8d3f
00000170: 3583 a5bf 4aaa c53f a9cc 953f 6c4a 813f
00000180: 39e6 903e 5f43 463f e6dd 683f 4848 2abf
00000190: 38db d83e d2c5 6d3f 5446 8fbf 60a5 15bf
000001a0: 0353 adbf 6f8b c13f 8e5e 923f 3540 b9bf
000001b0: 56b1 8d3f 06fc 7c3f 7844 64bf 0159 853f
000001c0: 4be9 893f a3a5 9b3f fb54 7cbf aaf7 8fbf
000001d0: 9805 a23e 9c0d b53f 5e8f 9b3f 3320 8fbf
000001e0: 43a5 b1bf 534f 9b3f f7f5 a8bf eeda 40be
000001f0: 6c85 abbf 38f5 763f 2181 743f f5d6 ac3e
00000200: 80f6 4abf b18e 19bf c2c9 833f 3345 91bf
00000210: f4cb 6b3e 5a72 7e3f 0f3e a23f 1104 abbf
00000220: 2cc3 933f 72cd 543f ed26 8ebf 6945 943f
00000230: a2e9 623f 2894 263f 8255 08bf 6982 bdbf
00000240: 3e75 8dbf a24d 843f feb4 873f 497d a9bf
00000250: cd11 91bf 57b7 8c3f 3e27 833f cce1 1ebf
00000260: 7931 9dbf 8093 89bf 663b 8f3f 277f 1e3f
00000270: dd5d 71bf 5612 923f 637f b73d b82c 8a3f
00000280: af58 afbf 70ed 79bd a2ca 473f 1297 aebf
00000290: 978f 6dbf 01b7 afbc 9f8c 55bf 3819 9f3f
000002a0: 5b8a bbbf a1a6 cbbe 5f55 193f bd7d 863f
000002b0: c1c4 3f3f 1034 6d3f ebfb 98bf 7ce8 063e
000002c0: 49ff 85bf 856c a8bf 4400 8a3f 9811 ce3f
000002d0: 2aa5 5f3f 1cb3 c8bf 2c19 84bf ef47 c13f
000002e0: 6a70 8ebf 9a27 33be ded3 e9be 5f00 e8bc
000002f0: f92b 6b3c 49be a7bf 1cec 9fbf a4b9 70bf
00000300: 1d12 a13f 5588 a7bf e63b 28bf 74f3 883f
00000310: 8753 c9be 6065 a5bf 67b0 aebf 56e1 9ebf
00000320: d306 16bd 955b 80bf 86f3 5fbf 4667 a8bf
00000330: 6cd3 503f 2fb5 70bf 9398 44bf 3b8e a7bf
00000340: 9791 3cbf bd0d 393f 4b2c 2e3f 746b fb3e
00000350: b7bc 863f 06e2 7ebf fae7 b1bf daa6 96bf
00000360: abdd a23f b656 993f a58a 76bf 87a5 9b3f
00000370: 2fee 35bf 81f3 87bf 6991 b1bf cc3d 663f
00000380: 836d c6bd 536b 3c3b a59e 6e3f e9c8 883f
00000390: 4606 90bf 539a 76bf 04a0 093f 4007 973f
000003a0: d120 b5bf 44fe 12bf e204 c43f bd94 953f
000003b0: e618 813f 0271 613f a632 bc3d 493a 7d3f
000003c0: fc3d 08be 929d a2bf 7710 87bf 0758 c53e
000003d0: b89e f6bd 1703 483f d2ba 3abe 9e57 93bf
000003e0: c83d 8ebf 055d b23f aab6 8e3e fa38 8cbf
000003f0: 0aa3 443f 63d2 843f 720d 94bf 42c8 9fbf

layer2.6.weight f4 [7, 256]
-0.011167374 -0.02787403 0.06797922 -0.0058915387 0.047594316 0.17809947 -0.010463143 -0.022204783
-0.06697996 0.061525065 0.07577773 0.06920166 -0.0024098717 0.17541176 0.03861847 -0.06863612
-0.08628005 0.089063205 -0.03568043 -0.07435299 -0.03764988 0.068452016 -0.13637395 -0.08433055
0.09467018 -0.029420568 0.07455687 -0.027857115 -0.0664445 0.033358544 -0.016700678 -0.086742535
-0.13289201 0.04738605 0.084467165 -0.1450406 0.010960309 0.04865499 0.15051818 0.059948888
-0.05080469 -0.024918757 -0.09028368 -0.06729511 0.089510575 0.08698047 -0.03351112 -0.029081104
0.10239396 0.019996464 -0.10454908 -0.12922272 0.013342537 -0.047430042 0.10983458 -0.046892915
0.020894064 -0.084976815 0.0036011473 -0.1738586 -0.13100897 0.13205545 -0.020075437 0.05418596
0.07559006 0.088842005 0.09498354 -0.06960102 -0.06954351 -0.005875387 -0.008307459 -0.002320244
0.03463375 -0.14500962 0.060696874 0.024445238 0.14327654 -0.10728234 0.018152822 0.013468082
-0.0016495393 0.012515145 -0.033203237 0.029187955 0.054038677 0.056491125 -0.06596049 -0.048994843
0.045312777 0.008104893 -0.041246 -0.070138 0.0145315565 -0.089240454 -0.023436846 -0.06857684
0.0072777886 0.00675317 0.072912306 0.0048009898 -0.0020088875 -0.06548995 0.058566533 0.09334429
0.06816402 -0.11460956 -0.11176914 -0.002620717 -0.16929738 -0.055220243 0.10472806 -0.043411486
-0.10117112 -0.23004636 0.04623565 0.11919598 0.031935778 -0.123370126 -0.025039049 0.062781975
0.12945105 -0.0355603 0.08944764 0.0016622116 0.01902727 -0.040977422 0.0011808242 -0.055603784
0.089948155 -0.0015657509 -0.10408364 0.07082748 -0.056203704 -0.053553663 -0.09381543 0.0715579
-0.11937849 -0.036569286 0.094726466 -0.07736072 -0.11042799 -0.057132155 -0.044722717 0.04769535
0.034436673 -0.07997216 -0.038445212 0.11543756 0.117620744 -0.096730314 -0.004844011 0.009169929
0.06691009 -0.0022163258 -0.085730255 -0.002857983 0.072588205 -0.11386362 0.03837735 -0.10480381
0.052502513 -0.052362416 0.043566827 0.031222519 0.028292269 0.020415448 0.012210718 -0.029256465
0.093637064 0.084034756 0.0020268243 -0.07410477 0.060174726 -0.12750253 0.023982165 -0.0063341656
0.08536149 0.14348227 -0.10427467 -0.004378296 -0.03048672 0.17129211 0.08101719 -0.043009687
0.17109738 -0.04570535 0.026291301 0.014503775 0.0007506394 0.06113514 0.055116195 0.06776761
-0.04523315 0.17266041 0.008813611 -0.025450127 -0.056138784 0.15225317 0.061486557 0.012283227
-0.049665093 -0.028251065 0.10028919 0.06536225 -0.04205058 -0.044802967 0.08197178 0.12725115
0.047432426 -0.11159769 -0.030265318 0.015849365 -0.09721471 0.1014636 0.008103728 0.0067458707
-0.012252139 -0.01083316 0.05574912 -0.13135839 0.049322467 0.09673506 0.10467584 -0.13432407
0.057763424 -0.039257687 -0.14292961 -0.11009737 0.08131706 0.06987024 -0.07122192 -0.012403882
0.024803577 0.08564217 -0.15179059 -0.060122423 -0.05885364 -0.015698304 -0.09050549 -0.124011174
0.06379954 0.103644684 0.14054158 0.0044782506 -0.019499023 -0.08250386 -0.014629305 -0.0044832136
-0.016668858 -0.0028962723 0.013782882 0.036591057 -0.009389624 -0.10129482 0.028195545 0.09288511
00000000: 5df7 36bc 1458 e4bc b038 8b3d cf0d c1bb
00000010: 42f2 423d b55f 363e 9a6d 2bbc cee6 b5bc
00000020: ca2c 89bd b501 7c3d 5b31 9b3d 9ab9 8d3d
00000030: f0ee 1dbb 249f 333e 672e 1e3d 1891 8cbd
00000040: 98b3 b0bd c566 b63d a425 12bd 6146 98bd
00000050: c336 1abd 9230 8c3d 9da5 0bbe 7fb5 acbd
00000060: 70e2 c13d 6703 f1bc 46b1 983d 9b34 e4bc
00000070: 0e14 88bd f8a2 083d dccf 88bc 12a6 b1bd
00000080: d814 08be e017 423d 1ffd ac3d 8685 14be
00000090: de92 333c 744a 473d 7021 1a3e f78c 753d
000000a0: 9418 50bd 6c22 ccbc a6e6 b8bd 05d2 89bd
000000b0: 5251 b73d d122 b23d f542 09bd 7f3b eebc
000000c0: edb3 d13d a0cf a33c d41d d6bd f652 04be
000000d0: a89a 5a3c 0146 42bd f4f0 e03d c912 40bd
000000e0: 072a ab3c 5308 aebd 3a01 6c3b fd07 32be
000000f0: 3727 06be 8b39 073e 3e75 a4bc 19f2 5d3d
00000100: f6ce 9a3d ccf2 b53d bb86 c23d fb8a 8ebd
00000110: d46c 8ebd 5286 c0bb 021c 08bc 3c0f 18bb
00000120: 1edc 0d3d 677d 14be 499d 783d 6141 c83c
00000130: 16b7 123e d8b6 dbbd 3ab5 943c 3ba9 5c3c
00000140: 5b35 d8ba 530c 4d3c 1e00 08bd 941b ef3c
00000150: a957 5d3d 3d63 673d 4b16 87bd d1ae 48bd
00000160: e499 393d 63ca 043c 91f1 28bd 83a4 8fbd
00000170: c415 6e3c b3c3 b6bd a1fe bfbc 0472 8cbd
00000180: 847a ee3b b249 dd3b 0c53 953d 9f51 9d3b
00000190: 8aa7 03bb 981f 86bd 76e3 6f3d 4b2b bf3d
000001a0: 9499 8b3d 6bb8 eabd 38e7 e4bd 56c0 2bbb
000001b0: 4b5c 2dbe 9f2e 62bd aa7b d63d 3ed0 31bd
000001c0: ce32 cfbd 4691 6bbe 9861 3d3d 061d f43d
000001d0: 17cf 023d 7aa9 fcbd b11e cdbc d693 803d
000001e0: d18e 043e ada7 11bd 5330 b73d 91de d93a
000001f0: 14df 9b3c f1d7 27bd e3c5 9a3a cbc0 63bd
00000200: bd36 b83d e239 cdba ce29 d5bd ff0d 913d
00000210: db35 66bd 165b 5bbd 4e22 c0bd f38c 923d
00000220: b67c f4bd adc9 15bd f3ff c13d 4c6f 9ebd
00000230: 1228 e2bd 6803 6abd 2b2f 37bd 335c 433d
00000240: 780d 0d3d 72c8 a3bd ba78 1dbd 876a ec3d
00000250: 25e3 f03d 8b1a c6bd 82ba 9ebb 783d 163c
00000260: 2808 893d c73f 11bb 5893 afbd 004d 3bbb
00000270: 20a9 943d 5431 e9bd 9131 1d3d 61a3 d6bd
00000280: e00c 573d f979 56bd 2173 323d 5ec6 ff3c
00000290: 30c5 e73c 4c3e a73c 770f 483c 41ab efbc
000002a0: cac4 bf3d 6a1a ac3d 78d4 043b 3ec4 97bd
000002b0: c679 763d 0690 02be 3f76 c43c d58e cfbb
000002c0: 01d2 ae3d 04ed 123e f58d d5bd cf77 8fbb
000002d0: 49bf f9bc 3367 2f3e 57ec a53d ed2a 30bd
000002e0: 2734 2f3e 8835 3bbd db60 d73c 3ea1 6d3c
000002f0: 8fc6 443a d768 7a3d 85c1 613d bfc9 8a3d
00000300: 6546 39bd e4cd 303e f766 103c c97c d0bc
00000310: c8f1 65bd 41e8 1b3e 54d9 7b3d 973f 493c
00000320: a06d 4bbd c76e e7bc 6b64 cd3d a5dc 853d
00000330: 3b3d 2cbd 5183 37bd d2e0 a73d 204e 023e
00000340: 8148 423d 548d e4bd f9ee f7bc 87d6 813c
00000350: 8218 c7bd 26cc cf3d 80c5 043c 770c dd3b
00000360: 32bd 48bc 917d 31bc 3059 643d d082 06be
00000370: 5b06 4a3d 081d c63d 4960 d63d 408c 09be
00000380: 5799 6c3d abcc 20bd 245c 12be bb7a e1bd
00000390: 8f89 a63d 2118 8f3d ccdc 91bd a739 4bbc
000003a0: df30 cb3c 2965 af3d fe6e 1bbe ee42 76bd
000003b0: 8410 71bd bb99 80bc f15a b9bd 92f9 fdbd
000003c0: 55a9 823d aa43 d43d 22ea 0f3e 4abe 923b
000003d0: 6abc 9fbc c9f7 a8bd c1af 6fbc ece7 92bb
000003e0: 218d 88bc 63cf 3dbb 99d1 613c 81e0 153d
000003f0: f0d6 19bc a973 cfbd 58fa e63c 8c3a be3d

layer2.6.bias f4 [7]
-1.4264202 -0.3898807 -0.7581159 -0.916978 -0.07514109 0.23925576 1.1521138
00000000: f094 b6bf 719e c7be e213 42bf 12bf 6abf
00000010: 92e3 99bd 76ff 743e 7778 933f
