Model_Files/bpiNoRepeat/EventPredictor_parameters_laplacianOnWeighted_1e-05.pt (torch, 280591 bytes, 8 tensors)

layer1.weight f4 [4, 1]
0.39336896 -0.87999535 0.17101005 0.3004307
00000000: a867 c93e 6047 61bf 421d 2f3e 0dd2 993e

layer1.bias f4 [6]
0.109444015 -0.25526512 -0.91855574 0.17317624 0.045890596 -0.18955389
00000000: 2f24 e03d 1cb2 82be 7826 6bbf 1d55 313e
00000010: c7f7 3b3d 6a1a 42be

layer2.1.weight f4 [256, 6]
-0.014097135 -0.18298508 0.6090508 0.04487868 -0.63211405 0.14159098 0.0044457824 0.049758635
0.020290205 -0.1574667 0.49390197 0.34739137 -0.20090194 0.28450903 0.1900931 0.16118021
-0.169644 0.32115933 -0.17295402 -0.43650812 -0.32012698 0.41211513 -0.4066605 0.33093846
0.24761169 0.09236376 -0.071502134 0.22115645 0.22568034 0.13700034 -0.058144856 -0.035160296
0.13828996 -0.14323202 0.35174462 -0.38729233 -0.3531238 -0.13327964 0.2093868 0.02105044
0.18081434 0.19841857 -0.073943265 0.3207463 0.10029718 -0.1973937 0.0142416 -0.056221996
-0.1590345 -0.33192176 0.17576163 -0.28333563 -0.061886556 -0.31397292 -0.24026734 -0.11471608
-0.026328621 0.013345849 0.051398024 0.003021754 -0.25596178 0.20144954 0.12128616 0.16276297
-0.20025718 -0.26197866 -0.37873197 0.2011618 0.3331056 0.20312092 0.20080276 -0.08583708
0.057462703 0.32059854 -0.2639625 0.037894044 0.03171521 0.18881129 0.1962013 0.3931375
0.26977044 0.47854587 -0.32779878 -0.0035443145 -0.0724323 -0.00096883933 1.46889 -0.40554854
-0.05213862 -0.32479346 0.37168485 0.17327148 -0.43071494 -0.14029446 0.263182 -0.083664574
-0.21666907 -0.39402428 0.3173463 0.119097844 0.18869328 -3.6697103e-05 -0.12244219 -0.231489
0.12136069 0.04224729 0.3608811 0.32047835 -0.24571487 -0.28338748 -0.019878289 0.0176329
-0.03169974 0.12622239 0.2661806 -0.18769729 0.6350301 0.33294085 0.050367128 -0.32109913
0.17535816 0.37979668 0.16889326 0.29764554 -0.41684496 0.21045035 0.048741683 0.15198904
0.04560434 -0.15328571 0.06194991 0.21340159 0.28051198 0.1293577 0.01971927 -0.011365352
0.2886676 0.015867025 0.28243428 -0.012993302 0.2565417 -0.18092392 0.24413018 0.17886506
0.16198227 -0.0001449529 1.2435437 -0.03675026 -0.5241362 -0.33837086 0.30940396 0.068856455
0.31392604 -0.3337334 -0.0008880899 0.030197697 0.32411587 0.09783949 -0.06041205 0.3466209
0.011565349 0.042901505 0.31439084 -0.0017882286 0.11048684 0.25052935 0.3898008 0.39032254
0.08100919 -0.1357771 0.16155092 -0.32357326 -0.17294873 -0.07063715 -0.3109102 0.29780823
-0.34593102 -0.14685917 0.25067195 0.23760042 -0.2699075 0.21849576 0.076922156 -0.12601744
0.08343852 0.42842916 0.22666354 0.0722206 -0.01755193 -8.889096e-05 0.24988216 -0.0024836094
-0.11451673 -0.092118435 0.15893245 -0.07001652 -0.29459047 -0.119338244 0.14478217 0.0022852437
-0.1294885 -0.2889151 -0.022415934 0.6723315 -0.3115352 -0.098924085 0.24306667 0.08029858
-0.026184995 0.0024136114 0.00055580947 -0.05519632 -0.09828307 -0.0298663 0.6415872 0.32591218
-0.1548718 -0.42577666 -0.16626124 -0.18543662 0.2186092 -0.20182188 -0.15588939 0.2731011
0.17156474 -0.051400334 -0.3764102 -0.47532395 -0.014763705 -0.34249976 -0.2948788 0.0825052
-0.0872451 0.08093455 0.1572539 0.38715494 0.13404042 0.05372938 -0.015718658 0.101750575
-0.19047545 0.00671535 0.000653731 0.26523757 0.008902859 0.079058304 0.1071973 -0.006787598
0.038513437 0.12483266 -0.35260504 -0.029934721 0.1320234 0.14634468 0.004704049 0.35980242
00000000: abf7 66bc 7160 3bbe c1ea 1b3f b5d2 373d
00000010: 3ad2 21bf 3afd 103e edad 913b b6cf 4b3d
00000020: a537 a63c f33e 21be b8e0 fc3e 48dd b13e
00000030: 3db9 4dbe 2bab 913e c4a7 423e 6d0c 253e
00000040: 28b7 2dbe ff6e a43e dc1a 31be fe7d dfbe
00000050: afe7 a3be c100 d33e ce35 d0be c470 a93e
00000060: eb8d 7d3e 3629 bd3d b66f 92bd d676 623e
00000070: bf18 673e d149 0c3e 4d29 6ebd 3e04 10bd
00000080: e29b 0d3e 6aab 12be df17 b43e 2e4b c6be
00000090: a5cc b4be 757a 08be 7e69 563e f971 ac3c
000000a0: 6527 393e 3d2e 4b3e 916f 97bd dc38 a43e
000000b0: 9c68 cd3d 9321 4abe 9a55 693c 0949 66bd
000000c0: f1d9 22be a6f1 a9be dbfa 333e 5e11 91be
000000d0: c27c 7dbd 0fc1 a0be a408 76be 44f0 eabd
000000e0: 1faf d7bc 8ca8 5a3c bc86 523d 9f08 463b
000000f0: 6c0d 83be ca48 4e3e e164 f83d 56ab 263e
00000100: 3810 4dbe 1122 86be 28e9 c1be 5cfd 4d3e
00000110: d18c aa3e eefe 4f3e 3d9f 4d3e 5acb afbd
00000120: 035e 6b3d 7e25 a43e 1826 87be c936 1b3d
00000130: cfe7 013d bf57 413e fee8 483e 5249 c93e
00000140: 5a1f 8a3e f703 f53e 3ed5 a7be bb47 68bb
00000150: 6357 94bd b5f9 7dba 9604 bc3f 0fa4 cfbe
00000160: 4e8f 55bd 544b a6be 7a4d be3e 146e 313e
00000170: ab86 dcbe 5aa9 0fbe cbbf 863e 5558 abbd
00000180: 7fde 5dbe 8dbd c9be 377b a23e 92e9 f33d
00000190: d038 413e 37eb 19b8 f9c2 fabd 740b 6dbe
000001a0: f48b f83d 7f0b 2d3d 68c5 b83e bd15 a43e
000001b0: ae9c 7bbe 2a18 91be cbd7 a2bc df72 903c
000001c0: 96d7 01bd 7140 013e d348 883e b833 40be
000001d0: 5591 223f 3977 aa3e c34d 4e3d 1b67 a4be
000001e0: 1791 333e b674 c23e 5bf2 2c3e ff64 983e
000001f0: b46c d5be 4c80 573e 5ca5 473d 04a3 1b3e
00000200: 9ecb 3a3d eef6 1cbe 30bf 7d3d f285 5a3e
00000210: 449f 8f3e 5876 043e 4e8a a13c be35 3abc
00000220: 3dcc 933e 90fb 813c 3a9b 903e dce1 54bc
00000230: 6f59 833e 1f44 39be 43fd 793e 6728 373e
00000240: aede 253e 7ffe 17b9 712c 9f3f 7187 16bd
00000250: ca2d 06bf f23e adbe 326a 9e3e 9d04 8d3d
00000260: eaba a03e 1bdf aabe b4ce 68ba 2961 f73c
00000270: 84f2 a53e 1260 c83d a072 77bd 4b78 b13e
00000280: 977c 3d3c 7db9 2f3d d6f7 a03e ff62 eaba
00000290: ed46 e23d 6245 803e f893 c73e 5bd8 c73e
000002a0: 25e8 a53d 2709 0bbe 9b6d 253e 65ab a5be
000002b0: 7919 31be 36aa 90bd 9f2f 9fbe 527a 983e
000002c0: df1d b1be 4062 16be 1358 803e 864d 733e
000002d0: 5131 8abe 5abd 5f3e 5d89 9d3d b70a 01be
000002e0: d1e1 aa3d 115b db3e 7d1a 683e 65e8 933d
000002f0: 11c9 8fbc f96a bab8 1ce1 7f3e 0dc4 22bb
00000300: bf87 eabd 97a8 bcbd 30bf 223e d264 8fbd
00000310: 90d4 96be 9c67 f4bd c741 143e 07c4 153b
00000320: a298 04be aeec 93be 9fa1 b7bc eb1d 2c3f
00000330: 8b81 9fbe b698 cabd 78e6 783e 9573 a43d
00000340: ea81 d6bc ae2d 1e3b beb3 113a 8915 62bd
00000350: a248 c9bd 2caa f4bc 0f3f 243f f6dd a63e
00000360: b796 1ebe 66ff d9be 6340 2abe 19e3 3dbe
00000370: 17db 5f3e 65aa 4ebe 78a1 1fbe e8d3 8b3e
00000380: abae 2f3e 2889 52bd d6b8 c0be a95d f3be
00000390: 78e3 71bc 215c afbe 5bfa 96be 7cf8 a83d
000003a0: 8fad b2bd 03c1 a53d 2b07 213e 2c39 c63e
000003b0: e441 093e 5713 5c3d 6ac4 80bc 9b62 d03d
000003c0: ff0b 43be 700c dc3b 255f 2b3a 38cd 873e
000003d0: 4cdd 113c 52e9 a13d 428a db3d 806a debb
000003e0: 44c0 1d3d 44a8 ff3d a688 b4be a939 f5bc
000003f0: 2431 073e 61db 153e 6c24 9a3b 0638 b83e

layer2.1.bias f4 [256]
-0.26025924 0.14305845 -0.09165819 0.1541707 -0.32159758 0.32119536 -0.13963374 -0.13271159
-0.222476 -0.051127903 -0.19447452 0.33473068 -0.38173476 0.15431967 0.03619409 -0.17812337
-0.23576197 0.0013196871 0.11520478 -0.20905949 -0.046981554 0.3930765 -0.21257654 -0.3165359
-0.3443199 -0.055086903 0.12501107 -0.017125206 -0.24203038 0.16450611 -0.02055858 -0.36510295
-0.41707 -0.57700014 0.3019515 -0.06293981 0.29131815 -0.10913708 -0.29269448 -0.19038787
0.45427352 -0.41929576 0.13365346 0.01928182 -0.44690055 -0.32007223 0.15522015 0.31197628
0.109750085 -0.28414035 -0.11562678 0.26018414 0.44620547 -0.43909672 -0.22613089 -0.47140378
-0.26664588 -0.36598164 0.42597467 0.06717588 0.38647807 0.18643802 -0.30210072 -0.43363693
0.24851385 -0.11109911 -0.124074966 -0.007200376 -0.14576843 0.07097761 0.22922647 0.35940427
-0.0019526543 -0.05690249 0.33677155 0.107887544 -0.3553869 0.35404468 -0.09518109 0.2752425
0.32111606 -0.26410514 -0.20470335 -0.36015892 -0.09791381 -0.3319362 -0.22679059 0.27996215
-0.0056760325 0.09507502 0.016064586 0.34181017 -0.103240944 0.40190327 0.41793558 -0.28412545
-0.44093502 -0.05384703 0.48613235 -0.45157972 -0.15997393 0.13707624 0.38358724 0.17666973
0.27523282 0.011693522 -0.157111 -0.24111745 0.48080084 -0.05981431 0.26361278 0.39652497
-0.35397682 -0.013945694 0.29754528 -0.50216955 -0.27629867 0.21165644 0.4143709 0.35225895
-0.16400583 -0.060523883 -0.34615174 0.05367074 -0.68689495 -0.057980012 0.24349774 -0.26952356
0.012188247 0.29097873 -0.45770296 0.5581177 -0.2470731 0.11549141 0.16731088 -0.20690805
-0.041111007 0.22815685 -0.35202602 -0.3178033 0.18535893 -0.3759603 -0.6745269 0.009509437
0.2893609 -0.22486123 0.017808717 0.14994586 0.41963306 0.32672113 0.12204173 -0.16270056
-0.027707513 0.16313285 -0.32250112 0.30109146 0.24137788 -0.20285304 -0.36502713 -0.3367494
0.1572601 0.26596346 0.35975683 -0.25848693 0.15250379 0.2653272 -0.3600277 0.23586893
0.051232945 -0.41627073 0.048171554 -0.4093894 -0.03776749 0.053351607 0.08751026 -0.5111179
0.3508123 0.18457536 0.3757855 0.16545583 -0.14381015 -0.124758944 0.36786807 0.2755224
0.2352608 -0.23873071 -0.25178796 -0.2511161 -0.37280193 0.278305 -0.017731354 0.3358337
0.42965207 -0.46993843 -0.056019433 0.236878 0.3739682 -0.35904646 -0.35732046 0.1034889
-0.1744889 -0.291639 0.323896 0.30391374 -0.46319214 0.23612206 -0.35815868 -0.37654558
0.38204858 -0.30257976 0.1479652 -0.119442366 -0.06329125 0.055152256 0.03775256 0.120616294
0.051603075 0.4088684 0.44279876 -0.34344295 -0.04975912 -0.355853 0.012033544 -0.05860276
-0.16270573 -0.34836918 0.09497107 -0.31219897 0.1400539 -0.27297458 -0.2644383 0.08733462
0.3459405 0.4010753 0.27397653 -0.017505324 0.038980722 -0.23426631 0.33584437 0.004805314
0.33334884 0.13077193 0.17679085 -0.1886636 -0.06616843 -0.27985358 0.35165828 0.1387455
0.12339731 -0.093608394 0.08890494 0.046281736 0.30302948 0.23001607 0.3885987 0.044612896
00000000: b340 85be ea7d 123e 4ab7 bbbd edde 1d3e
00000010: 70a8 a4be b873 a43e 26fc 0ebe 8ce5 07be
00000020: c0d0 63be 7e6b 51bd 5424 47be d261 ab3e
00000030: bd72 c3be fa05 1e3e 4140 143d f965 36be
00000040: 966b 71be 5af9 ac3a 7cf0 eb3d b113 56be
00000050: bb6f 40bd 5341 c93e aaad 59be fe10 a2be
00000060: b34a b0be cea2 61bd e702 003e 294a 8cbc
00000070: d0d6 77be 4a74 283e 786a a8bc c6ee babe
00000080: 338a d5be 48b6 13bf 6399 9a3e 96e6 80bd
00000090: a727 953e 4383 dfbd 0ddc 95be 0af5 42be
000000a0: 8a96 e83e efad d6be 74dc 083e e8f4 9d3c
000000b0: 26d0 e4be 82e0 a3be 08f2 1e3e 5bbb 9f3e
000000c0: a7c4 e03d d87a 91be bccd ecbd db36 853e
000000d0: 0b75 e43e 49d1 e0be db8e 67be d65b f1be
000000e0: cf85 88be f261 bbbe 5a19 da3e 8293 893d
000000f0: 74e0 c53e 9ce9 3e3e f2ac 9abe a905 debe
00000100: 6a7a 7e3e ee87 e3bd 041b febd 22f1 ebbb
00000110: 5244 15be b65c 913d 58ba 6a3e d603 b83e
00000120: 35f0 ffba 9612 69bd 526d ac3e 25f4 dc3d
00000130: 46f5 b5be 5845 b53e 4eee c2bd 96ec 8c3e
00000140: 5369 a43e ca38 87be c19d 51be c066 b8be
00000150: 0987 c8bd 8bf3 a9be cb3b 68be 3357 8f3e
00000160: 03fe b9bb b1b6 c23d e199 833c be01 af3e
00000170: fd6f d3bd 44c6 cd3e a7fb d53e e478 91be
00000180: 3cc2 e1be b48e 5cbd 57e6 f83e 7535 e7be
00000190: 35d0 23be b75d 0c3e 8c65 c43e e9e8 343e
000001a0: 51eb 8c3e 3096 3f3c b5e1 20be 7ee7 76be
000001b0: 872b f63e daff 74bd 41f8 863e 5205 cb3e
000001c0: 733c b5be 7b7c 64bc db57 983e 2f8e 00bf
000001d0: 0577 8dbe 77bc 583e 6c28 d43e 495b b43e
000001e0: 25f1 27be e4e7 77bd cd3a b1be dad5 5b3d
000001f0: 59d8 2fbf 737c 6dbd 7957 793e fefe 89be
00000200: 37b1 473c 2afb 943e 0b58 eabe cde0 0e3f
00000210: bb00 7dbe c386 ec3d 8b53 2b3e b4df 53be
00000220: 0464 28bd f3a1 693e c13c b4be 1db7 a2be
00000230: bbce 3d3e de7d c0be cbad 2cbf 78cd 1b3c
00000240: 1d27 943e 0642 66be 96e3 913c 688b 193e
00000250: 25da d63e fe47 a73e 04f1 f93d fa9a 26be
00000260: defa e2bc 4c0c 273e de1e a5be a928 9a3e
00000270: c32b 773e b5b8 4fbe d6e4 babe 6b6a acbe
00000280: cb08 213e 5d2c 883e 0c32 b83e 6658 84be
00000290: f429 1c3e f7d8 873e 8d55 b8be a087 713e
000002a0: a3d9 513d 7021 d5be 894f 453d 7d9b d1be
000002b0: 15b2 1abd 3787 5a3d 9438 b33d 9fd8 02bf
000002c0: ab9d b33e 5301 3d3e f566 c03e 416d 293e
000002d0: f842 13be 9e81 ffbd 3459 bc3e 4611 8d3e
000002e0: 35e8 703e d375 74be 5aea 80be 4a92 80be
000002f0: e5df bebe fe7d 8e3e 5841 91bc 65f2 ab3e
00000300: 5bfb db3e c59b f0be a274 65bd 2590 723e
00000310: c378 bf3e f0d4 b7be b5f2 b6be fdf1 d33d
00000320: 38ad 32be b551 95be b2d5 a53e 959a 9b3e
00000330: 8527 edbe fbc9 713e 9360 b7be 95ca c0be
00000340: df9b c33e bceb 9abe 3084 173e 339e f4bd
00000350: d89e 81bd 55e7 613d 6ea2 1a3d ad05 f73d
00000360: bf5d 533d 3357 d13e 85b6 e23e c1d7 afbe
00000370: 38d0 4bbd 5d32 b6be 5728 453c 7309 70bd
00000380: 559c 26be 725d b2be 3180 c23d 8bd8 9fbe
00000390: 4a6a 0f3e 53c3 8bbe 7564 87be 7edc b23d
000003a0: 1d1f b13e be59 cd3e a746 8c3e 5367 8fbc
000003b0: 40aa 1f3d 82e3 6fbe cbf3 ab3e e575 9d3b
000003c0: b3ac aa3e 14e9 053e a908 353e 0831 41be
000003d0: 5083 87bd f848 8fbe 8e0c b43e 4d13 0e3e
000003e0: bbb7 fc3d c2b5 bfbd cb13 b63d eb91 3d3d
000003f0: ae26 9b3e 5589 6b3e 69f6 c63e 03bc 363d

layer2.3.weight f4 [256, 256]
-0.08558988 0.01234293 0.025586175 -0.08196694 -0.057944033 0.013394482 0.011655281 0.058581904
-0.048123457 0.03829312 0.026042346 0.026028339 -0.061676376 0.056228 0.026033897 -0.022447845
0.021212837 -0.022175176 0.007484775 0.02693559 -0.045937937 -0.115806766 -0.041638974 -0.017434023
-0.051705573 0.010418032 -0.0046996763 0.025765479 0.03909386 0.0042519304 -0.014988809 -0.06527142
0.009045006 -0.055637322 -0.0050769816 0.06891887 -0.06297996 -0.007326581 0.048398416 0.013212922
-0.034571137 -0.044084363 -0.027479948 -0.009644681 0.0095527265 0.024227008 -0.00842133 -0.011101501
-0.07850514 0.049718168 -0.0003197052 0.021455195 0.043005884 -0.04531961 0.05615182 -0.043655418
-0.0057228976 -0.021475866 -0.0020429296 -0.009686185 0.00028308964 -0.04507285 -0.0038003253 -0.04661349
0.04178344 -0.046805184 -0.034110222 0.03882516 -0.02382689 0.06527911 -0.018480083 -0.006580051
0.062021263 0.016603306 -0.024552999 0.058822885 0.023174705 0.06437235 0.026892528 0.02158097
0.020558314 -0.010432266 -0.012417643 0.035152145 0.046667866 0.029448325 -0.0156578 -0.03581325
-0.050309606 0.052110482 0.033674624 0.02616007 0.0057507837 -1.7887514e-05 -0.060357634 -0.004275366
-0.04092297 -0.05514938 0.009955748 -0.0741055 -0.025704442 -0.044318497 -0.06587179 -0.034222372
0.054471575 0.01613504 -0.03118098 -0.035544105 0.001120993 0.0036809891 -0.0072179353 -0.0134379715
-0.0050233128 -0.05221385 -0.00479094 0.056160495 0.04486297 -0.0037514532 -0.013981703 -0.014300205
-0.012777482 -0.0390858 -0.03578627 -0.010625004 0.04675434 -0.00100342 0.022321045 -0.02221464
-0.07341538 -0.030553257 -0.060100734 0.024725862 -0.014991297 -0.010876792 0.045511976 -0.006193639
0.020477196 0.057308227 -0.01927089 -0.010102519 0.034979127 0.06072288 0.06688412 0.06559851
0.032378867 0.0035914688 0.0067461915 0.031249752 -0.054303784 0.014924444 -0.016165044 0.0036035299
-0.013545583 -0.071504205 0.014064609 -0.06283486 -0.013122023 -0.06110553 0.008767731 -0.000622195
0.005639796 0.06607782 0.0144995395 0.0027935077 0.03685778 0.042920005 0.0059772753 -0.021238707
0.06739497 -0.048403688 -0.012363221 -0.083841875 0.0011926682 0.012521927 -0.056776218 -0.029671755
-0.029940477 -0.040998824 -0.0075941486 -0.025127122 0.02825774 0.027555965 -0.0032002819 0.04509878
-0.011569857 0.022121595 0.0029369374 -0.014063403 0.022579782 -0.014076016 -0.033851493 0.010494192
-0.054869834 0.06939172 0.024375321 0.069876686 -0.013788767 0.0017886261 0.015216122 0.10672348
0.010830689 0.0067313304 0.06825569 0.044280242 -0.06446589 -0.033916466 -0.046439063 -0.06696806
-0.01012712 0.015268171 -0.019985326 0.007633771 0.017906992 0.052899707 -0.026937174 -0.024231102
-0.032703657 0.017553205 0.010840928 0.026451677 -0.014395501 0.048237856 0.0016366786 -0.057232514
0.07768316 -0.04418514 -0.054393515 -0.042309336 0.071283795 -0.024517214 0.043610185 0.06254971
0.0803036 -0.039841585 0.011931806 0.02988701 -0.07832964 -0.035716653 -0.03719002 0.02366783
0.035845887 0.014792614 -0.03593465 -0.007097628 -0.08313193 -0.009359272 -0.021442262 -0.012988597
0.02761171 0.05408348 0.008250118 0.0024170189 -0.027388636 -0.019719742 -0.019454226 0.0067771734
00000000: bf49 afbd 003a 4a3c 199a d13c 48de a7bd
00000010: b956 6dbd 8874 5b3c cbf5 3e3c 94f3 6f3d
00000020: 1a1d 45bd 3fd9 1c3d c256 d53c 6239 d53c
00000030: 5ea0 7cbd 554f 663d 0a45 d53c 8be4 b7bc
00000040: 8bc6 ad3c b7a8 b5bc d842 f53b 07a8 dc3c
00000050: 6b29 3cbd 192c edbd a18d 2abd ccd1 8ebc
00000060: 39c9 53bd 65b0 2a3c beff 99bb 2012 d33c
00000070: e220 203d c753 8b3b 9f93 75bc 06ad 85bd
00000080: 8131 143c f6e3 63bd cf5c a6bb 5625 8d3d
00000090: a3fb 80bd d113 f0bb 6b3d 463d 037b 583c
000000a0: 779a 0dbd ce91 34bd a11d e1bc b904 1ebc
000000b0: 0a83 1c3c b877 c63c 9ef9 09bc 12e3 35bc
000000c0: 4ec7 a0bd 47a5 4b3d 1b9e a7b9 cec2 af3c
000000d0: f026 303d 0ea1 39bd 73ff 653d 06d0 32bd
000000e0: 2587 bbbb 28ee afbc ace2 05bb ceb2 1ebc
000000f0: a66b 9439 4f9e 38bd e10e 79bb c9ed 3ebd
00000100: 1d25 2b3d cbb6 3fbd 29b7 0bbd 2207 1f3d
00000110: 9c30 c3bc 0eb1 853d 8b63 97bc 789d d7bb
00000120: 020a 7e3d a803 883c 5f23 c9bc 44f0 703d
00000130: e1d8 bd3c a7d5 833d b84d dc3c 93ca b03c
00000140: e969 a83c 18ec 2abc 5f73 4bbc b2fb 0f3d
00000150: ce26 3f3d 9d3d f13c c944 80bc eab0 12bd
00000160: 7211 4ebd cd71 553d 67ee 093d a54d d63c
00000170: 1271 bc3b 250d 96b7 9139 77bd 5f18 8cbb
00000180: d89e 27bd 51e4 61bd 6f1d 233c a0c4 97bd
00000190: 1f92 d2bc 5087 35bd cae7 86bd c22c 0cbd
000001a0: 961d 5f3d a22d 843c 416f ffbc b296 11bd
000001b0: 49ee 923a c03c 713b 6e84 ecbb f02a 5cbc
000001c0: 9a9a a4bb 31de 55bd 51fd 9cbb 8c08 663d
000001d0: 3cc2 373d f1da 75bb 8313 65bc 684b 6abc
000001e0: a558 51bc 6f18 20bd a094 12bd 7f14 2ebc
000001f0: 7b81 3f3d 3085 83ba a0da b63c 7afb b5bc
00000200: ce5a 96bd d34a fabc 302c 76bd e48d ca3c
00000210: 0f9e 75bc 9234 32bc c46a 3a3d 02f4 cabb
00000220: cbbf a73c 08bc 6a3d fcdd 9dbc 0985 25bc
00000230: 4646 0f3d 8eb8 783d 8bfa 883d 8358 863d
00000240: b49f 043d d95e 6b3b 280f dd3b 7bff ff3c
00000250: a56d 5ebd a885 743c 8e6c 84bc 3329 6c3b
00000260: 4bee 5dbc cc70 92bd 3f6f 663c 90af 80bd
00000270: c1fd 56bc cb49 7abd 87a6 0f3c cd1a 23ba
00000280: 0ace b83b cf53 873d 7a8f 6d3c 4813 373b
00000290: 2ff8 163d e3cc 2f3d 05dd c33b ccfc adbc
000002a0: 6006 8a3d f242 46bd 1b8f 4abc 4ab5 abbd
000002b0: 4e53 9c3a c528 4d3c 2e8e 68bd 2e12 f3bc
000002c0: bb45 f5bc 62ee 27bd 56d8 f8bb 65d7 cdbc
000002d0: c77c e73c 0cbd e13c d2bb 51bb 80b9 383d
000002e0: 7f8f 3dbc 5938 b53c a279 403b 306a 66bc
000002f0: 3cf9 b83c 179f 66bc dda7 0abd d5ef 2b3c
00000300: 31bf 60bd 3f1d 8e3d c1ae c73c 821b 8f3d
00000310: 48ea 61bc 5570 ea3a 0b4d 793c d791 da3d
00000320: 3473 313c 7e92 dc3b a4c9 8b3d 335f 353d
00000330: b106 84bd feeb 0abd e336 3ebd 8d26 89bd
00000340: 38ec 25bc 5a27 7a3c 44b8 a3bc b624 fa3b
00000350: afb1 923c 5dad 583d 59ab dcbc 4e80 c6bc
00000360: 45f4 05bd bdcb 8f3c 269e 313c 30b1 d83c
00000370: 1cdb 6bbc 0f95 453d d285 d63a a46c 6abd
00000380: 5918 9f3d 7afb 34bd bccb 5ebd 8e4c 2dbd
00000390: 3dfd 913d 53d8 c8bc 98a0 323d 101a 803d
000003a0: 3776 a43d ee30 23bd 9f7d 433c 9ad5 f43c
000003b0: 4a6b a0bd a04b 12bd 9054 18bd 09e3 c13c
000003c0: 23d3 123d b85c 723c 3630 13bd 3893 e8bb
000003d0: 1341 aabd a257 19bc afa7 afbc 20ce 54bc
000003e0: f431 e23c a486 5d3d 812b 073c d966 1e3b
000003f0: 225e e0bc 4c8b a1bc 785e 9fbc 0d13 de3b

layer2.3.bias f4 [256]
-0.041956652 0.16649891 0.39176473 -0.177631 0.29725856 0.12170766 0.4633926 -0.16137035
0.48556226 -0.058439586 0.19914924 -0.012048578 0.018038142 -0.06672354 -0.1796221 -0.26305956
-0.35107964 -0.26684317 0.08530202 0.33513582 0.1187189 0.47685897 -0.49154365 0.114537515
-0.13076608 0.25758162 0.26399845 0.09375459 0.39836657 0.25705558 0.18404002 -0.14919515
0.12555195 -0.029608374 0.08972386 0.16567041 0.15182503 0.45993638 -0.25328258 -0.02136834
0.0009397871 -0.07248673 0.20691623 -0.006164244 0.41731438 0.6194588 0.42996728 0.11576824
0.1980256 0.09000597 -0.14794856 -0.18486263 0.20829351 -0.1731477 -0.0506805 -0.5500944
-0.34144896 0.15085086 0.029070185 0.16928698 -0.075298496 -0.017358277 -0.19685738 -0.19183734
0.5850595 -0.3110305 0.012662446 -0.49322844 0.1856825 0.26926687 0.6784844 0.22461662
0.21793947 -0.13475223 0.16754931 0.5236449 -0.034436036 -0.17357698 0.09686452 -0.02709765
0.15012902 0.10002431 -0.044589363 0.47627777 -0.4303923 0.27468675 -0.097353324 -0.46463758
-0.04076817 -0.01987089 -0.006071356 -0.25964996 -0.20196724 0.1136895 0.0994957 0.27860424
-0.07363975 0.4342027 -0.48012078 -0.08604729 0.53874815 0.17597012 -0.21298945 0.26979518
0.19786318 -0.12080039 -0.19232272 -0.20163184 0.0464922 -0.2765253 -0.07186021 0.41709417
0.2347178 -0.07666236 0.15482603 -0.368323 0.13155045 -0.1819119 -0.25306806 -0.115803845
-0.4347395 0.6202834 -0.22096938 0.44023415 -0.49133867 -0.13933954 0.31157765 0.24951884
-0.2637372 -0.2608551 -0.38611707 -0.09666457 -0.4995513 -0.5190993 0.46803415 0.3172212
-0.025015919 0.1768771 0.005201996 0.187842 -0.12351443 -0.15017475 -0.0016815689 -0.38843927
0.12827237 0.20247787 0.16891477 -0.14390722 0.12147659 0.30559182 -0.49788234 -0.1280189
-0.49990112 -0.23713955 -0.05185443 -0.46319842 -0.062141027 0.43310577 -0.06828149 0.4802801
0.6295324 -0.6339933 0.12861237 0.064224616 -0.57123315 0.07411095 -0.022460053 0.017039336
0.10524432 0.08371879 0.16834664 -0.018930152 -0.019079512 0.0840942 -0.11536706 0.06421688
0.18134491 -0.08082028 -0.44933623 -0.1764207 0.60682845 0.03712931 0.20637624 -0.08443351
0.508569 -0.077810384 -0.13775514 -0.07266516 0.19069302 -0.26736876 0.3058203 -0.15194848
-0.4580504 -0.5494467 -0.112479046 0.09030159 -0.2560709 0.078141116 0.036393374 0.1155014
0.033825707 -0.10462792 -0.14435531 -0.32875124 0.112478755 -0.0075276913 -0.2960134 -0.15987308
0.0041106297 0.015194286 0.5174141 -0.11911623 -0.2584918 -0.28029376 -0.32351866 -0.65931493
0.3160835 -0.10650885 0.3986209 -0.31916285 -0.15523489 0.07789466 0.5621686 -0.5395009
0.2944054 0.076165676 -0.20878628 -0.106326476 -0.13719724 0.35583168 0.10035393 -0.16397755
0.15551224 -0.3194671 -0.2246272 -0.22857125 0.23735479 -0.10459049 0.009917337 0.5194931
0.14498694 -0.2139692 -0.23071423 0.2338714 0.089074425 0.10538296 -0.25910094 -0.08545552
-0.11112564 0.09138649 0.14591764 0.12457344 -0.2663054 -0.17656578 0.10757474 0.11803901
00000000: bdda 2bbd b17e 2a3e 6395 c83e e7e4 35be
00000010: 4632 983e de41 f93d cb41 ed3e 453e 25be
00000020: 9e9b f83e 595e 6fbd c7ed 4b3e 6667 45bc
00000030: bac4 933c 5aa6 88bd dbee 37be beaf 86be
00000040: b6c0 b3be ab9f 88be d3b2 ae3d ec96 ab3e
00000050: e522 f33d dc26 f43e 9cab fbbe a592 ea3d
00000060: 8be7 05be bde1 833e ce2a 873e 6802 c03d
00000070: b4f6 cb3e ca9c 833e fd74 3c3e 9dc6 18be
00000080: b190 003e 438d f2bc 25c1 b73d 81a5 293e
00000090: 0578 1b3e c87c eb3e 41ae 81be a80c afbc
000000a0: 0b5c 763a ec73 94bd d9e1 533e 6dfd c9bb
000000b0: 3baa d53e da94 1e3f ac24 dc3e e617 ed3d
000000c0: 39c7 4a3e 0d55 b83d d47f 17be a14c 3dbe
000000d0: e54a 553e a14d 31be 5b96 4fbd fdd2 0cbf
000000e0: 66d2 aebe a678 1a3e 9924 ee3c 9159 2d3e
000000f0: 1936 9abd f232 8ebc fb94 49be 0271 44be
00000100: 76c6 153f 643f 9fbe 2676 4f3c 7088 fcbe
00000110: 8e23 3e3e 59dd 893e 27b1 2d3f e601 663e
00000120: 862b 5f3e 7dfc 09be 0c92 2b3e 980d 063f
00000130: cd0c 0dbd 2abe 31be e860 c63d e4fb ddbc
00000140: 6cbb 193e 8cd9 cc3d 56a3 36bd aeda f33e
00000150: 615c dcbe bea3 8c3e 2e61 c7bd fae4 edbe
00000160: 86fc 26bd 47c8 a2bc 3af2 c6bb d7f0 84be
00000170: 80d0 4ebe 0ad6 e83d 67c4 cb3d 37a5 8e3e
00000180: 70d0 96bd d14f de3e 64d2 f5be 9039 b0bd
00000190: 66eb 093f 8331 343e e819 5abe 9822 8a3e
000001a0: a59c 4a3e 3266 f7bd 3ff0 44be 9478 4ebe
000001b0: 9b6e 3e3d b994 8dbe 722b 93bd 5e8d d53e
000001c0: dd59 703e 2801 9dbd b78a 1e3e d594 bcbe
000001d0: 29b5 063e 1d47 3abe 2392 81be 912a edbd
000001e0: 2d96 debe e5ca 1e3f cc45 62be 5f66 e13e
000001f0: be90 fbbe 06af 0ebe 1b87 9f3e de81 7f3e
00000200: 9008 87be cd8e 85be 23b1 c5be 13f8 c5bd
00000210: 30c5 ffbe b1e3 04bf 2ca2 ef3e d16a a23e
00000220: 2fee ccbc 451f 353e 8175 aa3b a759 403e
00000230: 22f5 fcbd 69c7 19be 1768 dcba 83e1 c6be
00000240: d559 033e 5c56 4f3e fef7 2c3e 6a5c 13be
00000250: b8c8 f83d 8876 9c3e 6fea febe 6317 03be
00000260: 0af3 ffbe b6d4 72be 5065 54bd 5828 edbe
00000270: 9787 7ebd 0ac0 dd3e 2ad7 8bbd 46e7 f53e
00000280: 0929 213f 634d 22bf f6b2 033e 3288 833d
00000290: 563c 12bf 7bc7 973d 25fe b7bc 1496 8b3c
000002a0: 568a d73d c274 ab3d 1063 2c3e 6813 9bbc
000002b0: a34c 9cbc 9439 ac3d 9145 ecbd 2484 833d
000002c0: 7bb2 393e 1a85 a5bd 660f e6be a1a7 34be
000002d0: 1c59 1b3f e714 183d 4b54 533e 7aeb acbd
000002e0: 9431 023f 0d5b 9fbd af0f 0dbe 79d1 94bd
000002f0: 0845 433e 8fe4 88be 7a94 9c3e 6298 1bbe
00000300: 9585 eabe 8aa8 0cbf 6a5b e6bd 0af0 b83d
00000310: ba1b 83be 7308 a03d 3811 153d ff8b ec3d
00000320: d38c 0a3d 2a47 d6bd e1d1 13be 1552 a8be
00000330: 435b e63d daaa f6bb 128f 97be c5b5 23be
00000340: 76b2 863b 74f1 783c 4075 043f 36f3 f3bd
00000350: 0a59 84be aa82 8fbe 3da4 a5be ddc8 28bf
00000360: b2d5 a13e 5021 dabd 0a18 cc3e 5069 a3be
00000370: e5f5 1ebe 3c87 9f3d 48ea 0f3f bb1c 0abf
00000380: 4ebc 963e c0fc 9b3d 12cc 55be b2c1 d9bd
00000390: 6f7d 0cbe 922f b63e 5c86 cd3d bbe9 27be
000003a0: 9a3e 1f3e 3191 a3be ac04 66be 950e 6abe
000003b0: 220d 733e 8a33 d6bd 547c 223c 80fd 043f
000003c0: 7577 143e be1a 5bbe 5a40 6cbe fc7b 6f3e
000003d0: a76c b63d 05d3 d73d e1a8 84be 4e03 afbd
000003e0: d795 e3bd d728 bb3d 6f6b 153e 5c20 ff3d
000003f0: 2e59 88be a9cd 34be 2550 dc3d 70be f13d

layer2.6.weight f4 [7, 256]
0.10012861 -0.057197817 -0.051989615 0.1494464 -0.12328494 -0.12326383 -0.074586645 0.15023042
-0.073484644 0.07170287 -0.238528 0.04559736 -0.12635498 0.107537314 0.18487571 0.1546019
0.038621746 0.042878877 0.033789523 -0.07392493 0.010960698 -0.100304484 0.022528239 -0.016663902
0.047644842 -0.041220773 -0.28354144 0.029709881 -0.018017938 -0.29860342 0.017834295 -0.010634455
-0.061711594 -0.015207353 0.047336645 -0.07242817 -0.03785167 -0.051432263 0.1676232 0.048875622
-0.02668448 -0.0023021237 -0.17499103 0.0075370404 -0.021561263 -0.07330714 -0.021867042 -0.07573825
-0.1638423 -0.023751402 0.14704154 0.06383518 -0.14545247 0.108493574 -0.04436727 0.043475777
-0.0029754469 -0.21015891 0.01610583 -0.11340514 0.05101001 -0.0029136215 0.21080545 0.0985348
-0.054871462 -0.038201176 0.025598302 0.07289606 -0.044627983 -0.25115862 -0.05711391 -0.22648235
-0.021875694 0.064969786 -0.15212367 -0.033311266 0.011667893 0.1419919 -0.051433984 -0.03604933
-0.09686644 -0.0002644087 0.037065558 0.011621834 0.098737344 -0.30432904 0.07217624 0.06521214
0.07089374 0.029252615 0.032015182 0.192866 0.29264846 -0.10972554 -0.026497817 0.025251644
0.028766982 -0.028885148 0.047864422 0.07345396 -0.1336131 -0.03686525 0.13858858 -0.16448204
-0.05802413 0.037365556 0.1804666 0.07267322 0.0109627405 0.0025467072 0.023625653 -0.087594934
-0.12732282 0.06390455 -0.12874576 0.07507295 -0.072424605 0.04185713 0.105995506 0.05788782
0.047997124 -0.03557566 0.036371022 -0.036759257 0.041937575 0.10914515 -0.32424664 -0.029110044
0.12143747 0.12634179 0.12156477 -0.043905627 0.030169446 0.061991252 -0.039142188 -0.2187887
-0.052277405 -0.076642446 0.025576074 -0.16570158 0.017618608 0.19874504 -0.08765017 0.016482228
-0.107442975 -0.10676183 -0.09657638 0.15831885 -0.032788925 -0.03790634 0.076710336 0.07216567
-0.023613704 0.1422732 0.031346757 0.055681985 -0.070712805 -0.07091957 0.062791646 -0.022531917
-0.012961944 0.07999648 -0.08799962 -0.07261225 0.03373198 -0.021317627 -0.007240916 -0.0009920965
0.03202697 -0.096096314 -0.038987823 -0.0057207053 0.11459061 0.036320765 0.044592932 -0.0023759324
-0.05090699 0.02849369 0.049406398 0.052358493 0.026109478 0.029919712 -0.061774652 0.024636079
-0.11323059 0.037187338 0.109843 -0.046293333 -0.10992238 0.057071634 -0.23865609 0.024471136
0.109080926 0.057543896 0.1638012 -0.05915394 0.087167025 0.031197036 0.03894948 -0.04107209
0.04167665 0.028321736 0.058419216 0.008370513 -0.043295097 -0.043677576 0.06533292 0.037979305
-0.037029915 0.06955908 -0.08013443 0.09465731 0.20247382 0.20543331 0.15026236 0.082994275
-0.02517783 0.07277387 -0.07759568 -0.019042715 0.107427396 -0.017398449 -0.063042656 0.02321123
-0.054689825 -0.030192228 0.12823194 -0.03724484 0.014940199 -0.07807773 -0.11879509 0.16827892
-0.034502834 0.060709756 0.10488169 0.2222925 -0.2216407 0.057034206 -0.050938874 -0.047986273
-0.041904952 0.18013039 0.08164521 -0.30258834 -0.018787242 -0.048048668 0.17405897 0.004701089
0.054542243 -0.058386296 -0.118115574 -0.08689107 0.11950847 0.17566065 -0.08930627 0.0040662205
00000000: 3b10 cd3d 4248 6abd 10f3 54bd 7a08 193e
00000010: d17c fcbd bf71 fcbd e2c0 98bd 01d6 193e
00000020: 1e7f 96bd f4d8 923d af40 74be 4cc4 3a3d
00000030: 3363 01be 863c dc3d 0f50 3d3e f64f 1e3e
00000040: d631 1e3d c3a1 2f3d e266 0a3d f465 97bd
00000050: 8094 333c 706c cdbd 248d b83c bc82 88bc
00000060: 3d27 433d 1dd7 28bd 582c 91be 2362 f33c
00000070: 5b9a 93bc 8ce2 98be 3a19 923c 233c 2ebc
00000080: 4cc5 7cbd 4328 79bc 12e4 413d 3855 94bd
00000090: 5a0a 1bbd a3aa 52bd 6ba5 2b3e ce31 483d
000000a0: 6999 dabc 3adf 16bb d930 33be 47f9 f63b
000000b0: 3fa1 b0bc 0e22 96bd 8322 b3bc a81c 9bbd
000000c0: 47c6 27be 4d92 c2bc 0f92 163e 05bc 823d
000000d0: 7ef1 14be e131 de3d 74ba 35bd a813 323d
000000e0: b7ff 42bb e633 57be 60f0 833c f440 e8bd
000000f0: dfef 503d 75f2 3ebb 62dd 573e 9dcc c93d
00000100: e6c0 60bd d678 1cbd 88b3 d13c 884a 953d
00000110: d5cb 36bd dd97 80be 46f0 69bd fdea 67be
00000120: a834 b3bc e10e 853d 4fc6 1bbe 6571 08bd
00000130: b12a 3f3c 5366 113e 71ac 52bd 76a8 13bd
00000140: e961 c6bd 56a0 8ab9 0ed2 173d 8169 3e3c
00000150: ce36 ca3d 04d1 9bbe 23d1 933d f18d 853d
00000160: bd30 913d 2ea3 ef3c 5a22 033d aa7e 453e
00000170: 05d6 953e c9b7 e0bd f311 d9bc 89dc ce3c
00000180: bca8 eb3c 8ca0 ecbc 7c0d 443d 086f 963d
00000190: dfd1 08be 0400 17bd 2aea 0d3e fb6d 28be
000001a0: b6aa 6dbd a00c 193d 3dcc 383e b2d5 943d
000001b0: 119d 333c a8e6 263b 968a c13c f964 b3bd
000001c0: ea60 02be 64e0 823d eed5 03be d9bf 993d
000001d0: 5a53 94bd 6272 2b3d 2c14 d93d c71b 6d3d
000001e0: a298 443d c9b7 11bd c8f9 143d e090 16bd
000001f0: bcc6 2b3d 7e87 df3d a803 a6be 3078 eebc
00000200: 35b4 f83d be5f 013e f3f6 f83d 63d6 33bd
00000210: ea25 f73c 8aea 7d3d 8f53 20bd 250a 60be
00000220: d520 56bd b7f6 9cbd ea84 d13c adad 29be
00000230: e654 903c d283 4b3e ef81 b3bd bd05 873c
00000240: 100b dcbd f2a5 dabd d6c9 c5bd 561e 223e
00000250: ae4d 06bd ae43 1bbd 4f1a 9d3d 98cb 933d
00000260: 8771 c1bc 11b0 113e 7565 003d cb12 643d
00000270: e0d1 90bd 483e 91bd e898 803d db94 b8bc
00000280: 555e 54bc 32d5 a33d 2539 b4bd bbb5 94bd
00000290: 8b2a 0a3d 4ea2 aebc 3545 edbb 3c09 82ba
000002a0: b62e 033d 25ce c4bd b2b1 1fbd c174 bbbb
000002b0: 7bae ea3d 15c5 143d 14a7 363d 88b5 1bbb
000002c0: d983 50bd 996b e93c 5d5e 4a3d dc75 563d
000002d0: 8be3 d53c 2f1a f53c 6b07 7dbd 9ad1 c93c
000002e0: 71e5 e7bd c051 183d 5ef5 e03d 149e 3dbd
000002f0: fc1e e1bd f2c3 693d 4362 74be b177 c83c
00000300: d265 df3d 26b3 6b3d 80bb 273e 674b 72bd
00000310: a084 b23d ed90 ff3c 7d89 1f3d 353b 28bd
00000320: 23b5 2a3d fc02 e83c fd48 6f3d 7a24 093c
00000330: 3356 31bd 42e7 32bd 44cd 853d 3090 1b3d
00000340: aeac 17bd fe74 8e3d 851d a4bd b1db c13d
00000350: 4c55 4f3e 1c5d 523e 60de 193e e7f8 a93d
00000360: bd41 cebc 770a 953d 7cea 9ebd 78ff 9bbc
00000370: e502 dc3d 3187 8ebc 821c 81bd 7a25 be3c
00000380: 7002 60bd b155 f7bc 3c4f 033e 0c8e 18bd
00000390: bdc7 743c 38e7 9fbd d74a f3bd 4f51 2c3e
000003a0: d852 0dbd cbaa 783d 36cc d63d a5a0 633e
000003b0: c8f5 62be b39c 693d 48a5 50bd 418d 44bd
000003c0: 87a4 2bbd 1a74 383e 9b35 a73d dcec 9abe
000003d0: b4e7 99bc aece 44bd 843c 323e 980b 9a3b
000003e0: b067 5f3d 7826 6fbd 94e6 f1bd f2f3 b1bd
000003f0: dbc0 f43d 63e0 333e 35e6 b6bd ee3d 853b

layer2.6.bias f4 [7]
-0.3958889 -0.439749 -0.12474364 -0.17409506 -0.02189149 0.016692149 0.26778176
00000000: f3b1 cabe c826 e1be 9879 ffbd fa45 32be
00000010: c855 b3bc f9bd 883c b11a 893e
