Model_Files/bpiNoRepeat/TimestampPredictor_parameters_laplacianOnBinary_0.001.pt (torch, 274453 bytes, 7 tensors)

layer1.weight f4 [4, 1]
00000000: 754b eb3c e123 ae3c 137c c9bd 90b5 8cc2
0.028722504 0.021257343 -0.098381184 -70.354614

layer1.bias f4 [6]
00000000: 73e6 4642 f957 2442 6fbe c6c1 fd21 63c0
00000010: 221b 86c1 b77b 2241
49.725048 41.08591 -24.842985 -3.5489495 -16.763248 10.155204

layer2.1.weight f4 [256, 6]
00000000: 6fab a8be c04e 0dbf 67ac 2d3f df42 3dbe
00000010: 3614 cfbd 8bf0 67bf e0bf 06bf 269f bcbf
00000020: a186 e53e aa99 65bf c2f0 7ebe 902d 20c0
00000030: e6af 0f3c 9d70 763d 3b27 323e 90d5 15bd
00000040: 7389 c63d 8e3f 993c ab3a 80bf 2e43 aabf
00000050: b3d1 2440 ba93 0040 19d1 8abf b90a b4bf
00000060: edb2 f03d f732 1a3d 4274 08bc 15d8 2bbe
00000070: a906 9ebe 333c 18be 0ced 33bd 1c57 23be
00000080: 1027 0c3e 47c6 50be 349c c3bc bbd5 64bd
00000090: 4ad4 85bc c659 87bc 3c4c 4e3e 4e1f 0d3b
000000a0: 18f9 5cbe abae 58be 5f50 b1bd 1463 023d
000000b0: bd5c 0a3e a480 5d3d b766 d1bc a5f3 503d
000000c0: a568 67be 2d48 8dbe 92c1 2f3f b86b a6be
000000d0: 5dbf 5bbd 129a 97be 4e9f 6bbc 10be 613d
000000e0: d8b1 1bbc c045 a2bd 78e0 9cbe bade 9abd
000000f0: 6156 1cbf 24db 43be f050 a13f 4a31 34bf
00000100: 4ee7 07bf c1c4 d8bf 6b83 043e 5329 9e3d
00000110: 3cc7 5cbd 983b c2bd 37f9 e23a a9cb 6d3c
00000120: 3242 95bd 28c9 4ebe a0af 9b3e decf ed3d
00000130: 8325 81bb 405b 87bd faa6 cebc 2a2a 8bbd
00000140: 3629 363d 85b0 ebbc bffa f2bd 105f 2bbe
00000150: 1df0 e6bd 634e 0f3e 8f68 973e 3dc8 81be
00000160: 0d5e 1c3d 5dac 65bd 1594 d5bd ee75 1bbd
00000170: 4c6c 153d 291d de3b 2b15 34be 2f31 3fbe
00000180: 4f48 ebbe c767 cdbd b37c 4c3f 6dc7 3e3e
00000190: 8ae3 4cbe 2d47 aebb b1e1 c93d 5474 7fbe
000001a0: a647 283e d0c5 89bd a9c2 083d 9e41 32be
000001b0: 3aab 74bf 657c d2bf 493a 053d 0bb8 c6bf
000001c0: 9653 42be 276e 8ebf 4847 e1bc e22e 1c3e
000001d0: de08 99be c3d7 4dbe 0f19 ffbe 5e5f 14be
000001e0: f1b7 103c 2529 963c 3d59 913c 7dd0 243d
000001f0: bf28 ed3c b34e cfbc dc77 62bf 9832 f1bf
00000200: 9a5a 233f 3eb7 2abf 447e 5dbf 3700 f9bf
00000210: 353c f5bd 57dc 7ebc 4f06 7d3e 4669 d8bc
00000220: 0c0c 0dbd 29f0 b1bd d29f 123e b0fa 22be
00000230: 40b7 ba3b 8acd dabc d3b9 0cbd dab5 ecbd
00000240: d9d2 0dc0 fe0c 4ebf 1b2d 673f 1c58 8940
00000250: 525c 773f 5818 38c0 7fe4 56bc f512 88be
00000260: 9688 1a3f 3111 903d 4e12 35bd 0513 4fbe
00000270: a13a 2bbf 4563 1bbf d392 8c3f af7b 19bc
00000280: 4538 91be 4c49 f3be baed 70bd a3df a23c
00000290: 52b8 ea3d ae81 6a3d e138 50bd af09 27bd
000002a0: 91af 92be 979a 86be 673e 733e 8eda d23e
000002b0: ec35 ddbe 7950 57bf e14d a53d 8f9b d83d
000002c0: e6d5 a83e a700 f7bd abe8 023e c628 3cbe
000002d0: d058 ba3e b9f8 7a3e 6df9 b63c b682 1b3e
000002e0: 8b7f 94bc aca9 af3d b8c9 3bc0 eb65 b5bf
000002f0: 767a b63f d491 363f 0d32 14bf 922d b4c0
00000300: 4b76 f1bd efe8 cf3d 3be1 913e 41f2 a03b
00000310: 7652 e53c fa52 babc 6934 e1be 44e2 03bf
00000320: 173b b93a 8b68 61be e6d2 ef3d e0a5 48be
00000330: 4e25 d3bb 8a1e 5f3d a24b 26bc 151f c3bd
00000340: 2b08 52be ba78 183d bc7b 52be a2e0 1ebd
00000350: b318 f83e c3ab 1abe f86d 303e 7eff c5bd
00000360: e2d4 0cbf db62 a1bd b81f 713d 3787 bd3d
00000370: de1a bdbe 70ce 85be 1b12 1fbd 2902 acbc
00000380: baed 093d 7d72 193b b2a0 1ebc b973 1cbd
00000390: 4505 13bf fe9d e2be 19e7 10bc e589 81bd
000003a0: c040 853e 8753 1abe e087 06bd 31e7 a2be
000003b0: dc4a 123e 388f a1bc 1602 41be 805d 57be
000003c0: 211a 8cbe d3b7 f2bc 1fb1 83be 8a51 8c3c
000003d0: b8d8 9dbd e732 f5be 0ecb d3bd 39e3 32be
000003e0: 8e3c 4e3d 10b3 cfbd f596 a7bd 2d8f 0dbe
000003f0: 55e0 07be 6593 b0bd 383d 833d d3e2 be3c
-0.32943293 -0.5519829 0.6784119 -0.1848254 -0.10111277 -0.90601414 -0.5263653 -1.4736068
0.44829276 -0.896876 -0.2489653 -2.502781 0.008769965 0.06016599 0.17397778 -0.036580622
0.09694185 0.018707063 -1.0017904 -1.3301752 2.575299 2.0090165 -1.0845062 -1.4065772
0.117528774 0.03764626 -0.008328499 -0.16781648 -0.30864456 -0.14866714 -0.043927237 -0.15951198
0.13686776 -0.20388137 -0.023878194 -0.05586789 -0.016336579 -0.0165223 0.20146269 0.0021533552
-0.21579397 -0.2116038 -0.08657908 0.03183277 0.1351194 0.05407776 -0.025561674 0.051013608
-0.22598512 -0.27594128 0.6865474 -0.32504058 -0.053649295 -0.29609734 -0.014381243 0.0551129
-0.0095028505 -0.0792346 -0.30640006 -0.07562013 -0.61069304 -0.19126564 1.2602825 -0.7038771
-0.5308732 -1.6935045 0.12940757 0.07722726 -0.053900942 -0.09484023 0.0017316703 0.014513888
-0.072880164 -0.20193923 0.3040743 0.11611913 -0.0039412393 -0.066092014 -0.025226105 -0.067951515
0.044472896 -0.028770695 -0.11864232 -0.16735482 -0.11276267 0.13994746 0.2957196 -0.25348082
0.03817563 -0.05607258 -0.10428635 -0.037954263 0.036480233 0.0067783785 -0.175862 -0.18671106
-0.45953605 -0.100295596 0.79877776 0.18630762 -0.20008674 -0.0053185434 0.098575 -0.2494672
0.16433582 -0.06727183 0.033388767 -0.17407843 -0.9557377 -1.6444212 0.03252629 -1.5524915
-0.18977198 -1.1127366 -0.02749981 0.1525226 -0.29889578 -0.20101838 -0.49823806 -0.14489505
0.008832918 0.018330166 0.017742747 0.040237892 0.028950093 -0.025306081 -0.8846414 -1.8843565
0.6381012 -0.66685855 -0.8652079 -1.945319 -0.11974374 -0.015555463 0.24709438 -0.026417386
-0.034435317 -0.08688385 0.14318779 -0.15915942 0.0056981146 -0.026709337 -0.034356903 -0.11558123
-2.2159941 -0.80488575 0.903032 4.2920055 0.96625245 -2.8764858 -0.013116001 -0.26576963
0.60364664 0.07034529 -0.04420691 -0.20222099 -0.66886336 -0.6069835 1.0982307 -0.009367867
-0.28363243 -0.4751686 -0.058820464 0.019882029 0.114609376 0.05725258 -0.050835494 -0.04078072
-0.28649572 -0.26289818 0.23754273 0.4118237 -0.43205202 -0.84107167 0.08071495 0.105765454
0.32975692 -0.12060671 0.12784068 -0.18374929 0.36395884 0.24508943 0.022335732 0.15186581
-0.018127223 0.08577284 -2.934187 -1.4171728 1.4256122 0.71316266 -0.5788887 -5.630563
-0.11790141 0.101518504 0.2849215 0.0049116914 0.027993422 -0.022744644 -0.43985298 -0.5151713
0.001413199 -0.22012536 0.117101476 -0.19594526 -0.006443656 0.054472484 -0.010149868 -0.09527413
-0.20510928 0.03722451 -0.20555013 -0.038788445 0.48456344 -0.15104584 0.1722945 -0.09667872
-0.55012333 -0.07880183 0.05886814 0.09254306 -0.3693456 -0.26134062 -0.038835626 -0.020997124
0.03367398 0.0023414188 -0.009681867 -0.0381963 -0.57429916 -0.44261163 -0.0088441605 -0.063251294
0.26025963 -0.15070926 -0.032844424 -0.3181701 0.14286369 -0.019721612 -0.18848452 -0.21031761
-0.27363685 -0.02962867 -0.2572107 0.017128725 -0.077073514 -0.47890398 -0.10341464 -0.17469491
0.05035072 -0.10141575 -0.0818309 -0.13824148 -0.1326917 -0.08621863 0.06408161 0.023301518

layer2.1.bias f4 [256]
00000000: dec5 b9c1 4134 ccc0 6fab a542 2207 bec0
00000010: c250 8bc0 c22d 4742 8080 3a42 adbb 6142
00000020: d888 dbc1 2a3e 4142 32cd 0cc1 c103 b142
00000030: 38d8 4242 49b9 0542 43cd 5842 a7ec 3a42
00000040: 7211 8bc0 a85f 2f42 540a 30c1 7296 b0c0
00000050: 930a a442 8250 18c1 312b 7642 c3ed 7642
00000060: 5223 1cc2 a398 a8c0 63fb 9ac0 2287 7c42
00000070: fbd6 99c1 b058 f741 9f7f d642 fa47 a7c0
00000080: 7aee 4642 0882 0842 c62e 8942 d065 1dc1
00000090: 5399 603f abb9 8442 420a c841 4c93 b640
000000a0: 0406 9341 efe0 cb41 f27e bac0 6619 7742
000000b0: b645 82c1 c298 e142 e504 8442 a7dc 4fc1
000000c0: 477d 90c1 e72b aec1 979e 2cc2 c5cb 16c1
000000d0: 6766 9642 fd73 7642 a134 abc0 4829 db42
000000e0: c54f 77c1 d897 993e f9ab 8042 615f 1942
000000f0: a026 4fc2 a863 4cc2 2d7c ecc0 7c06 7fc1
00000100: 6023 8242 65ed 8bbf 0864 31c1 491d cfc0
00000110: e95f 8642 5695 5541 c589 9fc1 1594 e4c1
00000120: 9b56 9f42 682f d4c0 e442 4ac2 aae2 8042
00000130: 2065 92c1 8536 4541 d8a6 2fc2 6103 dabe
00000140: b6c4 89c1 b46c 46c1 30b2 4cc1 c490 db42
00000150: 8c51 6642 2e2a 68c2 1dda 3e40 9faf 0ec1
00000160: c763 2642 36f9 d641 1907 e3be 0312 32c1
00000170: 9398 5741 00cc c9c1 36c5 5d42 4649 1ec1
00000180: 332c 7ac1 6978 29c0 c0f1 7140 17b4 56c1
00000190: 0b70 ce42 6571 27c1 759f a3c1 ed5f 2442
000001a0: 3ef0 1bc1 2f9e 1742 9376 0f42 ce67 e8c0
000001b0: 164d 42c1 602a 3842 76b0 cac1 11f7 86c1
000001c0: 954f b442 664b e341 4a2e 6442 ade6 1941
000001d0: d18d 2f42 94d0 b2c0 305f 9bc1 3e19 fa3f
000001e0: 37a2 84c1 0dcd 25c1 fa91 5a42 9182 8ec0
000001f0: 6a75 c6c1 ff91 8042 6350 fa41 fc6f 0fc1
00000200: 07f0 9142 1ac5 12c1 87fd 6bc1 1a30 1bc2
00000210: b444 6842 eda9 99c0 3b24 fb40 7816 90c1
00000220: a45b 9cc1 ce42 07c1 fb7e a041 1da2 8f42
00000230: 0fbe 1142 a729 b841 d465 9b42 3df6 a4c0
00000240: 2aeb 24c0 8613 7d40 ad3e 51c1 6f41 2d3f
00000250: 741c 8f3f df16 7f42 6d36 8a41 84cd b8be
00000260: 04fa 1641 7bd7 8fc1 6715 f941 4c29 4940
00000270: f719 ca42 b67c 81c1 ce26 8ebf f631 3c42
00000280: 13e2 59c1 80cc 2dc2 c919 97bf f794 28c1
00000290: f9b5 9d42 d456 e6bf 3022 6642 3b47 80c0
000002a0: c8ec f0bf cf75 6242 c61c 1ec0 3c8a bac1
000002b0: ae20 f2c0 203a fd41 1bc6 bbc1 6e7d e6c0
000002c0: e812 6c41 496d cfc1 6a35 e740 7dda 83c1
000002d0: 992e 8ac1 959f 3d42 2e6a 09c2 950d 5a42
000002e0: 6626 8b41 b8e8 7b42 e352 db42 e0a5 3f42
000002f0: 4377 4a42 9a02 90c1 8def 9a42 ecf9 7140
00000300: 2749 a8c1 0ba8 3c42 a057 32c1 314a 84c1
00000310: 2d04 6b42 1c43 c4bf 6dd0 1fc1 a384 8340
00000320: dec2 2542 d74c 8242 bdc8 e140 b381 32c1
00000330: dc6e e242 0b17 08c2 300e febf 1483 1242
00000340: cdfb 8d42 eb9f 83c1 dc43 fc41 7e69 33c1
00000350: 9646 4ec1 93c3 41c1 388d 7942 e205 8040
00000360: ffd2 5ec1 95e3 8642 ac6e 1741 eeb3 04c2
00000370: 698c 9442 daea 3cc1 4465 c442 2241 9a42
00000380: 7680 a042 9bf3 af42 1334 57c1 6897 59c1
00000390: 22c6 04c1 a87c 9fc1 098f 9c40 0ae3 6c40
000003a0: 8b9b 9342 d069 c4c1 cde1 c440 c5e1 5c41
000003b0: 9932 95c1 2d49 8f42 b655 8bc1 3847 95c0
000003c0: 5fce e7bf e1a1 5d42 d99d d4c0 0df9 9442
000003d0: 754f 13c2 f7e5 7f42 f140 8141 3e1d 1ac1
000003e0: 477a d941 6183 22c1 c6d9 ea41 ac48 a5c0
000003f0: 2df8 9142 e131 18c2 692b 1142 0eb9 cbc0
-23.221615 -6.3813787 82.83483 -5.9383707 -4.353608 49.794685 46.62549 56.433277
-27.441818 48.310707 -8.8000965 88.50733 48.71115 33.430943 54.20045 46.731106
-4.3458796 43.843414 -11.0025215 -5.518365 82.02065 -9.519655 61.54218 61.73219
-39.034492 -5.2686324 -4.843187 63.131966 -19.22997 30.918304 107.24926 -5.227536
49.732887 34.126984 68.591354 -9.837357 0.87733954 66.36263 25.005009 5.7054806
18.377937 25.48483 -5.8279963 61.774803 -16.284039 112.798355 66.00956 -12.99137
-18.06117 -21.771437 -43.154873 -9.424748 75.200005 61.61327 -5.3501744 109.58063
-15.456975 0.2999866 64.335884 38.343143 -51.78772 -51.09732 -7.390158 -15.939083
65.06909 -1.0931822 -11.086922 -6.472325 67.187325 13.348959 -19.94227 -28.572306
79.66915 -6.630787 -50.565323 64.4427 -18.299377 12.32581 -43.912933 -0.42580703
-17.22105 -12.401539 -12.793503 109.782745 57.579636 -58.04119 2.9820626 -8.917876
41.59744 26.871685 -0.44341353 -11.129397 13.47475 -25.22461 55.44259 -9.892889
-15.635791 -2.6479743 3.7803802 -13.418967 103.218834 -10.465184 -20.45286 41.093678
-9.746153 37.904476 35.865795 -7.2626715 -12.14382 46.04138 -25.336163 -16.870638
90.15543 28.411816 57.045204 9.618817 43.888493 -5.587961 -19.421478 1.9538953
-16.579206 -10.362561 54.642555 -4.4534383 -24.807331 64.28515 31.289251 -8.96484
72.9688 -9.1731205 -14.749396 -38.796974 58.067093 -4.801993 7.8481727 -18.010971
-19.544746 -8.45381 20.062002 71.81663 36.435604 23.020338 77.69888 -5.1550584
-2.5768533 3.9543166 -13.077802 0.6767797 1.1180558 63.772335 17.276575 -0.36094296
9.436039 -17.980215 31.13545 3.1431456 101.05071 -16.185894 -1.1105592 47.04879
-13.617694 -43.449707 -1.1804744 -10.536368 78.855415 -1.7995248 57.533386 -4.008695
-1.882226 56.615047 -2.4705062 -23.317497 -7.566489 31.653381 -23.471731 -7.2028112
14.754616 -25.928362 7.2252703 -16.481684 -17.272753 47.40584 -34.35369 54.513264
17.39375 62.977264 109.66189 47.911987 50.616467 -18.00127 77.46787 3.780879
-21.035719 47.164104 -11.146393 -16.536226 58.754078 -1.533298 -9.988385 4.109941
41.4403 65.15008 7.055754 -11.156665 113.21652 -34.022503 -1.984808 36.628006
70.9918 -16.453085 31.533134 -11.213255 -12.892233 -12.110248 62.38791 4.000718
-13.926513 67.444496 9.4645195 -33.175713 74.27424 -11.807337 98.197784 77.12721
80.2509 87.97579 -13.450213 -13.599464 -8.298372 -19.935867 4.8924603 3.7013574
73.803795 -24.551666 6.1525636 13.8051195 -18.649706 71.64292 -17.416851 -4.6649437
-1.8109854 55.408085 -6.6442685 74.48643 -36.827595 63.974575 16.15671 -9.632139
27.184706 -10.157075 29.356335 -5.165121 72.98472 -38.04871 36.292393 -6.3663397

layer2.3.weight f4 [256, 256]
00000000: 6038 ddbd 080e 15bd 2e3e 8bbd d28e 9cbc
00000010: 36ef 2abe 6222 3fbc 9a3d dd3c 6109 103c
00000020: c57c 13be 8f1c f7bd ae4b 7bbe 9daa c4bb
00000030: 0432 d33a 87fa 563c eeb5 b5bd 2ae7 06bc
00000040: 1413 dabd 14ea a3bd 0c26 08be d82a 963d
00000050: f656 863d ddc6 54be 5688 8c3d e560 edbd
00000060: 34cf 59be 3b5a d33b 1ce7 02be b35d 8c3c
00000070: 0f6d 80bd 3794 c33d 72cd f4bb a874 233d
00000080: 33a2 263d 222e 4dbe 0609 5039 c297 7dbd
00000090: 472b 3cbd 3e01 aabd bddb 1bbe 4347 6dbd
000000a0: f5f5 cb3d 6538 28bd 71ff 13be abf4 13be
000000b0: a014 96bd 85cb dfbd ca15 b6bd 2148 08be
000000c0: d0a0 0abd 4242 20bd e79c 35be 87fe b9bd
000000d0: 26cb 33bc 75e2 9cbd f8fd d3bd b016 c9bd
000000e0: 3c14 9ebd 3377 6fbe 4c13 5fbd 1e14 6ebd
000000f0: ad4a 97bd 1ca8 9cbd eb38 a5bd 3e1c 563a
00000100: d14b 02bc 009b 1dbe aeb0 8dbd b0d4 ddbc
00000110: a0c4 19bd 5f21 c2bd d0fd 07bd aa43 0dbd
00000120: ec97 0bbd 0615 b2bd 0297 a0bd 21e7 bcbc
00000130: 908c cbbd e9d9 1cbe 46a1 7bbd 0229 50be
00000140: 6080 acbd b7f5 09be 45de 52be e21a b9bc
00000150: d39b 353d 4de5 8abd 2737 ccbd d68b 31be
00000160: 1385 4abe 2f64 9f3d e8a4 403d 3869 92bd
00000170: 007c b9bd 3be2 bfbd 6467 6c3d 47f9 14be
00000180: 08e7 e63c 4479 f1bc daa2 0dbe 2f9f 3abc
00000190: dee4 22be 49e9 7fbc 4e27 ab3c d005 e6bd
000001a0: 5a28 edbb b8c9 ac3d 9fe1 24be 02c6 63bd
000001b0: 0d9a 2abd 4147 283c 8bdf 2c3d 0753 20bc
000001c0: a401 14be 7765 07bd 41a4 743d 8f9f fb3c
000001d0: 7fd6 a4bb a4e0 81bd 590d 82bc 1899 4ebe
000001e0: b9dc 84bd 2fff 93bd 8199 fbbd 3fe1 ffbd
000001f0: bf71 323d 0353 89bd ce4f 573d 5059 3c3d
00000200: 2af6 18be 48db 03be 06e3 e6bd de3f 693d
00000210: a69a 063d 753b 9fbd 44b8 873d b914 f2bc
00000220: 3046 10be 4f7d 2fbc 424f 82be 79af d4bd
00000230: 7f30 a7bc 63ac 36be cc33 bebc 3ff6 2ebe
00000240: 1aa9 5abe b3ab 09be 230e efbd b40a 743c
00000250: 826a 3cbd e4c9 29be a0fa fb3d c1a5 bcbd
00000260: 84c0 593d e81e 48bd d8a2 7dbd d4ea 01be
00000270: 009e 93bd 96ef 4cbe 9ddc c1bd 78de a6bb
00000280: 1ca3 cdbd e93d fdbd 2c39 25be 37df cfbd
00000290: ec33 aebd 1edb d8bd 9e13 ccbc 9bfd 06be
000002a0: dcdc 88bd 8d47 2d3d de81 6fbe f20a 683c
000002b0: 4a5d b4bd 8cb7 59be bdc6 15bd f722 343d
000002c0: de65 f4bd 6586 24bd b8bc e1bd ec84 bdbd
000002d0: cec4 b8bd 06f5 10be 72d3 0dbe 614d ad3c
000002e0: b39f f6bc 2352 843d c410 03be e6f5 a8bd
000002f0: 87d1 f6bd 7c81 8dbd f3c3 91bc aa67 59be
00000300: 766a ffbc d1b2 b1bc 0ba1 6ebe 3333 fa3c
00000310: 88e7 01be 430d ddbd 181d 8fbd d769 4fbd
00000320: e870 b33d c5f0 89bd c3ee e4bd 54a4 27be
00000330: 89e8 83bc a5f7 8cbd b158 bf3c 8f9e 3dbe
00000340: b737 41bd 322c 8abd 05c2 a7bc af5b 82be
00000350: 9630 0f3c 579e 3cbd 87bd 47bd 1b25 bfbd
00000360: 1c65 a2be 3358 0ebe 3118 e2bc 1382 cebd
00000370: b6a0 94bd d009 0fbe 64bc 373c 41a0 f9bd
00000380: 9e58 52bd d60f 1dbe bf41 3dbe f38a 5bbc
00000390: ddc0 e7bd 0bd4 22bd 4dce 2a3c 5a66 973b
000003a0: 424a 793c 391c febd bf8d c7bd d333 dbbd
000003b0: 4935 adbd f066 b3bd 904d 203d aa7d fcbd
000003c0: 918b 58bc bc65 4fbd 46e1 aa3c 26f0 7abd
000003d0: 2925 05be 40f3 25be 5c00 a0bd 7ee8 11be
000003e0: c39b 8a3d 7c50 c3bd 123c 2c3d 92de 943d
000003f0: dc47 d7bd 0389 a7bd 9d27 22bd 574c ffbb
-0.10801768 -0.036390334 -0.06798969 -0.01911107 -0.16692814 -0.011665912 0.027006913 0.008791299
-0.14403065 -0.12065994 -0.24540588 -0.006001784 0.0016112928 0.013121254 -0.08872591 -0.008233825
-0.1064817 -0.08003631 -0.13295764 0.073323905 0.06559555 -0.20778985 0.068619415 -0.11590747
-0.21270448 0.0064499653 -0.12783474 0.017134523 -0.06270801 0.09549754 -0.00747078 0.039906174
0.04068203 -0.2003713 0.00019839787 -0.061912306 -0.04593971 -0.08301018 -0.15220542 -0.05792929
0.09959022 -0.041069407 -0.14452912 -0.14448802 -0.07328153 -0.1092749 -0.08890875 -0.13308765
-0.03384477 -0.03912569 -0.17735635 -0.0908175 -0.010973727 -0.07660381 -0.10351175 -0.098187804
-0.07718703 -0.23385315 -0.054461762 -0.058124654 -0.0738729 -0.07649252 -0.08067497 0.00081676606
-0.007952646 -0.15391159 -0.069184646 -0.027078956 -0.03754103 -0.09479021 -0.03320104 -0.034488358
-0.03408043 -0.08695416 -0.078413025 -0.02305943 -0.099389195 -0.15317501 -0.0614331 -0.20328143
-0.08422923 -0.13472639 -0.20592602 -0.022595827 0.04433806 -0.06782017 -0.09971457 -0.173385
-0.19777326 0.077827804 0.047032267 -0.07148975 -0.09056854 -0.09369322 0.05771579 -0.14548217
0.028186336 -0.02947677 -0.13831654 -0.011390491 -0.15907618 -0.015619584 0.020892765 -0.112315774
-0.0072374763 0.08436912 -0.16101693 -0.055608757 -0.04165082 0.0102708945 0.042205375 -0.00978542
-0.14453751 -0.03305575 0.059726957 0.030715732 -0.0050304527 -0.06341675 -0.015875505 -0.20175588
-0.06487412 -0.07226407 -0.12285138 -0.12494134 0.043565508 -0.06705286 0.052566342 0.045983613
-0.14937654 -0.12876618 -0.1127377 0.056945674 0.032862328 -0.077750124 0.06626943 -0.029550897
-0.14089274 -0.010711028 -0.25451094 -0.10385031 -0.020408867 -0.17839198 -0.023218058 -0.17086123
-0.2135357 -0.13444404 -0.11672618 0.01489513 -0.04600001 -0.16580921 0.12303662 -0.092113025
0.053162113 -0.0488576 -0.061922878 -0.12687236 -0.072078705 -0.2001327 -0.09465907 -0.0050924383
-0.10040876 -0.12365324 -0.1613509 -0.10149997 -0.08505997 -0.10588668 -0.024911698 -0.1318268
-0.066827506 0.042304564 -0.23389384 0.014162766 -0.08806856 -0.21261424 -0.036566485 0.043978658
-0.11933492 -0.04016723 -0.11022323 -0.092538685 -0.090219125 -0.14155969 -0.13850191 0.021155061
-0.030105447 0.06460979 -0.12799364 -0.082500264 -0.12051683 -0.06909463 -0.017793631 -0.21230951
-0.031178694 -0.021691712 -0.2330362 0.030541992 -0.12685978 -0.10793545 -0.06987971 -0.050638046
0.087617695 -0.06735376 -0.11178353 -0.1637128 -0.016102092 -0.06883172 0.023357721 -0.18517517
-0.047172274 -0.06746711 -0.020478258 -0.25460574 0.008739611 -0.046049442 -0.04876473 -0.09333249
-0.31717765 -0.13900833 -0.027599426 -0.100834034 -0.07257216 -0.13968587 0.011214349 -0.12188769
-0.051354043 -0.15338072 -0.18482111 -0.013399827 -0.113160826 -0.039753 0.0104251625 0.0046203556
0.015215458 -0.12407727 -0.09743833 -0.10703244 -0.08457429 -0.08759868 0.03913647 -0.12328656
-0.013216869 -0.05063413 0.020859372 -0.06126418 -0.13002457 -0.16206074 -0.078125685 -0.14248845
0.067679904 -0.095368356 0.042049475 0.072690144 -0.10511753 -0.0818043 -0.03958856 -0.007791083

layer2.3.bias f4 [256]
00000000: af00 803f b5ff 30be 18e7 2f3d 7436 3c42
00000010: f4b6 5742 c956 4cbe 71e5 ab40 ca3c 29be
00000020: f000 2cbe d714 4dbe bf24 5f3d d335 4342
00000030: f5b3 62bd eee8 0b42 75fc 2e3e 0edb b0bd
00000040: a9ea d6bd 6f00 ef41 e954 e040 6a71 0240
00000050: 26c8 42be bbe2 12be b10d 8d42 125c 71be
00000060: 3b47 b9bd a388 933e bb5c 00be 55db 44be
00000070: d0c7 e0bd fdd8 6abe 9a5b db3d d041 893f
00000080: d260 333e 8d18 9dbd 490f d0be 22fd 10be
00000090: 7a2d 733e b63b b841 d48d 8ebb 2135 b7bd
000000a0: bbfb 9bbe 294f 31be d28a 693f 3e3d 6542
000000b0: a45c 37be 2247 8341 af4a ebbd fc96 2941
000000c0: 985c 2ebf 91ca 4142 2176 7b42 40f9 96bd
000000d0: 18c4 0fbb f86f b841 e73b e1bf 5321 723e
000000e0: c970 e5bd da65 14be b514 bcbd c33e 63bd
000000f0: 63da 453d c8c5 1c3f c4ca c1be 87ed 7a40
00000100: a454 9141 fc82 193e addb 0f42 874b ca3f
00000110: 0473 26be 0a42 8942 e6ec d1bd c873 94bc
00000120: 80c6 7dbd 4b6a 633f 24af f9bd 051e 74be
00000130: 6cac 453e b7a2 253d 4070 4fbe 6c0f d8be
00000140: 87b7 16be 593d a342 91a7 f9bc aa4e cbbe
00000150: b6dd 8641 762d efbd 60ef 4642 4515 cfbe
00000160: ce00 6942 3fa7 00be 572e da41 fd80 8e42
00000170: b5c1 3141 8bf0 28bd a079 26bd 9352 9142
00000180: f3bf fe41 067d 3942 ab35 2d3f 3a51 edbe
00000190: 2cc9 0b42 8615 a041 be8c 5abd a93e fabd
000001a0: 7569 94be 145e 2e42 b296 1fbe 088a da40
000001b0: ef8a 5642 92af 06be 49bc 22be dedc ca40
000001c0: 6eb9 0e40 ebeb 7342 0e17 27be 23da 7d3e
000001d0: 5f76 9f41 9845 8242 1e13 1142 6e19 eb3e
000001e0: d281 e5bc 3169 85bd 29a1 253e 7b01 7241
000001f0: 26a7 893d 0493 42be 503e a0bc e538 adbf
00000200: e190 f33c a721 c2bd 1eeb 5442 0f7e 0241
00000210: 2472 efbd b107 19bd 54a1 d1bd 163e c0be
00000220: 6c86 30be a63a 8a42 62ce 66be 9524 0342
00000230: a5d7 6040 c6b4 8140 ef58 683f 3819 6fbd
00000240: e8c0 a03e 8259 8840 218b 953f ae76 103e
00000250: d4b2 643e f650 1642 b3b2 69bf 52af e5be
00000260: 0d00 d6be d0a3 e6bd 3acc 5cbd ce53 2cbe
00000270: c800 7b42 9057 033f 0c45 f3be c02e e640
00000280: ba33 53be 3997 3dbe e567 3042 b77c 983f
00000290: 9d78 13be f2a0 3940 1a06 1341 1c90 8e3e
000002a0: 68f0 3e3e 78fa 993e a948 9bbd b8ec fc3d
000002b0: 5476 9cbd b427 f0bd c459 84be 7995 1942
000002c0: 3c0f fabd c5ce 1240 6d67 9842 f3f9 c63f
000002d0: e95b 6c3f 580b 1ebc 6616 6d41 df36 7a41
000002e0: 8b35 6542 57e2 04be 254f 3b40 6c82 5042
000002f0: 9636 e4be 78ab 1a3d 3ae5 aa40 99f1 603e
00000300: a540 78bd ed52 943e a42c 1c3f 5a49 d33e
00000310: 29ee 45be ef2b 323c 6a1b 9342 86ab 9ebe
00000320: a9ab c1bd 4eae cfbe 309e 733f 0895 5640
00000330: dd6c b341 11b2 92bc 13ff 943e fb7d a342
00000340: 6238 2742 16ea 1742 3aed 9f42 23e9 c341
00000350: d53a 35be 3ea0 453e 6e39 2f3d 879a dc3e
00000360: ee9a 3f42 214d 38be a827 b13f ab85 75bd
00000370: 7a48 83be 28dd 823e 0908 05be 6e2f 6940
00000380: 0003 a2bd e6b6 37bd 7001 28be 0140 0f3f
00000390: 6b0c 6ebe ef3b 13be 3bc5 24be 7f2c 8341
000003a0: 13cc 8142 9581 2b42 028d c3be 07b8 50be
000003b0: 82e3 2b3f c92c 533f cf7d e83d b226 00be
000003c0: a4a9 4042 7efe 0f3f 13ca 7642 2082 123f
000003d0: 0c9d 8640 ac3f b640 d646 3242 2300 4cbe
000003e0: a6ab 07be 8cb3 1442 3abc 1e42 9784 c0bc
000003f0: c9c6 4bbe 7053 6242 875d 8142 83f6 9cbe
1.0000209 -0.17285044 0.042944998 47.053177 53.928665 -0.19954981 5.371758 -0.16527095
-0.16797233 -0.20027481 0.054478403 48.802563 -0.0553474 34.97747 0.17088492 -0.08635531
-0.104939766 29.875212 7.010365 2.0381722 -0.19021663 -0.14344303 70.52674 -0.23570278
-0.09046789 0.28815183 -0.12535374 -0.19224294 -0.10975611 -0.22934337 0.10710831 1.0723209
0.17517403 -0.07670698 -0.40636662 -0.14159063 0.23747817 23.029156 -0.0043504033 -0.089456804
-0.30465493 -0.17315353 0.9122745 57.309807 -0.17906433 16.409733 -0.11488854 10.599361
-0.68110037 48.44782 62.86536 -0.073717594 -0.002193695 23.054672 -1.7596406 0.23645525
-0.11203153 -0.14491978 -0.09183637 -0.055479776 0.048303973 0.6123929 -0.3785001 3.9207475
18.166328 0.14991373 35.964527 1.5804299 -0.16254812 68.62898 -0.10250263 -0.018121615
-0.061956882 0.88834065 -0.121916085 -0.23839577 0.19304055 0.04043838 -0.20257664 -0.42199266
-0.14718448 81.61982 -0.03047541 -0.39708453 16.858257 -0.11678593 49.733765 -0.40445915
58.250786 -0.125638 27.272627 71.25193 11.109792 -0.041245025 -0.040643334 72.66128
31.843725 46.372093 0.67660016 -0.46351033 34.946457 20.01051 -0.05335688 -0.12218983
-0.28986707 43.591873 -0.1558483 6.8293495 53.635677 -0.13152912 -0.15892138 6.3394613
2.2300677 60.98039 -0.16317388 0.24790244 19.932798 65.135925 36.26867 0.4591784
-0.028016005 -0.06514204 0.16174759 15.125361 0.06721334 -0.19001395 -0.019560963 -1.3532988
0.02973217 -0.09479075 53.229607 8.155776 -0.116916925 -0.03736085 -0.10235849 -0.37547368
-0.17238778 69.11455 -0.22539666 32.785725 3.513162 4.053317 0.907607 -0.05837366
0.31397176 4.2609262 1.1683084 0.14107773 0.22333843 37.579063 -0.912883 -0.4486032
-0.41796914 -0.112617135 -0.053905703 -0.16828844 62.750763 0.51305485 -0.47513616 7.193207
-0.20625201 -0.18514718 44.10146 1.191306 -0.14401479 2.9004483 9.18899 0.27844322
0.18646395 0.30073905 -0.07582218 0.12349838 -0.07639757 -0.11726323 -0.25849736 38.39597
-0.12209937 2.2938702 76.202 1.5545028 0.92327744 -0.009646259 14.817968 15.638396
57.302288 -0.12976967 2.9267056 52.127365 -0.44572896 0.03776118 5.3404818 0.21967162
-0.060608525 0.28969517 0.61005616 0.412669 -0.19329132 0.010874732 73.55354 -0.30990237
-0.0945657 -0.4056267 0.9516325 3.3528461 22.428156 -0.017907174 0.29100856 81.746056
41.80506 37.9786 79.96333 24.488836 -0.17698224 0.19299409 0.04277938 0.43086645
47.9013 -0.17998172 1.3840227 -0.05994193 -0.25641233 0.25559354 -0.12991346 3.6435199
-0.079107285 -0.04485216 -0.16406798 0.5595704 -0.23246925 -0.14378332 -0.16090862 16.396727
64.89858 42.876545 -0.38193518 -0.20382701 0.67144024 0.8249021 0.11352121 -0.12514761
48.165665 0.562477 61.69734 0.57229805 4.2066708 5.6952724 44.569176 -0.19921927
-0.13249072 37.17534 39.683815 -0.023500724 -0.1990005 56.581482 64.68267 -0.30656824

layer2.6.weight f4 [1, 256]
00000000: 2054 423c 4cbb 5a3c 6ca1 6e3c 58ff d63d
00000010: 7a47 3e3d ff04 523c 9c86 3d3e c871 7cbc
00000020: 328a ed3c 6136 56bc d36c e13c db10 e13d
00000030: 139c cebc 780c b53d da8c adbc fbbd b1bc
00000040: db41 84bb f550 97bc 2cf1 4c3d 87de 903b
00000050: ea6b 9d3c fe2a c43c c0ef ac3b 3a6b 9e3c
00000060: 9b0d af3c 2f06 9c3c 1702 593c 8bf0 813c
00000070: 560f 18bc 3de4 e2bb 77c1 903c c05e ee3c
00000080: daec 74bd 7fd6 f33c 163e 813c f4ef 9fbc
00000090: 6b0b 5c3c 9fef 273d 8704 ed3c 5f38 f4bc
000000a0: 2fb7 523c aef1 b13c e25c bdbb 7210 e53d
000000b0: 12b8 d1bc 88e7 d63d a124 2e3c c74e 6d3d
000000c0: b073 dfba f55a c53d ea18 843a 764a 50ba
000000d0: e9a2 243c 4716 c4bc ac9f 48ba ceff a7bb
000000e0: 335a 163c 50c3 d2bb bfa1 df3c f091 dd3a
000000f0: b622 e73a 09b1 c8bc 70b6 b93b 5a9b 3d3c
00000100: 9dd2 3a3d ca7a b63c fa17 cd3d 762d 60bc
00000110: 9191 c43b f147 253e 7c95 b73c fe23 353b
00000120: 5361 31ba 023a 9f3c 68ed 2fbc 09cd 043c
00000130: ef05 e339 9237 123c 9299 f8bc 82ab ecbc
00000140: afae 53ba 3da2 fe3d 2d8a e93c 3d26 a53c
00000150: 845f a43b 193e 04bc e602 9c3c 4ae9 a8bc
00000160: 96c5 2e3e b02d 90bc 37dd 353d 312b 903d
00000170: 6ec2 dc3c 0371 af3c bc6e 013d da2b 6b3d
00000180: d966 a93e 53ac cb3c bcaa a03b 9b2c 403c
00000190: 894f 163e 7300 1a3e ab4d 543b c3ac 9aba
000001a0: da76 e9bc ebd6 c73d 072c e33c e810 0bbb
000001b0: ef24 173e 75c5 2fbc 11ad 8c3c 4b33 7b3e
000001c0: b2f6 db3c 0dff a13c 7901 30bc 81c0 3fbb
000001d0: 20ef 883e ecf5 6e3d ea02 c2bc 1f94 ae3c
000001e0: d422 df3c f597 343a 01cd ad3b 3ae3 bb38
000001f0: 117c 2d3c 7ba9 bc3c a420 0b3c 3045 46ba
00000200: e9fd ba3c d151 9cbc 0b01 2e3e 02b6 c23e
00000210: 882f 5ebc 1639 693c 0da3 2fbb e9b1 9a3b
00000220: 2a77 9dba bb46 393e 52bb 203c 12c7 943d
00000230: befd 35bc 43dc 5cbc c263 ae3e 1dcd b8bc
00000240: b3f6 953c 86e2 553c e6bb aebc e8eb efb8
00000250: b943 c13c e544 383e 5481 463c fc31 cd3c
00000260: e5d5 53ba fe1f e3bc 45b9 053c 17d9 983c
00000270: af30 db3c 89da d9bb e579 b5bd 19f0 5e3d
00000280: 1ff9 dc3c 99cc 123c 1757 9f3d 1aff a7bc
00000290: 7396 ae3c 83f4 3f3d 8c96 8f3e bef7 c83b
000002a0: 96cb bf3d b25b e03c d767 92bc ad9b 963c
000002b0: 4035 ca3b 5d1f b4bc be43 a33c b7a4 c43d
000002c0: 5a8f ed3c aa73 4c3c 4c7a 0e3d 0561 113d
000002d0: 2378 d43b a636 393c f36f 81bc 2131 9d3d
000002e0: cac8 1e3e 4203 103d fa03 033c 86f6 463e
000002f0: 299c 313c 6e4d febc 3c5d a23e 9223 023c
00000300: e0ff 01bd e638 533d 52ad 183b 495a a3bc
00000310: 2a45 33bc a319 a43c 5cc2 b13d f0b1 66bc
00000320: 89ca 7c3c aee2 05bc 635b b83b a957 033d
00000330: a6cc db3d 8d46 813c 29d5 9c3c 73e0 bf3c
00000340: b3bd 263e e64a f33d 5c2f c93b 084d 353c
00000350: d785 02bc 7974 72bc aab1 92bc 4653 cdbc
00000360: 7079 f9bd 0d81 9b3c ad3f 563d 222c bcbb
00000370: cfc9 db3c 41ac 7f3c 3b76 ea3c 1d7b 55bc
00000380: f5a0 773c 0092 febc 35a5 4dbc cf14 313c
00000390: c708 933c f07e 653c 490a 2dbb 8f35 a83e
000003a0: 35af 2f3d 0316 d33e 0f94 523c 4a6a 443a
000003b0: 033d 463c ece3 5b3c 68eb 013c b2a8 c63b
000003c0: d1d1 c53d 4fda b1bb 0f10 cd3d 1087 293c
000003d0: 5b1d 123d 4863 0d3e 148e 173e 31fd f83c
000003e0: b517 443b 40b7 5a3e 09bc e73d 661d a3bb
000003f0: 9fb2 8abc 3d29 473e b9fc 373c d5a7 5abd
0.011860877 0.013350319 0.014564853 0.10497922 0.046454884 0.012818574 0.1850838 -0.015407987
0.02899656 -0.013074488 0.027517712 0.10989543 -0.025220906 0.08840269 -0.021185327 -0.021697035
-0.004036171 -0.01847122 0.050034687 0.0044210586 0.019216496 0.023946282 0.005277604 0.019338239
0.021368792 0.019045917 0.013245127 0.01586177 -0.009281 -0.006924181 0.017670376 0.029097915
-0.05979619 0.029765366 0.015776675 -0.019523598 0.013430457 0.041000005 0.028932823 -0.029812036
0.012861057 0.021721687 -0.0057788948 0.11184777 -0.025600467 0.1049338 0.01062885 0.057936456
-0.0017048027 0.09636489 0.0010078226 -0.0007945666 0.010048606 -0.023936404 -0.00076531875 -0.00512693
0.009176779 -0.0064319745 0.027298806 0.0016904455 0.0017634246 -0.02449848 0.0056675 0.011572683
0.045611013 0.022275347 0.10014339 -0.013682714 0.005998798 0.16140725 0.022410147 0.0027639861
-0.00067665166 0.01943684 -0.010737754 0.008105525 0.00043301235 0.008924382 -0.030346666 -0.028890375
-0.0008075041 0.12433288 0.02850827 0.020159835 0.005016269 -0.008071446 0.01904435 -0.020619053
0.1706756 -0.01759991 0.04440042 0.07039488 0.02694818 0.021416193 0.031599745 0.057414867
0.3308628 0.024862444 0.0049031656 0.011729385 0.14678778 0.15039234 0.0032394927 -0.0011800755
-0.028499056 0.09757789 0.027730955 -0.0021219794 0.14760183 -0.01072823 0.017172368 0.24531285
0.026851032 0.019774938 -0.010742539 -0.0029259028 0.26744938 0.058339998 -0.02368303 0.021310864
0.027238287 0.00068890984 0.0053039794 8.959179e-05 0.010588662 0.023030033 0.008491669 -0.00075634103
0.022826152 -0.019081982 0.16992585 0.38029486 -0.013561137 0.014234802 -0.0026800067 0.0047209156
-0.0012013663 0.18093388 0.009810286 0.07264532 -0.01110786 -0.013480249 0.34060484 -0.022558743
0.018306112 0.013054496 -0.021329831 -0.00011440349 0.023591863 0.17995031 0.012115795 0.025048248
-0.0008080884 -0.027725216 0.0081618475 0.018658204 0.026756613 -0.006648366 -0.0886114 0.054428194
0.026974259 0.008959913 0.07780283 -0.020507384 0.021311974 0.046864044 0.28044546 0.006133049
0.09365003 0.027387474 -0.01787178 0.018384779 0.0061708987 -0.021987611 0.019929763 0.09601729
0.02899902 0.012478748 0.0347846 0.035492916 0.006484048 0.011304533 -0.015800452 0.07675386
0.15506282 0.035159357 0.007996554 0.19429979 0.010840454 -0.03104278 0.31711757 0.007943051
-0.031738162 0.051567934 0.0023296666 -0.019940512 -0.010941783 0.020031756 0.08679649 -0.01408051
0.0154291475 -0.00817172 0.0056261285 0.03206602 0.10732393 0.015780712 0.019144611 0.023422455
0.16283302 0.1187952 0.006139679 0.011065729 -0.00796648 -0.014798277 -0.017906982 -0.025064122
-0.121813655 0.018982435 0.05230682 -0.0057425657 0.026829628 0.015605033 0.02862083 -0.013029841
0.015114059 -0.031075478 -0.012551595 0.010808184 0.017948521 0.014007315 -0.0026403836 0.32853362
0.0428917 0.4122773 0.012852683 0.0007492645 0.012099507 0.01342104 0.00792966 0.0060625905
0.0965916 -0.0054276357 0.100128286 0.010347143 0.035672527 0.13807404 0.14800292 0.030394169
0.0029921357 0.21358967 0.11315162 -0.00497787 -0.016930876 0.19449325 0.011229687 -0.053382713
