Model_Files/bpiNoRepeat/TimestampPredictor_parameters_binary_0.001.pt (torch, 274383 bytes, 7 tensors)

layer1.weight f4 [4, 1]
-0.0048167985 0.046282902 -0.050001547 -60.70602
00000000: 3cd6 9dbb 2493 3d3d 6cce 4cbd f7d2 72c2

layer1.bias f4 [6]
-30.466574 -18.009274 -39.49165 -31.72037 -40.258266 2.929216
00000000: 8bbb f3c1 fe12 90c1 73f7 1dc2 51c3 fdc1
00000010: 7708 21c2 4678 3b40

layer2.1.weight f4 [256, 6]
0.018127298 0.029052503 0.06959921 -0.13520655 0.10702916 -0.28435466 0.025753982 0.3459261
0.51109236 -0.13637835 -0.21606396 0.0372552 4.1756325 2.1947296 2.7087111 0.44216952
1.0860994 0.6816341 0.32707044 0.13218679 0.10574589 -1.77376 0.09462268 0.020698443
-0.02414788 0.065470606 -0.17688908 -0.11362717 -0.14848574 -0.08573617 4.9741836 3.3555582
1.8771602 -0.120952405 2.1709335 1.0279933 -0.19702074 -0.13441916 -0.09854209 -0.39151406
-0.017119316 -0.044966992 0.2002701 -0.12668766 -0.03850597 -0.11217076 0.05667796 0.0092052
0.32371774 0.38088277 0.042930905 0.03568105 -0.038443588 -0.19260284 0.299867 0.5329406
0.14386664 -0.10617301 0.19499454 -0.05892851 -0.7295558 -1.0065064 1.1789817 -1.1633344
1.0206437 -2.904865 0.8378031 -0.3585627 -0.060006004 -0.23841847 -0.11901023 0.042546432
-0.02672409 -0.12941597 -0.09603862 -0.1261423 0.3283664 0.001223346 0.2115053 0.12536475
0.08537678 -0.22068547 -0.004201405 0.038186062 0.15822351 0.07077097 0.018113751 -0.21620727
0.24411619 -0.44291976 0.121184185 -0.05682358 0.13717294 0.12153804 -0.053112056 -0.27912316
0.005718394 0.12574142 0.198519 -0.17096117 0.22865649 -0.039918095 0.49918708 -0.033472255
-0.055959363 -0.54088223 -0.08923688 0.024937745 -0.046304025 0.017268283 0.41940594 -0.3331365
-0.20774359 -0.11020613 -0.02673385 -0.067886546 -0.11334437 -0.13139932 0.36222193 0.07646816
0.19431987 0.4545554 0.011238123 -0.5873257 0.3559588 0.071328506 -0.1679647 -0.09608679
-0.1110512 -0.25900394 -0.09118723 -0.021544714 -0.3750799 -0.20828234 -0.14373153 -0.40896088
-0.010952368 0.0021189323 0.6017593 -0.22939007 -0.07032001 -0.16078596 0.5033087 -1.132184
3.704772 3.3104873 1.1721885 -1.464735 1.3839447 0.71704865 -0.03652632 0.035237398
0.21168065 -1.2809668 0.32909444 0.06310555 -0.10037328 -0.0335721 -0.1916562 -0.31781903
0.35798264 -0.056007244 0.074663304 0.15847662 0.08548549 -0.10388925 0.07809537 0.0079325475
0.79116803 -0.026234575 0.5907044 -0.4455083 0.24076273 -0.27239236 0.39006498 1.4248849
6.352848e-05 -0.58081067 0.4554043 0.24016158 -0.05828311 -0.012879453 -0.13803552 -0.059650775
-0.009459622 -0.037542615 0.10232456 -0.07344562 -0.053773783 -0.20359439 -0.19313568 0.036684174
2.2189286 2.4901638 0.7759778 -0.75516045 0.86135167 -0.042559244 0.6082109 0.47134978
0.075566135 -0.13557513 -0.049178995 -0.7670941 3.5673366 3.9419334 1.5478988 -1.1865535
1.5710212 0.7536178 0.07008627 -0.008227712 -0.020938555 -0.09978397 0.110181846 0.024265867
-0.2600031 -0.30169615 -0.11540249 -0.2442398 -0.12017978 0.022188617 4.6749477 3.440812
2.1734204 0.13625328 1.4197351 1.2120124 0.1326286 -0.01850587 -0.055483 -0.07979363
-0.042809516 -0.04226964 0.10236749 0.012081952 0.08107305 -0.13320862 0.2430863 -0.023095382
-0.16626376 -0.14074947 -0.18910927 -0.9001005 -0.15429291 0.029576119 0.00071672344 -0.13483429
-0.07494014 -0.17501202 -0.09385604 -0.06058085 0.9876433 -0.1714228 0.3874144 -0.09237357
00000000: b37f 943c 84ff ed3c 088a 8e3d 9673 0abe
00000010: 1b32 db3d ef96 91be 04fa d23c 3a1d b13e
00000020: f3d6 023f c4a6 0bbe df3f 5dbe e998 183d
00000030: c89e 8540 7376 0c40 865b 2d40 0b64 e23e
00000040: 4e05 8b3f 937f 2e3f c775 a73e f95b 073e
00000050: 4d91 d83d 910a e3bf 89c9 c13d c88f a93c
00000060: c6d1 c5bc 7415 863d 6922 35be 5db5 e8bd
00000070: a50c 18be 7296 afbd 832c 9f40 77c1 5640
00000080: c946 f03f e5b5 f7bd 93f0 0a40 4995 833f
00000090: cebf 49be 2da5 09be 6fd0 c9bd 8874 c8be
000000a0: cf3d 8cbc 4f2f 38bd 9b13 4d3e 69ba 01be
000000b0: 70b8 1dbd c9b9 e5bd 2627 683d 68d1 163c
000000c0: 55be a53e 1103 c33e 51d8 2f3d 4b26 123d
000000d0: 0677 1dbd ae39 45be 2b88 993e cc6e 083f
000000e0: c751 133e 3c71 d9bd a6ac 473e 055f 71bd
000000f0: 2bc4 3abf 34d5 80bf dfe8 963f 24e8 94bf
00000100: 74a4 823f 4fe9 39c0 447a 563f 8895 b7be
00000110: dbc8 75bd f923 74be a3bb f3bd 2b45 2e3d
00000120: 7bec dabc 9f85 04be e5af c4bd 722b 01be
00000130: a41f a83e ae58 a03a d894 583e 9e5f 003e
00000140: 05da ae3d 5ffb 61be f1ab 89bb fd68 1c3d
00000150: 5805 223e 5ff0 903d 4a63 943c 7065 5dbe
00000160: 98f9 793e 61c6 e2be 6a2f f83d d8bf 68bd
00000170: 1077 0c3e f0e8 f83d 078c 59bd 3be9 8ebe
00000180: 5e61 bb3b 5cc2 003e 9148 4b3e 7210 2fbe
00000190: ed24 6a3e 2881 23bd 7395 ff3e 341a 09bd
000001a0: a535 65bd 4277 0abf d3c1 b6bd 3e4a cc3c
000001b0: 4aa9 3dbd 3776 8d3c 60bc d63e de90 aabe
000001c0: bcba 54be c0b3 e1bd f200 dbbc 1a08 8bbd
000001d0: 1821 e8bd 8b8d 06be 2775 b93e 579b 9c3d
000001e0: cafb 463e 7cbb e83e 1b20 383c fa5a 16bf
000001f0: 3b40 b63e ae14 923d f0fe 2bbe 27c9 c4bd
00000200: d06e e3bd 2a9c 84be 5fc0 babd 8a7e b0bc
00000210: 790a c0be f747 55be 5c2e 13be 5263 d1be
00000220: 9071 33bc c9dd 0a3b e60c 1a3f 3be5 6abe
00000230: f003 90bd 13a5 24be d7d8 003f 68eb 90bf
00000240: fc1a 6d40 06df 5340 460a 963f 707c bbbf
00000250: 1a25 b13f 8090 373f 9f9c 15bd 1755 103d
00000260: d0c2 583e b8f6 a3bf 117f a83e 7c3d 813d
00000270: 8290 cdbd e682 09bd 8641 44be 2db9 a2be
00000280: 8049 b73e da67 65bd 13e9 983d b247 223e
00000290: 0413 af3d e3c3 d4bd 77f0 9f3d 84f7 013c
000002a0: fd89 4a3f e4e9 d6bc 6738 173f aa19 e4be
000002b0: 818a 763e 0377 8bbe 99b6 c73e a162 b63f
000002c0: 983a 8538 02b0 14bf c12a e93e ebec 753e
000002d0: 45ba 6ebd 5704 53bc 2f59 0dbe 5f54 74bd
000002e0: 88fc 1abc 49c6 19bd 8a8f d13d a86a 96bd
000002f0: e641 5cbd 0c7b 50be 5cc5 45be 2542 163d
00000300: ed02 0e40 d85e 1f40 7ba6 463f 3252 41bf
00000310: 8b81 5c3f 9a52 2ebd b6b3 1b3f c254 f13e
00000320: 6bc2 9a3d 35d4 0abe ea6f 49bd 4760 44bf
00000330: 3e4f 6440 a348 7c40 8c21 c63f fce0 97bf
00000340: 3917 c93f 19ed 403f 6489 8f3d 86cd 06bc
00000350: 5587 abbc 8a5b ccbd 05a7 e13d 36c9 c63c
00000360: 201f 85be eb77 9abe 2458 ecbd 001a 7abe
00000370: d120 f6bd e7c4 b53c 2c99 9540 4436 5c40
00000380: 5219 0b40 fb85 0b3e e1b9 b53f 3923 9b3f
00000390: cbcf 073e 9f99 97bc 2442 63bd d86a a3bd
000003a0: 0859 2fbd ee22 2dbd 0ca6 d13d 61f3 453c
000003b0: a109 a63d d767 08be 9deb 783e 8732 bdbc
000003c0: 0c41 2abe a120 10be dca5 41be fd6c 66bf
000003d0: f6fe 1dbe 9e49 f23c 7fe2 3b3a 0012 0abe
000003e0: 377a 99bd 5a36 33be 9837 c0bd a023 78bd
000003f0: 31d6 7c3f 7589 2fbe 2e5b c63e 5b2e bdbd

layer2.1.bias f4 [256]
29.84266 -2.6118968 -11.814484 -4.1539445 47.65702 -12.473478 76.75244 28.709337
-4.624154 -0.91906697 -25.028841 59.621647 32.42744 -2.331383 28.938505 28.973993
16.848568 49.35654 21.4205 50.06973 -15.520544 53.971867 77.98552 -12.773919
-15.86651 -2.896776 12.210845 33.61736 0.7060556 -4.196921 59.850002 33.61164
-12.381933 -13.702136 -22.677761 42.625767 40.603012 -10.09474 52.18009 7.4148636
52.446644 47.094368 -9.414431 -4.302804 22.40772 20.575575 21.018732 50.535614
19.514194 11.289425 52.686775 57.215183 55.917927 63.65137 27.737963 53.546005
9.541716 -6.547687 48.636265 34.29078 41.178986 45.29005 36.444714 9.741174
20.059778 45.746586 40.486732 -0.63794017 21.749855 43.759018 62.2659 46.322987
47.23619 41.005447 24.781488 50.559208 45.65252 65.2044 60.061058 -18.2844
6.8176527 37.354927 19.934559 -9.524557 34.78977 -9.383605 75.55625 57.196213
-13.244991 55.534454 -15.66316 48.863464 41.3869 44.06064 15.256461 -10.533001
-0.18802954 -18.59085 -10.103573 48.81421 18.495617 -14.33036 -10.837813 40.219547
63.93624 57.14607 -14.426325 -5.7353125 -18.25298 50.09645 37.657276 72.367165
35.582886 32.866035 -1.0938289 52.647263 -12.342466 32.449936 51.500977 66.54516
62.716766 42.37438 1.6701183 39.193523 25.346622 -42.973057 33.451836 62.23075
77.72941 44.20229 -25.579607 -25.523867 5.7576904 39.81746 63.85777 -2.1684976
-6.858074 57.868324 -12.411346 -9.531316 36.10152 -1.7007216 34.20745 -11.99888
43.339207 -11.268098 55.449547 -27.423317 49.64813 -8.203803 21.291058 58.928257
-10.512004 43.38592 65.83189 50.731213 6.543291 71.41641 37.050884 -16.6123
41.73016 46.840538 -5.7143116 47.296204 49.11657 34.010624 -9.898044 34.520172
20.105145 19.89669 66.75047 0.48377633 37.73725 33.848713 60.776382 -9.7529545
-2.3681247 -4.9648733 41.523746 50.25307 38.142834 37.49886 43.522797 -3.500228
22.041676 43.569588 54.274803 12.384514 15.670382 62.333042 -0.8863629 -6.3709955
12.490636 52.65592 -2.8934674 -31.01039 13.480164 11.107687 60.440228 -15.459993
2.5793486 48.521156 35.586597 17.14933 -16.596922 37.431408 45.07223 13.407989
28.781416 48.86809 4.1696796 38.807556 -25.098866 10.346095 30.010128 -11.13172
-4.8093915 3.5216045 12.57276 43.33969 21.871975 13.592241 51.017742 -11.059013
6.6702952 8.73865 10.158615 44.216267 5.317067 -5.1387177 -22.781519 55.610935
50.128887 22.988298 1.0676408 29.468313 5.6323333 -5.914227 61.74846 38.91789
-7.5158815 -11.024832 -9.890422 41.403122 -0.69061536 -15.937567 -17.860653 36.994427
-3.6700487 71.302246 43.508907 -11.673519 41.781437 8.760301 39.557667 61.273067
00000000: c5bd ee41 5129 27c0 2008 3dc1 1ded 84c0
00000010: caa0 3e42 5e93 47c1 4081 9942 b9ac e541
00000020: 12f9 93c0 f947 6bbf 113b c8c1 917c 6e42
00000030: b3b5 0142 6135 15c0 0f82 e741 bdca e741
00000040: dec9 8641 196d 4542 2f5d ab41 6747 4842
00000050: 2654 78c1 31e3 5742 96f8 9b42 f961 4cc1
00000060: 3add 7dc1 c764 39c0 9f5f 4341 2d78 0642
00000070: 0fc0 343f 2d4d 86c0 6766 6f42 5272 0642
00000080: 661c 46c1 f33b 5bc1 0e6c b5c1 c980 2a42
00000090: 7c69 2242 0e84 21c1 6ab8 5042 9046 ed40
000000a0: 5dc9 5142 a260 3c42 82a1 16c1 92b0 89c0
000000b0: 0343 b341 c79a a441 5d26 a841 7824 4a42
000000c0: 121d 9c41 7ca1 3441 42bf 5242 59dc 6442
000000d0: f5ab 5f42 019b 7e42 59e7 dd41 1c2f 5642
000000e0: deaa 1841 a786 d1c0 898b 4242 c229 0942
000000f0: 48b7 2442 0329 3542 63c7 1142 d9db 1b41
00000100: 6d7a a041 81fc 3642 6af2 2142 0c50 23bf
00000110: b4ff ad41 3c09 2f42 4810 7942 bd4a 3942
00000120: dcf1 3c42 9405 2442 7d40 c641 a13c 4a42
00000130: 2e9c 3642 a768 8242 863e 7042 7446 92c1
00000140: 362a da40 726b 1542 fa79 9f41 9664 18c1
00000150: b928 0b42 3f23 16c1 cd1c 9742 ecc8 6442
00000160: 7ceb 53c1 4823 5e42 4e9c 7ac1 3074 4342
00000170: 308c 2542 183e 3042 771a 7441 2c87 28c1
00000180: d18a 40be 10ba 94c1 3ca8 21c1 c041 4342
00000190: 06f7 9341 2849 65c1 af67 2dc1 d1e0 2042
000001a0: b6be 7f42 9395 6442 3ad2 66c1 ae87 b7c0
000001b0: 1a06 92c1 c462 4842 0da1 1642 fdbb 9042
000001c0: e054 0e42 d276 0342 9602 8cbf cc96 5242
000001d0: be7a 45c1 bccc 0142 0001 4e42 1f17 8542
000001e0: f8dd 7a42 5d7f 2942 70c6 d53f 2bc6 1c42
000001f0: e2c5 ca41 69e4 2bc2 aece 0542 4aec 7842
00000200: 7575 9b42 25cf 3042 09a3 ccc1 e130 ccc1
00000210: 003f b840 1445 1f42 5b6e 7f42 aac8 0ac0
00000220: 5875 dbc0 2a79 6742 e094 46c1 4580 18c1
00000230: f567 1042 3fb1 d9bf 6ed4 0842 6afb 3fc1
00000240: 595b 2d42 214a 34c1 56cc 5d42 f462 dbc1
00000250: af97 4642 c742 03c1 1654 aa41 89b6 6b42
00000260: 2b31 28c1 2f8b 2d42 eda9 8342 c3ec 4a42
00000270: a462 d140 34d5 8e42 1b34 1442 fee5 84c1
00000280: afeb 2642 b65c 3b42 a4db b6c0 502f 3d42
00000290: 5e77 4442 e10a 0842 635e 1ec1 a814 0a42
000002a0: 56d7 a041 6c2c 9f41 3e80 8542 88b1 f73e
000002b0: f2f2 1642 1565 0742 041b 7342 1a0c 1cc1
000002c0: 5b8f 17c0 3ee0 9ec0 5118 2642 2503 4942
000002d0: 4392 1842 d5fe 1542 5817 2e42 bc03 60c0
000002e0: 5a55 b041 4247 2e42 6619 5942 f826 4641
000002f0: e2b9 7a41 0955 7942 aee8 62bf 32df cbc0
00000300: a5d9 4741 a99f 5242 922e 39c0 4715 f8c1
00000310: c0ae 5741 16b9 3141 cbc2 7142 225c 77c1
00000320: 0c14 2540 aa15 4242 ad58 0e42 d431 8941
00000330: 7fc6 84c1 c3b9 1542 f749 3442 1f87 5641
00000340: 5740 e641 ed78 4342 046e 8540 f03a 1b42
00000350: 7aca c8c1 9b89 2541 be14 f041 861b 32c1
00000360: 89e6 99c0 f861 6140 062a 4941 d85b 2d42
00000370: cef9 ae41 d279 5941 2b12 4c42 b8f1 30c1
00000380: 0f73 d540 83d1 0b41 b089 2241 75dd 3042
00000390: 6a25 aa40 6070 a4c0 8d40 b6c1 9971 5e42
000003a0: fb83 4842 09e8 b741 74a8 883f 1bbf eb41
000003b0: 133c b440 5941 bdc0 6cfe 7642 ebab 1b42
000003c0: 1a82 f0c0 b665 30c1 2b3f 1ec1 cc9c 2542
000003d0: 2bcc 30bf 4600 7fc1 9ee2 8ec1 4bfa 1342
000003e0: 14e2 6ac0 c09a 8e42 1f09 2e42 bcc6 3ac1
000003f0: 3120 2742 312a 0c41 0d3b 1e42 9f17 7542

layer2.3.weight f4 [256, 256]
0.9238896 0.29942825 -0.33672735 -0.42057538 0.64774865 0.16344397 0.92381984 -0.16700856
-0.23582691 0.2003872 -1.1586185 0.18022685 0.9270677 0.30029184 0.39652872 -0.7580452
1.0374427 0.12032435 0.6315167 0.43930304 0.3747531 0.21162081 1.1354278 0.20402259
-0.24737674 0.21360509 1.1040655 -0.041435532 0.3186718 -0.53497285 0.13970646 0.5203926
0.65760833 -0.3497849 -0.07965902 0.6686791 -0.44588318 -0.27216345 0.26984975 0.88410646
0.4682109 0.114154115 -1.0657963 1.1231552 0.1157488 0.05633354 -0.185994 -0.079765394
-0.4244844 -0.15331984 0.47936434 0.063528724 0.2605111 0.69896394 0.7509247 0.052089084
-1.2472558 0.67500633 0.72455156 -0.19969243 0.4032284 -0.43770465 0.38373145 0.15780838
-0.28978717 1.2078854 0.6719162 -0.13362597 -0.020621853 0.24846265 0.7119743 0.0020229844
0.61002463 0.10585391 1.1780999 -0.19784541 0.6319274 0.28155297 0.46106458 1.1180317
-0.23693597 0.6956351 0.003256638 -0.11018398 0.40522528 0.5057562 1.1096587 0.08614276
-0.14284705 0.42348364 -0.3011734 1.1600077 0.22760801 0.115752086 0.17201768 -0.5686072
0.64274323 -0.14100404 -0.52234095 0.054399397 0.8081326 0.31242883 -0.5983235 0.1950074
0.7296992 0.41198182 0.37508303 0.02378764 0.6468256 0.4676884 -0.64318204 -0.031818848
0.5574582 0.3820838 0.077498965 0.35817766 0.26869628 0.15123515 0.1704084 0.27702254
0.51708186 0.19855419 -0.013485951 -0.020619044 1.143329 -0.38057795 -0.0076688626 0.19572209
1.0401062 0.52436733 -0.53722507 -1.0338298 0.3272266 0.85245943 0.045249514 0.10318804
-0.53979313 0.6360744 0.4093577 0.84051967 0.3741415 0.23903044 0.32224995 -0.40720975
0.36023355 1.2086684 0.26098332 -0.35957637 -0.31505206 -0.70333487 2.4020555 0.23068291
0.81681114 0.35756484 0.21476357 0.07807511 0.82240283 0.3409066 0.91577137 0.75881904
0.24018572 -0.16730675 -0.88634974 0.43058842 0.14984502 0.7674692 -0.9800926 -0.04516256
-0.45294526 1.3516378 0.43526104 0.91225576 0.66899943 0.77131724 0.39565653 -0.29060608
-0.35752696 1.1872498 0.5908211 0.00048544363 0.2922088 0.13422497 0.08257325 -0.41310662
-0.9094936 0.49201408 0.041643158 -0.6343799 0.14996158 0.39206153 -0.04662334 -0.19031498
-0.09544123 0.7712907 0.34960204 -0.2707152 0.43901774 1.2315294 1.1692685 -0.38442457
-0.18087895 0.5832661 0.49778694 0.024443807 -0.099061884 0.42327946 0.15403177 -0.49831933
1.0704671 0.12631881 -0.34701416 0.43205342 0.49337724 0.2093996 0.012705545 -0.4102186
0.719667 -0.5795109 1.2674639 0.5403826 1.322281 -0.7866818 0.41257432 -0.22668381
0.5690213 0.26677534 -0.2580863 0.37727425 -0.815564 0.12973526 -0.54564804 0.3886497
0.19135033 -0.4213599 -0.10056105 1.0278801 0.05929094 -0.47788963 0.51100534 0.8719186
0.6528831 -0.2961447 -0.51937073 0.83896863 0.5710195 -0.52955097 -0.5425181 -0.26709625
0.19050013 0.92408204 0.038088795 0.13968705 0.1665802 0.44783327 0.49281505 0.5926714
00000000: 0784 6c3f a94e 993e 8767 acbe a855 d7be
00000010: dbd2 253f db5d 273e 757f 6c3f 4b04 2bbe
00000020: 9c7c 71be 4d32 4d3e 9c4d 94bf 638d 383e
00000030: 4f54 6d3f dabf 993e d005 cb3e 400f 42bf
00000040: ecca 843f 9d6c f63d 14ab 213f 54ec e03e
00000050: a3df bf3e 20b3 583e b355 913f 4ceb 503e
00000060: 5450 7dbe 4bbb 5a3e 0552 8d3f 4eb8 29bd
00000070: f328 a33e fbf3 08bf 360f 0f3e 7338 053f
00000080: 0559 283f 0217 b3be 4524 a3bd 8e2e 2b3f
00000090: cd4a e4be 0259 8bbe bf29 8a3e cd54 623f
000000a0: 57b9 ef3e a2c9 e93d 036c 88bf 8dc3 8f3f
000000b0: b50d ed3d ffbd 663d 3675 3ebe 0a5c a3bd
000000c0: 0556 d9be e0ff 1cbe 3e6f f53e 591b 823d
000000d0: b661 853e 4def 323f 9a3c 403f 5d5b 553d
000000e0: 14a6 9fbf 37cd 2c3f 367c 393f 2c7c 4cbe
000000f0: f473 ce3e d31a e0be 7378 c43e 8598 213e
00000100: fc5e 94be fd9b 9a3f b302 2c3f 3fd5 08be
00000110: 29ef a8bc fe6c 7e3e f343 363f 0c94 043b
00000120: 932a 1c3f efc9 d83d facb 963f fd97 4abe
00000130: fec5 213f b627 903e a810 ec3e aa1b 8f3f
00000140: 589f 72be 2415 323f 526d 553b 23a8 e1bd
00000150: b079 cf3e 3d79 013f 4c09 8e3f 9e6b b03d
00000160: 7f46 12be d9d2 d83e 6633 9abe 227b 943f
00000170: 1312 693e 6e0f ed3d 6725 303e 3e90 11bf
00000180: d28a 243f 5d63 10be 23b8 05bf e7d1 5e3d
00000190: c7e1 4e3f acf6 9f3e bb2b 19bf 05b0 473e
000001a0: 91cd 3a3f 48ef d23e e20a c03e 4cde c23c
000001b0: 5d96 253f db74 ef3e 94a7 24bf 7b54 02bd
000001c0: 95b5 0e3f 7da0 c33e c7b7 9e3d 1063 b73e
000001d0: 8f92 893e 63dd 1a3e 8a7f 2e3e e6d5 8d3e
000001e0: 7a5f 043f ca51 4b3e 2ef4 5cbc 45e9 a8bc
000001f0: 9b58 923f 1ddb c2be 154b fbbb 5f6b 483e
00000200: 3322 853f f03c 063f 9587 09bf 8954 84bf
00000210: 3f8a a73e c83a 5a3f 8e57 393d 4054 d33d
00000220: e22f 0abf c6d5 223f 5597 d13e 4c2c 573f
00000230: 7a8f bf3e 65c4 743e f2fd a43e cc7d d0be
00000240: 8870 b83e a5b5 9a3f 9b9f 853e 651a b8be
00000250: 814e a1be c10d 34bf 47bb 1940 2438 6c3e
00000260: 891a 513f bd12 b73e fbea 5b3e d8e5 9f3d
00000270: fe88 523f 4f8b ae3e fe6f 6a3f f741 423f
00000280: 3ff3 753e 7652 2bbe d1e7 62bf 1676 dc3e
00000290: f970 193e dd78 443f 59e7 7abf 60fc 38bd
000002a0: 71e8 e7be 7802 ad3f 89da de3e 9889 693f
000002b0: 8c43 2b3f 0c75 453f 7e93 ca3e 52ca 94be
000002c0: c60d b7be cdf7 973f 0d40 173f 2483 fe39
000002d0: 649c 953e 4572 093e 2a1c a93d b682 d3be
000002e0: 93d4 68bf 45e9 fb3e 0492 2a3d b966 22bf
000002f0: 878f 193e 4abc c83e 1ef8 3ebd eee1 42be
00000300: b176 c3bd 4f73 453f 0aff b23e 2f9b 8abe
00000310: efc6 e03e c1a2 9d3f 97aa 953f 4cd3 c4be
00000320: 5538 39be ed50 153f eedd fe3e 613e c83c
00000330: f5e0 cabd 16b8 d83e 81ba 1d3e b623 ffbe
00000340: 1105 893f b859 013e d7ab b1be 1b36 dd3e
00000350: f19b fc3e d96c 563e eb2a 503c 2c08 d2be
00000360: 193c 383f d45a 14bf 423c a23f 8456 0a3f
00000370: 8140 a93f fa63 49bf f13c d33e cd1f 68be
00000380: 61ab 113f c796 883e e323 84be 172a c13e
00000390: cdc8 50bf 52d9 043e 97af 0bbf 18fd c63e
000003a0: 57f1 433e 7cbc d7be f4f2 cdbd 9391 833f
000003b0: 0fdb 723d f3ad f4be 3fd1 023f 0f36 5f3f
000003c0: 5923 273f 47a0 97be 7bf5 04bf a6c6 563f
000003d0: 552e 123f a790 07bf 77e2 0abf d7c0 88be
000003e0: 7712 433e a490 6c3f ff02 1c3d 1f0a 0f3e
000003f0: 0094 2a3e 674a e53e 4152 fc3e 50b9 173f

layer2.3.bias f4 [256]
20.319086 7.1547756 -0.4139392 -0.0393483 0.09666939 -0.061698113 -0.19368643 38.46288
1.0569638 0.20721169 -0.011230822 -0.16536665 -0.13191003 0.09385262 -0.06559611 45.365387
-0.04314538 12.920333 -0.12697504 -0.07408123 -0.053924475 0.067438476 -0.0005602959 49.567097
0.571694 51.7754 43.237576 -0.1610169 42.798954 -0.030280981 -0.056992978 -0.035485875
1.1248012 0.09953789 2.382703 0.20981522 -0.38274556 7.2423286 -0.019958945 0.057771586
-0.35964727 -0.24304955 -0.19573087 -0.14373964 -0.16228047 -0.17786396 0.5360473 -0.0018861542
0.33856687 -0.14790404 -0.47815034 -0.15268834 -0.0877778 34.597332 -0.19522539 -0.15278414
3.5284214 0.37103686 9.277049 -0.31593046 0.09923684 -0.10775462 0.27274856 0.2020479
-0.51084864 0.07372893 0.31672767 0.2650203 0.24696782 -0.29559052 -0.2999183 1.8824499
-0.22148013 -0.16461088 10.866528 30.711065 -0.1821922 -0.1145055 -0.040195487 -0.21493576
-0.0011627699 0.19340229 -0.047113456 -0.107563674 -0.09575057 -0.92520434 3.8783672 1.3543159
51.67834 12.161873 -0.1160355 -0.18832432 0.09499715 -0.14890128 0.107758865 -0.110155635
-0.052500404 -0.12257318 -0.23927797 0.13718818 0.8159354 0.01638206 -0.06762408 0.0076178564
-0.16881846 31.642693 -0.030668031 0.29741287 -0.08274249 -0.06300231 0.03285458 -0.259205
0.16663617 -0.18751332 48.637882 -0.08707479 1.8196384 0.17966151 -0.06934644 47.196625
-0.11469761 -0.18666439 0.13592479 -0.26865378 -0.09470883 -0.2134711 -0.11536641 -0.08534586
0.57385147 0.03377326 -0.051390447 -0.12844905 -0.4946916 45.558285 1.4165771 -0.110975854
-0.17059964 49.559006 -0.10577099 -0.025650753 -0.120512545 -0.056685273 -0.22624446 5.2852035
26.11283 -0.10819497 1.9485866 -0.27440763 16.577671 -0.15917623 -0.21539609 -0.005510264
-0.08487691 0.0024243505 1.0768 38.936615 31.516626 0.77922195 47.4599 0.6136644
0.010885823 45.82705 -0.5147717 0.2432167 -0.30047634 36.564762 -0.18588406 -0.07954091
47.94753 -0.10753746 -0.40794638 -0.17709729 39.179638 -0.17378962 34.618607 12.793711
47.48907 -0.01825536 -0.09207212 0.03942775 -0.44376764 47.952908 -0.01345297 15.133537
-0.1414199 0.14381659 50.561394 -0.07885956 -0.17454587 4.380468 -0.10814671 -0.079705834
42.928925 21.0782 -0.12445333 -0.11106852 53.859276 0.22066219 0.0061872085 -0.04833693
0.18556312 -0.16766465 38.771282 -0.14612854 1.1997541 -0.17074145 -0.19728415 -0.21450762
-0.12963453 -0.14082623 -0.041766122 10.0485 0.16739827 -0.08187654 -0.07259838 41.895668
44.033485 0.2904289 1.2693291 12.110039 8.890098 7.6734767 -0.08003111 0.19984321
-0.24509196 1.9159023 -0.14976022 -0.20536146 38.535957 2.7881148 -0.15944175 -0.38057122
-0.050104015 -0.08104433 1.9821599 49.26237 -0.164044 2.1260445 44.90457 -0.037524614
-0.2107646 -0.1378991 -0.26760912 -0.076365344 50.790394 0.12883614 -0.057788737 0.016436012
0.6347667 -0.05902156 44.088184 38.081978 -0.15075836 -0.31434786 -0.17313293 -0.053572018
00000000: 7d8d a241 ecf3 e440 d7ef d3be af2b 21bd
00000010: 9afa c53d 29b7 7cbd bc55 46be fdd9 1942
00000020: 974a 873f 4d2f 543e 7b01 38bc e055 29be
00000030: 6c13 07be cd35 c03d 4157 86bd 2876 3542
00000040: 36b9 30bd afb9 4e41 bf05 02be e6b7 97bd
00000050: e9df 5cbd 2f1d 8a3d d2e0 12ba b544 4642
00000060: 8a5a 123f 021a 4f42 47f3 2c42 9de1 24be
00000070: 2132 2b42 d20f f8bc 7871 69bd a359 11bd
00000080: 7cf9 8f3f 85da cb3d 357e 1840 cdd9 563e
00000090: 3af7 c3be 28c1 e740 f180 a3bc e6a1 6c3d
000000a0: b023 b8be fbe1 78be ac6d 48be 7c30 13be
000000b0: da2c 26be f821 36be 653a 093f d538 f7ba
000000c0: a358 ad3e 2874 17be 1fd0 f4be 555a 1cbe
000000d0: d9c4 b3bd ab63 0a42 2ae9 47be 7273 1cbe
000000e0: a8d1 6140 8bf8 bd3e cb6e 1441 a3c1 a1be
000000f0: af3c cb3d 74ae dcbd b3a5 8b3e a5e5 4e3e
00000100: fac6 02bf 31ff 963d 212a a23e beb0 873e
00000110: 22e5 7c3e a457 97be e48e 99be 1ef4 f03f
00000120: b0cb 62be c18f 28be 4cdd 2d41 43b0 f541
00000130: 9890 3abe dc81 eabd 06a4 24bd 1f18 5cbe
00000140: 1568 98ba 400b 463e 0afa 40bd 584a dcbd
00000150: e018 c4bd 31da 6cbf 2b37 7840 395a ad3f
00000160: 9fb6 4e42 0897 4241 05a4 edbd 17d8 40be
00000170: de8d c23d 9479 18be aeb0 dc3d 4799 e1bd
00000180: aa0a 57bd a607 fbbd 4905 75be 0f7b 0c3e
00000190: 24e1 503f ab33 863c 7e7e 8abd 369f f93b
000001a0: bfde 2cbe 3c24 fd41 863b fbbc 8046 983e
000001b0: e574 a9bd 5b07 81bd 8692 063d 85b6 84be
000001c0: aca2 2a3e 7e03 40be 318d 4242 4454 b2bd
000001d0: e9e9 e83f 30f9 373e 8205 8ebd 58c9 3c42
000001e0: 95e6 eabd f324 3fbe de2f 0b3e fd8c 89be
000001f0: b4f6 c1bd 2b98 5abe 3945 ecbd cfc9 aebd
00000200: eee7 123f d455 0a3d ca7e 52bd 2688 03be
00000210: 3848 fdbe af3b 3642 6652 b53f 4f47 e3bd
00000220: acb1 2ebe 6c3c 4642 769e d8bd 8721 d2bc
00000230: 48cf f6bd d12e 68bd a1ac 67be 6320 a940
00000240: 13e7 d041 5395 ddbd 496b f93f 287f 8cbe
00000250: 129f 8441 18ff 22be cb90 5cbe 728f b4bb
00000260: f2d3 adbd dae1 1e3b 95d4 893f 18bf 1b42
00000270: 0d22 fc41 177b 473f f0d6 3d42 1c19 1d3f
00000280: 735a 323c e64e 3742 14c8 03bf cc0d 793e
00000290: 09d8 99be 5142 1242 6458 3ebe 58e6 a2bd
000002a0: 45ca 3f42 9a3c dcbd 59de d0be fe58 35be
000002b0: f3b7 1c42 e8f5 31be 7479 0a42 0ab3 4c41
000002c0: cff4 3d42 448c 95bc 4f90 bcbd fe7e 213d
000002d0: 8335 e3be c7cf 3f42 d969 5cbc f822 7241
000002e0: 61d0 10be a844 133e de3e 4a42 1f81 a1bd
000002f0: 27bc 32be cb2c 8c40 067c ddbd d03c a3bd
00000300: 38b7 2b42 27a0 a841 63e1 febd e477 e3bd
00000310: e66f 5742 45f5 613e 11be ca3b f2fc 45bd
00000320: 4204 3e3e 48b0 2bbe cb15 1b42 b8a2 15be
00000330: 8b91 993f d9d6 2ebe db04 4abe e3a7 5bbe
00000340: eabe 04be c034 10be f412 2bbd a8c6 2041
00000350: 746a 2b3e e3ae a7bd 76ae 94bd 2a95 2742
00000360: 4a22 3042 19b3 943e 6079 a23f b8c2 4141
00000370: d73d 0e41 1f8d f540 5ae7 a3bd b3a3 4c3e
00000380: 63f9 7abe 493c f53f be5a 19be 464a 52be
00000390: d224 1a42 7970 3240 b344 23be 3bda c2be
000003a0: de39 4dbd 92fa a5bd 6ab7 fd3f ab0c 4542
000003b0: 26fb 27be 1d11 0840 489e 3342 69b3 19bd
000003c0: add2 57be 6c35 0dbe 1004 89be 6f65 9cbd
000003d0: 5d29 4b42 9fed 033e e2b3 6cbd d1a4 863c
000003e0: 1280 223f 97c0 71bd 4d5a 3042 f253 1842
000003f0: 6660 1abe 34f2 a0be c249 31be 556e 5bbd

layer2.6.weight f4 [1, 256]
0.18448572 0.13337171 -0.02276791 0.021899635 -0.00086939667 -0.04981934 -0.0045478377 0.10335824
0.13877772 0.018026179 -0.01664684 -0.033637542 -0.007882933 0.014204549 -0.018280117 0.10282642
0.023158899 0.15027158 -0.03027375 -0.011533304 0.01134706 0.007382618 0.0073117693 0.16158517
-0.020216752 0.018573977 0.06560448 0.00812161 0.02529084 -0.06457162 0.028834807 -0.02269518
0.018462285 0.021450179 -0.03606848 0.029696818 -0.0040788213 0.021688445 0.02947573 0.09031674
-0.0073765004 0.012294969 0.04684775 -0.023743698 -0.052908827 -0.005467585 -0.068631075 -0.013028056
-0.05257866 -0.08467013 -0.0152059775 -0.0021062845 0.023026025 -0.027498983 -0.011523833 0.0016408304
0.09572424 0.002636249 0.02124158 -0.09877987 -0.0015551415 -0.021643374 0.02950588 0.051371116
0.0005646617 0.18505985 -0.049120326 -0.012599821 0.01745344 0.008284001 0.028052405 0.024915626
0.052149676 -0.02567884 0.080599606 -0.063287884 -0.007260125 0.009968965 -0.012488527 0.0061374907
0.023281258 -0.046256416 0.006865231 -0.007708782 -0.006606668 -0.029144533 -0.015848596 -0.025077416
0.13333893 0.13832353 -0.026509233 -0.024475906 -0.012904112 -0.0581844 -0.026179006 -0.022597529
0.014264743 -0.01927218 -0.08032755 0.030369353 -0.17312501 0.013537889 -0.009269472 0.02179434
0.027432475 -0.14249277 0.020139685 0.107712895 0.040681854 -0.008629379 -0.09296888 0.025197532
-0.031092787 -0.016751073 0.09911776 -0.011256615 0.09970464 0.31312102 0.005061332 0.3119325
-0.010004212 -0.011344508 -0.042005464 0.01139745 -0.024629476 -0.0013814911 -0.03085376 -0.018224709
-0.01518998 -0.06745459 0.0556934 -0.032485787 0.000120715216 -0.05471578 -0.0055737053 -0.026640523
-0.01375687 0.11107094 0.011129127 -0.0149173755 0.013005401 0.02091485 0.031600367 0.032958094
0.046260726 0.021805396 -0.019548828 -0.0018379284 0.20755106 0.013083146 -0.027285123 -0.009844796
-0.016424049 0.010994643 0.18939565 0.086620666 0.08060109 0.10623816 0.2798786 0.07699028
-0.031075636 0.11089173 -0.025395853 0.00090838905 -0.025374183 -0.041751336 0.00032673188 -0.007296141
0.022494333 0.02060585 0.020168703 0.030230867 0.106411986 -0.0018208635 0.128845 0.1577941
-0.088401236 0.021278856 0.0031106274 -0.0019623837 0.0058033657 -0.07872579 -0.044037044 0.16241087
0.007713811 -0.022565313 0.18945062 -0.17363589 0.027664756 0.11523711 0.08884261 -0.017221678
0.23169102 0.20473914 0.017887047 0.02413112 0.11064843 -0.022792118 -0.01457409 0.02323402
-0.0048236786 -0.010089053 0.2045718 -0.013997708 0.0072546625 0.027552359 -0.020854143 0.02461792
-0.04358758 0.012274995 -0.064250134 0.0629405 -0.0016413725 0.030153118 -0.018363472 0.17187697
0.04452355 -0.0026211985 0.04784624 0.1626892 0.10318871 -0.13155276 0.013158206 -0.05876258
0.023934884 0.027793935 -0.02968945 0.0063150725 0.1442459 0.14575869 -0.055680793 -0.026259212
-0.057456397 0.022013942 -0.05605821 0.025150742 0.018783092 -0.0025561047 0.10050268 -0.028320942
0.030623473 0.0045349477 0.0031368614 0.0068632113 0.10468099 -0.015605207 0.034084655 -0.0771132
0.011243904 0.0023749024 0.20157865 0.11206625 0.0011012708 -0.011484764 0.017058218 0.019320574
00000000: d3e9 3c3e 9892 083e c583 babc dd66 b33c
00000010: 39e8 63ba 5d0f 4cbd 0706 95bb 7cad d33d
00000020: bf1b 0e3e a3ab 933c f45e 88bc 85c7 09bd
00000030: 6b27 01bc 32ba 683c 2fc0 95bc a896 d23d
00000040: bbb7 bd3c cbe0 193e a800 f8bc 2ff6 3cbc
00000050: 05e9 393c e3e9 f13b 9197 ef3b 9576 253e
00000060: 9a9d a5bc 7428 983c a45b 863d 8010 053c
00000070: bc2e cf3c 203e 84bd f936 ec3c 3eeb b9bc
00000080: 383e 973c 49b8 af3c 8bbc 13bd be46 f33c
00000090: a2a7 85bb f7ab b13c 1677 f13c fcf7 b83d
000000a0: 92b6 f1bb d670 493c 6de3 3f3d 2582 c2bc
000000b0: edb6 58bd 6d29 b3bb 738e 8cbd a173 55bc
000000c0: b95c 57bd 8867 adbd 7e22 79bc 9709 0abb
000000d0: 13a1 bc3c 8c45 e1bc 75ce 3cbc 2211 d73a
000000e0: 120b c43d ebc4 2c3b d202 ae3c 1a4d cabd
000000f0: e4d5 cbba 724d b1bc 51b6 f13c 856a 523d
00000100: ce05 143a 5480 3d3e 6532 49bd 7b6f 4ebc
00000110: 84fa 8e3c 9eb9 073c 28ce e53c db1b cc3c
00000120: e69a 553d 6e5c d2bc 6811 a53d 149d 81bd
00000130: 58e6 edbb df54 233c ae9c 4cbc 011d c93b
00000140: 56b8 be3c 5e77 3dbd bbf5 e03b f399 fcbb
00000150: bf7c d8bb 84c0 eebc ead4 81bc 276f cdbc
00000160: 008a 083e afa4 0d3e e429 d9bc b281 c8bc
00000170: c56b 53bc c452 6ebd 5b75 d6bc 741e b9bc
00000180: abb6 693c b1e0 9dbc c582 a4bd 26c9 f83c
00000190: af47 31be 06ce 5d3c fcde 17bc 0b8a b23c
000001a0: 12ba e03c a0e9 11be fbfb a43c 9498 dc3d
000001b0: 04a2 263d 3d62 0dbc 7866 bebd 0e6b ce3c
000001c0: 4db6 febc 8c39 89bc 41fe ca3d aa6d 38bc
000001d0: f231 cc3d 6651 a03e 88d9 a53b 9eb5 9f3e
000001e0: b5e8 23bc 51de 39bc ec0d 2cbd 5fbc 3a3c
000001f0: c1c3 c9bc 2613 b5ba 06c1 fcbc fc4b 95bc
00000200: 65df 78bc a225 8abd c31e 643d d10f 05bd
00000210: 7d28 fd38 a71d 60bd a1a3 b6bb 3a3d dabc
00000220: 7f64 61bc 2979 e33d f156 363c 0268 74bc
00000230: 9b14 553c 9f55 ab3c 636f 013d 11ff 063d
00000240: e37b 3d3d 3ba1 b23c dd24 a0bc a5e6 f0ba
00000250: 4488 543e b15a 563c 0d85 dfbc 114c 21bc
00000260: ba8b 86bc e022 343c eff0 413e 2d66 b13d
00000270: 2f12 a53d 6493 d93d 3f4c 8f3e 14ad 9d3d
00000280: 5592 febc 341b e33d f70a d0bc f520 6e3a
00000290: 85dd cfbc 7303 2bbd 364d ab39 7714 efbb
000002a0: 0946 b83c 99cd a83c d638 a53c b9a6 f73c
000002b0: 87ee d93d 0aaa eeba f2ef 033e c794 213e
000002c0: b50b b5bd ff50 ae3c abdb 4b3b 569b 00bb
000002d0: 292a be3b fd3a a1bd 3060 34bd 094f 263e
000002e0: 23c4 fc3b e4da b8bc 58ff 413e 9bcd 31be
000002f0: 33a1 e23c 6f01 ec3d 1df3 b53d 7a14 8dbc
00000300: 6940 6d3e 23a7 513e db87 923c a0ae c53c
00000310: a59b e23d 89b6 babc 2ac8 6ebc 4655 be3c
00000320: f30f 9ebb 8e4c 25bc 457b 513e a556 65bc
00000330: 85b8 ed3b 7cb5 e13c 4fd6 aabc 85ab c93c
00000340: e488 32bd 101d 493c 9395 83bd f3e6 803d
00000350: 5223 d7ba ac03 f73c fe6e 96bc 8400 303e
00000360: 535e 363d 6ac8 2bbb 6bfa 433d ff97 263e
00000370: 9a54 d33d c4b5 06be 8495 573c 08b1 70bd
00000380: 1713 c43c 1bb0 e33c 4a37 f3bc abee ce3b
00000390: 32b5 133e c441 153e 8b11 64bd 8f1d d7bc
000003a0: 6657 6bbd 9556 b43c 4b9d 65bd ee08 ce3c
000003b0: 00df 993c 5284 27bb 59d4 cd3d 5201 e8bc
000003c0: 14de fa3c e699 943b cd93 4d3b cae4 e03b
000003d0: fd62 d63d fbac 7fbc 5a9c 0b3d 87ed 9dbd
000003e0: 5a38 383c 40a4 1b3b a26a 4e3e fd82 e53d
000003f0: 8458 903a 972a 3cbc adbd 8b3c 2e46 9e3c
