Model_Files/bpiNoRepeat/TimestampPredictor_parameters_laplacianOnWeighted_0.0001.pt (torch, 274455 bytes, 7 tensors)

layer1.weight f4 [4, 1]
00000000: 45d8 f4bd 7763 1f3e 7267 86bf 1edc 01c1
-0.11955313 0.15565287 -1.0500319 -8.11624

layer1.bias f4 [6]
00000000: e46f ad40 97be 0241 7e9a 2540 bcb4 a340
00000010: d370 9ac0 0c1f 96c0
5.4199085 8.171531 2.5875545 5.1158123 -4.8262725 -4.69129

layer2.1.weight f4 [256, 6]
00000000: cac5 5dbd 225b 3a3e d61b f4bc 361b 1ebd
00000010: 9ecc d43e aa86 853c 6703 55be d799 d73e
00000020: 424a 303e 33a4 c73d 5468 533c 4b9f 02be
00000030: cff7 4f3e c6a4 853e 6c9e 9dbd e759 e93d
00000040: eba3 c93c a82d fc3c b77b eabd 9fe5 db3d
00000050: c35a 483e 281e 873d a168 e5bc 8c00 a93d
00000060: 8cfd 653d feca b23e 153f 923e d962 9bbc
00000070: f526 733d 65e7 ca3c bc73 1ebe 63a1 863e
00000080: 81b0 ca3a 11c8 39be fff7 acbd a12f 1e3e
00000090: 3b7b 57be ddae 9cbe 2cb1 dc3b dbe9 00bd
000000a0: 2638 0b3f fb7d 7dbd a32c 163e c888 0d3e
000000b0: eec8 b33d 7059 4c3c c3b0 e93d cba4 453e
000000c0: a97e f5bd 1774 09bf a323 393d 8f3e ed3c
000000d0: 4a08 553c b376 d23c d793 3dbe 11a1 b3be
000000e0: 352c 693e 6c3a 9d3d b7b6 173f 6249 753e
000000f0: db78 2f3e 2076 863d acf6 2dbe fdf5 c13d
00000100: dd1a 363d 3599 da3c c192 b53d ae22 3fbc
00000110: 3a30 4abd 8b01 7ebe 809d f63e a5cb 8a3e
00000120: eeb0 413d 3f86 973e c60b 503e 2d0c aebe
00000130: f88c 373e 92ee 693e 267d f2bd 1083 d43e
00000140: a0b1 d73d cdaf 2f3c 5aa0 e83e 2fbf 96ba
00000150: 2681 c13e a101 cfbe e917 23be 0c38 37be
00000160: 0739 613f b991 6b3e 0260 e53b 4c0a 11c0
00000170: bbfd 08be e4c7 7dbe d8d3 3fbe 9313 f7bd
00000180: 6c31 30bd 5007 6bbd 7b20 90bb ed46 3b3d
00000190: 1a5b 903e 784c 9fbc a702 cbbe f470 a33d
000001a0: 6fd1 393e 2993 493e 1698 46bd d869 1c3d
000001b0: 7584 583e f61c 1e3e 3ae3 c53e f985 683d
000001c0: 9bec 1c3d 2cee ca3c 01d5 d63b 828f ae3c
000001d0: 0bcc d9bd 69ed 6f3d 3c91 49bc f35e 3d3c
000001e0: 0a8e a4be 4a17 b63d 0f76 a63a 5ac6 933c
000001f0: 200f 393f b85a f6bc b8d9 eebd 8190 b0be
00000200: cd3e 083d 149d dbbd 8461 b83e 06b9 bdbd
00000210: 00f4 a4be c782 593e 0717 c3bd 6e2a 88be
00000220: ae4f 77b9 9437 4abe 49bd 71be a6e3 163f
00000230: 6f8c 3abe e457 e6be 1bc6 443d 2450 e4bd
00000240: 7833 a23c 3233 bd3e 8a5b 883e 9427 85bc
00000250: 7d42 ff3c 3f2f ab3d 4e15 96be d824 ef3e
00000260: 5254 5fbd ab16 023e bf4e a73c 81a2 d9bd
00000270: 6654 063c 7a55 013e 59fe 203c 1e48 fe3c
00000280: e6d9 873e b6ff 7e3e 37e8 c3bc 034c 853d
00000290: f91e f93c a492 b4bd 5e6c 4abc 47a8 923d
000002a0: 296b 42be 4326 7bbf a036 be3d fc82 99bd
000002b0: e173 b33e 403b bcbd b7a1 46bc 3d50 393e
000002c0: ae0c ff3c 77ec 1e3c 7a56 ec3c b423 f83d
000002d0: 6dd1 573e 7282 543e 9926 4dbe e7ef 75bb
000002e0: ace4 0dbc 0e89 a5bd 15f1 d2be 4941 f6be
000002f0: fd5a a6be da01 d0be 8892 b9be e0e7 f53e
00000300: d340 56bc d442 513e 4961 83b9 0b18 cb3c
00000310: f849 ae3c 0d9c 863c 2479 adbd 5dfa f43d
00000320: 9488 dbbd 2630 353d 4a82 c53c 35d3 a33b
00000330: 0c95 41bd 43a2 d1be 523d 0a3d 2bf7 2bbf
00000340: 8d12 3d3f 841a 1c3f 13c9 73bd 77d9 e13d
00000350: d77f 943e c701 d7bd 27d8 36bc 98f8 36bc
00000360: dfd8 cf3c b0ef 873d 4048 363e 48d0 c6bd
00000370: 0582 dfbd 6a72 9d3e 6b01 45bc 3d12 ca3d
00000380: a372 c9bb 1b23 fdbe 0cf7 f8b9 362d 733e
00000390: 81f5 abbd 62d6 d9be 25b5 b0bd b758 afbd
000003a0: db2d 233f 5ef3 84bb d335 703c df10 9b3d
000003b0: 1732 083d 0329 173c 1a60 27bd 8249 673e
000003c0: c601 45be ac23 9f3e a8a0 7abd 0be9 d03c
000003d0: 7031 903c 3ae7 9abb 29ce 7bbe 7da3 98bc
000003e0: 19bc fbbd 74d8 b33d 910b 44bd 11f9 dcbc
000003f0: 3072 aa3e ad39 463d 6d27 09be 1dc7 8a3c
-0.054143704 0.18198827 -0.02979843 -0.03860017 0.4156236 0.016299564 -0.20802079 0.42109558
0.17215827 0.097481154 0.012903292 -0.12756078 0.20309375 0.26102275 -0.07696232 0.11394101
0.024614295 0.03078349 -0.11449378 0.10737156 0.19565873 0.06597549 -0.028003993 0.082520574
0.056150004 0.34920496 0.28563753 -0.018968033 0.059363324 0.02476854 -0.15473837 0.26295003
0.0015463979 -0.18142726 -0.08445739 0.15447856 -0.21043102 -0.3060216 0.0067349877 -0.031473022
0.5438255 -0.061887722 0.14665465 0.13821709 0.08778559 0.012472495 0.11410668 0.19301145
-0.11987049 -0.53692764 0.0452 0.028960494 0.013002465 0.025691366 -0.18513428 -0.3508382
0.2277077 0.07677159 0.59263176 0.23953775 0.17135946 0.06565499 -0.16988629 0.09470747
0.044459213 0.026684383 0.08865882 -0.011665983 -0.0493624 -0.24805276 0.48167038 0.27108493
0.047287874 0.2959461 0.20316991 -0.33993664 0.17924869 0.22844914 -0.118402764 0.41506243
0.10531926 0.0107230665 0.4543484 -0.0011501069 0.37793845 -0.4043093 -0.1592709 -0.17892474
0.8797764 0.23004808 0.0069999704 -2.2662535 -0.1337804 -0.24783283 -0.18733156 -0.1206428
-0.043015882 -0.05738002 -0.004398403 0.045721937 0.28194505 -0.019445643 -0.3965046 0.079805285
0.18146299 0.19685043 -0.048484884 0.038186878 0.21144278 0.15440735 0.38649923 0.05676839
0.038311582 0.024771772 0.0065561538 0.021308664 -0.10634621 0.05857602 -0.012302693 0.011558282
-0.32139617 0.08891161 0.0012699979 0.018038917 0.72288704 -0.030072555 -0.1166262 -0.34485248
0.033263016 -0.1072332 0.360119 -0.09263806 -0.32217407 0.21241294 -0.095258765 -0.2659487
-0.00023585439 -0.19747764 -0.23607363 0.58941114 -0.18217634 -0.4498893 0.04804049 -0.11148098
0.019799933 0.3695312 0.2663234 -0.016254224 0.031159634 0.08358621 -0.2931313 0.46707797
-0.054523773 0.1270396 0.020423291 -0.10626698 0.008198833 0.12630263 0.009826266 0.031040248
0.2653343 0.24902233 -0.02391444 0.06508639 0.030410277 -0.08817032 -0.012354938 0.071610026
-0.18986191 -0.9810526 0.09287763 -0.074956864 0.35049346 -0.091909885 -0.012123517 0.18097015
0.031133976 0.009699932 0.028849829 0.12116185 0.21075983 0.20752886 -0.20034255 -0.0037527026
-0.008660477 -0.08082782 -0.41199556 -0.48096684 -0.32491294 -0.40626413 -0.36244607 0.4802847
-0.013076979 0.20435649 -0.0002505875 0.024791738 0.021275505 0.016431833 -0.08470371 0.119618155
-0.107194096 0.04423537 0.024109978 0.004999543 -0.047261283 -0.40944108 0.033749886 -0.67174023
0.7385643 0.6097796 -0.05951793 0.11027806 0.29003784 -0.10498386 -0.011159933 -0.011167668
0.025371967 0.06637514 0.17800999 -0.09707695 -0.10913471 0.30751354 -0.012024264 0.0986676
-0.006147699 -0.49440846 -0.0004748631 0.23747715 -0.083964355 -0.42546374 -0.086283006 -0.08561843
0.63741845 -0.004057332 0.01466127 0.07571577 0.033250894 0.009226087 -0.040863134 0.22586635
-0.19238958 0.31081903 -0.06118837 0.025501749 0.017601699 -0.0047272714 -0.24590363 -0.018632645
-0.12291736 0.087815195 -0.047862593 -0.026974233 0.33290243 0.048394848 -0.13393946 0.016940648

layer2.1.bias f4 [256]
00000000: e27c b4c0 9b3c f4c0 08f1 1141 1465 cdc0
00000010: 7b2d b6bf 69a5 81c0 347b b5bf e764 6441
00000020: e3b6 fdbf dae0 6ac0 d70d 6141 d72b a6c0
00000030: 32a1 6e41 79a6 5f41 f0eb ecc0 e719 1dc1
00000040: 568b 10c0 e52c 9dc0 648e 9740 ff02 1241
00000050: 3d4e 9d40 22b3 12c0 ae64 1f41 e0f7 99c0
00000060: 1424 4fc0 5592 7bc0 dbf1 9740 c9ad a340
00000070: 8e76 45c0 8f88 28c0 a6bf 7941 434f 81bf
00000080: 2f40 4541 4279 6f41 268d a2c0 bb00 ca40
00000090: fcde 9940 4694 2641 016c 07c1 04cd 813f
000000a0: 70ae 6441 08b6 ff40 4552 1341 2313 d9be
000000b0: 40a7 efbf cd96 efc0 44d5 4f40 7df9 4441
000000c0: df2b 4441 2ccc bb40 0b85 46c0 dd85 4a41
000000d0: cb93 a8c0 7c62 44bf 4a53 c4c0 702a 7a41
000000e0: dfd6 e340 ed59 72c0 f814 0f41 5e34 0dc1
000000f0: 77c3 c5c0 79a5 0ac1 7647 acc0 dc71 1bc0
00000100: 537f f7c0 ea0a 2f3f aee4 afc0 f62a 2841
00000110: 4ed1 1640 12a0 5e41 1dea 4bbf 4b35 23c0
00000120: 6cff 3140 25d0 b8bf 4c54 50c0 63b9 15c1
00000130: 0d50 2041 fac8 bac0 4970 d840 df62 5740
00000140: 5ef5 3640 f20f a0c0 09d7 4d41 2043 8f40
00000150: 251b 4f40 e4d4 a4c0 dc1b f9c0 b770 9fc0
00000160: 5e30 2f41 01e9 d2c0 0a9d 97c0 3d01 af3f
00000170: 0b36 9dc0 c665 a3c0 c67d 93c0 414b 2b40
00000180: c60e 4e41 46fd 5bc0 5fa6 0e3f bb26 2c40
00000190: 92d7 49c0 3edf 84c0 6112 bfc0 3d62 9cc0
000001a0: bd19 91c0 e70d 6bc0 0476 71c0 0be7 63c0
000001b0: 97d5 6241 6063 6c3e f2f4 5240 fd2d b340
000001c0: 05df 5041 bee3 a1c0 1d34 c5bf ad2d 5541
000001d0: 0c4a ae40 4930 54c0 2c90 14c0 7166 6d41
000001e0: eac1 4341 4d54 26c1 5e30 dcc0 1885 1d40
000001f0: 4e9a 5dbf 5876 e1c0 e413 b7c0 c931 cb40
00000200: 3cc5 cac0 4376 b73f f613 08bf 5ce9 85be
00000210: f8f6 5441 8b7e 0dc0 f6aa c4c0 82b0 23c0
00000220: f7bb 5a41 8f51 3641 3931 87c0 be9e 7fbd
00000230: 4fc5 ab40 e708 5541 88bb 3541 a3d5 b4c0
00000240: 149f 7b40 82bf d9c0 4c1b 1741 6496 8740
00000250: d452 3ac0 7253 8540 0f5e b8c0 3e22 4441
00000260: c751 49c0 5f57 1c41 d798 8641 572a d63f
00000270: 0c7a 09c1 9036 5141 70f0 77c0 bb27 75c0
00000280: fb82 d4c0 2c10 f440 56b1 c540 eafe d0c0
00000290: a0a2 b9c0 a161 8840 3942 f2c0 d65b 3241
000002a0: eeff 4f41 ed43 02bf a99a 6cc0 38b0 99c0
000002b0: fff4 53c0 066b 8bc0 a5dd 5440 7bb1 1a3f
000002c0: ca1e 56bf ba4f 5a41 0630 7440 fd11 d6c0
000002d0: 5a6a 6541 4eb2 4441 4599 3e41 b0a1 41c0
000002e0: eabb 2bc0 5031 afbe e05c 98c0 2652 6140
000002f0: d1e6 7c41 9294 a43f 6b74 34c0 269d 2f41
00000300: 82b0 97c0 256d 51bf 9013 9ac0 41d8 2e41
00000310: 08ca 0cc1 4a43 07bf 791f 81c0 53ee b040
00000320: c74d ed40 d574 a3bf c982 57c0 fcf9 1141
00000330: 42c7 6b41 82ba 5041 65af ffc0 02be 3a3f
00000340: 2fe1 4c41 ecfb 2d41 f628 8240 62c4 b7be
00000350: 8d57 6141 51c8 953f f8db 6340 666a f9c0
00000360: 6596 3fc1 cfc7 6141 6bad 1241 8ec5 c73f
00000370: 21ff c840 f580 9bc0 8ee8 5040 9980 0040
00000380: 8a94 67bf 1b84 6841 8acf 283f 4c50 6841
00000390: 2207 7b41 5e7f 64c0 3f4d 6a41 bbb4 b6c0
000003a0: b983 5041 7e36 1841 4c4f 1f3f f19b fac0
000003b0: 4a80 a7bf be17 a9c0 d205 96c0 6d5d 85be
000003c0: fb5a 5041 d47a 9cc0 8e1f 5dbf 8bee 68bf
000003d0: d37a 07c1 d2e0 abbf 8b68 6c3f ecbc a3bf
000003e0: 0248 d140 68c0 92c0 9d80 6341 52aa b5c0
000003f0: af4f eb3f c186 9e40 b2b4 5241 1702 6d41
-5.6402445 -7.632398 9.1213455 -6.4185886 -1.423263 -4.0514417 -1.4178224 14.274634
-1.9821438 -3.6699739 14.065879 -5.1928515 14.914354 13.978143 -7.403801 -9.818824
-2.2585044 -4.9117303 4.7361317 9.125731 4.9158006 -2.2921834 9.96208 -4.811508
-3.236577 -3.9308064 4.7482734 5.114964 -3.085361 -2.6333349 15.609289 -1.0102314
12.32817 14.967104 -5.07973 6.312589 4.80847 10.4112 -8.463868 1.0140691
14.292587 7.9909706 9.207585 -0.42397413 -1.8722916 -7.4871583 3.2473917 12.31091
12.260711 5.8686733 -3.1018703 12.657681 -5.268041 -0.76712775 -6.135167 15.635361
7.1199794 -3.7867386 8.942619 -8.825285 -6.1801105 -8.665399 -5.3837233 -2.4288244
-7.7342925 0.6837603 -5.496665 10.5104885 2.356525 13.91408 -0.79654104 -2.5501277
2.7812147 -1.4438521 -3.255145 -9.35776 10.019544 -5.8370333 6.7637067 3.3654096
2.858726 -5.0019464 12.864999 4.476944 3.2360318 -5.1509876 -7.784651 -4.982509
10.949308 -6.590943 -4.73792 1.3672253 -4.912847 -5.1061735 -4.609103 2.6764681
12.878607 -3.4373336 0.5572261 2.689864 -3.1537824 -4.1522512 -5.9709935 -4.886992
-4.534392 -3.6727235 -3.772828 -3.5609767 14.177146 0.23084784 3.2962003 5.599364
13.054448 -5.0590506 -1.5406529 13.323651 5.446539 -3.315447 -2.3212996 14.83751
12.234842 -10.395581 -6.880904 2.4612484 -0.86563575 -7.0456963 -5.721178 6.3498273
-6.3365765 1.4332966 -0.5315546 -0.26154602 13.310295 -2.2108486 -6.1458693 -2.5576482
13.67089 11.394912 -4.2247586 -0.062407248 5.3678355 13.314673 11.358284 -5.6510787
3.9315844 -6.8046274 9.444164 4.237108 -2.9113054 4.166436 -5.761482 12.25836
-3.1456163 9.771331 16.824629 1.6731671 -8.592297 13.075821 -3.8740501 -3.83055
-6.640989 7.626974 6.1778975 -6.5311174 -5.8011017 4.2619176 -7.570584 11.147421
12.999983 -0.50884897 -3.6969397 -4.802761 -3.3118284 -4.3568144 3.326028 0.60427064
-0.8364073 13.6444645 3.815431 -6.689696 14.338465 12.293531 11.912419 -3.0254936
-2.6833444 -0.3421731 -4.7613373 3.520639 15.806352 1.285784 -2.8196056 10.975866
-4.7402964 -0.81807166 -4.814888 10.927796 -8.799324 -0.5283705 -4.035092 5.5290923
7.4157443 -1.2770029 -3.3673575 9.123531 14.736147 13.045534 -7.9901605 0.7294618
12.804976 10.874004 4.0675 -0.35892016 14.083875 1.1701757 3.5603008 -7.794238
-11.974217 14.111281 9.167338 1.5607164 6.2811437 -4.859492 3.264194 2.007849
-0.9046103 14.532252 0.6594168 14.519604 15.689241 -3.5702739 14.643859 -5.709562
13.032159 9.513304 0.6223037 -7.831536 -1.3086026 -5.284148 -4.6882105 -0.2604784
13.022212 -4.8899937 -0.86376274 -0.9098899 -8.467486 -1.3427985 0.9234702 -1.2792029
6.54004 -4.585987 14.2189 -5.677041 1.8383693 4.9539495 13.169115 14.81301

layer2.3.weight f4 [256, 256]
00000000: 0045 78bd f108 d03c e8a4 7abd 0382 a2bd
00000010: 6ecb 80bd efa1 b53c 8cb5 87bd 3b7b 98bd
00000020: 43a9 133d 25fe 48bd 7e0c 75bb 5564 863d
00000030: 0ad5 683c 799d 6bbd 106d 053c 6149 39bd
00000040: d519 2e3c fc04 1fbc b113 06bd e574 ddbc
00000050: 4dfd 38bc 70b7 7fbc 7a9e e73c af86 61bc
00000060: 483b 093c 7f7b 0c3d 1228 40bd 28ff 1c3d
00000070: e068 553b e00e da3c 7e23 ca3c 5933 82bc
00000080: 5322 903c 2a82 2e3d 9ed1 163d 19e1 12bc
00000090: 6f98 f8bb 6c9e 23bd 1ef5 f3bc fe2f 33bd
000000a0: 0fa4 f6bc 0c7a 8abd ba6c f6bc 33ec b0bc
000000b0: 4e96 b73c fa78 2cbc 5f09 6bbd dc5c c4bb
000000c0: 92ed 2cbd 1544 88bc 98c6 823c 9cca 0b3d
000000d0: f6dc 0f3d 53c6 05bd e97b 9bbd fa1b 163d
000000e0: 9cbd 673c 4694 823c 33aa 7ebd 45ca 15bd
000000f0: ba8b 69bc 48a7 e8bc cb5d 12bd c079 ed3c
00000100: 23bc 2e3d e9c8 a7bd 9856 40bd aec6 353c
00000110: 4fbb d53a 5bf2 4ebc f44b eb3c 318d 033b
00000120: 06a8 a0bc bde0 8bbc ac64 063d 2326 64bd
00000130: 40ed 9c3c 07cf 153c 7701 793c 9718 9cbd
00000140: 8d99 18bd ceef 2c3b 479a dabc cb7a 92ba
00000150: 36ce 523d 6612 44bd a3b7 93bd 6f8b 17bd
00000160: c83f 423d cee0 283d 1c4a 63bd d708 b03c
00000170: 636e 31bd fbb1 283c 810a a5bd 9751 0cbd
00000180: 5cbc a7bd 20db 62bd ffe5 f9bc 1c8e 12bc
00000190: 12dc afbb 0e66 1c3d d3bf b2bc a160 8ebc
000001a0: 1bb6 ff3c 3412 2c3d 08d7 1abc 3c93 003d
000001b0: 58f3 5a3c 65ce abbd adc1 e7bc ab3e 08bc
000001c0: 456f 1fbd a844 76bd 2374 233d 4af2 23bd
000001d0: 34ae d1bc cc4d e13b 7abf bf3c abf2 983c
000001e0: f306 6abd f048 573d 2712 d9bc 65f3 82bd
000001f0: a4f8 c5bb 1d78 a2bd 660d 31bd aef5 fdbc
00000200: ffff 3dbd 3ed3 223d b5df 69bd 83e5 f7bc
00000210: 866c 79bd 1667 b4bc 0fd1 743b b649 50bc
00000220: 4619 6c3b 07d8 b5bd cc2d 083d a91b fd3c
00000230: 3ec2 46bc 4a77 d33c 52b8 79bd ea74 48bd
00000240: 1b3a 8ebc 4ea4 7cbd 4205 503b 355e 94bd
00000250: 6dd1 b2bd 8b1d 1e3d ac5c 88bd c3ec 70bd
00000260: edf9 86bd 0124 163d 0d20 85bc a298 803b
00000270: dcd5 69bd e543 b83c b179 d73c 5b70 5abc
00000280: ea9d 27bc 2e13 8fbb 2faf a23c 78e6 593d
00000290: 85a1 00bb 4941 8ebc 971d 2bbd 3a5a 013d
000002a0: a328 e23b c8c0 763c dba6 76bd 3451 2cbd
000002b0: 3705 9f3c 452f 6fbd 79e2 f2bc dbf5 97bd
000002c0: 7bbc ce3b 70ef 74bd 4b69 123d 6afa e439
000002d0: 4478 1f3d 1783 d7bc 4611 2c3d 921d 8dbc
000002e0: 22c7 3abd ba06 a4bd 852a 843c 69a3 da3b
000002f0: a954 dfb9 3099 91bb 0791 203d bc0e 523c
00000300: b1f4 04bd 32bc 0d3d 7eb5 c43c f529 3ebd
00000310: b94b 293c 775d 1dbd 9c10 e53c 6ee8 4fbd
00000320: 487f babc bc96 fb3c bb57 d3bc 5b7a 7abd
00000330: cc8b c73c 9911 1e3d bbfe f1bb 5626 dc3c
00000340: 43b7 73bd 4a86 a43c 29c2 b83c c458 22bd
00000350: 78fb 82bc 7187 5ebd 0c70 843c 61b6 f8bc
00000360: 7787 22bc 62a1 34bd 9809 7dbd f1f5 2cbd
00000370: ddb8 7fbd d339 1cbd f85d 8dbd 6da0 35bc
00000380: 2c2a 2cbd 5dd3 653c 40bb b6bc b29a 163d
00000390: 7453 20bc 2898 1d3d 64db ee3c a25e 153d
000003a0: 035b 963b 9ec2 d83a 1c12 b8bb a5ee 013d
000003b0: 5cd9 66bd bc98 2dbc ce0a cc3c 43c6 c63c
000003c0: a50a 233c 8055 26bd 3b18 82bd ee93 3dbc
000003d0: 9cf8 b4bc 1ef7 a73c 342b 3f3c 36a7 563d
000003e0: ab30 3fbd 7d80 b6bc 29f3 bdbd 71e5 1dbd
000003f0: 4eb1 873c e092 a2bb 8f07 213d 8c33 40bd
-0.06061268 0.025394889 -0.061192423 -0.07934954 -0.06288801 0.022171943 -0.06626424 -0.07445379
0.036050092 -0.049070496 -0.003739148 0.065621056 0.014210949 -0.057523225 0.008143678 -0.045235995
0.010626276 -0.009705778 -0.032733623 -0.027033279 -0.01129086 -0.0156077 0.02827381 -0.013765021
0.00837595 0.034297463 -0.046913214 0.038329273 0.003256373 0.026618421 0.024675127 -0.015893625
0.017594492 0.042604603 0.036821 -0.0089648 -0.007586531 -0.039946005 -0.029779967 -0.04374694
-0.030107526 -0.0676156 -0.030081142 -0.021597004 0.022410538 -0.01052689 -0.057381984 -0.005992515
-0.042218752 -0.016634027 0.015963838 0.03412877 0.035122834 -0.03265984 -0.07591993 0.036647774
0.0141443275 0.015939843 -0.062174033 -0.036569852 -0.014254505 -0.028400078 -0.03573398 0.028988719
0.04265989 -0.081926174 -0.046957582 0.011094732 0.0016306433 -0.012631024 0.02872274 0.002007317
-0.01961137 -0.017074937 0.032810852 -0.055700433 0.019156098 0.009143597 0.015198103 -0.07621878
-0.037255812 0.0026388052 -0.026684893 -0.0011175511 0.05146619 -0.04786911 -0.0721276 -0.03699821
0.047424108 0.041230015 -0.055490598 0.02148859 -0.043318164 0.01029634 -0.08058644 -0.034257498
-0.081902236 -0.055384755 -0.030505178 -0.008945014 -0.0053668106 0.038183264 -0.021819985 -0.01738006
0.031214764 0.042009547 -0.0094506815 0.031390414 0.013363682 -0.08388976 -0.028290594 -0.008315722
-0.038924474 -0.06012407 0.03990568 -0.040025987 -0.025595762 0.006875729 0.023406733 0.0186704
-0.057135534 0.052559793 -0.026497914 -0.0639408 -0.006041603 -0.07933066 -0.04322567 -0.031000938
-0.046386715 0.039752237 -0.05709811 -0.030260807 -0.06089451 -0.022021811 0.0037356054 -0.012712887
0.0036025806 -0.088790946 0.0332468 0.030896978 -0.012131272 0.025813717 -0.060966797 -0.048939623
-0.017361691 -0.06168013 0.0031741415 -0.07244531 -0.08731351 0.038602393 -0.06658301 -0.058819544
-0.06590638 0.03665543 -0.016250635 0.0039244452 -0.057088718 0.022493312 0.026303144 -0.013332452
-0.010230521 -0.0043663 0.019858925 0.053198308 -0.0019627523 -0.017365115 -0.041776266 0.031580187
0.006901817 0.015060611 -0.06021772 -0.04206963 0.019411666 -0.05839469 -0.029649006 -0.0741994
0.0063090897 -0.059798658 0.035744946 0.00043674122 0.038933054 -0.026307626 0.04200866 -0.017226014
-0.045600064 -0.080090955 0.016133556 0.006672312 -0.0004259695 -0.00444331 0.03920081 0.012820896
-0.03245992 0.034603305 0.024012323 -0.046426732 0.010332995 -0.038419213 0.027962022 -0.05075877
-0.02276577 0.030711524 -0.02579867 -0.061151844 0.024358653 0.038591 -0.0073851026 0.026873749
-0.059500944 0.020083565 0.02255352 -0.039635435 -0.01598905 -0.054328386 0.01616671 -0.030360403
-0.009919993 -0.04409922 -0.061776727 -0.042226736 -0.06243216 -0.038141083 -0.06902689 -0.011085612
-0.042032406 0.014027444 -0.022306085 0.036768623 -0.009785522 0.038475186 0.029157348 0.036467202
0.004588486 0.0016537493 -0.005617393 0.03172173 -0.056359634 -0.010595497 0.024907496 0.02426446
0.009951268 -0.040608883 -0.06352278 -0.011570914 -0.022091202 0.020503577 0.011668015 0.05240556
-0.046677273 -0.022278065 -0.09274895 -0.03854889 0.016564038 -0.0049613565 0.03931385 -0.04692416

layer2.3.bias f4 [256]
00000000: 0d23 b1be 39e0 edbd ae4f 8240 1e83 1dbd
00000010: 105f a8ba c037 a4bd 64fe b3bd ded5 3cbf
00000020: 80eb 1a41 5b0d 29bd cb3c 93bd 5140 0f41
00000030: fd03 d03c 7bd7 58bd 4155 0541 0b5a ea3f
00000040: fe85 f840 2871 1c3d 5e67 0941 500d 60bd
00000050: 08cf fc3d 3b21 a5bc 92ba c6bd b8f3 f8bd
00000060: efef d13a 593c 92be 7712 80bc 7edf 10be
00000070: cd46 b1bd 7bcf 1741 5f3f 83be 235a 26be
00000080: b458 563e d067 e33c 549d 0541 08a4 ad3d
00000090: d52b 7c3b 5545 f2bd ef8b 8b40 2b7c 92bd
000000a0: 3fb0 2741 b9b7 8339 1a4f 2c3e ac12 6dbd
000000b0: 6ef0 3141 24a3 a73b b956 81bd b30f b33e
000000c0: dfd5 2e41 d1f3 1f41 45a7 30bc 356b ffbe
000000d0: cc28 1841 91a9 e3bc ec16 09bf e003 08bd
000000e0: dc7b 20be 1d54 f740 3962 55be 7197 dc3c
000000f0: 64e9 1a41 c237 1241 2b50 9cbe 51e7 51bc
00000100: 0aff 16bd 8134 61be aa31 21bd d726 023f
00000110: 27b4 3440 1b7d 03be e6be 34bd 6abe 9bbe
00000120: ae55 ac40 cd6a da3e 1866 b0be 0bb9 893e
00000130: 9998 3e3e 15c9 2641 be87 0b41 5ede 0140
00000140: 630d 8b40 7722 1e41 d6fa a53a 7652 fb40
00000150: 458a 6ebf ebb9 2dbe d986 e43d db82 3b3e
00000160: d6de 2bbe 039d d4bd 8adb 1241 6768 83bd
00000170: f017 fc3d 6f69 0141 86e9 9fbb 5ddf 1541
00000180: 2eb4 aebe 2314 1ebe 34c4 16bf e31b 1341
00000190: 0c47 4abe 9fd3 33bd 9282 72be acd1 1841
000001a0: 1a30 1d41 1afc 8e3b c2f4 aabd b071 7c40
000001b0: 073b a4bc 802c 2dbe 64c6 0c41 da98 0a41
000001c0: 62f3 a93f e1fa 3d3e f4cf 453e a530 d53e
000001d0: 1e13 15be aac8 1941 ccfb bfbd 693e a9bd
000001e0: 069b 1241 9f76 67bf 3e21 e0bd 7953 5abe
000001f0: fa56 13be 1376 1441 381c 6a40 44cc 87bb
00000200: 9269 1741 045c 37bf b524 5440 dbdf 413d
00000210: 6885 0c40 f50d 1841 4850 2540 4985 bf3d
00000220: 7267 06bd b6dc d63f ba7f febd 4791 7ebe
00000230: 8a66 453e 7480 e13d db36 013d 3971 1441
00000240: 9e58 93be df75 863d 8a83 1d41 337e 2441
00000250: 19b5 803d 034e dd3d ff4f 03bf 2440 0f41
00000260: c8ad 57bc 100a 2741 4001 f0be 1b9b 3abe
00000270: 0257 2541 7c70 f1bd 90ee f540 12d2 3cbd
00000280: f16e 78bd 23dd 0841 85e2 1441 c834 4cbf
00000290: e241 b9bd 4772 d5bd 769e f43e 0687 803e
000002a0: 3b6c 48bd 7a9d ef3c c84a 0bbf e27f fcbd
000002b0: f59b 4c3b 5acf c2bd 7753 0dbc 576a cebd
000002c0: e06c 0741 409b 82bc 0a7c 0641 c686 e93e
000002d0: 061a a7bc 287b 6abb 71db 233d a24e 3b41
000002e0: 0ae7 0b40 2b78 a4bd 73de 07be f76f eabc
000002f0: fed5 103e d673 1e3d 3736 c240 43fa eebd
00000300: 10f9 1c41 394f 96bd b068 2841 6809 9bbb
00000310: 0a43 a43e e4ed 5fbe 3d14 0f41 2122 1b41
00000320: 7c11 27bd caed 1c3d 5cc7 8c40 038a ce3c
00000330: dc7e d2be 6835 d23d 609e 2b41 871e 2841
00000340: 5899 853d 71cb 00bd 7fd6 2bbe bc8e fe3c
00000350: ff5f 0a41 0178 87bc 9811 2941 d057 d93f
00000360: 9a39 0a40 6348 cbbd 5601 1a3f 902d 8cbd
00000370: 06c8 2041 c5c7 cabd 0452 c4bd 0db0 f640
00000380: 2527 e840 e3f5 87bd 92b1 fabd 0a5d 8b3e
00000390: a21f 89bd 5af3 08be 444a 6e3e bbb9 1441
000003a0: a2d7 ff40 fc0b 51be 225e 1841 4cf7 0c41
000003b0: 4c60 a9bd 04cf e8bd b778 9840 fc09 c93c
000003c0: be28 0741 95ad 79bd e3b5 833f 09e7 0941
000003d0: dc67 743d 822a 9b3d 28aa 0a3f 8a2a 8cbe
000003e0: 1d09 cf40 d4fe 913e 67ba 9940 75d1 2e41
000003f0: 0f6d 973f 2630 3f3e e2cb 223f 27e7 06bd
-0.34597054 -0.11615033 4.0722265 -0.03845512 -0.0012845714 -0.08018446 -0.087887555 -0.73763835
9.682495 -0.041272502 -0.0718933 8.953202 0.025392527 -0.052939873 8.333314 1.8308729
7.7663565 0.03819385 8.587736 -0.054700196 0.123441756 -0.020157447 -0.09703554 -0.12155861
0.001601694 -0.28561667 -0.015633805 -0.14147756 -0.08656082 9.488154 -0.25634286 -0.16245322
0.20932275 0.027759463 8.35091 0.08478552 0.0038478274 -0.1182963 4.3608317 -0.071525894
10.480529 0.0002512315 0.1682705 -0.057879135 11.121199 0.0051158834 -0.06315369 0.34972915
10.927215 9.9970255 -0.010782068 -0.4988648 9.50996 -0.027790817 -0.535506 -0.03320682
-0.15672249 7.7290177 -0.2083825 0.026927682 9.68198 9.138613 -0.30529913 -0.012811498
-0.036864318 -0.21992685 -0.039354004 0.50840515 2.8234956 -0.12840693 -0.044127367 -0.30418712
5.385459 0.42659608 -0.3445289 0.2689899 0.18612899 10.424092 8.72064 2.0291972
4.345384 9.883414 0.0012663256 7.853816 -0.9317973 -0.16965453 0.11158533 0.18311636
-0.16784224 -0.1038151 9.178598 -0.064163975 0.12309253 8.088241 -0.004880133 9.367032
-0.3412184 -0.15437369 -0.5889313 9.194308 -0.19753665 -0.04390299 -0.23682621 9.551189
9.824244 0.004363549 -0.08347465 3.944439 -0.020047678 -0.16911507 8.798435 8.662317
1.32774 0.18552734 0.19317609 0.41638675 -0.14558074 9.61149 -0.09374198 -0.08263857
9.1628475 -0.90415376 -0.109438404 -0.21320905 -0.14388648 9.278827 3.6579723 -0.0041442234
9.463274 -0.7162478 3.3147404 0.047332626 2.1956425 9.5034075 2.583025 0.09351594
-0.032813497 1.6786106 -0.12426706 -0.24860106 0.19277397 0.110108286 0.031546455 9.277642
-0.28778547 0.06565451 9.844614 10.28081 0.06284542 0.10805895 -0.5129394 8.953159
-0.013163991 10.439957 -0.46875954 -0.1822323 10.333742 -0.11789033 7.6853714 -0.046098776
-0.060652677 8.553988 9.305303 -0.7976804 -0.09045769 -0.10422187 0.47777146 0.25103015
-0.04893134 0.029249895 -0.5441098 -0.12329079 0.0031220887 -0.095122054 -0.008625857 -0.100788765
8.464081 -0.01594317 8.405283 0.45610636 -0.020398151 -0.0035778973 0.040004198 11.706697
2.1859765 -0.08030733 -0.13268451 -0.028617842 0.14144132 0.03868469 6.069118 -0.116688274
9.810806 -0.07339329 10.525558 -0.004731346 0.32082397 -0.21868092 8.942441 9.695832
-0.04078816 0.03831271 4.399336 0.025212293 -0.4111241 0.10264093 10.726166 10.507453
0.065233886 -0.031444017 -0.16781043 0.03107392 8.648437 -0.016536715 10.566795 1.6979923
2.1597657 -0.09925916 0.6015829 -0.06844628 10.048834 -0.09901384 -0.09585956 7.7089906
7.2547784 -0.06638696 -0.122409 0.2721942 -0.066954866 -0.13374081 0.23270518 9.295344
7.9950724 -0.20414728 9.522982 8.810375 -0.0827032 -0.1136761 4.7647357 0.024540894
8.447447 -0.060956556 1.0289882 8.618905 0.05966936 0.07576467 0.5416589 -0.27376205
6.4698625 0.2851473 4.804004 10.926137 1.1830157 0.18670711 0.6359235 -0.032935288

layer2.6.weight f4 [1, 256]
00000000: 0249 253b d293 20be 9959 ba3a 5fac abbc
00000010: 15b7 1bbd 467c a1b9 9fcd 4fbd 13d6 8dbb
00000020: 743f 8c3e c567 38bd dd7e 26bc 29a1 103d
00000030: 09a8 21bc dc7c 083b 19c0 f03c 52fe d8bb
00000040: 2276 2e3d 9b20 303d e819 283d 3da9 1bbd
00000050: 0488 033b b51f 1bbd eb78 34bd f10d c5b9
00000060: b15d 1cbd 5da3 6fbc e38c b3bc e6cf 403b
00000070: 6cc3 ceb9 dee4 893d 1e60 ddbb ab9d b5bb
00000080: a965 bb3b 4016 a33c 6d13 b23c 3145 353b
00000090: 1aa4 d83c 5d0d 9dba 43f9 ebbd fdb5 4fbb
000000a0: 936f 5e3d 5c7e a2bc 40e5 d43c da46 7eb9
000000b0: c03e 823d 39bd 32bb 0ecb e7bc d578 24ba
000000c0: 4a20 643d 0b67 db3c 37b5 1bbd c916 f43a
000000d0: 0ab5 b63c 6a69 5f3c 4a35 31ba a8f2 9fbc
000000e0: 5fdd 88bb ab6e ca3c ad68 b2bc bb58 d1ba
000000f0: bd18 323d b312 193c 8348 8abc 4714 2a3a
00000100: 4037 bb3a cb90 cbbc 9b5c 163d e05c 1bb9
00000110: 392c 4abb 38b5 f2ba 1635 e2bb 31f2 b5bc
00000120: 29b3 883d d049 c63c bd5f 30bc b46e f13c
00000130: b1d2 7e3c 4395 5c3d aba3 ad3b c42b 283b
00000140: 8e06 103b a5b2 203d 6973 78bb 19e8 ad3c
00000150: 0362 35bc 3002 3ebc 4c6c b23b 8578 093c
00000160: 3783 a0ba fb97 73bc 2d41 153d d0b1 1ebd
00000170: 3179 103d 2dff 1b3d 755f 443b 860d 573d
00000180: bd52 3b3b cd68 31b9 85b7 c73a b166 17bb
00000190: 0a41 c8bc 3593 0b3a 56d2 c6bb bda5 753d
000001a0: b75c 163d 62e1 c8bc 5d11 1fbb 1a12 313d
000001b0: f2fc ceba 2e94 933a 433d 153d 8ee2 303d
000001c0: 95b5 243b 5d65 923c 3b93 22be 9569 abba
000001d0: 5f67 383b f515 fe3c 8376 d1bc 8a54 09bd
000001e0: bce8 1e3c 5005 50bc 5c6e 12bd 4c72 c5bc
000001f0: ec68 a3bc e98a 193d 58a4 443d f4d1 c139
00000200: 10e5 893d 55b9 87bb 5cc1 fe3c 7d56 19bc
00000210: 451d b53c ec11 283d adb1 e1ba 235b 593c
00000220: f28c 4bbb 55ec bc3a 38a7 2ebc 0328 063b
00000230: 92e1 113b 172a 423c 21a6 933c 7468 823d
00000240: bf6b 5cbc 34a8 dab9 324e 9c3a 5a10 873d
00000250: 6f6d 333b d303 c63a d9a3 8439 8dbc 2d3d
00000260: 235c 23bd c4c6 363e 8f20 c5bc b089 453b
00000270: 7198 5f3d f993 30bb caf7 afb8 efe5 6039
00000280: 60cd 0cbd cfdc 0e3e a881 cf3c 7d8b 9bbc
00000290: 6435 5cbd 9e12 75ba a5a8 803c 9597 273c
000002a0: a475 3d3b 103a 9f3c 3719 1bba 37e1 a9bc
000002b0: e5fd ce39 e95b 813d 46ea 06bd e163 e4ba
000002c0: 1948 a73c e44d 86bc 7d18 353d 13ee 9fb9
000002d0: 8e13 d3ba f72d 34bd c5c2 d439 85cb 963d
000002e0: d71e 80bd 5ec4 2fbb 9f6e d5bb f7ca c33c
000002f0: e56a 323a cadc 8fbb 732e 973e 9492 21bc
00000300: c49c 47b9 a8e4 12bd 0582 8b3c 4204 6dbc
00000310: a96a 89ba d74d 3ebb d6f3 a83c e15b ff3c
00000320: cd5f 1fbd 77c0 40bd 336d 15bb 8871 b0bc
00000330: 037a edb9 712c 35bb c674 3c3d 0df4 4c3d
00000340: f447 123b 729f 8d39 6774 38bd 39ad 90ba
00000350: 2a5a eb3c d11a 43bd 89fb 8c3d 9893 e13c
00000360: e66b fc3c 976a ebbb 5ebc 053b d325 84bc
00000370: 69ef 083c 76f8 56ba bd03 cabc 30da a23c
00000380: effb 2e3d e24d 48bb 48f5 bbba 5b12 673a
00000390: 193b e4bc 3867 18bd b4e7 bd39 3e20 2e3e
000003a0: bd25 093d a311 b3bc 4cf2 193d a2ec 423d
000003b0: 320f f5bb 842e 14bb 0582 923d 9220 06bd
000003c0: 56ac a33c bbd5 fdbc 31c5 01bb 320e b33c
000003d0: db2b bc3a 622e 05bc ec62 403b b698 e03a
000003e0: 47fb c83d a2b8 173d b660 f7bb c3a1 863d
000003f0: ab9e 5b3d f356 d4ba de70 773a 02a1 ddbc
0.0025220518 -0.15681389 0.0014217376 -0.020956216 -0.038016398 -0.00030800904 -0.050733205 -0.004328498
0.2739216 -0.045020837 -0.0101620825 0.035309944 -0.009866723 0.0020826375 0.029388474 -0.006622114
0.04259313 0.042999845 0.04104033 -0.038003195 0.0020070085 -0.037872035 -0.04406063 -0.00037585155
-0.03817529 -0.014626351 -0.021917766 0.0029420792 -0.00039436982 0.06733106 -0.006755843 -0.005542477
0.005718906 0.01990807 0.021737779 0.002765965 0.026445437 -0.0011982132 -0.11522152 -0.0031694167
0.054305624 -0.019835643 0.025988221 -0.00024249722 0.06359625 -0.002727343 -0.028295066 -0.0006274109
0.055694856 0.026782533 -0.038014617 0.0018622513 0.022303123 0.0136359725 -0.0006759955 -0.019524887
-0.00417678 0.024710974 -0.021778429 -0.0015971878 0.043480624 0.009342837 -0.01688028 0.0006488007
0.0014283434 -0.024849316 0.03670941 -0.0001481655 -0.0030849113 -0.0018517142 -0.006903301 -0.022210212
0.06674797 0.024205118 -0.010765013 0.029471733 0.015553162 0.053853285 0.0052990518 0.0025660852
0.0021976563 0.03923287 -0.0037910587 0.021228837 -0.011070731 -0.011597201 0.005445039 0.0083905505
-0.0012246136 -0.014867778 0.03643911 -0.038743794 0.035271827 0.03808515 0.0029964123 0.05250313
0.0028583251 -0.00016919077 0.0015237188 -0.002310198 -0.024445076 0.0005324365 -0.0060675545 0.059972513
0.036709514 -0.024521533 -0.0024271824 0.043230154 -0.0015791936 0.0011259371 0.036435377 0.04318481
0.0025132645 0.0178706 -0.15876476 -0.001307773 0.0028137786 0.03101633 -0.025569206 -0.03352789
0.009699043 -0.012696579 -0.03574978 -0.024102353 -0.019947492 0.03748599 0.048008293 0.00036968256
0.06733143 -0.0041419663 0.03109806 -0.009358999 0.022108683 0.041032717 -0.0017219089 0.013266358
-0.0031059352 0.0014413694 -0.010659985 0.0020470626 0.0022259695 0.011850855 0.018023552 0.06367579
-0.013453423 -0.0004170552 0.001192516 0.06594916 0.002737846 0.0015107341 0.00025299078 0.042416144
-0.03988279 0.1784926 -0.024063377 0.0030141883 0.05458874 -0.0026943667 -8.3908046e-05 0.00021447962
-0.03437555 0.1395142 0.02533038 -0.018987412 -0.053761855 -0.00093487825 0.015705416 0.010229011
0.002890923 0.019436866 -0.0005916538 -0.020737274 0.00039480548 0.063163586 -0.032938264 -0.0017424786
0.020420121 -0.016394563 0.044212807 -0.00030504222 -0.001610385 -0.043989148 0.00040580906 0.07363037
-0.06255882 -0.0026819925 -0.006513431 0.023900492 0.00068060897 -0.004390334 0.29527625 -0.009861607
-0.00019036519 -0.035862595 0.017029772 -0.014466347 -0.0010484058 -0.0029038095 0.020624083 0.031171741
-0.038909722 -0.04705855 -0.0022800684 -0.02153851 -0.00045295068 -0.0027644897 0.0460098 0.050037432
0.002232072 0.00027012412 -0.045032885 -0.0011037952 0.028729517 -0.047632996 0.06883914 0.027536198
0.030813169 -0.0071843374 0.0020406465 -0.016131317 0.008357861 -0.0008200476 -0.024659986 0.01987943
0.04272073 -0.0030564 -0.0014340067 0.0008814686 -0.027860211 -0.037207812 0.0003622152 0.17004487
0.033483256 -0.021858996 0.037584588 0.047588952 -0.007478618 -0.0022610733 0.071537055 -0.032745905
0.019979637 -0.030985704 -0.0019801373 0.021857355 0.0014356332 -0.008128734 0.0029355837 0.0017135355
0.09813552 0.037041314 -0.0075493706 0.06573822 0.053618114 -0.0016200229 0.0009439121 -0.027054314
