Model_Files/bpiNoRepeat/TimestampPredictor_parameters_feedforward_0.0001.pt (torch, 292225 bytes, 5 tensors)

layer2.0.weight f4 [256, 24]
0.00020519074 -0.05875382 0.017248621 5.600717 0.18336321 -0.028771095 0.055393133 0.95495164
0.3574704 -0.28452122 0.00057191396 9.980624 -0.2627344 -0.54014635 -0.3580226 -0.4083491
-0.06758996 0.0666392 -0.29705182 1.8664346 0.16802585 -0.11517494 0.3616992 1.6060835
-2.7603102 -2.8399456 0.022640208 5.7730355 -0.24412864 -0.4476266 0.035435937 1.6004478
0.116705745 -0.009034131 -0.006778397 5.416383 0.16523089 -0.13603976 -0.059010696 -0.069451496
-0.005416945 0.0042237174 0.010853245 4.054896 0.034745783 -0.20485146 -0.193494 -0.13600515
0.1662777 0.1387558 -0.40166757 2.006179 -1.1598917 -1.137079 0.1424355 1.4672616
0.24067059 0.09477144 -0.14416675 5.7927713 -0.09132863 0.14847918 0.42137665 0.9355197
0.13933295 -0.14641812 0.2985022 5.9662623 -0.08074209 -0.13156913 -0.06131033 0.697586
-0.24346437 -0.2801092 -0.490792 -0.9789912 0.23955387 0.03903636 -0.12207572 -0.25506535
-0.47573334 -0.50209326 -0.4191064 -0.56329095 0.19501674 -0.04594295 0.18881774 -0.47549284
0.007904149 0.034468193 -0.424648 -0.3963014 0.02311107 0.10474346 -0.22095138 -0.7026185
-5.4186783 -5.262405 0.10760142 2.9883854 0.1047021 -0.014883477 -0.17008571 -0.013294408
0.050893497 0.030505264 -0.62359715 0.9203488 0.044797674 0.14367972 0.554932 0.51707673
0.131295 -0.10950421 -0.001235073 0.6336685 -0.038177837 -0.14642772 0.12567492 0.3780418
0.10674173 0.24105366 -0.8275765 -2.1934643 0.29228193 -0.07506507 0.0137926005 -1.1951725
-0.12656492 0.18119122 0.06712443 -9.69071 -0.21785404 -0.1641779 -0.29013428 0.038596213
-0.23761144 0.024738904 -0.046918318 -2.5196338 -0.04812724 0.17757532 0.3664123 -0.27146727
0.15871684 0.18042715 0.01371439 -1.9718224 -0.036317904 -0.12875655 -0.32125723 -0.02325485
-0.17613706 -0.3595864 -0.18251243 -0.73046774 0.044680648 -0.010006404 -0.10658029 0.09046036
-0.12873279 0.004169224 -0.39510468 -0.62560725 -0.06958812 -0.17707291 -0.006163916 -0.005627616
-0.37003133 0.14183027 -1.3142661 -1.5781463 0.12557805 0.11602888 0.0060968176 -1.338755
-0.022258146 0.21024898 0.014824631 -5.6815114 -0.24886198 0.03748801 0.09349384 0.027469184
-0.011462747 -0.043393437 -0.029487066 0.5248222 -0.06242888 -0.22444703 -0.10608042 0.20307451
-0.1335228 -0.30644616 -0.09001696 -5.2205586 -0.0736996 0.042812403 -0.5592769 0.017775303
0.027573584 0.3521368 0.05429225 -11.347358 0.07563158 -0.13135602 0.067890726 -0.711388
0.016956586 -0.13975157 -0.15692048 -0.7719459 -0.14423786 0.18057531 -0.020900005 -1.3351034
0.13923614 -0.016092367 0.011109862 6.1020865 -0.12936223 0.075859316 0.1766386 1.2562004
0.24274923 -0.17903736 -0.0068507316 11.871001 -0.021576451 0.047273304 0.08689214 1.1679502
0.101601146 -0.15997264 -0.029990792 5.953316 -0.048966285 -0.067298114 -0.15207744 1.0920146
-0.41378406 -0.4049371 -0.5819368 -0.6912333 0.32325268 -0.090598404 0.027536646 -1.5121139
-0.20821081 0.12555715 -0.36033997 -0.15168793 -0.33522564 0.040091947 -0.22238638 0.6422408
00000000: 7828 5739 d8a7 70bd fb4c 8d3c 1339 b340
00000010: 91c3 3b3e 5cb1 ebbc e9e3 623d b677 743f
00000020: 5c06 b73e c4ac 91be 7fec 153a a3b0 1f41
00000030: 2085 86be 0847 0abf bd4e b7be 2213 d1be
00000040: 9b6c 8abd 227a 883d 2d17 98be 54e7 ee3f
00000050: f80e 2c3e d7e0 ebbd a330 b93e 2594 cd3f
00000060: eca8 30c0 abc1 35c0 f577 b93c b5bc b840
00000070: dcfc 79be 502f e5be 4625 113d 79db cc3f
00000080: 6c03 ef3d e403 14bc 511d debb 0253 ad40
00000090: 4932 293e 024e 0bbe 33b5 71bd 963c 8ebd
000000a0: a180 b1bb 1c67 8a3b cfd1 313c b5c1 8140
000000b0: 9851 0e3d 95c4 51be 4b23 46be ef44 0bbe
000000c0: b444 2a3e 0016 0e3e 5fa7 cdbe 3d65 0040
000000d0: 5577 94bf ce8b 91bf 9dda 113e 3acf bb3f
000000e0: 5a72 763e 8717 c23d 73a0 13be 625e b940
000000f0: 810a bbbd ed0a 183e aebe d73e 387e 6f3f
00000100: 4cad 0e3e a2ee 15be 48d5 983e 9feb be40
00000110: 1c5c a5bd 0fba 06be 8a20 7bbd ff94 323f
00000120: b94e 79be 796a 8fbe 1749 fbbe 2b9f 7abf
00000130: 9c4d 753e 97e4 1f3d d602 fabd ed97 82be
00000140: 5293 f3be 2f89 00bf 1d95 d6be d633 10bf
00000150: 78b2 473e ad2e 3cbd 7059 413e cc73 f3be
00000160: 6780 013c 852e 0d3d 766b d9be 04e8 cabe
00000170: 6d53 bd3c bd83 d63d 1441 62be cede 33bf
00000180: d065 adc0 9f65 a8c0 225e dc3d b541 3f40
00000190: 0e6e d63d d4d9 73bc f32a 2ebe cad0 59bc
000001a0: b375 503d 2de6 f93c 10a4 1fbf fb9b 6b3f
000001b0: c47d 373d c720 133e 0610 0e3f 245f 043f
000001c0: 3272 063e be43 e0bd 2ce2 a1ba 1938 223f
000001d0: 5d60 1cbd 26f1 15be edb0 003e b28e c13e
000001e0: 689b da3d c5d6 763e 0edc 53bf b861 0cc0
000001f0: faa5 953e b7bb 99bd 5cfa 613c 6afb 98bf
00000200: 3c9a 01be 318a 393e 8878 893d 260d 1bc1
00000210: 2115 5fbe 401e 28be 7b8c 94be 1017 1e3d
00000220: 6a50 73be 3ea9 ca3c 6c2d 40bd ae41 21c0
00000230: 1221 45bd 4ed6 353e 659a bb3e c2fd 8abe
00000240: ab86 223e e5c1 383e 52b2 603c ad64 fcbf
00000250: 15c2 14bd c2d8 03be d47b a4be f580 bebc
00000260: 465d 34be b51b b8be 8ae4 3abe efff 3abf
00000270: 0e03 373d e6f1 23bc c446 dabd 4843 b93d
00000280: 87d2 03be fc9d 883b 294b cabe cc27 20bf
00000290: 3784 8ebd 9a52 35be adfa c9bb dd67 b8bb
000002a0: bf74 bdbe f43b 113e df39 a8bf b300 cabf
000002b0: 8897 003e 8da0 ed3d d0c7 c73b 535c abbf
000002c0: b756 b6bc 824b 573e 02e3 723c f1ce b5c0
000002d0: add5 7ebe 078d 193d b379 bf3d 0e07 e13c
000002e0: 3fce 3bbc 51bd 31bd dc8e f1bc bf5a 063f
000002f0: 6db5 7fbd 71d5 65be b140 d9bd c4f2 4f3e
00000300: 33ba 08be 83e6 9cbe d05a b8bd d10e a7c0
00000310: d1ef 96bd 0f5c 2f3d c52c 0fbf 839d 913c
00000320: ffe1 e13c 464b b43e 8d61 5e3d c78e 35c1
00000330: bbe4 9a3d 3182 06be 4b0a 8b3d 861d 36bf
00000340: 8ae8 8a3c 091b 0fbe c3af 20be 3f9e 45bf
00000350: 17b3 13be bce8 383e 7d36 abbc abe4 aabf
00000360: eb93 0e3e 24d4 83bc 2306 363c 4b44 c340
00000370: 8877 04be 215c 9b3d c0e0 343e 2dcb a03f
00000380: 4193 783e 9255 37be 1a7c e0bb 9fef 3d41
00000390: 19c1 b0bc a7a1 413d 82f4 b13d 647f 953f
000003a0: 4314 d03d decf 23be 40af f5bc 9181 be40
000003b0: df90 48bd 98d3 89bd 30ba 1bbe 22c7 8b3f
000003c0: 81db d3be ea53 cfbe cff9 14bf aaf4 30bf
000003d0: 6081 a53e a88b b9bd 8894 e13c f38c c1bf
000003e0: 3735 55be 0e92 003e 7b7e b8be 1554 1bbe
000003f0: b2a2 abbe 7437 243d 41b9 63be e569 243f

layer2.0.bias f4 [256]
9.788482 5.650336 5.771473 -1.1881146 2.7291114 -9.558082 -2.0741222 -5.8036532
-10.887425 11.727028 -0.42593253 -1.2850611 -2.9917219 -9.616251 -2.8693378 -2.826956
-2.4323008 4.9920306 11.10049 -0.9907146 -5.9546294 1.9921536 10.027138 -2.030398
10.085141 -8.472034 11.4436865 10.018443 9.880541 0.25369412 4.61633 -1.397821
10.880018 -3.5360832 -1.0975955 10.670196 2.582675 -12.7537155 3.6366403 -12.174484
10.472401 -1.2041887 10.877035 1.9564527 2.4760268 10.612096 -3.1624029 8.650363
1.4537154 -6.716036 7.1715784 9.837156 6.0458374 -1.070335 4.2664857 9.298819
7.8535438 -9.989556 9.332512 3.9520996 -1.1286625 10.489017 -2.1989803 9.8146925
-12.531365 -9.784681 11.949214 -1.371485 1.8219476 1.814825 -11.952997 9.960074
-2.4961598 -2.156841 -9.884672 11.966377 3.9065876 12.723835 -2.6364918 1.0538723
3.3246691 -0.57158 1.9533435 -1.3594625 11.739656 -2.6699562 6.9218044 4.490415
12.563863 11.671494 11.534363 -2.488479 -10.799501 -3.2604735 -2.046934 -0.7379245
1.3883142 11.234874 -2.9239259 -12.116469 4.2373543 -6.322796 -2.7529092 -12.229853
0.70153993 -12.039945 9.839251 -4.7945876 -0.6225166 -1.450927 9.687493 -2.7697222
9.43339 13.104961 -3.1382968 -2.7796764 10.363568 10.118128 -2.8357282 -1.4123292
11.969404 7.404895 10.899641 11.393353 -1.9267335 9.92646 -3.0428948 -1.676836
-1.6886785 12.465244 -4.33436 8.96038 -0.55555934 2.2826073 -7.0951324 -1.4284929
12.775419 -1.2201489 -2.535253 0.9567987 -1.7859138 -12.451177 2.1576822 6.029352
0.35505465 -3.408874 -1.0971518 5.3042154 -6.241085 11.131646 -10.104158 6.492226
7.655987 9.203241 8.3483305 1.067662 10.91376 -2.3776395 5.061178 12.761693
-1.9059237 4.015723 -1.3291351 6.4360948 -1.2559289 9.784383 8.62187 6.420454
7.3140783 4.147498 -2.1652915 -3.0646894 -3.9156291 10.878265 5.660915 -2.7941182
-10.917257 5.9538164 12.761966 -0.60978603 -6.6277905 -3.3504972 -2.8371758 -10.014537
-3.4523773 -1.2286279 3.1029172 13.257337 -2.780039 -4.3598294 -9.044273 9.732421
-10.465147 9.272919 -0.74098986 -1.4993294 -5.9479294 8.111094 -8.7533655 -1.756562
3.3122602 7.8225408 -3.3997684 -8.13995 -2.894805 -11.015059 -9.008897 -1.5380145
3.0202127 -1.6887625 7.941874 4.8054166 10.93744 9.246878 -3.3402789 4.3695574
-4.4479976 -2.9170036 -9.591846 8.234183 5.22491 2.12582 -9.32456 4.111401
-4.9154763 -4.319444 1.8677883 6.383588 9.852075 -2.03585 12.424911 -1.8559587
-1.0692148 10.729098 7.6901984 -9.810482 -6.2831764 -3.5607288 -2.2820184 -10.388955
13.057789 4.6070414 -1.5154178 12.869389 8.417636 -1.7032583 -0.6514477 -4.18735
10.865916 3.187541 -9.384291 -3.9192533 -12.157766 -0.96980536 -2.6535547 -7.0186586
00000000: 9f9d 1c41 8dcf b440 e8af b840 2414 98bf
00000010: c3a9 2e40 e7ed 18c1 6bbe 04c0 87b7 b9c0
00000020: e532 2ec1 e8a1 3b41 d413 dabe e27c a4bf
00000030: 5f78 3fc0 2adc 19c1 3ba3 37c0 d9ec 34c0
00000040: d1aa 1bc0 b7be 9f40 9b9b 3141 799f 7dbf
00000050: 538c bec0 e4fe fe3f 286f 2041 0af2 01c0
00000060: bd5c 2141 748d 07c1 5719 3741 8b4b 2041
00000070: b216 1e41 32e4 813e fab8 9340 cceb b2bf
00000080: 8e14 2e41 304f 62c0 027e 8cbf 1fb9 2a41
00000090: 8c4a 2540 380f 4cc1 b7be 6840 b0ca 42c1
000000a0: f48e 2741 db22 9abf 5608 2e41 0b6d fa3f
000000b0: 3977 1e40 25cb 2941 cf64 4ac0 e367 0a41
000000c0: 5913 ba3f c4e9 d6c0 927d e540 fe64 1d41
000000d0: 8077 c140 bd00 89bf 0d87 8840 f6c7 1441
000000e0: 3b50 fb40 39d5 1fc1 f851 1541 33ef 7c40
000000f0: 0378 90bf 03d3 2741 18bc 0cc0 fb08 1d41
00000100: 7980 48c1 0e8e 1cc1 fb2f 3f41 d28c afbf
00000110: 9435 e93f 304c e83f 7a3f 3fc1 775c 1f41
00000120: 15c1 1fc0 af09 0ac0 9e27 1ec1 4876 3f41
00000130: 8805 7a40 d494 4b41 48bc 28c0 4ae5 863f
00000140: 61c7 5440 1153 12bf 2907 fa3f de02 aebf
00000150: a2d5 3b41 90e0 2ac0 6c7f dd40 7bb1 8f40
00000160: 9505 4941 70be 3a41 c08c 3841 3d43 1fc0
00000170: c2ca 2cc1 99ab 50c0 f700 03c0 9fe8 3cbf
00000180: 48b4 b13f 0bc2 3341 9a21 3bc0 0fdd 41c1
00000190: 6898 8740 5854 cac0 aa2f 30c0 7aad 43c1
000001a0: 1f98 333f 9da3 40c1 926d 1d41 436d 99c0
000001b0: 3f5d 1fbf fab7 b9bf f9ff 1a41 2143 31c0
000001c0: 2aef 1641 ecad 5141 dbd9 48c0 38e6 31c0
000001d0: 2dd1 2541 dae3 2141 927c 35c0 34c7 b4bf
000001e0: ae82 3f41 e6f4 ec40 ee64 2e41 2d4b 3641
000001f0: 349f f6bf c8d2 1e41 cabe 42c0 90a2 d6bf
00000200: 9e26 d8bf a471 4741 14b3 8ac0 b75d 0f41
00000210: 2339 0ebf 3d16 1240 530b e3c0 dbd8 b6bf
00000220: 1e68 4c41 d72d 9cbf 9641 22c0 c2f0 743f
00000230: d398 e4bf 0538 47c1 7717 0a40 74f0 c040
00000240: b9c9 b53e fe2a 5ac0 786f 8cbf 22bc a940
00000250: f8b6 c7c0 391b 3241 a2aa 21c1 51c0 cf40
00000260: d8fd f440 7a40 1341 c392 0541 26a9 883f
00000270: c39e 2e41 3f2b 18c0 2cf5 a140 e52f 4c41
00000280: 4ff5 f3bf ce80 8040 1921 aabf 7df4 cd40
00000290: 47c2 a0bf d58c 1c41 2ef3 0941 5c74 cd40
000002a0: ee0c ea40 4eb8 8440 2394 0ac0 df23 44c0
000002b0: ab99 7ac0 600d 2e41 3726 b540 d5d2 32c0
000002c0: 16ad 2ec1 aa85 be40 0331 4c41 f01a 1cbf
000002d0: dc16 d4c0 8c6e 56c0 4a94 35c0 8b3b 20c1
000002e0: c0f3 5cc0 ae43 9dbf 3296 4640 0d1e 5441
000002f0: 29ec 31c0 b983 8bc0 58b5 10c1 ffb7 1b41
00000300: 3e71 27c1 e05d 1441 83b1 3dbf 07ea bfbf
00000310: 7055 bec0 0bc7 0141 c90d 0cc1 06d7 e0bf
00000320: 12fc 5340 4152 fa40 ce95 59c0 3c3d 02c1
00000330: 7c44 39c0 af3d 30c1 7124 10c1 a9dd c4bf
00000340: 2a4b 4140 5f29 d8bf d523 fe40 f9c5 9940
00000350: c1ff 2e41 36f3 1341 21c7 55c0 6ad3 8b40
00000360: ff55 8ec0 30b0 3ac0 3478 19c1 37bf 0341
00000370: 7632 a740 6f0d 0840 6631 15c1 9990 8340
00000380: 954b 9dc0 e338 8ac0 b013 ef3f 5a46 cc40
00000390: 19a2 1d41 5e4b 02c0 6fcc 4641 0e90 edbf
000003a0: 08dc 88bf 63aa 2b41 1b16 f640 bcf7 1cc1
000003b0: c80f c9c0 fbe2 63c0 970c 12c0 2939 26c1
000003c0: b4ec 5041 e26c 9340 36f9 c1bf 04e9 4d41
000003d0: a3ae 0641 5e04 dabf 47c5 26bf c5fe 85c0
000003e0: cbda 2d41 ac00 4c40 0e26 16c1 0cd5 7ac0
000003f0: 3686 42c1 2a45 78bf d7d3 29c0 da98 e0c0

layer2.2.weight f4 [256, 256]
0.077722855 0.07495373 0.20790397 0.011676087 0.15208946 -0.3184676 0.0043925815 -0.17459361
-0.06919899 0.07459991 0.010459769 -0.04207553 -0.12520386 -0.07926429 -0.13929121 0.044146307
0.14929143 -0.022390421 0.2152328 0.00837949 0.08261129 0.11022755 0.08047939 0.007933695
0.16463955 -0.14867008 0.17165501 0.36200976 0.1216494 0.06345539 -0.0060206815 0.21597719
0.08454415 0.017250227 -0.11808179 0.052866735 -0.015470304 -0.046353687 0.022009378 0.031655625
0.16993113 0.063951015 0.09366887 -0.07590105 0.041320708 0.20288087 -0.12573478 0.14183684
0.030297631 -0.112876736 0.17796546 0.20070551 0.09191175 0.03218703 0.12936112 0.22056398
0.09373792 -0.11648439 0.19263698 0.059061207 0.008112389 0.21824199 0.063790314 0.087656625
-0.04189179 0.047417197 0.060655884 -0.12959452 0.021707928 0.06250765 -0.17469119 0.11511329
-0.06354648 -0.18595484 -0.17429197 0.06975115 0.20720671 0.118160896 0.08877791 0.10984173
-0.19843397 0.01621592 0.22410871 -0.03759157 0.049611263 -0.2769982 0.10441619 0.12001079
0.097097926 0.043584798 0.089633144 -0.017144598 -0.15818787 0.05046024 -0.13354316 -0.059376556
0.0058341054 0.043509234 -0.12070547 -0.1003053 -0.0591924 -0.13132718 0.07719589 -0.111130066
0.10641062 -0.011350699 0.043385245 0.017765168 0.033055432 -0.117503434 -0.048630044 -0.09458039
0.010853996 0.17961976 -0.16232145 -0.13275519 0.06373697 0.0739483 -0.13921899 -0.1062567
0.12458669 0.13609739 0.0010378506 0.08099361 -0.118463546 0.4210932 -0.28488803 -0.0728802
0.13946041 0.17920913 -0.041902967 0.19852538 -0.06345837 -0.0072728787 -0.030792765 -0.04259022
0.08068575 -0.08057433 -0.19884935 -0.07981019 0.062063295 -0.09393395 -0.038877584 -0.010141744
0.028062977 -0.105356865 0.1065073 0.08414707 -0.1774546 0.14565931 -0.077742085 0.059506617
0.35397065 0.16595511 0.16673355 0.008078446 0.098441295 -0.10965019 0.063509285 0.03007369
-0.2378253 0.00039333434 -0.11664303 0.0021371099 -0.00011758207 0.06818463 -0.08683461 0.09790499
0.09381534 0.04982295 -0.015871027 -0.07278242 -0.19410263 0.21840449 -0.023203818 -0.05586757
0.016389078 -0.049232785 0.03714925 0.08646891 -0.18163851 -0.0072521428 -0.041969296 -0.06052239
-0.077129714 0.028477069 -0.09065905 0.12436133 -0.011332079 -0.19057591 -0.11688186 0.11991718
-0.39819962 0.22851676 -0.11059278 -0.113444984 -0.059033696 -0.030973582 -0.051074293 -0.31806165
0.22521259 0.09025823 0.004379657 0.016095087 -0.08902914 0.008147729 -0.017310206 -0.3258798
0.02541444 0.073263906 -0.06924419 0.042360615 0.062674835 0.17506027 -0.089904815 -0.026964096
0.029402224 -0.020255253 -0.006163553 0.2033642 0.117140196 0.07528378 -0.22167037 0.05622172
-0.24549644 0.13522995 -0.024353875 0.1395185 0.010813188 0.045170266 0.016096974 -0.30039433
-0.03767458 0.09557602 -0.028790865 0.08286956 -0.3801237 -0.10908299 -0.083646916 -0.15291184
0.07583193 0.15902133 -0.099656254 0.103675485 -0.03690509 -0.020125125 0.11132514 -0.009389073
0.014101895 0.018927287 -0.18022221 -0.08249272 0.041553676 -0.05006369 -0.09326014 0.064383745
00000000: 292d 9f3d 5781 993d c7e4 543e 0f4d 3f3c
00000010: 57bd 1b3e 2f0e a3be a5ef 8f3b abc8 32be
00000020: 33b8 8dbd d6c7 983d 735f 2b3c 6457 2cbd
00000030: 7135 00be 5155 a2bd 5ba2 0ebe c2d2 343d
00000040: dadf 183e 1e6c b7bc fd65 5c3e 214a 093c
00000050: 1c30 a93d fbbe e13d 61d2 a43d 54fc 013c
00000060: 4597 283e f83c 18be 55c6 2f3e 5859 b93e
00000070: 5223 f93d e6f4 813d 2349 c5bb 2029 5d3e
00000080: 7c25 ad3d 5950 8d3c ded4 f1bd ca8a 583d
00000090: 2877 7dbc 5ddd 3dbd 034d b43c 54a9 013d
000000a0: 6d02 2e3e c0f8 823d 77d5 bf3d 0272 9bbd
000000b0: e73f 293d 01c0 4f3e 9ec0 00be ad3d 113e
000000c0: bd32 f83c eb2b e7bd 943c 363e bf85 4d3e
000000d0: 3a3c bc3d 8cd6 033d 3e77 043e 86db 613e
000000e0: abf9 bf3d 5e8f eebd a142 453e 2aea 713d
000000f0: d3e9 043c d47a 5f3e 7fa4 823d 5185 b33d
00000100: ba96 2bbd 8938 423d 4e72 783d 6db4 04be
00000110: d3d4 b13c 0304 803d 3fe2 32be 84c0 eb3d
00000120: a824 82bd f26a 3ebe 9879 32be b1d9 8e3d
00000130: ff2d 543e 57fe f13d 31d1 b53d b3f4 e03d
00000140: 4632 4bbe 40d7 843c c17c 653e 9ef9 19bd
00000150: 2e35 4b3d b5d2 8dbe 28d8 d53d 38c8 f53d
00000160: 47db c63d f985 323d 9591 b73d d472 8cbc
00000170: 00fc 21be 66af 4e3d 8abf 08be d534 73bd
00000180: 062c bf3b bd36 323d 6e34 f7bd dd6c cdbd
00000190: bb73 72bd a27a 06be e118 9e3d 2998 e3bd
000001a0: d0ed d93d 48f8 39bc bab4 313d 4288 913c
000001b0: 2265 073d a4a5 f0bd 4c30 47bd 5db3 c1bd
000001c0: f5d4 313c 3eee 373e 9837 26be faf0 07be
000001d0: 8788 823d 3572 973d 6c8f 0ebe 1d9d d9bd
000001e0: 4e27 ff3d 1d5d 0b3e 7d08 883a fadf a53d
000001f0: 049d f2bd 8799 d73e d8dc 91be 3742 95bd
00000200: b6ce 0e3e 9982 373e 72a2 2bbd 3d4a 4b3e
00000210: 76f6 81bd 5451 eebb 1c41 fcbc 1573 2ebd
00000220: 923e a53d 2804 a5bd 2a9f 4bbe 8673 a3bd
00000230: 1536 7e3d 7160 c0bd 1a3e 1fbd 8f29 26bc
00000240: 54e4 e53c 57c5 d7bd 8020 da3d 4d55 ac3d
00000250: a9b6 35be b727 153e 3e37 9fbd 36bd 733d
00000260: a43b b53e 23f0 293e 33bc 2a3e 755b 043c
00000270: 979b c93d 4790 e0bd 2811 823d 195d f63c
00000280: 7a88 73be 7138 ce39 8ae2 eebd c10e 0c3b
00000290: 6596 f6b8 62a4 8b3d 58d6 b1bd 6982 c83d
000002a0: 4222 c03d 2613 4c3d f503 82bc f30e 95bd
000002b0: d7c2 46be 6da5 5f3e ef15 bebc 65d5 64bd
000002c0: 6342 863c 51a8 49bd d029 183d 9d16 b13d
000002d0: 72ff 39be 62a3 edbb ffe7 2bbd 53e6 77bd
000002e0: 2ff6 9dbd be48 e93c 74ab b9bd 27b1 fe3d
000002f0: 2faa 39bc 5526 43be c25f efbd 2397 f53d
00000300: d2e0 cbbe 4c00 6a3e 787e e2bd d855 e8bd
00000310: 51cd 71bd 4fbc fdbc 4733 51bd fad8 a2be
00000320: 219e 663e 4fd9 b83d 3a83 8f3b d8d9 833c
00000330: e954 b6bd 0d7e 053c 22ce 8dbc b8d9 a6be
00000340: f231 d03c 630b 963d e6cf 8dbd 5382 2d3d
00000350: aa5b 803d 0043 333e 0420 b8bd cfe3 dcbc
00000360: efdc f03c 58ee a5bc a1f7 c9bb b43e 503e
00000370: 33e7 ef3d 622e 9a3d 8ffd 62be bf48 663d
00000380: 6b63 7bbe b879 0a3e c781 c7bc f0dd 0e3e
00000390: cc29 313c 7504 393d cddd 833c 49cd 99be
000003a0: a950 1abd 5cbd c33d d2da ebbc 84b7 a93d
000003b0: 939f c2be e766 dfbd 134f abbd ec94 1cbe
000003c0: c54d 9b3d 7dd6 223e 9418 ccbd d053 d43d
000003d0: cb29 17bd 72dd a4bc 6ffe e33d a0d4 19bc
000003e0: a20b 673c 660d 9b3c 2c8c 38be f1f1 a8bd
000003f0: 3034 2a3d 950f 4dbd 2cff bebd a0db 833d

layer2.2.bias f4 [256]
8.620735 8.75614 -0.07250567 8.620403 -0.05747343 8.85667 8.622783 -0.14862609
-0.33278838 -0.06797419 8.69493 1.3919694 8.497655 7.873898 -0.31879073 8.660835
-0.35528046 8.271575 -0.01349795 5.5215797 8.0856905 1.7730765 -1.7694765 -0.063679606
0.0071741245 -0.14088649 -0.072333686 -0.044168796 1.2684425 -0.60242456 0.0034015048 -2.616715
-0.10973963 -0.06574327 7.682432 8.458924 2.0523639 -0.0009305545 -0.07590166 8.507153
0.12924942 8.64322 -0.015204414 8.644668 7.703208 0.13574101 -0.08512041 3.57684
8.740607 -0.08296605 -0.038961098 0.08871856 -0.23128444 7.5886426 8.905305 -0.09265509
7.310694 8.692167 8.945034 -0.04968073 2.8740094 7.3171763 6.081127 8.341512
-0.022645878 0.09358921 8.694336 8.712176 -0.13159575 7.2906017 -0.056154728 0.022673767
-0.09968159 -0.21649846 -0.055082425 6.9880633 8.908484 8.460908 8.41893 8.360672
-0.11220434 8.852124 0.65095234 8.5235 -0.025358077 8.713262 5.464602 -0.13486807
6.5222297 -1.7452209 8.467262 8.585033 -0.021439021 0.004111764 -0.19875349 8.575153
-0.050289843 -0.029260421 8.49929 -0.13288675 8.600386 8.845353 -0.0638281 8.82037
-0.19256492 -0.0999742 -0.09065724 0.0060898773 8.187915 -0.0931044 8.584134 2.939888
7.5049367 -0.03990329 0.04044997 -1.5613073 -0.07677263 0.006465531 8.556314 -0.15656191
8.230206 0.46071535 -0.048302166 -0.19305338 -0.054564416 -0.10424919 -1.2754506 -0.6559049
8.193745 -0.36813754 -0.01127787 -0.032859743 2.8078358 -0.51699716 8.62324 9.048401
0.023017105 8.018996 3.518959 6.7342067 8.695686 8.63395 8.525784 8.849081
-0.0260552 8.542828 -0.077686824 8.538701 0.011597381 8.404902 7.116159 4.1365957
9.016163 -0.11393324 0.08328242 8.630258 -0.068359174 4.7417684 3.8229942 8.773435
7.723863 -0.38060838 -0.051758654 3.7215934 -0.042832524 0.01290525 8.41404 8.337199
8.673372 -0.08294389 0.8202251 8.125392 -0.064245515 4.205112 7.479065 8.168868
8.004329 -0.03030045 -0.16056788 8.578102 0.0132305715 8.726235 -0.07446444 8.634083
0.090520315 -1.6720424 -0.019349497 2.35289 -0.17907368 6.156039 8.446058 5.3099
-0.064624146 0.20597939 0.3284249 -0.103721 8.455346 8.737294 -0.104036786 -0.087777644
-0.06736248 -0.05923202 -0.068471655 9.012072 8.574863 8.618508 -0.052259486 8.302423
0.37163505 -0.06357557 -1.455797 -0.7560716 -0.14529766 8.012207 -0.283385 -0.13339277
-1.835601 -0.30529523 8.683405 6.273306 8.742705 -2.0390308 1.39693 -0.010604254
6.2244725 -0.02554111 -0.03621762 8.770098 -0.07187969 8.708475 8.81894 3.779716
8.27226 -0.080908984 8.246727 -0.09943249 -0.041254874 8.383561 8.731804 8.5477
-0.10774382 8.330491 1.8102014 0.2789512 -0.04976198 -0.034684755 0.960553 -1.8242391
0.0036025927 8.765388 7.008245 6.980423 6.8735495 -0.14860234 -0.09229973 8.718908
00000000: 88ee 0941 2619 0c41 da7d 94bd 2ced 0941
00000010: 4269 6bbd ecb4 0d41 ebf6 0941 7031 18be
00000020: 3d63 aabe 0d36 8bbd 6f1e 0b41 0e2c b23f
00000030: 65f6 0741 f9f6 fb40 8a38 a3be c892 0a41
00000040: 52e7 b5be 5f58 0441 8126 5dbc c8b0 b040
00000050: fd5e 0141 2cf4 e23f 357e e2bf 746a 82bd
00000060: eb14 eb3b 8c44 10be af23 94bd 57ea 34bd
00000070: 535c a23f 7f38 1abf c8eb 5e3b 4278 27c0
00000080: 2cbf e0bd 68a4 86bd 7cd6 f540 c157 0741
00000090: ee59 0340 75f0 73ba 5472 9bbd 4c1d 0841
000000a0: f659 043e a14a 0a41 ef1b 79bc 8f50 0a41
000000b0: ae80 f640 b1ff 0a3e 9c53 aebd f2ea 6440
000000c0: 87d9 0b41 1bea a9bd ac95 1fbd 14b2 b53d
000000d0: d4d5 6cbe 29d6 f240 217c 0e41 f4c1 bdbd
000000e0: 35f1 e940 1e13 0b41 dc1e 0f41 057e 4bbd
000000f0: c5ef 3740 4f26 ea40 9898 c240 d576 0541
00000100: d983 b9bc b3ab bf3d 001c 0b41 1365 0b41
00000110: 09c1 06be 9c4c e940 8002 66bd 56be b93c
00000120: dd25 ccbd c6b1 5dbe 1c9e 61bd 379e df40
00000130: 2789 0e41 e15f 0741 f0b3 0641 50c5 0541
00000140: 64cb e5bd 4da2 0d41 d0a4 263f 4260 0841
00000150: bebb cfbc 8569 0b41 05de ae40 db1a 0abe
00000160: 1bb6 d040 6663 dfbf e879 0741 4c5c 0941
00000170: e3a0 afbc fabb 863b 0986 4bbe d433 0941
00000180: b9fc 4dbd 8db3 efbc 18fd 0741 7713 08be
00000190: 2e9b 0941 9186 0d41 4fb8 82bd 3c20 0d41
000001a0: bd2f 45be 46bf ccbd 81aa b9bd 988d c73b
000001b0: b301 0341 85ad bebd 9d58 0941 2027 3c40
000001c0: 7128 f040 a271 23bd deae 253d ebd8 c7bf
000001d0: f83a 9dbd cedc d33b aae6 0841 c451 20be
000001e0: ecae 0341 e2e2 eb3e 7ed8 45bd c9af 45be
000001f0: f07e 5fbd 9980 d5bd f741 a3bf 62e9 27bf
00000200: 9419 0341 867c bcbe d1c6 38bc f097 06bd
00000210: 95b3 3340 ed59 04bf cbf8 0941 40c6 1041
00000220: 5e8e bc3c cf4d 0041 a036 6140 9f7e d740
00000230: 8821 0b41 a924 0a41 9c69 0841 d695 0d41
00000240: b771 d5bc 6caf 0841 451a 9fbd 859e 0841
00000250: f102 3e3c 7b7a 0641 93b7 e340 fe5e 8440
00000260: 3442 1041 d555 e9bd f98f aa3d 8915 0a41
00000270: e5ff 8bbd 91bc 9740 f0ab 7440 fd5f 0c41
00000280: e329 f740 1adf c2be e200 54bd 962e 6e40
00000290: 2871 2fbd 8b70 533c e89f 0641 2b65 0541
000002a0: 22c6 0a41 7cde a9bd 46fa 513f 9b01 0241
000002b0: 2793 83bd 4790 8640 8054 ef40 afb3 0241
000002c0: bb11 0041 a638 f8bc e86b 24be e83f 0941
000002d0: 0ac5 583c a99e 0b41 d080 98bd 3425 0a41
000002e0: b762 b93d 7c05 d6bf d682 9ebc c095 1640
000002f0: 175f 37be 46fe c440 0e23 0741 b3ea a940
00000300: aa59 84bd 43ec 523e 4f27 a83e ad6b d4bd
00000310: 1949 0741 f5cb 0b41 3d11 d5bd c4c4 b3bd
00000320: 57f5 89bd 469d 72bd de3a 8cbd 7231 1041
00000330: a432 0941 69e5 0941 0b0e 56bd b9d6 0441
00000340: f346 be3e e933 82bd 8e57 babf e98d 41bf
00000350: e9c8 14be 0032 0041 d717 91be 1d98 08be
00000360: f9f4 eabf a84f 9cbe 3aef 0a41 ecbe c840
00000370: 1fe2 0b41 7b7f 02c0 9ace b23f 77bd 2dbc
00000380: e12e c740 973b d1bc ed58 14bd 5252 0c41
00000390: a935 93bd ea55 0b41 611a 0d41 dee6 7140
000003a0: 2d5b 0441 9cb3 a5bd 98f2 0341 43a3 cbbd
000003b0: dffa 28bd 1123 0641 78b5 0b41 61c3 0841
000003c0: cba8 dcbd b149 0541 aeb4 e73f b1d2 8e3e
000003d0: 38d3 4bbd 9a11 0ebd cde6 753f ab80 e9bf
000003e0: 7a19 6c3b 073f 0c41 8b43 e040 a05f df40
000003f0: 1ef4 db40 362b 18be a407 bdbd a680 0b41

layer2.5.weight f4 [1, 256]
0.05461257 0.0657074 -0.015973372 0.008498595 -0.0024659366 0.049171604 0.03498135 0.011313526
-0.09210926 -0.0055576237 0.056577507 0.05333822 0.038580865 0.046457 -0.14190939 0.034587678
-0.10457959 0.025019817 -0.032518305 0.03154155 0.05100387 0.309844 -0.3199847 -0.06879601
0.0030794546 -0.007787691 -0.03532211 -0.0016864438 0.057494428 -0.0098573305 -0.0023497657 -0.4653996
0.00045710607 -0.012407553 0.06802464 0.027959658 0.050333012 -0.004206171 -0.008492842 0.046128143
0.100055575 0.030676095 -0.0031567356 0.036533408 0.07915355 0.028704127 -0.021512926 0.057018217
0.01749084 -0.0020519325 0.0015734733 0.02133601 -0.07644379 0.09066435 0.061520133 0.0005496086
0.016793745 0.040547617 0.044509493 -0.01866296 0.05431221 0.028482622 0.07001625 0.03021051
0.0011374591 0.19739129 0.029438522 0.031610608 -0.0023477124 0.043330178 -0.0010635538 0.0013675081
-0.0320923 -0.0015985385 -0.011216929 0.033295404 0.03811996 0.04599284 0.0202498 0.009809569
-0.05080991 0.052535474 -0.0028962116 0.03323389 -0.035137277 0.06046693 0.027543167 -0.000410809
0.054396417 -0.015769396 0.039798833 0.03581307 -0.020737348 -0.022399424 -0.0889576 0.027484998
0.025528163 -0.0046178186 0.033178315 -0.0018617688 0.054525673 0.058794133 0.016520843 0.053336676
-0.0009589071 -0.04988012 -0.0032680605 -0.037263423 0.024027407 -0.0071168593 0.03719215 0.14806841
0.038842097 0.0023864764 -0.0016456612 -0.056703813 -0.023529397 0.00572489 0.05885727 -0.027104737
0.02375844 -0.0017577101 -0.12186003 0.002762832 -0.005710524 -0.013626884 -0.064347684 -0.1332884
0.027686886 -0.0024340067 -0.002350084 -0.09401311 0.04946595 -0.0036672426 0.03255248 0.07734644
-0.0031597351 0.054185614 0.010158738 0.027518237 0.037376158 0.08806335 0.07528912 0.07305528
-0.00027731468 0.034623854 -0.004944522 0.022139132 0.019183636 0.01159146 0.048052184 0.031888045
0.07482917 0.061888337 0.010470225 0.058630023 -0.025717925 0.039113704 0.035312008 0.04115189
0.051379133 -0.11702421 -0.009857602 0.045581378 -0.048955884 -0.01714497 0.02071058 0.04145694
0.0322638 -0.013521257 0.04866696 0.046070673 0.0021636235 0.014917169 0.07573159 0.0030652424
0.029311277 0.025721747 -0.065480895 0.017316943 0.024689766 0.02566731 -0.07399211 0.045660276
-0.0011458725 -0.29278755 -0.008438643 0.018488854 -0.06639947 0.0151252635 0.0063876496 0.017202672
-0.0030192535 -0.14198504 0.04274806 -0.011539828 0.021614613 0.10744467 -0.013727503 -0.009896753
-0.009467784 -0.0104176495 -0.100140244 0.069993146 0.04913549 0.03216149 0.011087666 0.03902104
0.027804688 0.099623285 -0.2820702 -0.13263756 0.004649173 0.09453097 0.0059973374 -0.16786811
-0.33006933 -0.08100432 0.074513376 0.021119121 0.034792338 -0.3692303 0.052101415 -0.10987997
0.02763751 0.00056286016 -0.0016750311 0.035400085 -0.08000673 0.02006591 0.056219675 0.037562985
0.025251655 -0.14733246 0.009428705 -0.04089902 -0.017254828 0.024799937 0.0325586 0.044252705
-0.017621566 0.032076024 0.014678732 0.11563239 -0.014656704 0.006874122 0.048358243 -0.021607563
-0.02068799 0.03612392 0.07478612 0.017679324 0.012375541 0.0001550515 -0.0060239364 0.032663766
00000000: 6eb1 5f3d 9a91 863d 97da 82bc b13d 0b3c
00000010: 8d9b 21bb 2a68 493d 9b48 0f3d 5e5c 393c
00000020: c8a3 bcbd ba1c b6bb d1bd 673d 2d79 5a3d
00000030: f806 1e3d b249 3e3d b250 11be cfab 0d3d
00000040: d32d d6bd 5cf6 cc3c ea31 05bd b631 013d
00000050: 6fe9 503d dfa3 9e3e 09d5 a3be ece4 8cbd
00000060: add0 493b e32f ffbb ebad 10bd aa0b ddba
00000070: 477f 6b3d a480 21bc 87fe 19bb db48 eebe
00000080: bda7 ef39 0d49 4bbc 8150 8b3d a70b e53c
00000090: fd29 4e3d ebd3 89bb 9025 0bbc ddf0 3c3d
000000a0: f0e9 cc3d 6f4c fb3c 3ce1 4ebb 0ea4 153d
000000b0: 421b a23d eb24 eb3c e03b b0bc ef8b 693d
000000c0: f348 8f3c b779 06bb 013d ce3a dbc8 ae3c
000000d0: 908e 9cbd 3bae b93d 89fc 7b3d 9c13 103a
000000e0: 0993 893c 4215 263d 964f 363d 10e3 98bc
000000f0: 7b76 5e3d 6354 e93c ae64 8f3d 087c f73c
00000100: cb16 953a f120 4a3e 0e29 f13c 207a 013d
00000110: 14dc 19bb fc7a 313d f266 8bba f53d b33a
00000120: 3773 03bd 0d86 d1ba 36c7 37bc c360 083d
00000130: ad23 1c3d fd62 3c3d e9e2 a53c 51b8 203c
00000140: 0d1e 50bd 702f 573d 5ece 3dbb 4220 083d
00000150: 1bec 0fbd 2cac 773d 35a2 e13c da61 d7b9
00000160: c7ce 5e3d d22e 81bc 1a04 233d bab0 123d
00000170: 5fe1 a9bc ff7e b7bc 672f b6bd 3828 e13c
00000180: 7020 d13c 1251 97bb fce5 073d 9806 f4ba
00000190: 5056 5f3d 1ed2 703d b856 873c 8f77 5a3d
000001a0: 2b5f 7bba 194f 4cbd f52c 56bb 88a1 18bd
000001b0: 20d5 c43c 8b34 e9bb cc56 183d 3f9f 173e
000001c0: e418 1f3d 6e66 1c3b 3ab3 d7ba 4242 68bd
000001d0: b9c0 c0bc dc97 bb3b 5214 713d c10a debc
000001e0: 0fa1 c23c f762 e6ba c091 f9bd a110 353b
000001f0: 591f bbbb 4b43 5fbc b8c8 83bd c17c 08be
00000200: 9ccf e23c db83 1fbb de03 1abb f289 c0bd
00000210: cf9c 4a3d 1f56 70bb c055 053d cf67 9e3d
00000220: 8f13 4fbb bcf1 5d3d d670 263c ed6d e13c
00000230: be17 193d 8f5a b43d 2f31 9a3d 029e 953d
00000240: 8c64 91b9 bed1 0d3d a805 a2bb 205d b53c
00000250: 0027 9d3c 1bea 3d3c 5ed2 443d 0a9d 023d
00000260: 0940 993d a07e 7d3d 4e8b 2b3c 0926 703d
00000270: 66ae d2bc b135 203d 53a3 103d e28e 283d
00000280: ed72 523d 64aa efbd c881 21bc 8ab3 3a3d
00000290: f785 48bd 9c73 8cbc 3ca9 a93c c1ce 293d
000002a0: 0c27 043d 4388 5dbc 0257 473d 9ab4 3c3d
000002b0: 94cb 0d3b 2467 743c 2a19 9b3d 3ce2 483b
000002c0: 341e f03c 6ab6 d23c d91a 86bd 43dc 8d3c
000002d0: 3142 ca3c 4044 d23c 2d89 97bd 4506 3b3d
000002e0: 1a31 96ba 40e8 95be 3c42 0abc f075 973c
000002f0: 72fc 87bd f4cf 773c 7d4f d13b 9eec 8c3c
00000300: abde 45bb 8764 11be 9718 2f3d 8c11 3dbc
00000310: 2111 b13c f30b dc3d 52e9 60bc fe25 22bc
00000320: c41e 1bbc caae 2abc 5416 cdbd 9158 8f3d
00000330: 4c42 493d c4bb 033d 0ba9 353c 87d4 1f3d
00000340: a8c6 e33c 4b07 cc3d 816b 90be 24d2 07be
00000350: 1758 983b 7499 c13d 5085 c43b 9ee5 2bbe
00000360: d9fe a8be 98e5 a5bd 789a 983d 0202 ad3c
00000370: 6982 0e3d c10b bdbe 4b68 553d c008 e1bd
00000380: 0f68 e23c e88c 133a b88c dbba aeff 103d
00000390: 92da a3bd 4361 a43c 9a46 663d a5db 193d
000003a0: 8fdc ce3c 52de 16be db7a 1a3c bb85 27bd
000003b0: ff59 8dbc 3d29 cb3c 2b5c 053d 5342 353d
000003c0: 1a5b 90bc 2662 033d 107f 703c add0 ec3d
000003d0: ac22 70bc 5140 e13b 4b13 463d 5802 b1bc
000003e0: dc79 a9bc adf6 133d 7729 993d 3bd4 903c
000003f0: c8c2 4a3c 5295 2239 7164 c5bb 71ca 053d
