Model_Files/bpiNoRepeat/TimestampPredictor_parameters_weighted_0.0001.pt (torch, 274447 bytes, 7 tensors)

layer1.weight f4 [4, 1]
0.24614011 -0.049282156 -0.4413201 -11.1022415
00000000: 270c 7c3e 16dc 49bd b5f4 e1be c8a2 31c1

layer1.bias f4 [6]
-7.737977 -2.116996 -14.057295 -1.1965259 6.927637 4.7005725
00000000: 829d f7c0 dd7c 07c0 aeea 60c1 c327 99bf
00000010: 34af dd40 176b 9640

layer2.1.weight f4 [256, 6]
0.39688244 1.0384628 0.06590353 0.29684976 0.23662327 1.3882734 -0.042481925 0.5851331
0.09601296 -0.22380942 -0.17766349 0.3473469 0.15154195 0.54152477 -0.052149456 0.00285634
0.096733704 0.47182077 0.016678253 0.34173316 -0.00179265 0.009114059 0.014247214 -0.04695432
0.237138 0.085408926 -0.14935577 -0.14513202 0.0028134377 0.16004026 0.4624671 -0.009762609
0.16608502 -0.8309639 -0.7271264 -0.24079007 -0.22620066 -0.005402446 -0.015314286 -0.08121832
0.03265387 -0.08592825 0.4449536 0.128507 0.14805937 -0.10110798 -0.5521957 0.5437887
0.49922043 -0.16662763 0.0014506166 -0.08373382 0.074704856 0.46454462 -0.33864832 -0.3136496
-0.07780533 -0.25416386 -0.659667 -0.38011995 -0.19121104 0.61403936 -0.011665767 0.06883809
0.020603204 -0.26090014 -0.0037431126 -0.08180373 -0.007406907 -0.044426594 0.0036554618 0.017700478
0.062801845 0.62922835 0.013015964 0.09937589 -0.09238606 0.24225391 -0.0090950765 1.0941789
-0.013218877 0.225974 0.09595478 1.170808 -0.23794845 0.5850339 0.0023644618 -0.2218164
-0.04214945 0.025650414 -0.15831244 0.059263475 -0.1727325 -0.17754781 -0.24995698 -0.26774237
0.07588183 0.45672607 0.028358797 -0.42939758 -0.12514454 0.18458915 0.5012534 0.61022675
-0.02597903 -0.06144957 -0.14640112 0.04835693 0.5561146 -0.6393374 0.10327482 -0.6951514
0.17922616 -0.26910436 0.4307019 -0.14107785 -0.19870423 -0.76761425 -0.674095 -0.48721233
0.07527424 0.298678 -0.034741268 -0.019309226 -0.016981516 -0.007827882 -0.06862726 -0.8142652
0.14846364 -0.55925816 -0.19492365 -0.22713776 -0.14510453 -0.05321567 0.30586517 0.11542067
0.030767512 0.5462348 0.48558742 -0.68537414 0.07315102 -0.7637306 0.13740492 0.38455218
-0.009766214 -0.09715003 -0.080897495 -0.014567187 -0.26332176 0.15122879 0.240562 0.15195754
-0.011942991 0.011989949 -0.048229303 0.27405754 0.23437433 -0.35951248 -0.16679135 0.027197344
-0.18021841 0.25675476 0.20654106 0.011797817 -0.017167851 0.01788378 0.071347795 -0.27960813
0.2408265 -0.14712033 -0.453817 0.1642806 -0.4246784 -0.71579576 0.00088342535 0.6508354
0.06897053 0.051945403 -0.114578106 -0.023718053 0.5052935 -0.35150936 0.2296309 -0.28496385
-0.2515508 -0.117031544 0.2969103 -0.1123372 -0.13362998 -0.37676415 0.040297113 0.25869805
-0.1655278 0.65322995 0.0011254473 -0.08533856 -0.006249287 -0.018901948 0.3322589 0.3523812
0.044076044 0.034996476 -0.2091513 0.20493637 -0.16723482 -0.028894573 0.062955074 -0.013257743
-0.0354874 0.025877202 -0.010099828 0.5195543 -0.0128414715 0.012458192 0.030730013 -0.10921222
0.040721722 0.28077024 0.015182456 -0.010906038 -0.0104183955 0.006152902 0.025965866 0.07923854
-0.089860685 -0.014084499 -0.011002441 0.0255009 0.002803664 0.1923661 -0.0027588313 -0.0342632
-0.004824718 0.008007304 0.0017174802 -0.17771146 -0.009459956 -0.013015359 -0.056730412 0.077726476
0.0024465993 0.032594778 -0.010037493 -0.025535433 0.00023310787 0.003952209 0.09992558 0.5773706
-0.0044331905 -0.5995818 0.064158015 0.5129539 0.0009061474 0.07967513 -0.0072391224 -0.00387543
00000000: 2d34 cb3e 59ec 843f 6ef8 863d b1fc 973e
00000010: 5f4d 723e f1b2 b13f 8701 2ebd 48cb 153f
00000020: 71a2 c43d 4c2e 65be 6bed 35be 74d7 b13e
00000030: d02d 1b3e 5ea1 0a3f ab9a 55bd 6f31 3b3b
00000040: 521c c63d 7e92 f13e d5a0 883c a6f7 ae3e
00000050: 5af7 eaba 2253 153c 266d 693c 2c53 40bd
00000060: 4ed4 723e e0ea ae3d b8f0 18be 7d9d 14be
00000070: a761 383b 98e1 233e 7dc8 ec3e 5af3 1fbc
00000080: 3112 2a3e 0dba 54bf f524 3abf ac91 76be
00000090: 25a1 67be 0007 b1bb c5e8 7abc ca55 a6bd
000000a0: 10c0 053d 26fb afbd f5d0 e33e 5797 033e
000000b0: e09c 173e b311 cfbd b35c 0dbf bc35 0b3f
000000c0: d299 ff3e 6fa0 2abe 9e22 be3a a37c abbd
000000d0: dcfe 983d cbd8 ed3e 5063 adbe ae96 a0be
000000e0: 6758 9fbd c421 82be f0df 28bf 159f c2be
000000f0: d4cc 43be af31 1d3f c621 3fbc fcfa 8c3d
00000100: 0dc8 a83c b494 85be 024f 75bb b788 a7bd
00000110: a4b5 f2bb a9f8 35bd 7990 6f3b 9800 913c
00000120: 419e 803d 1c15 213f e940 553c 9685 cb3d
00000130: e734 bdbd 6911 783e 8403 15bc 0e0e 8c3f
00000140: fd93 58bc ba65 673e f183 c43d 09dd 953f
00000150: c2a8 73be c8c4 153f 16f5 1a3b d723 63be
00000160: e7a4 2cbd d120 d23c a81c 22be 42be 723d
00000170: cae0 30be 18cf 35be b9f4 7fbe 8715 89be
00000180: ef67 9b3d 00d8 e93e b550 e83c 00da dbbe
00000190: e425 00be f004 3d3e 2552 003f d237 1c3f
000001a0: fad1 d4bc 8bb2 7bbd 2dea 15be eb11 463d
000001b0: 875d 0e3f 9eab 23bf c081 d33d 71f5 31bf
000001c0: 1087 373e 0cc8 89be f684 dc3e b676 10be
000001d0: 1f79 4bbe 5e82 44bf 7d91 2cbf e573 f9be
000001e0: 6129 9a3d 53ec 983e dc4c 0ebd 622e 9ebc
000001f0: d21c 8bbc 8440 00bc 738c 8cbd af73 50bf
00000200: da06 183e 8b2b 0fbf 119a 47be cd96 68be
00000210: 4896 14be adf8 59bd 5c9a 9c3e ac61 ec3d
00000220: 260c fc3c 0bd6 0b3f ea9e f83e ae74 2fbf
00000230: 34d0 953d d983 43bf e0b3 0c3e 06e4 c43e
00000240: 7802 20bc 98f6 c6bd 96ad a5bd 36ab 6ebc
00000250: 1cd2 86be b8db 1a3e e355 763e c29a 1b3e
00000260: 89ac 43bc 7e71 443c 178c 45bd 4551 8c3e
00000270: d3ff 6f3e 0512 b8be 5acb 2abe f7cc de3c
00000280: 2d8b 38be 5c75 833e 807f 533e a24b 413c
00000290: 98a3 8cbc 0181 923c cb1e 923d cc28 8fbe
000002a0: 399b 763e b6a6 16be b45a e8be 2c39 283e
000002b0: 726f d9be 643e 37bf ac95 673a 269d 263f
000002c0: 6c40 8d3d b4c4 543d eda7 eabd 5d4c c2bc
000002d0: ea5a 013f 09f9 b3be 5d24 6b3e c8e6 91be
000002e0: 44cb 80be 3cae efbd a004 983e 0c11 e6bd
000002f0: 4cd6 08be 3be7 c0be 960e 253d 1274 843e
00000300: 1f80 29be 143a 273f bf83 933a fcc5 aebd
00000310: d2c6 ccbb 42d8 9abc d71d aa3e 4f6b b43e
00000320: 1589 343d 7758 0f3d c22b 56be d7da 513e
00000330: 9b3f 2bbe 50b4 ecbc 97ee 803d 0137 59bc
00000340: 3c5b 11bd 6dfc d33c c079 25bc 8301 053f
00000350: 0965 52bc 721d 4c3c 82bd fb3c a8aa dfbd
00000360: d2cb 263d 1ec1 8f3e d6bf 783c 3daf 32bc
00000370: ebb1 2abc 489e c93b 5eb6 d43c d147 a23d
00000380: e108 b8bd acc2 66bc 9543 34bc 43e7 d03c
00000390: adbd 373b 9efb 443e 82cd 34bb 9257 0cbd
000003a0: ab18 9ebb 1131 033c 131d e13a fef9 35be
000003b0: eefd 1abc 5f3e 55bc 265e 68bd 0f2f 9f3d
000003c0: 2057 203b 1a82 053d 4c74 24bc af2f d1bc
000003d0: 6b6e 7439 8881 813b c8a5 cc3d 8fce 133f
000003e0: 4c44 91bb 317e 19bf 4765 833d f250 033f
000003f0: 868a 6d3a b72c a33d 2936 edbb edfa 7dbb

layer2.1.bias f4 [256]
-6.0633097 0.98582965 -7.225645 -2.670461 18.58445 -9.617704 16.682573 -10.423244
-1.7582114 -16.55508 5.244442 15.413717 -5.795821 -9.12414 15.405568 -12.071797
-4.678015 0.34692967 -10.448827 -17.310791 17.732182 -11.314266 -7.875159 -1.6820048
21.078146 9.115298 23.382448 -5.604089 -16.90307 1.2098012 7.165326 -4.543411
15.271943 -5.8160195 16.351164 -1.4482745 -5.2435417 20.526173 19.05096 17.088503
20.44024 -7.585338 18.109734 -12.503391 -14.379153 -11.499031 5.3491216 16.177551
19.247578 -5.8808765 -5.996223 22.15551 15.68349 18.743124 10.332176 -1.5353345
18.33528 22.700912 18.022144 5.158576 -9.285382 -9.103549 -9.960444 -1.5634807
4.5678663 -11.176911 6.5689344 0.1992926 -0.064374246 13.958728 22.843449 -8.3862505
18.43144 20.501892 16.514395 -3.252194 18.038345 18.962105 15.387421 -5.6180363
-6.7812123 -12.811814 20.164362 16.899057 -3.1447399 14.382056 19.22811 15.467254
-5.4899826 -12.039182 -10.626062 -6.6089945 -12.023833 7.285327 -1.2897384 -0.37504312
-10.487824 -7.8165307 18.86501 -8.819783 18.84984 22.215078 14.525377 21.447727
-6.3372645 13.48026 16.485062 20.0142 -6.4649453 12.552794 16.183535 13.433449
16.237225 16.333504 19.266922 18.64176 16.60423 -1.9261822 14.9862175 -11.215292
-6.248909 -2.237552 14.241672 22.191986 -10.117742 -14.11302 17.284767 20.352184
5.7944236 -0.8977378 20.362816 17.22261 -1.2832774 7.5356393 -7.972345 -13.729154
19.260925 -10.565381 -10.258272 -0.7260322 21.774199 -8.548371 -7.7127843 23.701069
-4.1860104 7.052776 -10.920942 18.862085 -6.6745105 11.437635 4.7627187 -8.366326
21.043886 22.175789 -12.208368 16.948757 -1.9085566 -14.960338 -9.120125 -4.7469745
-2.4247007 -5.1051006 7.6619034 -6.1262994 -9.294106 17.474417 14.224722 -9.534998
-13.631549 -6.6942534 -5.0767093 15.622499 -0.88606495 16.108074 23.334202 14.274309
-2.054204 22.122663 -2.8431852 -4.736879 2.3463552 20.656681 -12.561845 -10.216956
-8.932947 -5.588061 23.112198 -2.985829 12.611348 -4.1864367 -10.741093 9.834859
-12.286188 -10.854293 -12.601946 -10.413988 -3.9825933 -6.421034 -8.374541 -11.145841
14.533402 -10.488119 19.08247 -8.652902 19.905565 12.547386 -6.730367 -9.623791
-4.826339 13.872766 16.65062 -6.496527 18.002419 -7.550179 1.361726 -11.366485
-6.9752316 17.410353 5.248113 19.619987 14.2670145 -9.176496 -6.6773005 -17.32367
-9.0490675 -5.114074 -9.448668 -10.170721 -1.3668312 -9.383125 14.18225 15.166349
-1.3715295 20.038994 7.7173476 20.43241 -7.8123364 -15.408914 -13.029387 18.854124
2.2667463 -5.6645093 22.106005 19.513508 20.840796 -2.6124718 21.284218 18.365759
-11.402677 0.40241456 15.176547 18.905634 -3.425905 20.997046 -8.694872 6.125208
00000000: a206 c2c0 555f 7c3f 7c38 e7c0 d5e8 2ac0
00000010: f4ac 9441 1ee2 19c1 e975 8541 9cc5 26c1
00000020: 120d e1bf ce70 84c1 78d2 a740 969e 7641
00000030: 5e77 b9c0 7afc 11c1 357d 7641 1526 41c1
00000040: 4db2 95c0 c4a0 b13e 652e 27c1 807c 8ac1
00000050: 82db 8d41 3c07 35c1 4d01 fcc0 ef4b d7bf
00000060: 0ba0 a841 43d8 1141 410f bb41 b254 b3c0
00000070: 7d39 87c1 c4da 9a3f 5a4a e540 9f63 91c0
00000080: e159 7441 d51c bac0 2fcf 8241 0f61 b9bf
00000090: 18cb a7c0 9a35 a441 5e68 9841 41b5 8841
000000a0: 9d85 a341 17bb f2c0 bce0 9041 e40d 48c1
000000b0: 0311 66c1 08fc 37c1 012c ab40 a06b 8141
000000c0: 0afb 9941 2430 bcc0 0fe1 bfc0 7c3e b141
000000d0: 93ef 7a41 ebf1 9541 9850 2541 d785 c4bf
000000e0: a7ae 9241 789b b541 5a2d 9041 0e13 a540
000000f0: ed90 14c1 23a8 11c1 fb5d 1fc1 2320 c8bf
00000100: f62b 9240 a1d4 32c1 b634 d240 5c13 4c3e
00000110: a5d6 83bd f356 5f41 62bf b641 152e 06c1
00000120: 9773 9341 e003 a441 7b1d 8441 f223 50c0
00000130: 884e 9041 64b2 9741 e032 7641 f4c6 b3c0
00000140: b1ff d8c0 31fd 4cc1 9d50 a141 4531 8741
00000150: 6b43 49c0 e71c 6641 2bd3 9941 df79 7741
00000160: f0ad afc0 7da0 40c1 5a04 2ac1 e27c d3c0
00000170: 9f61 40c1 6621 e940 2616 a5bf a705 c0be
00000180: 21ce 27c1 0521 fac0 8aeb 9641 d51d 0dc1
00000190: 79cc 9641 7bb8 b141 f267 6841 f294 ab41
000001a0: dfca cac0 25af 5741 68e1 8341 151d a041
000001b0: d5e0 cec0 3fd8 4841 e177 8141 68ef 5641
000001c0: d6e5 8141 04ab 8241 a822 9a41 5322 9541
000001d0: 77d5 8441 238d f6bf 8cc7 6f41 d671 33c1
000001e0: 10f7 c7c0 0d34 0fc0 e3dd 6341 3089 b141
000001f0: 45e2 21c1 eece 61c1 3447 8a41 46d1 a241
00000200: eb6b b940 25d2 65bf 0ce7 a241 e8c7 8941
00000210: 6f42 a4bf f523 f140 731d ffc0 9daa 5bc1
00000220: 6016 9a41 cd0b 29c1 e221 24c1 3fdd 39bf
00000230: 8f31 ae41 21c6 08c1 21cf f6c0 ca9b bd41
00000240: ccf3 85c0 57b0 e140 2ebc 2ec1 8de5 9641
00000250: 9795 d5c0 8e00 3741 3168 9840 79dc 05c1
00000260: e159 a841 0468 b141 7a55 43c1 0e97 8741
00000270: 954b f4bf 8b5d 6fc1 08ec 11c1 37e7 97c0
00000280: 4c2e 1bc0 fc5c a3c0 502e f540 a50a c4c0
00000290: a8b4 14c1 9bcb 8b41 7698 6341 5a8f 18c1
000002a0: d31a 5ac1 5337 d6c0 6774 a2c0 c2f5 7941
000002b0: 27d5 62bf 56dd 8041 72ac ba41 9263 6441
000002c0: 1478 03c0 37fb b041 bff6 35c0 8394 97c0
000002d0: af2a 1640 e240 a541 51fd 48c1 a778 23c1
000002e0: 5aed 0ec1 65d1 b2c0 c8e5 b841 d317 3fc0
000002f0: 15c8 4941 4af7 85c0 84db 2bc1 955b 1d41
00000300: 3a94 44c1 2fab 2dc1 92a1 49c1 b29f 26c1
00000310: cfe2 7ec0 1c79 cdc0 1ffe 05c1 5d55 32c1
00000320: d188 6841 56cf 27c1 e6a8 9841 4972 0ac1
00000330: 993e 9f41 18c2 4841 2b5f d7c0 0cfb 19c1
00000340: 5e71 9ac0 d9f6 5d41 7834 8541 8de3 cfc0
00000350: f404 9041 119b f1c0 0a4d ae3f 1fdd 35c1
00000360: 1935 dfc0 6748 8b41 8bf0 a740 bcf5 9c41
00000370: b145 6441 edd2 12c1 72ac d5c0 e096 8ac1
00000380: fbc8 10c1 7fa6 a3c0 be2d 17c1 46bb 22c1
00000390: 53f4 aebf 4821 16c1 7fea 6241 5ea9 7241
000003a0: 478e afbf dc4f a041 83f4 f640 9375 a341
000003b0: a9fe f9c0 e98a 76c1 5f78 50c1 3fd5 9641
000003c0: 5f12 1140 a943 b5c0 19d9 b041 aa1b 9c41
000003d0: f3b9 a641 bd32 27c0 1446 aa41 13ed 9241
000003e0: 5d71 36c1 4809 ce3e 23d3 7241 bd3e 9741
000003f0: 0742 5bc0 f3f9 a741 321e 0bc1 b401 c440

layer2.3.weight f4 [256, 256]
0.03799784 -0.051728234 0.017818341 -0.056850936 0.00020452446 0.033917967 -0.018320512 -0.05288159
-0.006014803 -0.020733882 -0.07108309 -0.03936733 0.012701484 -0.016227454 -0.03060564 0.0090910345
-0.046172217 -0.046790827 -0.025471259 -0.007645032 -0.032691356 0.012669824 0.0019727491 -0.049742818
0.03430835 -0.009935187 -0.06622339 -0.045289632 -0.01379634 -0.067507714 -0.05593811 -0.05098144
-0.052329566 0.034675524 -0.08177024 -0.03228377 -0.02623385 0.05391439 0.053540237 0.035484955
0.040305737 0.058559135 0.03044321 -0.043489553 0.0292606 -0.029253662 -0.028399756 -0.05563185
0.010153181 -0.00029856229 -0.046332937 -0.03065978 0.015627861 0.016589152 0.0031418526 0.056718316
-0.006975299 -0.029389977 -0.03280579 -0.072111316 0.055119313 -0.034718383 -0.007766293 -0.018684201
-0.029248776 0.027644664 0.030057175 0.035459857 -0.013380034 -0.02332555 0.007611733 -0.051842637
-0.015345895 -0.010133726 0.044713426 -0.042805765 0.0012220724 -0.07429289 -0.047613416 0.029729744
-0.08693487 0.01258641 0.014653455 -0.03155826 -0.03189473 0.014225932 -0.03422514 -0.018897643
0.041359935 0.0013957954 -0.067711785 -0.028801378 -0.049710087 0.0030371363 0.0005142493 -0.07077584
0.048234176 -0.0502775 -0.019690529 -0.05422195 0.04417393 0.011157715 -0.06581045 0.030174134
-0.058630284 -0.04570733 0.051949967 0.010922523 -0.058711793 -0.00020641125 -0.027257219 0.048235826
0.04313544 -0.010109397 -0.071316995 -0.041337475 0.020259045 0.0039676805 0.059823304 -0.0004270163
0.013653412 0.045014437 -0.055575855 -0.048307654 0.040636677 -0.036697578 0.04433848 0.033236902
0.013336988 -0.048366394 -0.066940024 0.044497523 -0.059903454 -0.066335715 -0.062491503 -0.07149049
0.013939128 -0.07707948 -0.057695612 0.027484192 0.020408083 -0.055388153 -0.02105738 -0.02842757
-0.02432423 0.011317133 0.021078892 -0.051029854 -0.018810362 -0.02322589 -0.07574165 0.014396894
-0.04765666 -0.07283593 -0.0055585066 0.054878306 0.010339783 -0.011940212 0.0103274565 0.003286018
0.009349101 0.028334267 -0.042842582 -0.051699042 0.017481774 -0.0016609018 0.014016238 -0.001213375
-0.026361609 0.01498216 0.015087928 -0.034435973 0.0049927095 0.024469359 -0.034237023 -0.03930366
0.044008147 -0.016261244 -0.036555283 -0.0030993032 0.005463605 -0.009644503 -0.055752236 -0.018677816
-0.014702362 -0.029262478 -0.01223285 -0.06598126 -0.05242783 0.039201774 -0.0015401937 -0.0045058276
-0.010660476 -0.04840769 -0.05450242 -0.0014949808 -0.02242014 -0.010904392 0.035369102 0.023754979
0.021320703 -0.06230363 -0.03922 -0.013286329 -0.0203132 -0.0066246884 0.025717767 0.028201256
-0.004706981 0.009885854 -0.05284908 -0.057958987 -0.0485074 0.018157449 -0.03546916 -0.056683645
0.025705712 -0.004762149 0.01220667 0.02738647 -0.037004143 -0.015908748 0.0471924 -0.057512287
-0.05067913 -0.009889711 0.024789024 -0.027821694 -0.056187797 0.022276979 -0.07848957 -0.019732172
0.004845065 -0.0046598646 -0.066317216 -0.01175493 0.020611275 -0.07335093 0.037717164 0.042119984
-0.026356695 -0.05750871 0.02593664 -0.05378316 0.011771215 0.050257396 -0.07301427 0.050085176
0.039401524 0.050595112 -0.022626938 0.032087497 -0.00934886 0.024394838 -0.02317833 -0.035674676
00000000: a0a3 1b3d fce0 53bd c5f7 913c 87dc 68bd
00000010: 9e75 5639 91ed 0a3d e614 96bc 5e9a 58bd
00000020: d317 c5bb 1ada a9bc 0394 91bd a33f 21bd
00000030: e319 503c 70ef 84bc aeb8 fabc 90f2 143c
00000040: 141f 3dbd bda7 3fbd 1aa9 d0bc 2d83 fabb
00000050: 5fe7 05bd 1895 4f3c 3d49 013b 20bf 4bbd
00000060: ea86 0c3d 32c7 22bc 21a0 87bd 9f81 39bd
00000070: 0b0a 62bc 7c41 8abd 5c1f 65bd ead1 50bd
00000080: 8757 56bd ec07 0e3d 2877 a7bd fd3b 04bd
00000090: 5fe8 d6bc 56d5 5c3d 024d 5b3d ac58 113d
000000a0: a117 253d b4db 6f3d 0a64 f93c 1a22 32bd
000000b0: edb3 ef3c 60a5 efbc 9ba6 e8bc 39de 63bd
000000c0: 8759 263c 5a88 9cb9 9bc7 3dbd 382a fbbc
000000d0: 0006 803c f9e5 873c 8ae7 4d3b 7751 683d
000000e0: 0d91 e4bb 40c3 f0bc 5d5f 06bd 19af 93bd
000000f0: cac4 613d dd34 0ebd 637c febb 9c0f 99bc
00000100: 219b efbc 1077 e23c 773a f63c 5b3e 113d
00000110: ee37 5bbc 3915 bfbc d86b f93b f258 54bd
00000120: 596d 7bbc ed07 26bc 6d25 373d 1955 2fbd
00000130: f22d a03a df26 98bd 4906 43bd cb8b f33c
00000140: e90a b2bd 3b37 4e3c 0b15 703c 3c43 01bd
00000150: 0ca4 02bd e213 693c a92f 0cbd 3bcf 9abc
00000160: 0969 293d 1ff3 b63a 7aac 8abd def0 ebbc
00000170: ce9c 4bbd b10a 473b b0ce 063a ecf2 90bd
00000180: 3391 453d c8ef 4dbd 084e a1bc d617 5ebd
00000190: b9ef 343d d9ce 363c a1c7 86bd bf2f f73c
000001a0: 4f26 70bd 9c37 3bbd 7dc9 543d 62f4 323c
000001b0: c77b 70bd 1970 58b9 884a dfbc ee92 453d
000001c0: caae 303d e2a1 25bc a50e 92bd 7c51 29bd
000001d0: 4cf6 a53c 5103 823b 4809 753d 28e1 dfb9
000001e0: 90b2 5f3c 0f61 383d 82a3 63bd 3fde 45bd
000001f0: a572 263d 3350 16bd 449c 353d 6b23 083d
00000200: 6283 5a3c d71b 46bd da17 89bd 0943 363d
00000210: 535d 75bd 05db 87bd 17f7 7fbd 9b69 92bd
00000220: f160 643c d9db 9dbd 3c52 6cbd 8726 e13c
00000230: da2e a73c b0de 62bd 8780 acbc efe0 e8bc
00000240: 9c43 c7bc 7f6b 393c a4ad ac3c ae04 51bd
00000250: 3018 9abc 3944 bebc 701e 9bbd f3e0 6b3c
00000260: a133 43bd 012b 95bd 2224 b6bb 13c8 603d
00000270: 3168 293c e1a0 43bc 7e34 293c 3c5a 573b
00000280: f92c 193c 441d e83c b47b 2fbd 60c2 53bd
00000290: f035 8f3c 9eb2 d9ba 5da4 653c 1c0a 9fba
000002a0: 4df4 d7bc bc77 753c 5b33 773c bc0c 0dbd
000002b0: e299 a33b f773 c83c 1f3c 0cbd e0fc 20bd
000002c0: e341 343d 4d36 85bc feba 15bd ae1d 4bbb
000002d0: 0a08 b33b fa03 1ebc 755c 64bd 3802 99bc
000002e0: 2de2 70bc ddb7 efbc 4b6c 48bc 2f21 87bd
000002f0: 90be 56bd 0a92 203d 53e0 c9ba 9fa5 93bb
00000300: 47a9 2ebc 2447 46bd ee3d 5fbd 3bf3 c3ba
00000310: 71aa b7bc 56a8 32bc 31df 103d cd99 c23c
00000320: c1a8 ae3c 1732 7fbd 27a5 20bd e7ae 59bc
00000330: de67 a6bc ea13 d9bb 11ae d23c 5206 e73c
00000340: 053d 9abb 47f8 213c 4778 58bd 6766 6dbd
00000350: b2af 46bd eebe 943c 1c48 11bd 1c2d 68bd
00000360: c994 d23c cd0b 9cbb 7cfe 473c 9759 e03c
00000370: a891 17bd 1053 82bc d14c 413d 0192 6bbd
00000380: eb94 4fbd 7408 22bc 5a12 cb3c 52ea e3bc
00000390: 2d25 66bd 367e b63c 24bf a0bd 5da5 a1bc
000003a0: 5ac3 9e3b c7b1 98bb 52d1 87bd c097 40bc
000003b0: fad8 a83c 0339 96bd 507d 1a3d 0186 2c3d
000003c0: ffe9 d7bc 418e 6bbd 1479 d43c bb4b 5cbd
000003d0: 0edc 403c b3da 4d3d 8188 95bd 1d26 4d3d
000003e0: 7e63 213d d23c 4f3d 215c b9bc 2e6e 033d
000003f0: f62b 19bc afd7 c73c 7be0 bdbc 9c1f 12bd

layer2.3.bias f4 [256]
-0.16463278 -0.16658446 0.9771896 -0.07832412 15.396351 -0.018069576 14.319027 -0.08561096
-0.21177486 0.117756255 14.487471 -0.14822663 -0.17058396 1.634377 2.5348666 0.0031907826
-0.10122022 -0.28659776 13.399666 -0.05413179 -0.20646465 13.88743 -0.16030625 -0.102505565
1.6612415 -0.17086472 -0.00808094 -0.0463702 14.697461 14.553224 -0.18826097 -0.19366819
-0.22194946 2.561598 14.356859 13.843013 0.16863959 -0.2873768 -0.19973674 11.78367
-0.15337284 -0.07006395 -0.094911985 -0.060141295 3.9532413 1.6219715 12.918 -0.062713295
-0.24621587 -0.17059788 -0.21352835 13.555916 3.4990218 -0.052756824 -0.022262864 -0.12137385
-0.030320916 -0.16338518 13.361755 -0.26678985 -0.014485396 -0.5649862 -0.059109095 0.00056224474
12.7139225 -0.070375495 13.241322 -0.22594684 -0.46966156 -0.032361157 12.272243 13.964822
13.163223 0.38663325 -0.31084657 0.023738736 -0.017430639 0.03540442 12.864045 -0.057213888
10.534874 0.050850783 0.2505423 13.590575 0.06724275 -0.008731231 0.11470944 -0.10873621
-0.06615562 -0.14994292 -0.28473362 13.5074005 13.722625 -0.17194125 -0.13293101 -0.119730644
15.005049 -0.018440433 15.73706 -0.119341426 -0.14899665 14.415852 -0.07225156 -0.21314341
-0.10749787 -0.03933653 -0.09977037 12.816144 -0.08350027 15.073959 13.8475685 0.046146743
-0.06951313 0.032804556 12.061476 -0.05401506 13.93683 0.525308 15.392767 -0.5323433
-0.12897685 8.588364 0.09316432 12.18153 -0.0712923 1.9622667 11.646855 -0.007894997
-0.04445104 0.110846624 -0.09434123 15.224522 14.947499 0.82287 14.99965 -0.042086277
0.11207948 0.1124643 -0.027601575 -0.2336685 -0.022971068 11.216641 0.19388932 0.040035002
13.088232 1.1377673 -0.06294369 -0.07086091 15.022848 -0.10275457 -0.012386035 12.764456
-0.07300408 -0.03793044 0.00035532974 12.984581 -0.12113398 14.415475 13.7314625 0.0897125
-0.15765351 11.604052 4.226934 -0.029911967 0.04538609 -0.16302812 14.413933 -0.15980363
15.41791 0.18485905 13.555797 -0.052238554 0.004887904 -0.08168244 -0.061887134 -0.050457567
-0.049551155 -0.07483771 11.202268 -0.030889735 14.890373 1.982131 0.01605121 14.116761
1.9689294 3.061397 14.858716 0.107003614 0.3478995 -0.040249247 -0.11827046 -0.023842918
13.731688 -0.13944687 7.9286265 10.199546 0.24081236 15.266173 -0.015837573 13.136436
-0.029500278 14.436194 14.807292 0.025469696 13.61583 13.087506 0.047925804 13.148623
14.537198 13.440615 -0.08706091 -0.22257785 14.086759 0.9608923 12.50388 -0.28477198
-0.06152762 14.43363 0.12747516 -0.16644557 -0.023369519 -0.030268712 13.934089 -0.007066527
0.6093821 -0.09519563 15.7439785 -0.13810553 -0.04742461 0.07613457 11.139612 -0.025601747
-0.073799014 -0.23442075 0.3832752 13.798548 -0.06187658 -0.102002926 0.17073172 -0.0431211
-0.16567174 15.094088 0.006651713 -0.061994795 15.398805 14.865352 -0.05485554 -0.2349685
-0.14754274 0.002868107 -0.27475828 -0.01181139 -0.09888036 -0.23906396 8.064289 -0.23877665
00000000: 7f95 28be 1e95 2abe 1929 7a3f 6568 a0bd
00000010: 7457 7641 a606 94bc bc1a 6541 cd54 afbd
00000020: 82db 58be 312a f13d aecc 6741 b9c8 17be
00000030: 90ad 2ebe 4433 d13f 413b 2240 731c 513b
00000040: 8c4c cfbd f1bc 92be 0865 5641 4cb9 5dbd
00000050: 786b 53be ea32 5e41 5227 24be 70ee d1bd
00000060: 90a3 d43f 29f7 2ebe eb65 04bc aeee 3dbd
00000070: cd28 6b41 01da 6841 7cc7 40be f450 46be
00000080: b846 63be 39f1 2340 b2b5 6541 fb7c 5d41
00000090: dbaf 2c3e 0d23 93be ca87 4cbe ea89 3c41
000000a0: c50d 1dbe b07d 8fbd 3761 c2bd b856 76bd
000000b0: e801 7d40 c39c cf3f 21b0 4e41 d46f 80bd
000000c0: 0320 7cbe 36b1 2ebe 2da7 5abe 08e5 5841
000000d0: f9ef 5f40 8a17 58bd 9c60 b6bc da92 f8bd
000000e0: 9263 f8bc 724e 27be c0c9 5541 ae98 88be
000000f0: 2854 6dbc f0a2 10bf 611c 72bd 9b63 133a
00000100: 3a6c 4b41 0721 90bd 74dc 5341 9c5e 67be
00000110: 7b77 f0be 228d 04bd 1b5b 4441 e96f 5f41
00000120: 909c 5241 cbf4 c53e 4827 9fbe bd77 c23c
00000130: b3ca 8ebc 3a04 113d 21d3 4d41 1c59 6abd
00000140: d88e 2841 e948 503d 1547 803e ff72 5941
00000150: 91b6 893d 700d 0fbc c8ec ea3d 17b1 debd
00000160: 997c 87bd a38a 19be 9bc8 91be 501e 5841
00000170: df8f 5b41 5e11 30be 111f 08be 5735 f5bd
00000180: ae14 7041 6410 97bc ffca 7b41 4769 f4bd
00000190: 9492 18be 54a7 6641 a0f8 93bd 4442 5abe
000001a0: d827 dcbd 571f 21bd 6854 ccbd ed0e 4d41
000001b0: 3102 abbd f02e 7141 a48f 5d41 5e04 3d3d
000001c0: e65c 8ebd 125e 063d cefb 4041 e53e 5dbd
000001d0: 41fd 5e41 967a 063f c648 7641 a747 08bf
000001e0: 8212 04be f069 0941 efcc be3d 8ce7 4241
000001f0: b301 92bd 8e2b fb3f 8559 3a41 045a 01bc
00000200: 4b12 36bd 8e03 e33d fa35 c1bd a497 7341
00000210: f528 6f41 9ca7 523f 91fe 6f41 a962 2cbd
00000220: ed89 e53d af53 e63d b31c e2bc cc46 6fbe
00000230: d22d bcbc 5d77 3341 ec8a 463e befb 233d
00000240: 6669 5141 5ca2 913f 9fe8 80bd 861f 91bd
00000250: 965d 7041 fd70 d2bd ccee 4abc 363b 4c41
00000260: 2a83 95bd f35c 1bbd 8d4b ba39 d8c0 4f41
00000270: 1815 f8bd c9a5 6641 12b4 5b41 30bb b73d
00000280: ec6f 21be 32aa 3941 0b43 8740 f109 f5bc
00000290: c4e6 393d d8f0 26be 789f 6641 90a3 23be
000002a0: c2af 7641 b14b 3d3e 8be4 5841 18f8 55bd
000002b0: b62a a03b 2049 a7bd 5d7d 7dbd 98ac 4ebd
000002c0: 27f6 4abd 8344 99bd 7d3c 3341 780c fdbc
000002d0: f83e 6e41 78b6 fd3f d47d 833c 41de 6141
000002e0: e105 fc3f eeed 4340 4dbd 6d41 b624 db3d
000002f0: e21f b23e 65dc 24bd c837 f2bd 3952 c3bc
00000300: feb4 5b41 29cb 0ebe 4fb7 fd40 5731 2341
00000310: 8497 763e 3f42 7441 ccbd 81bc d82e 5241
00000320: 91aa f1bc a7fa 6641 abea 6c41 d3a5 d03c
00000330: 71da 5941 6d66 5141 d94d 443d c360 5241
00000340: 5d98 6841 c20c 5741 fe4c b2bd 73eb 63be
00000350: 5d63 6141 0afd 753f e40f 4841 a2cd 91be
00000360: 6304 7cbd 26f0 6641 d988 023e b570 2abe
00000370: 6f71 bfbc 17f6 f7bc 07f2 5e41 538e e7bb
00000380: 7700 1c3f edf5 c2bd 56e7 7b41 896b 0dbe
00000390: 4f40 42bd 71ec 9b3d da3b 3241 c1ba d1bc
000003a0: f023 97bd fe0b 70be a63c c43e dac6 5c41
000003b0: 4c72 7dbd e9e6 d0bd 4cd4 2e3e c09f 30bd
000003c0: daa5 29be 6281 7141 9df6 d93b 41ee 7dbd
000003d0: 8161 7641 7bd8 6d41 34b0 60bd 959b 70be
000003e0: 7215 17be daf6 3b3b 1ead 8cbe 8f84 41bc
000003f0: c981 cabd 2fcd 74be 5407 0141 de81 74be

layer2.6.weight f4 [1, 256]
-0.018504966 -0.011768255 0.020827463 -0.029384684 0.048732262 0.0014105338 0.0670568 -0.015317068
-0.0037184102 0.030588625 0.00827218 -0.01858199 -0.02802539 0.011476463 0.01634883 -0.0010687948
-0.01555066 -0.0006408339 0.028397856 -0.0076959725 -0.003743648 0.06417224 -0.023668831 -0.042513818
0.0030712718 -0.011729682 -0.034254666 -0.01776788 0.035015706 0.05915344 0.00086217676 -0.00086586917
-0.0028201703 0.034020446 0.004993062 0.34238517 0.0013978579 -0.0031555693 -0.013539076 0.073870145
-0.0053682085 -0.033711184 -0.003994768 -0.0014418245 -0.002351147 0.051038697 0.045468383 -0.03305139
-0.021217033 0.00016978964 -0.013404809 0.07759288 0.05427311 0.00082968536 -0.025653735 -0.017263643
0.00094054866 0.002243244 0.059816107 -0.0018073147 -0.00091622514 -0.009392494 0.034440763 -0.027934432
0.020272003 -0.008277258 0.05313104 -0.02444488 -0.0018234935 -0.0004587927 0.011902779 0.07386643
0.062229093 0.045875043 -0.0016020141 -0.009071441 -0.021055575 -0.03315055 0.095063396 0.0045510167
0.033709593 0.037665855 0.0019196634 0.02989559 0.0019775184 -0.017347468 -9.441754e-05 -0.0016804447
-0.024824424 -0.029273408 -0.011311744 0.12143662 0.08464594 0.0008770369 -0.02923551 0.00027289914
0.050333615 -0.0024627203 0.01277222 -0.010080979 -0.0021402205 0.318049 -0.034174755 0.0027356225
-0.0031603347 -0.0033350056 0.0027924273 0.06746324 -0.0369044 0.031711046 0.040838018 0.002760978
-0.0074891155 -0.025217175 0.018198993 0.022313936 0.07456962 0.013838562 0.040280007 0.0020758868
-0.016430592 0.0098573025 0.011029204 0.031774864 -0.008086196 0.00050926773 0.03439321 -0.027571851
-0.033991378 0.030460512 -0.027947305 0.042327404 0.08728813 0.00040213065 0.077630095 -0.03504139
0.0014648237 0.015374682 -0.0025327236 -0.0009936022 -0.039853923 0.02373419 0.028322145 0.0030312147
0.051443487 -0.0030037516 -0.0315477 -0.013361747 0.057626285 -0.0008355297 -0.011983324 0.0251263
-0.03526007 0.0009939033 0.0020803106 0.032855798 -0.02252064 0.02931441 0.09009002 -0.000568579
0.00035245696 0.10928769 0.021839106 -0.015127906 0.016411774 -0.021302553 0.118761666 -0.00018340272
0.052309573 0.019716313 0.08434383 -0.00029796243 0.027800396 -0.0320975 -0.002550398 0.00020214876
-0.0016388079 -0.0259682 0.023832638 -0.025408193 0.09168416 -0.00041930884 -0.042190105 0.046550818
0.06536692 0.001024378 0.072786614 0.034640796 -0.0031409974 -0.0024916346 0.0028364952 0.0017184386
0.00748614 0.00096420746 -0.048221514 0.012083221 0.017413009 0.059163496 -0.0019473562 0.026815195
-0.027535014 0.06380593 0.061885264 0.00083877053 0.061094604 0.05385434 0.04318715 0.049986575
0.036727645 0.06716799 -0.009647551 -0.0018364643 0.04157863 0.028837116 0.14011964 -0.0017718008
-0.04425091 0.062171478 -0.0018977466 0.0005905539 0.00063557934 -0.023140773 0.06067833 -0.0037013104
-0.0011969195 -0.035317477 0.09324415 -0.00017862263 -0.04703439 0.007130644 0.045140725 -0.021523332
-0.008498132 -0.001787216 0.017498104 0.07174698 0.001149103 -0.0020439895 0.002061391 -0.017138798
-0.0013438116 0.06625745 -0.007101841 -0.014095129 0.06429919 0.07424062 -0.00033207695 -0.0116528785
-0.017389473 -0.0018882732 0.0004762525 -0.013934689 -0.0027964711 -0.007070841 0.010230584 0.0005607478
00000000: ba97 97bc a4cf 40bc 5b9e aa3c 26b8 f0bc
00000010: 7b9b 473d a9e1 b83a 1355 893d 71f4 7abc
00000020: 92b0 73bb ff94 fa3c 0a88 073c 4239 98bc
00000030: 8195 e5bc c607 3c3c fbed 853c cd16 8cba
00000040: 32c8 7ebc a3fd 27ba 9fa2 e83c 7f2e fcbb
00000050: fe57 75bb bc6c 833d 23e5 c1bc f822 2ebd
00000060: 6447 493b da2d 40bc 9f4e 0cbd f28d 91bc
00000070: a16c 0f3d e14a 723d b403 623a 7ffb 62ba
00000080: 9bd2 38bb 0659 0b3d d79c a33b 1c4d af3e
00000090: 5438 b73a abcd 4ebb 00d3 5dbc 3b49 973d
000000a0: cce7 afbb bd14 0abd 8be6 82bb 9afb bcba
000000b0: b315 1abb f40d 513d 0e3d 3a3d e560 07bd
000000c0: 58cf adbc 8f09 3239 d89f 5bbc 04e9 9e3d
000000d0: 7b4d 5e3d 3e7f 593a c827 d2bc 7c6c 8dbc
000000e0: 278f 763a 6403 133b bc01 753d 6be3 ecba
000000f0: d42e 70ba fae2 19bc c211 0d3d c0d6 e4bc
00000100: 7911 a63c 569d 07bc ef9f 593d a140 c8bc
00000110: 4a02 efba 1d8a f0b9 e003 433c 4847 973d
00000120: efe3 7e3d 78e7 3b3d acfa d1ba 62a0 14bc
00000130: be7c acbc dfc8 07bd 99b0 c23d b220 953b
00000140: 1213 0a3d 8347 1a3d 379d fb3a 99e7 f43c
00000150: 4199 013b 471c 8ebc 0802 c6b8 5e42 dcba
00000160: 975c cbbc c9ce efbc e554 39bc c3b3 f83d
00000170: da5a ad3d f3e8 653a 4f7f efbc e713 8f39
00000180: 9f2a 4e3d 9765 21bb 9342 513c b12a 25bc
00000190: f142 0cbb 52d7 a23e d4fa 0bbd 2148 333b
000001a0: 9e1d 4fbb 1c90 5abb 2801 373b 2b2a 8a3d
000001b0: 1129 17bd 71e3 013d c445 273d 86f1 343b
000001c0: 4167 f5bb 4094 cebc 0e16 953c b7cb b63c
000001d0: f5b7 983d 23bb 623c a6fc 243d 9a0b 083b
000001e0: 7399 86bc 8680 213c d6b3 343c 5c26 023d
000001f0: f77b 04bc 6180 053a e5df 0c3d 5dde e1bc
00000200: 8b3a 0bbd 5388 f93c bff1 e4bc 805f 2d3d
00000210: 1ec4 b23d 10d5 d239 87fc 9e3d 9087 0fbd
00000220: 54ff bf3a 17e6 7b3c 0dfc 25bb c23b 82ba
00000230: de3d 23bd 346e c23c d803 e83c 58a7 463b
00000240: 68b6 523d 97da 44bb 2938 01bd 3beb 5abc
00000250: 8a09 6c3d 7307 5bba b455 44bc acd5 cd3c
00000260: dd6c 10bd dc45 823a d255 083b cd93 063d
00000270: 357d b8bc c624 f03c 1e81 b83d b10c 15ba
00000280: f9c9 b839 39d2 df3d ede7 b23c 09db 77bc
00000290: fc71 863c b182 aebc 5139 f33d cb4f 40b9
000002a0: 9042 563d 1b84 a13c 75bc ac3d d737 9cb9
000002b0: a8bd e33c ab78 03bd 9424 27bb e5f7 5339
000002c0: 45cd d6ba 43bb d4bc aa3c c33c d824 d0bc
000002d0: e8c4 bb3d aed6 dbb9 88cf 2cbd 12ac 3e3d
000002e0: 17df 853d 6c44 863a 2611 953d 82e3 0d3d
000002f0: 31d9 4dbb b14a 23bb 7ee4 393b 3b3d e13a
00000300: 4b4e f53b dec2 7c3a ec83 45bd b4f8 453c
00000310: baa5 8e3c 6c55 723d 6e3e ffba 8aab db3c
00000320: 1c91 e1bc afac 823d 677b 7d3d f0e0 5b3a
00000330: 563e 7a3d 5e96 5c3d 02e5 303d b9be 4c3d
00000340: ba6f 163d 5f8f 893d c310 1ebc 84b5 f0ba
00000350: 5b4e 2a3d d13b ec3c 867b 0f3e c53b e8ba
00000360: 7140 35bd 85a7 7e3d cfbd f8ba 67cf 1a3a
00000370: 029d 263a b891 bdbc d789 783d af91 72bb
00000380: f4e1 9cba 0fa9 10bd caf6 be3d a64c 3bb9
00000390: 22a7 40bd 2da8 e93b 7be5 383d b351 b0bc
000003a0: c03b 0bbc 0541 eaba 2f58 8f3c 15f0 923d
000003b0: 809d 963a 74f4 05bb 6718 073b aa66 8cbc
000003c0: d622 b0ba fcb1 873d 8fb6 e8bb 42ef 66bc
000003d0: 4baf 833d 770b 983d 9d1a aeb9 b7eb 3ebc
000003e0: 5e74 8ebc ef7f f7ba 87b1 f939 524e 64bc
000003f0: 0045 37bb 83b2 e7bb 2e9e 273c 26ff 123a
