Model_Files/helpdesk/EventPredictor_parameters_laplacianOnBinary_0.0001.pt (torch, 286671 bytes, 8 tensors)

layer1.weight f4 [4, 1]
0	0x3ed425ba	0.41435033
1	0x3e8a8fc0	0.27062798
2	0x3f81881a	1.011966
3	0x3f7490b5	0.95533305

layer1.bias f4 [9]
0	0x3f5ab915	0.8543866
1	0x3e7345a3	0.23757033
2	0xbd02ea06	-0.031961463
3	0x3e4d2552	0.20033768
4	0x3e08aca6	0.1334711
5	0x3e03d558	0.12874353
6	0x3e7f1f01	0.24914171
7	0xbf7d5fb7	-0.98974174
8	0x3ebcb388	0.3685572

layer2.1.weight f4 [256, 9]
0	0x3d20f0c3	0.03929211
1	0x3e4167fb	0.18887322
2	0xbe18e9df	-0.14932965
3	0x3e4ae3ac	0.19813412
4	0x3e41f7f3	0.18942241
5	0xbda146eb	-0.07874855
6	0xbd17106c	-0.036880895
7	0x3e471610	0.1944201
8	0xbdef19f7	-0.11674874
9	0x3e5f167d	0.21785922
10	0x3da23b98	0.07921523
11	0x3e866b50	0.26253748
12	0xbdfb7133	-0.122774504
13	0xbae8c39e	-0.0017758494
14	0xbdad9a01	-0.084766395
15	0x3e2752dc	0.16340202
16	0x3df16532	0.117868796
17	0xbdab1866	-0.08354263
18	0xbd015bbd	-0.03158163
19	0xbd989df7	-0.074520044
20	0xbd5462b1	-0.051851932
21	0xbbaa4b3a	-0.005196956
22	0x3e3b2f54	0.18279773
23	0xbe1a23fd	-0.15052791
24	0x3d1c151f	0.03810608
25	0x3df19fb4	0.11798039
26	0xbec625e6	-0.3870079
27	0xbd6e0524	-0.05811037
28	0xbec83ad7	-0.3910739
29	0xbe46f5fc	-0.19429773
30	0x3c9325f0	0.017962426
31	0xbe5c1efe	-0.21496198
32	0x3e0797c2	0.13241485
33	0x3d8ff722	0.07029559
34	0x3e6f12ba	0.23346987
35	0x3dd9068b	0.10596951
36	0xbf509140	-0.81471634
37	0xbcda4695	-0.026644984
38	0xbe917727	-0.2841122
39	0x3e03c652	0.12868622
40	0xbb5c1862	-0.003358387
41	0x3ea0c97b	0.31403717
42	0x3ed0fd0e	0.40818065
43	0x3f2aea5e	0.66763866
44	0x3df7534e	0.12076436
45	0x3f3a93f2	0.72881997
46	0x3ce17214	0.027520217
47	0x3bb30bc9	0.0054640514
48	0xbe4085c1	-0.18801023
49	0x3e289c1a	0.16465798
50	0xbde35d00	-0.11101723
51	0x3e512257	0.20423256
52	0x3d0a75e2	0.033803828
53	0xbeb68a29	-0.35652283
54	0xbd538945	-0.051644582
55	0xbe6112a8	-0.21979773
56	0x3d5f1909	0.054467235
57	0xbe9cd0b8	-0.3062799
58	0xbe2c366b	-0.16817634
59	0xbeb3e626	-0.35136527
60	0xbd7af3b8	-0.061267585
61	0xbe8bdeb6	-0.27318352
62	0x3e2137ee	0.15743992
63	0x3e835aef	0.25655314
64	0x3c69c4e5	0.014268135
65	0xbd53a582	-0.051671512
66	0xbe2aed8e	-0.16692182
67	0x3dca5420	0.09879327
68	0xbe9d15b1	-0.30680612
69	0xbc8da969	-0.017292695
70	0x3dc1e898	0.09468192
71	0x3e622546	0.22084531
72	0xbdf37c3b	-0.118889295
73	0x3db36b66	0.08760719
74	0xbe0c7d28	-0.13719618
75	0xbdeefd16	-0.11669366
76	0x3e7cbe88	0.24682057
77	0x3d4e77af	0.050407108
78	0xbec7200f	-0.38891646
79	0xbeae2348	-0.34011292
80	0x3b9a0ae3	0.004701005
81	0x3e2aa955	0.16666158
82	0xbe316e2e	-0.17327186
83	0x3da7898e	0.08180533
84	0x3dbb90c5	0.09158472
85	0xbe7927b6	-0.24331555
86	0xbbb6df75	-0.0055808374
87	0xbe14301c	-0.14471477
88	0x3dcc1fd1	0.09967006
89	0x3e78e2c3	0.24305253
90	0xbde74fa9	-0.11294491
91	0x3c063114	0.008190412
92	0x3e977a55	0.2958552
93	0xbf16775c	-0.5877588
94	0xbd9e3835	-0.077255644
95	0xbc1c1110	-0.009525552
96	0xbf19a89b	-0.60022897
97	0x3d85e74a	0.065382555
98	0xbe392bcd	-0.18083115
99	0xbf77074e	-0.9649552
100	0x3e971a3f	0.29512212
101	0xbeb1910d	-0.34680977
102	0xbdfac95c	-0.122454375
103	0x3e2a1b79	0.16612042
104	0xbcc30ef1	-0.023810836
105	0xbdd67ee1	-0.10473419
106	0xbca06a88	-0.019582048
107	0x3e4515db	0.19246618
108	0x3dc1e91b	0.094682895
109	0x3d2b2b71	0.041789476
110	0xbdbc1e0d	-0.09185419
111	0x3edcce3b	0.4312609
112	0x3e5a4bff	0.21318053
113	0xbd1629f9	-0.036661122
114	0x3f36a976	0.71352327
115	0xbf07ed12	-0.53096116
116	0x3f0a7f83	0.5410082
117	0xbe7e5772	-0.24838045
118	0xbf4037ef	-0.7508535
119	0xbe5a686b	-0.21328895
120	0xbf44e17e	-0.76906574
121	0xbe97b478	-0.29629874
122	0xbe06f0e2	-0.13177827
123	0xbf3dc18e	-0.74123466
124	0x3e4dc198	0.20093381
125	0xbf2a03b8	-0.66411924
126	0x3dcd41df	0.100223295
127	0x3e1fc9df	0.15604351
128	0xbdb8f5c6	-0.090312526
129	0x3da7d365	0.08194617
130	0x3ce80e4e	0.028327134
131	0x3bbbd5c8	0.005732272
132	0x3d20edad	0.039289165
133	0x3c4e6aba	0.012598688
134	0xbc88e654	-0.016711392
135	0xbdf98450	-0.1218344
136	0x3e511f04	0.20421988
137	0x3e03c835	0.12869342
138	0x3e172140	0.14758778
139	0xbe226160	-0.15857458
140	0x3e13fd3c	0.1445207
141	0xbe54c50b	-0.20778291
142	0x3e62c7dd	0.22146554
143	0x3e06768b	0.13131158
144	0xbc0f8b49	-0.0087612355
145	0x3e795975	0.24350531
146	0x3c9a6f64	0.018851943
147	0xbe1ccf81	-0.15313531
148	0x3db6f68e	0.08933745
149	0x3dc0d329	0.094152756
150	0xbe1c4f70	-0.15264678
151	0xbe468a9c	-0.19388813
152	0xbd81070c	-0.06300172
153	0xbdec36e9	-0.11533911
154	0x37c104be	2.3009601e-05
155	0xbeb8a1a8	-0.36060834
156	0xbda4f88e	-0.080552205
157	0xbd3ba0f9	-0.045807812
158	0xbe3c248b	-0.18373315
159	0xbd972f36	-0.07382052
160	0xbc7d2d74	-0.015452731
161	0x3d4512d3	0.048113655
162	0x3e608db5	0.21929057
163	0x3e0b343d	0.13594146
164	0xbd91999c	-0.07109377
165	0x3e9ffb8b	0.312466
166	0x3da9615d	0.08270524
167	0x3e4057fa	0.1878356
168	0x3e63e57f	0.22255515
169	0x3e4c63fe	0.19960019
170	0x3d2bcc2d	0.041942764
171	0x3d2f1990	0.042748988
172	0x3e3a1fbc	0.18176168
173	0x3d556c45	0.052105207
174	0xbe44e9d3	-0.19229822
175	0x3d75fe29	0.06005684
176	0x3d11611b	0.035492998
177	0xbe0242fe	-0.12720868
178	0xbdb3e5d1	-0.087840684
179	0x3dc34611	0.095348485
180	0x3cfb3f5d	0.030669862
181	0xbd2f9edf	-0.04287612
182	0x3d14ec92	0.036358424
183	0xbe856903	-0.2605668
184	0xbf0eccbe	-0.5578116
185	0xbe78e949	-0.24307741
186	0xbe492be8	-0.19645655
187	0x3e89bfe7	0.26904222
188	0xbf3bbcb5	-0.7333482
189	0xbd664c0d	-0.05622487
190	0xbc2f9097	-0.010715625
191	0xbd5f5179	-0.054521058
192	0x3d069679	0.032858346
193	0xbe2e394f	-0.17014049
194	0x3e62f125	0.22162302
195	0x3eaa3dc2	0.33250242
196	0xbf161be0	-0.58636284
197	0xbd2254ab	-0.039631527
198	0x3de16867	0.11006241
199	0xbe20ff08	-0.15722287
200	0x3d9b9a1f	0.07597756
201	0x3dface4a	0.12246378
202	0x3e23d05a	0.15997449
203	0xbdc0a4af	-0.09406411
204	0x3d4b3b7f	0.049617287
205	0x3e488bd3	0.19584589
206	0x3d81d96b	0.06340297
207	0x3f79e5da	0.9761635
208	0xbe8d0d01	-0.27548984
209	0x3ecca1cf	0.399672
210	0xbf1dddb2	-0.61666405
211	0xbc6d4d8f	-0.014483823
212	0xbcc3d9db	-0.023907593
213	0xbecfa5f0	-0.40556288
214	0xbf42f3bb	-0.76153153
215	0x3d019aec	0.031641886
216	0x3e9b6810	0.3035283
217	0x3e9e47c0	0.30914116
218	0x3d7de2ab	0.061983746
219	0xbe25214f	-0.16125987
220	0xbdcb01c6	-0.09912448
221	0xbd90b54c	-0.0706583
222	0x3e78d091	0.24298312
223	0x3c8e01f7	0.017334921
224	0x3ddb89cc	0.10719642
225	0xbce3ba43	-0.027798777
226	0xbdbdd76c	-0.09269604
227	0x3c95a406	0.018266689
228	0x3e4e5325	0.20148905
229	0xbcb04f3d	-0.021522159
230	0xbf075b4d	-0.5287369
231	0xbe7f9b2e	-0.2496154
232	0x3d01a178	0.03164813
233	0xbea840ee	-0.32862037
234	0xbd947728	-0.0724929
235	0xbc4a70f5	-0.012356033
236	0xbda36fe6	-0.07980327
237	0x3e89aeaa	0.2689107
238	0xbe7e705c	-0.24847549
239	0x3d55faea	0.052241243
240	0xbdf1d0c5	-0.11807398
241	0x3bd3d241	0.006464273
242	0x3db5db86	0.088797614
243	0x3b87af80	0.0041407943
244	0xbd971e27	-0.07378798
245	0xbe0c0dd6	-0.13677153
246	0xbe9069ee	-0.28205818
247	0x3e177ef5	0.14794524
248	0xbe442cd5	-0.19157727
249	0x3e1a0979	0.15042676
250	0xbc2b94f1	-0.010472522
251	0xbd8a5cd6	-0.06755988
252	0x3dc67074	0.096894175
253	0x3dc67dcd	0.09691963
254	0xbe786be0	-0.24259901
255	0xbdfb2124	-0.122621804

layer2.1.bias f4 [256]
0	0x3cd94bd5	0.026525417
1	0xbe76a5c4	-0.24086672
2	0x3e438ff3	0.19097881
3	0xbd3e031a	-0.046389677
4	0x3e4c3404	0.19941717
5	0xbd8a8c27	-0.06765013
6	0x3e650fa3	0.22369246
7	0x3e21e5d3	0.15810327
8	0xbd6cfd5e	-0.057858817
9	0x3e90ef75	0.2830769
10	0x3de7aeaa	0.113126114
11	0xbd8a2952	-0.067461625
12	0x3c4cd019	0.012500786
13	0xbebbbb8f	-0.36666533
14	0x3df5b1c2	0.11996795
15	0xbe900219	-0.281266
16	0x3cf6a6a3	0.030108755
17	0xbaeeb636	-0.0018212262
18	0x3e83e11c	0.25757682
19	0x3ea55d8f	0.32297942
20	0xbdb7b426	-0.089699075
21	0x3f116843	0.56799716
22	0x3ebef604	0.3729707
23	0xbaa9fd6d	-0.0012969204
24	0x3e874953	0.2642313
25	0xbda9f62f	-0.08298909
26	0xbed950c2	-0.42444426
27	0x3d5a63c4	0.0533178
28	0x3e359915	0.17734177
29	0x3e9e4b3b	0.3091677
30	0xbeb59359	-0.3546398
31	0x3e1cae82	0.15300944
32	0xbe3a475d	-0.18191285
33	0xbe92f8b0	-0.28705359
34	0xbdd835e3	-0.10557153
35	0x3ea59c0b	0.32345614
36	0x3eb3b1db	0.3509663
37	0x3f0aca9e	0.5421542
38	0xbdac20b0	-0.08404672
39	0xbddf8a6d	-0.109150745
40	0x3e9ce31b	0.30642018
41	0x3eab0b72	0.3340717
42	0x3d2a52ee	0.041582994
43	0xbce2743a	-0.027643312
44	0xbc2c349a	-0.010510588
45	0xbe1914c3	-0.14949326
46	0xbde3808e	-0.11108504
47	0xbe2617a7	-0.1621996
48	0x3e860ed7	0.26183197
49	0xbe45dfdf	-0.19323681
50	0x3ea1aff9	0.3157957
51	0x3e1bb202	0.15204623
52	0xbeb05945	-0.34443107
53	0x3e12e6e6	0.14345893
54	0xbdd8f9f2	-0.10594548
55	0xbea84f2f	-0.32872912
56	0xbcdbd64d	-0.026835585
57	0xbea74c6c	-0.32675493
58	0xbea4b1fe	-0.32167047
59	0x3e9bd3ca	0.3043502
60	0xbd4dd704	-0.050253883
61	0xbe71e2fb	-0.23621742
62	0x3dd9c0d3	0.106324814
63	0x3e803d04	0.2504655
64	0xbe481cdb	-0.19542257
65	0xbe9bd549	-0.3043616
66	0xbddc64e0	-0.10761428
67	0xbd8c96e8	-0.068647206
68	0xbec9c444	-0.3940755
69	0xbdda171c	-0.10648939
70	0x3dd33c20	0.10314202
71	0xbea5499e	-0.32282728
72	0x3db8426c	0.08997044
73	0x3d5aafad	0.053390194
74	0xbe143a9e	-0.14475486
75	0xbe83b1a5	-0.2572147
76	0x3e9df1d6	0.3084857
77	0xbe921021	-0.2852793
78	0x3e7515cc	0.23934096
79	0xbdf83593	-0.121195935
80	0xbdd405d5	-0.10352675
81	0x3d3b1434	0.045673564
82	0x3e82c884	0.25543606
83	0x3e7e9a28	0.24863493
84	0xbe61fb06	-0.22068414
85	0xbec57069	-0.38562325
86	0x3df17a74	0.11790934
87	0xbcbd1a69	-0.023083882
88	0xbe7f54da	-0.24934712
89	0x3c86d209	0.016457574
90	0x3e65aefb	0.22430031
91	0xbd918b79	-0.071066804
92	0xbeccfe62	-0.4003783
93	0xbeac28a7	-0.33624765
94	0xbe6c2647	-0.23061477
95	0xbde9a759	-0.11408872
96	0x3de6301e	0.112396464
97	0xbeaf4842	-0.34234816
98	0x3e989278	0.29799247
99	0xbe358309	-0.17725767
100	0xbead82aa	-0.3388875
101	0xbed29f28	-0.41137052
102	0x3d494a60	0.049143195
103	0x3b0d5781	0.002156705
104	0x3dd56fa8	0.10421687
105	0x3eb44007	0.352051
106	0x3dfd6cb3	0.12374248
107	0x3e2b5163	0.16730265
108	0xbcda7319	-0.026666211
109	0x3c371a42	0.011175694
110	0x3ded792e	0.11595379
111	0xbf04a7ec	-0.5181873
112	0x3d4ee57d	0.050511826
113	0xbbed383b	-0.007239369
114	0xbee318ab	-0.44354758
115	0x3da65e7d	0.08123491
116	0x3d07284e	0.032997422
117	0x3ebe9fe6	0.37231368
118	0xbdc0dc38	-0.094170034
119	0xbd453eea	-0.048155703
120	0xbe86454e	-0.2622475
121	0x3e0723bb	0.13197224
122	0x3cf10745	0.029422412
123	0xbe8112be	-0.25209612
124	0x3c61e7bc	0.01378816
125	0xbebd3f96	-0.36962575
126	0xbcca5c0a	-0.02470209
127	0xbec07cee	-0.37595314
128	0x3e8f05d6	0.2793414
129	0x3daf970d	0.085737325
130	0xbdabb133	-0.083834074
131	0xbdb273f8	-0.087135255
132	0xbe825cac	-0.25461328
133	0x3e2ff2c4	0.17182451
134	0xbdd364bd	-0.10321949
135	0x3ea6812d	0.32520428
136	0xbec3baf3	-0.38228568
137	0xbe169b1c	-0.14707607
138	0xbe725425	-0.23664911
139	0x3def00ce	0.11670075
140	0xbe31279c	-0.17300266
141	0x3df55f27	0.119810395
142	0xbeb87d53	-0.36033115
143	0xbe8173b6	-0.25283593
144	0x3e2d9a71	0.16953446
145	0xbde00ea7	-0.10940295
146	0x3ee92a85	0.45540252
147	0xbdb3fa6b	-0.08787998
148	0x3c956812	0.018238101
149	0xbef8a725	-0.4856502
150	0xbd4eca81	-0.05048609
151	0xbf076f8f	-0.529046
152	0xbe22ef9d	-0.15911718
153	0xbe2f925a	-0.17145672
154	0xbe15e814	-0.14639312
155	0xbdf4c616	-0.119518444
156	0xbdcdfd72	-0.100581065
157	0xbe47e457	-0.19520698
158	0xbe4ff80d	-0.20309468
159	0xbd05b86c	-0.03264658
160	0x3e298af4	0.16556913
161	0xbcc94f4a	-0.02457394
162	0xbe1ea82f	-0.15493844
163	0xbea0aead	-0.31383267
164	0xbe7568b6	-0.23965725
165	0xbe963b80	-0.2934227
166	0xbec2ebc4	-0.380705
167	0xbe71af1d	-0.23601957
168	0x3e173f75	0.147703
169	0xbe9440b0	-0.28955603
170	0x3eaad850	0.33368158
171	0x3e978c0e	0.2959904
172	0x3ddfab1b	0.10921308
173	0x3e9a4035	0.3012711
174	0x3e071b93	0.13194112
175	0xbe2c566f	-0.16829847
176	0x3e795533	0.24348907
177	0xbe85dd32	-0.2614532
178	0xbf02ab21	-0.5104237
179	0xbe96e457	-0.29471084
180	0xbe265903	-0.16244893
181	0x3eb7388c	0.3578533
182	0x3ead9e3a	0.3390978
183	0x3eecbd63	0.4623824
184	0xbc9aaf87	-0.018882526
185	0x3c09454d	0.008378339
186	0xbedbce8f	-0.4293103
187	0xbda7d7ae	-0.081954345
188	0xbe730285	-0.2373143
189	0xbdcc4b0b	-0.09975251
190	0x3e420a32	0.18949202
191	0x3e4be430	0.19911265
192	0xbd550e2b	-0.052015465
193	0xbe67803f	-0.22607516
194	0x3e23b569	0.15987171
195	0xbd88ab96	-0.066733524
196	0x3dded0f4	0.108796984
197	0x3da316ef	0.079633586
198	0x3f009315	0.5022443
199	0xbebb772f	-0.36614367
200	0xbe643a7e	-0.22287938
201	0x3e92d85d	0.28680697
202	0x3ded264f	0.115795724
203	0x3c70d60d	0.014699471
204	0xbe8a51a1	-0.27015403
205	0xbee4202b	-0.44555792
206	0x3e34240c	0.17591876
207	0xbe56b4d8	-0.20967424
208	0x3ec6c9fe	0.38825983
209	0x3edd7b24	0.4325801
210	0xbe02fa94	-0.127909
211	0x3e89a4c0	0.26883507
212	0x3db305d6	0.087413475
213	0xbdb7ff15	-0.089842
214	0xbe0a7153	-0.13519792
215	0xbe041652	-0.1289914
216	0x3e868998	0.2627685
217	0xbd1e9e22	-0.038725026
218	0x3e2de8f8	0.16983402
219	0xbd87118d	-0.065951444
220	0xbde84c66	-0.11342697
221	0xbdf114a7	-0.11771517
222	0xbefb5441	-0.49087718
223	0x3cca3639	0.024684059
224	0x3edbd9df	0.4293966
225	0xbe505110	-0.20343423
226	0xbe21dfaf	-0.15807985
227	0x3eabb5d8	0.33537173
228	0x3d449e5a	0.04800258
229	0xbeee3a68	-0.46528935
230	0xbe50b79d	-0.20382543
231	0x3d910b56	0.0708224
232	0x3e3c396c	0.1838128
233	0x3e11f8b3	0.14255027
234	0xbea2d18d	-0.318005
235	0x3e5f9ba5	0.21836717
236	0xbe346648	-0.17617142
237	0x3e9570d0	0.29187632
238	0xbbbc8f18	-0.005754363
239	0xbde0f7f1	-0.10984791
240	0xbe4866b6	-0.19570431
241	0x3d1fc6fc	0.039008126
242	0x3ecd165b	0.40056118
243	0xbe08ea03	-0.13370518
244	0xbed56e6a	-0.41685802
245	0x3e905a12	0.28193718
246	0x3bbb4a4a	0.005715643
247	0x3e8257d0	0.2545762
248	0x3dcc13ed	0.09964738
249	0x3ddbbac2	0.107289806
250	0xbcd9609f	-0.02653533
251	0x3eaf29be	0.34211534
252	0xbe1427cc	-0.14468306
253	0x3bece96b	0.007229974
254	0xbec66478	-0.38748527
255	0xbeab4be1	-0.3345633

layer2.3.weight f4 [256, 256]
0	0x3d7157d5	0.058921654
1	0xbd5b26da	-0.05350385
2	0x3d460854	0.048347786
3	0x3cdf130c	0.027230762
4	0xbd5da0c7	-0.054108407
5	0xbc9b6218	-0.018967673
6	0xbd2eddf6	-0.042692147
7	0xbcecf516	-0.02892546
8	0x3d0e7a6a	0.034784712
9	0x3d7b09f6	0.061288796
10	0x3c997506	0.018732559
11	0xbd0bd803	-0.03414155
12	0x3caf7b1e	0.021421012
13	0xbc1f9bec	-0.0097417645
14	0xbd120bb1	-0.03565568
15	0x3c375d06	0.011191612
16	0xbca990d9	-0.020698952
17	0x3d9457a3	0.07243278
18	0x3b3d47c3	0.0028881885
19	0xbbe1f748	-0.0068959333
20	0x3c6ffc8c	0.014647614
21	0x3dcc75c0	0.099833965
22	0xbd877128	-0.0661338
23	0x3cffac07	0.031209959
24	0xbbab807b	-0.005233822
25	0xbc840d62	-0.016119663
26	0x3c875754	0.016521133
27	0x3d609178	0.05482623
28	0xbcc1d1b1	-0.023659559
29	0x3cb2678b	0.021777889
30	0x3d2c7735	0.042105872
31	0x3d0e3750	0.03472072
32	0xbc32584e	-0.010885311
33	0xbae12fd6	-0.0017180394
34	0xbde4b09d	-0.11166499
35	0x3bf0d49b	0.0073495633
36	0xbb3157df	-0.0027060432
37	0xbbdd0494	-0.0067449305
38	0xbc3c4a92	-0.011492388
39	0x3d552e32	0.05204601
40	0x3ab73dee	0.0013980248
41	0xbd823784	-0.06358245
42	0xbad56b41	-0.0016282575
43	0xbcdb00e0	-0.026733816
44	0xbd2fb96d	-0.042901445
45	0x3da37301	0.0798092
46	0x3d2bdb4b	0.04195718
47	0xbd1946f8	-0.037421197
48	0x3ccb9d43	0.024855262
49	0x3d411bb0	0.047145545
50	0x3cd47acd	0.025937462
51	0x3d591cd7	0.05300602
52	0xbd5ec738	-0.05438921
53	0x3bee8f38	0.0072802566
54	0x3bf977f8	0.0076131783
55	0xbd001703	-0.031271946
56	0xbc519097	-0.012790821
57	0xbcb8acb5	-0.02254329
58	0x3c468259	0.012116038
59	0xbdc4deef	-0.09612834
60	0xbd115e3d	-0.035490263
61	0x3cfb2982	0.03065944
62	0xbca15a6c	-0.019696437
63	0xbd56a66d	-0.05240481
64	0x3ce86c12	0.028371844
65	0xbd2be83f	-0.041969534
66	0x3d40954e	0.047017388
67	0x3d619c1b	0.055080514
68	0x3d12435f	0.03570878
69	0x3d665465	0.05623283
70	0x3c97cf1b	0.018531373
71	0xbcdf021f	-0.027222691
72	0x3c5ef2d2	0.013607698
73	0x3d164453	0.036686253
74	0x3cf3b47a	0.029749144
75	0xbd8b3748	-0.067976534
76	0x3d8fe82d	0.07026706
77	0xbcf28674	-0.029605128
78	0xbce7276f	-0.028217046
79	0xbd157e50	-0.036497414
80	0x3d0b7ac2	0.034052618
81	0xbd898845	-0.067154445
82	0xbcdb8943	-0.02679885
83	0xbcf0eaa3	-0.029408759
84	0x3d217ed9	0.039427612
85	0xbd02a2a4	-0.031893387
86	0x3a157c6b	0.00057024386
87	0xbd02eb5d	-0.03196274
88	0x3e10333d	0.14082046
89	0xbd900ae2	-0.07033326
90	0xbd1431a5	-0.036180157
91	0xbc9bd54a	-0.019022603
92	0x3d364769	0.044501696
93	0xbd4d0f9b	-0.05006371
94	0xbd3fdc38	-0.046840876
95	0xbdb4000b	-0.08789071
96	0x3d021712	0.031760283
97	0xbdc5a21a	-0.09650059
98	0xbda4d27d	-0.0804796
99	0x3cdfebf2	0.027334187
100	0xbcaf2545	-0.021380076
101	0x3b7eae48	0.0038861204
102	0xbd90c077	-0.0706796
103	0xbd7e12c9	-0.062029634
104	0x3d8934f8	0.06699556
105	0x3d272988	0.04081109
106	0xbcf690b0	-0.03009829
107	0xbcdf5ba9	-0.027265387
108	0xbde8b4aa	-0.11362584
109	0xbd4c5bb9	-0.04989216
110	0x3dbee153	0.09320321
111	0xbcb7674d	-0.022388125
112	0xbd1b42fd	-0.037905682
113	0x3db9cd72	0.09072389
114	0xbd084b23	-0.03327478
115	0x3c0068bf	0.007837473
116	0xbda5c993	-0.08095088
117	0xbd551c83	-0.052029144
118	0xbd03d0fd	-0.03218173
119	0xbcaf3898	-0.02138929
120	0xbc9989cc	-0.018742464
121	0x3b0a3f32	0.0021094796
122	0xbba11aa4	-0.004916506
123	0x3d9d3da2	0.07677771
124	0xbbbb88ed	-0.00572311
125	0xbc9491d1	-0.018135937
126	0xbd676879	-0.056496117
127	0xbd24ee52	-0.040266342
128	0xbacc7360	-0.0015598349
129	0x3d3ee15a	0.04660163
130	0xbc9b1dca	-0.018935103
131	0xbcb3d7ad	-0.021953428
132	0xbd6d24fd	-0.057896603
133	0x3d5dd764	0.05416049
134	0x3dbae372	0.09125413
135	0xbd5733b7	-0.052539553
136	0xbda03d60	-0.07824206
137	0x3cdc18a2	0.026867215
138	0x3becfc5e	0.007232233
139	0xbc51ab30	-0.012797162
140	0x3dc0956d	0.09403501
141	0xbd3f948a	-0.046772517
142	0xbda80a84	-0.08205131
143	0x3d1697d9	0.036765907
144	0xbd128d93	-0.035779547
145	0x3da6d10c	0.08145341
146	0x3d17ce79	0.037062142
147	0x3c611a63	0.013739201
148	0x3c41b859	0.011823737
149	0xbdccaf94	-0.09994426
150	0x3d4957ab	0.049155872
151	0xbc28792e	-0.010282798
152	0x3d852e68	0.06502992
153	0x3e0e1594	0.13875419
154	0x3be2a793	0.006916949
155	0xbd90074c	-0.07032642
156	0xbc7fc334	-0.015610505
157	0xbd776cb0	-0.060406387
158	0x3c461206	0.012089258
159	0x3d0c6cb5	0.03428336
160	0xbbffdce3	-0.007808314
161	0x3d0e496e	0.034737997
162	0x3d168372	0.03674645
163	0x3da141f8	0.07873911
164	0xbb81aa0f	-0.00395704
165	0x3d0d7ce1	0.034542922
166	0xbd6c3c8d	-0.057674933
167	0x3b58b661	0.003306769
168	0xbd752c85	-0.05985691
169	0xbc66fca9	-0.014098325
170	0xbcac3097	-0.021019263
171	0xbcbdde3d	-0.02317726
172	0xbd414826	-0.047187947
173	0x3daa8bc3	0.08327439
174	0x3c5e0190	0.013550177
175	0xbd7f8f88	-0.06239274
176	0x3dcde9e8	0.1005438
177	0x3d86f262	0.065891996
178	0x3cc87ad0	0.024472624
179	0xbd4627fb	-0.048377972
180	0xbce9b523	-0.028528756
181	0xbd5c69ae	-0.05381172
182	0x3c9f2ae0	0.019429624
183	0xbd663fac	-0.056213066
184	0xbd8a491e	-0.06752227
185	0x3d34770e	0.044058852
186	0xbd8455de	-0.0646169
187	0xbd05d581	-0.032674316
188	0xbd87f95c	-0.066393584
189	0x3c78fd29	0.015197077
190	0x3c839394	0.016061582
191	0x3da813ba	0.082068875
192	0x3c755ec2	0.014976205
193	0x3d1833f1	0.03715891
194	0xbd9387a8	-0.07203609
195	0x3d983d83	0.074336074
196	0x3b8e26da	0.0043381276
197	0xbd656a97	-0.056009855
198	0xbc29c762	-0.010362478
199	0xbd1e51bd	-0.03865217
200	0x3cff3da2	0.031157319
201	0xbb336514	-0.002737348
202	0x3d20725f	0.039171573
203	0x3c042c98	0.008067273
204	0xbc64d26c	-0.013966184
205	0x3d1d9c1a	0.03847895
206	0xbd31bfc1	-0.04339576
207	0x3c668556	0.014069876
208	0x3c78b0f8	0.015178911
209	0xbd324aaa	-0.043528236
210	0xbd98b6a5	-0.07456712
211	0x3ccb11fb	0.024788847
212	0x3b92f77b	0.0044850684
213	0x3da40f4f	0.080107324
214	0xbc562f2b	-0.013072769
215	0x3c38788a	0.0112592075
216	0x3d03cde7	0.032178786
217	0x3d8548cd	0.06508026
218	0x3d069918	0.032860845
219	0x3d4eb0eb	0.05046169
220	0xbdae84e0	-0.08521438
221	0x3d82fe44	0.063961536
222	0x3bd1e5f4	0.0064055864
223	0x3d1cf573	0.038320016
224	0x3c0f9c1d	0.008765248
225	0xbdac10ac	-0.084016174
226	0xbde57881	-0.11204625
227	0x3c65cef7	0.014026395
228	0xbcd7e0d7	-0.02635233
229	0x3dcf111c	0.10110685
230	0x3b17d175	0.0023165618
231	0x3dae272a	0.08503564
232	0xbd928de2	-0.07155968
233	0xba367ac3	-0.0006961042
234	0xbcacc302	-0.02108908
235	0xbca996b6	-0.020701747
236	0x3c33b178	0.010967605
237	0xbbc7d971	-0.006098919
238	0x3c686b6a	0.014185766
239	0xbd7409f8	-0.05957982
240	0xbd30ac4b	-0.04313306
241	0x3c91bb78	0.017789587
242	0x3db51cef	0.08843409
243	0xbba27023	-0.0049572154
244	0xbd3944ac	-0.045231506
245	0x3b86a177	0.0041086036
246	0x3cd0d19b	0.025490573
247	0x3b9912a9	0.004671414
248	0xbd8c2fbb	-0.06845041
249	0xbe14a9e6	-0.14517936
250	0x3c56b1ab	0.013103883
251	0x3ba0fae0	0.004912719
252	0xbd9fe84d	-0.0780798
253	0xbd25f8aa	-0.040520348
254	0x3c4474eb	0.011990766
255	0xbdb098b9	-0.086228795

layer2.3.bias f4 [256]
0	0xbf24c1ec	-0.643584
1	0x3ef34e83	0.47520837
2	0xbe1608d7	-0.1465181
3	0x3f2f603f	0.68506235
4	0xbd0ef925	-0.03490557
5	0xbea65f2c	-0.32494485
6	0x3eba6a50	0.36409235
7	0x3ee0515b	0.4381207
8	0xbede2b48	-0.43392396
9	0xbe92f8dc	-0.2870549
10	0xbe1a4ccc	-0.15068358
11	0x3e53a904	0.20669943
12	0x3f0da158	0.55324316
13	0x3e0ea9bd	0.13931938
14	0xbf2ce0d0	-0.67530537
15	0xbeb2959b	-0.34879765
16	0xbf02319c	-0.5085695
17	0xbe16a535	-0.14711459
18	0xbe17eb2d	-0.14835806
19	0x3f0e7434	0.5564606
20	0x3ebab92b	0.36469397
21	0x3dc011e8	0.09378415
22	0xbe30e6a8	-0.17275488
23	0x3c1a2539	0.009408289
24	0xbf010c99	-0.5040985
25	0x3ee2fe58	0.44334674
26	0x3dd896e4	0.10575655
27	0xbf1145b6	-0.56746995
28	0xbf31ec6a	-0.69501364
29	0xbee3c507	-0.44486257
30	0x3d36ccd3	0.04462893
31	0xbe893866	-0.2680084
32	0x3ea29d30	0.3176055
33	0x3ea01885	0.31268707
34	0x3f20fc23	0.6288473
35	0x3d6deee7	0.058089163
36	0x3ec6fcf0	0.3886485
37	0xbeac75d6	-0.33683652
38	0xbe5632a3	-0.20917754
39	0xbf028b2a	-0.509936
40	0xbf09f934	-0.5389588
41	0xbe6148cf	-0.2200043
42	0x3e58669c	0.21132892
43	0xbdac7399	-0.08420486
44	0xbe07acf9	-0.13249578
45	0x3decfe4f	0.11571943
46	0x3f443502	0.76643384
47	0xbd68c6a8	-0.05683008
48	0x3ebb75d8	0.36613345
49	0xbf1c0d15	-0.6095746
50	0xbd685a75	-0.05672689
51	0x3ecf4be1	0.4048758
52	0x3f2f6ac0	0.6852226
53	0xbe4b9552	-0.1988118
54	0x3eca4039	0.39502123
55	0xbe15b13e	-0.14618394
56	0xbec9af7a	-0.3939169
57	0x3eca1eeb	0.39476714
58	0xbf3ab73f	-0.7293586
59	0x3ea916c1	0.33025172
60	0x3dc52cbb	0.09627672
61	0xbef15e92	-0.47142464
62	0x3f0b10fa	0.5432278
63	0x3f0b07ce	0.54308784
64	0xbf30a4e6	-0.69001615
65	0xbe38352d	-0.17989035
66	0x3e9e9100	0.3097
67	0x3f0b737e	0.544731
68	0x3ed5355b	0.4164227
69	0xbf3b8346	-0.7324718
70	0xbf461b4f	-0.7738542
71	0x3f07d7d5	0.5306371
72	0x3e834feb	0.2564691
73	0x3f00048a	0.50006926
74	0x3cd5d4d9	0.02610247
75	0x3d1f2319	0.03885183
76	0x3d1344e1	0.03595436
77	0x3ddb0478	0.10694212
78	0x3ec9d327	0.3941891
79	0x3eaeb8a3	0.34125242
80	0xbf2bdc5d	-0.6713312
81	0x3ef3739b	0.47549137
82	0x3d25938b	0.04042391
83	0xbf1060a1	-0.56397444
84	0x3e84845f	0.2588224
85	0xbd7a4ffe	-0.061111443
86	0xbecee31d	-0.4040765
87	0xbed331ed	-0.41249028
88	0xbd33cc0d	-0.04389577
89	0xbd338b74	-0.043834165
90	0xbe77aefb	-0.24187844
91	0x3f19fab9	0.601482
92	0x3ef3a674	0.4758793
93	0x3dcf29a5	0.10115365
94	0xbdac1b78	-0.08403677
95	0x3f11d60d	0.5696724
96	0x3f1a50f8	0.602798
97	0x3cd538ba	0.026028026
98	0xbd0a1ca1	-0.03371871
99	0xbe8ca514	-0.27469695
100	0x3eea0026	0.45703238
101	0x3e35d509	0.17757048
102	0x3f1a9a7c	0.60391974
103	0x3df3662c	0.11884722
104	0xbde8dfda	-0.11370821
105	0xbe82af9c	-0.25524604
106	0x3efed5e2	0.49772555
107	0x3e9d6773	0.30742988
108	0xbe784867	-0.2424637
109	0x3ec33546	0.38126582
110	0xbdd22efb	-0.10262867
111	0x3edcdb13	0.4313589
112	0x3e8f1fdb	0.2795399
113	0xbf4bed66	-0.79659116
114	0xbeacbdb1	-0.33738473
115	0x3f5918ab	0.84803265
116	0x3cdd7413	0.027032888
117	0x3f178724	0.59190583
118	0x3f18269e	0.59433925
119	0x3e8a50ef	0.27014872
120	0x3ed34cef	0.41269633
121	0xbf401040	-0.75024796
122	0xbf0964d5	-0.5366948
123	0x3ef2f404	0.47451794
124	0x3e1768cf	0.14786075
125	0x3e7ab1a2	0.24481824
126	0x3de46681	0.111523636
127	0xbf304f70	-0.6887121
128	0x3f4c3b63	0.79778117
129	0xbcbc63d3	-0.022996819
130	0x3daeaa96	0.085286304
131	0x3bce4c3a	0.006295708
132	0xbebe2356	-0.37136334
133	0xbf242035	-0.64111644
134	0xbea494a8	-0.32144666
135	0x3edd7849	0.43255833
136	0xbeb3913c	-0.35071743
137	0xbdbdca85	-0.09267143
138	0x3eb8ba2a	0.36079532
139	0x3e8c5dfd	0.27415457
140	0x3cf4a155	0.029862085
141	0x3f2961b9	0.6616474
142	0x3daf9123	0.085726045
143	0xbf198962	-0.59975255
144	0x3e58dee6	0.21178779
145	0x3f3aedf9	0.7301937
146	0xbf0e2aae	-0.55533874
147	0x3ef36d8a	0.4754451
148	0x3f4fb49e	0.81134975
149	0xbe6a5ed8	-0.22887743
150	0x3e066623	0.131249
151	0x3f149127	0.58033985
152	0x3e6b7a55	0.22995885
153	0xbe113776	-0.14181313
154	0xbf32ed27	-0.69893116
155	0xbf3dd5d2	-0.7415439
156	0x3e1b6c95	0.1517814
157	0xbe381dcd	-0.17980118
158	0xbefe93a7	-0.49722025
159	0xbe00ddb6	-0.12584576
160	0xbe1799e3	-0.14804797
161	0xbef3770d	-0.47551766
162	0x3f37d4f8	0.7180934
163	0xbec70acd	-0.38875428
164	0x3db1b746	0.08677535
165	0xbf322b2f	-0.6959714
166	0xbecb72f0	-0.39736128
167	0xbf28ace8	-0.65888834
168	0xbe6b09f2	-0.22953013
169	0xbd4d2066	-0.050079726
170	0x3f2ead31	0.6823302
171	0x3ca8ea4b	0.020619532
172	0x3ed88d4c	0.422953
173	0x3dd8ebc3	0.10591843
174	0xbcb32931	-0.021870228
175	0xbd8b5fbd	-0.0680537
176	0xbd34d954	-0.044152573
177	0x3dfe2fe3	0.124114774
178	0x3e6f6781	0.23379327
179	0x3f4ab85a	0.7918755
180	0x3d7b332d	0.061328102
181	0x3d9162d4	0.07098928
182	0x3f26bb5a	0.65129626
183	0xbf179cde	-0.59223735
184	0x3d0ccbf0	0.034374177
185	0xbe78274e	-0.24233744
186	0x3ec3fe8f	0.3828015
187	0x3d96258c	0.0733138
188	0xbd80391e	-0.06260894
189	0x3ee122ba	0.43971807
190	0xbdc5ed9d	-0.09664462
191	0xbd9d2a2a	-0.07674058
192	0xbdf2d546	-0.11857085
193	0x3f00c816	0.50305307
194	0xbf0a4f4f	-0.54027265
195	0x3eb929d0	0.36164713
196	0xbe9ed932	-0.31025082
197	0x3cf7d13b	0.030251136
198	0x3ea35d51	0.31907132
199	0x3f1aa4e5	0.6040786
200	0x3eb295fb	0.3488005
201	0xbe5630a6	-0.20916995
202	0xbf017604	-0.505707
203	0x3ca75a2f	0.020428745
204	0x3db21547	0.086954646
205	0xbec74815	-0.38922182
206	0x3f210b2b	0.62907666
207	0xbf060034	-0.5234406
208	0x3f1611d8	0.5862098
209	0x3f290e01	0.66036993
210	0xbe2b8b01	-0.16752245
211	0x3edf9114	0.43665373
212	0xbf079c6f	-0.52973074
213	0x3db09ed4	0.08624044
214	0xbedfe3cb	-0.4372848
215	0x3f295c82	0.6615678
216	0x3e2db3ae	0.16963074
217	0x3f07d610	0.5306101
218	0xbeeead0d	-0.46616402
219	0x3ec52b75	0.38509718
220	0x3ef0dfc6	0.47045726
221	0xbe626c77	-0.22111689
222	0x3ece9f62	0.40355974
223	0xbdd4f769	-0.10398752
224	0xbdab5b83	-0.08367064
225	0xbf170afc	-0.59001136
226	0x3eab0e57	0.33409378
227	0x3d569841	0.052391294
228	0xbee16cda	-0.4402836
229	0x3dd85673	0.10563364
230	0xbf2718c7	-0.6527218
231	0xbe53ff0b	-0.2070276
232	0x3e6150b2	0.22003439
233	0xbc802e89	-0.01564719
234	0x3da411a2	0.08011176
235	0x3e030ba9	0.12797417
236	0xbea2ab28	-0.31771207
237	0xbe5cee9d	-0.21575399
238	0x3f40c466	0.7529968
239	0xbdbab371	-0.09116257
240	0x3f055acf	0.5209169
241	0x3efd180c	0.4943241
242	0x3ef82239	0.4846361
243	0xbdf57df6	-0.11986916
244	0xbe931761	-0.28728774
245	0xbf07f983	-0.531151
246	0xbf02ea80	-0.5113907
247	0xbf136f50	-0.57591724
248	0xbf3026c5	-0.6880916
249	0xbf0f4ec9	-0.5597959
250	0x3e485a41	0.19565679
251	0x3ef66d94	0.48130476
252	0x3eb9c57a	0.36283475
253	0x3eda8312	0.42678124
254	0x3d95a733	0.07307281
255	0xbec6f3d7	-0.3885791

layer2.6.weight f4 [10, 256]
0	0x3d0ae0f4	0.03390594
1	0xbc49f804	-0.012327198
2	0xba140baa	-0.000564749
3	0xbd0c1f23	-0.03420938
4	0x3c3fdce1	0.0117103765
5	0xbd1d8003	-0.03845216
6	0xbd7d122d	-0.061784912
7	0xbd8746dd	-0.06605313
8	0xbbe10326	-0.0068668304
9	0xbc8f95e8	-0.017527536
10	0xbc356d1a	-0.011073375
11	0xbb6f8a00	-0.003655076
12	0x3dbbb1aa	0.09164746
13	0x3c6217f7	0.013799659
14	0xbd7f9fd9	-0.062408302
15	0x3d02ccba	0.031933524
16	0x3dc3acfa	0.09554477
17	0x3c5a5818	0.013326667
18	0xbce31bb6	-0.027723175
19	0xbdb33ca7	-0.08751803
20	0xbad7a39a	-0.0016451955
21	0x3b879bbd	0.0041384385
22	0x3b5031ff	0.0031768081
23	0x39bc1113	0.00035870876
24	0x3cffb3d5	0.03121368
25	0xbcdc9f44	-0.026931413
26	0x3c078243	0.008270803
27	0x3db43d06	0.08800702
28	0x3d9d421b	0.07678624
29	0x3c3555e3	0.01106784
30	0xbbd46ad7	-0.006482463
31	0x3d2a928e	0.04164367
32	0x3bbbb4f1	0.005728357
33	0xbd3a9dfa	-0.045560814
34	0x3ddc86cf	0.107679
35	0x3d85c3c5	0.06531481
36	0xba7c9318	-0.0009634956
37	0x3c0781a6	0.008270657
38	0x3d0e0c7b	0.03467987
39	0x3d909c5d	0.07061074
40	0x3d62dd84	0.055387035
41	0x3cccbf97	0.0249937
42	0xbd379a2d	-0.044824768
43	0x3ce7c1e0	0.028290689
44	0x3c8f36f9	0.017482268
45	0x3c7387f8	0.01486396
46	0x3d17045d	0.036869396
47	0x3d3dd649	0.046346936
48	0x3ccf5c97	0.025312705
49	0x3d0e266f	0.034704622
50	0xbd016a04	-0.031595245
51	0x3d8e2677	0.0694093
52	0x3d6db9e0	0.058038592
53	0xbd99eaa3	-0.075154565
54	0x3dbe8d86	0.09304337
55	0x3c091636	0.008367112
56	0x3d5a4c0b	0.053295176
57	0xbdad50c0	-0.084626675
58	0xbac3efbf	-0.0014948769
59	0xbbf8688d	-0.007580823
60	0xbca09714	-0.01960329
61	0x3db62cb3	0.088952444
62	0xbd9eb3e6	-0.07749157
63	0x3dbf7c1b	0.09349843
64	0xbabc766b	-0.0014378553
65	0x3cb6c547	0.022310866
66	0x3c0ff045	0.008785312
67	0x3daf88e4	0.08571032
68	0xbbe98483	-0.0071263923
69	0x3c01bc55	0.007918437
70	0x3dc56d58	0.09639996
71	0xbd84a70d	-0.06477175
72	0xbd3384b5	-0.04382773
73	0xbcc049e5	-0.023472736
74	0x3cf845f8	0.030306801
75	0xbc22ea60	-0.009943575
76	0xbd62b5c4	-0.055349126
77	0x3c5ec0a4	0.013595734
78	0xbdcf33f9	-0.10117335
79	0xbd81d791	-0.06339944
80	0xbd56610e	-0.052338652
81	0xbcc692ce	-0.024239924
82	0xbd600be8	-0.054698855
83	0x3dc1f533	0.09470596
84	0x3be35821	0.006937996
85	0xbd31655c	-0.043309554
86	0xbd9bad36	-0.07601397
87	0x3cca7981	0.02471614
88	0x3c480089	0.012207159
89	0xb9a3cbcf	-0.00031241632
90	0xbcc42573	-0.023943638
91	0x3dbe0411	0.09278119
92	0x3d1adb79	0.03780696
93	0xbd165356	-0.03670057
94	0xbc7c36af	-0.015393897
95	0x3c4b14b6	0.012395075
96	0xbdbac3f5	-0.09119407
97	0xbba6a502	-0.0050855884
98	0xbcd4cbd6	-0.025976103
99	0x3d4e7658	0.05040583
100	0x3dafaf68	0.08578378
101	0xbc4f330f	-0.012646451
102	0xbd5db07b	-0.054123383
103	0x3c814c53	0.015783465
104	0x3ca90fc3	0.020637399
105	0xbc6e8939	-0.014559084
106	0x3d5c7712	0.05382449
107	0x3d1d8f4d	0.03846674
108	0x3d445a5e	0.047937743
109	0x3d9f21f7	0.0777015
110	0x3b6876e6	0.003547126
111	0xbc1ea61f	-0.009683161
112	0x3d0da0a4	0.034577027
113	0xbd895f0e	-0.06707583
114	0x3cce2b4a	0.025167126
115	0xbe0ec3dc	-0.13941902
116	0xbc5a9dce	-0.013343288
117	0x3ddcb69d	0.10777018
118	0x3daea637	0.08527797
119	0x3d5b95a0	0.05360949
120	0x3d9d3650	0.07676375
121	0xbda91d5a	-0.082575515
122	0xbd6feea0	-0.05857718
123	0x3da97ce4	0.08275774
124	0x3cd5a272	0.026078437
125	0xbd526f7a	-0.051375844
126	0xbc9bf7f1	-0.019039126
127	0x3ddd4fd6	0.10806243
128	0xbde7937f	-0.113074295
129	0xbcd66712	-0.026172195
130	0x3c58d976	0.0132354405
131	0x3d99312b	0.07480081
132	0xbcec79b6	-0.02886663
133	0x3e0c3680	0.13692665
134	0xbc6bfccb	-0.014403532
135	0x3d02cc3e	0.03193306
136	0xbc3a766e	-0.011380775
137	0xbd3a85bc	-0.045537695
138	0x3d6726ed	0.056433607
139	0xbd6e86d9	-0.05823407
140	0x3d8f7348	0.0700441
141	0x3d39ee8e	0.04539352
142	0x3c8683bf	0.016420243
143	0xbd94d59e	-0.07267307
144	0x3c8bf94b	0.017086646
145	0xbde783b6	-0.11304419
146	0x3d8faf9b	0.07015916
147	0x3c2bb527	0.010480202
148	0x3d2158fd	0.039391506
149	0x3bf9b5e3	0.0076205595
150	0xbc7a6a46	-0.015284127
151	0xbcecfcde	-0.02892917
152	0x3d8f3992	0.069934025
153	0x3c6b995b	0.0143798245
154	0xbd302035	-0.042999465
155	0x3de63f7b	0.11242577
156	0x3c8a13e8	0.016855195
157	0x3d2ad324	0.041705266
158	0x3d9641e2	0.07336785
159	0x3d85192b	0.06498941
160	0xbc81da51	-0.015851172
161	0xbd246869	-0.040138636
162	0x3e166fb8	0.14691055
163	0xbcb143ed	-0.021638835
164	0xbd2c5a91	-0.04207856
165	0xbd4502a4	-0.04809822
166	0xbd761f42	-0.060088404
167	0x3c8b7f04	0.01702834
168	0x3ceb9d50	0.028761536
169	0xbcb00177	-0.021485073
170	0x3d30a6bc	0.04312776
171	0xbbeb5b25	-0.007182496
172	0x3d10b240	0.035326242
173	0x3c745128	0.014911927
174	0x3cafc908	0.021458164
175	0xbd55dcee	-0.052212648
176	0xbc93622a	-0.017991144
177	0x3b278ae4	0.0025564963
178	0xbbbf2c09	-0.005834107
179	0xbdd21dfa	-0.10259624
180	0x3d72e991	0.059304778
181	0xbcc598a7	-0.024120642
182	0x3d7b704e	0.0613864
183	0x3c98d5ea	0.01865669
184	0xbc5e2276	-0.013558021
185	0x3cb5f820	0.022213042
186	0xbd65e6c0	-0.056128263
187	0xbc2bbfcb	-0.010482739
188	0x3d3555d3	0.0442713
189	0x3d48a714	0.048987463
190	0xbd5e08da	-0.05420766
191	0x3db587d5	0.088637985
192	0x3ccaf437	0.024774654
193	0x3ca08af8	0.019597515
194	0x3d0041f1	0.031312887
195	0x3d67c2d4	0.056582287
196	0x3d22ad60	0.039716125
197	0x3cf4f50a	0.029902
198	0xbd0cb986	-0.034356616
199	0xbd3c8b9e	-0.046031587
200	0x3a55aa4d	0.0008150682
201	0xbcc1e391	-0.023668082
202	0xbdbadaf3	-0.091237925
203	0x3bc63926	0.006049293
204	0xbb2b2708	-0.0026115794
205	0xbc5e043b	-0.013550813
206	0xbcb5d86d	-0.022197926
207	0xbdc7bd49	-0.097529
208	0x3d2568b6	0.040383063
209	0x3cbfeeb7	0.023429258
210	0x3c794e70	0.015216455
211	0xbdc8f514	-0.0981237
212	0x3c91cd30	0.017798036
213	0x3c4880b4	0.0122377165
214	0xbc0e1d8d	-0.008674038
215	0xbcf4f465	-0.029901693
216	0xbbd72578	-0.006565746
217	0xbc26bae3	-0.010176393
218	0x3db580b1	0.088624366
219	0x3daa872d	0.08326564
220	0xbd707b96	-0.05871161
221	0xbb9a7e65	-0.0047147744
222	0x3be524fa	0.0069929333
223	0x3d1da0dc	0.038483486
224	0x3c80006f	0.015625207
225	0x3da62b73	0.08113756
226	0x3d3d20ae	0.046173744
227	0xbc84149b	-0.016123107
228	0xbc411505	-0.011784797
229	0x3c253627	0.010083712
230	0xbc3cdd36	-0.01152735
231	0x3c84409b	0.016144088
232	0x3d1b0d0d	0.037854243
233	0x3d2055ab	0.0391442
234	0x3b7fdd08	0.0039041657
235	0x3bf972a9	0.0076125455
236	0x3cf917d4	0.03040687
237	0xbbf0517f	-0.007333934
238	0xbdf525f2	-0.11970128
239	0x3be43db3	0.006965363
240	0x3c82ec9d	0.015981967
241	0xbd221a7b	-0.039576035
242	0xb97e1dbe	-0.00024234407
243	0x3bcd1d3a	0.0062595876
244	0xbc7ec4fe	-0.015549896
245	0x3c9c9292	0.019112859
246	0x3d05a67a	0.032629468
247	0xbd858588	-0.0651961
248	0x3c95c5f1	0.018282862
249	0xbdb0b367	-0.08627968
250	0x3d3b50e6	0.045731448
251	0xbcbf8d63	-0.023382848
252	0x3d848f21	0.06472612
253	0xbbad8dd7	-0.0052964496
254	0x3dbcf625	0.09226636
255	0xbcaeb032	-0.02132425

layer2.6.bias f4 [10]
0	0xbe6411a9	-0.22272362
1	0xbf204324	-0.6260245
2	0xc0297e57	-2.6483362
3	0xbf25f47c	-0.6482618
4	0xbf72430b	-0.9463355
5	0x3eeaefda	0.45886117
6	0xbf861182	-1.0474093
7	0x3ec1a955	0.37824503
8	0xbed1233d	-0.40847197
9	0xbe5fc5a8	-0.21852744
