Model_Files/helpdesk/EventPredictor_parameters_feedforward_0.0001.pt (torch, 313665 bytes, 6 tensors)

layer2.0.weight f4 [256, 36]
0.09015236 -0.03683037 -0.076033905 0.008493652 0.11346738 -0.081090376 -0.0035131178 0.076630555
-0.13591027 -0.09825736 -0.07516867 -0.10944709 -0.036268037 0.05779042 -0.056089044 0.044100326
-0.06930719 0.10586067 0.016983252 0.08679575 0.000313298 0.13820319 -0.13599864 0.07538784
-0.08995911 0.1593287 0.09037155 0.07434978 0.104608186 0.0005247347 -0.11354104 0.114037335
0.03684721 -0.07023541 0.08596748 0.024712306 0.09954141 -0.05575873 0.16407828 -0.14466858
-0.055617772 -0.08402632 0.13128507 -0.092767775 0.095804274 -0.03951329 -0.070296824 -0.08792993
-0.030969342 0.08306424 -0.07752284 -0.029500406 0.09194188 0.023782155 0.10816537 -0.16442166
-0.0013142623 -0.16327666 0.026502194 -0.12798056 0.13550757 -0.06463498 0.027465641 -0.12913525
-0.015317899 -0.043763924 0.079351604 -0.06935982 0.0477733 0.13922366 0.12697962 0.011477868
-0.0014632742 -0.10747069 -0.04688481 -0.09597926 -0.13098931 -0.02193747 0.032641947 0.066829525
0.020320734 0.14676628 -0.08457684 0.07860642 -0.14329313 -0.0396264 -0.1645025 -0.073525295
0.06332688 -0.118975565 -0.1315233 -0.015040259 0.061014988 0.118091926 0.04931171 0.09144736
-0.07893958 0.06981312 -0.13945542 0.1169287 0.13472235 0.09627744 -0.08839667 0.0071818945
0.09838629 -0.06968747 -0.15880315 -0.022519227 0.05649035 0.058075476 -0.100000516 0.14194958
0.011434317 -0.017333508 -0.14239821 0.0584293 0.036278885 -0.049040437 0.05929696 0.101441756
-0.10100766 0.07064655 0.16444054 0.028520783 -0.10784056 0.037222408 0.086089715 -0.14550237
-0.012716925 0.096715376 0.04688731 0.0010606115 -0.042965196 0.10398911 -0.084874675 0.15348467
-0.1146814 0.13593389 0.06063946 0.021588156 0.11113199 0.03271439 -0.15726188 0.11788398
0.08068499 0.11661702 0.04259318 -0.0928605 0.025594413 -0.12442319 0.027651152 -0.12883869
0.15066937 0.15670787 -0.15023738 -0.14829665 0.12850806 0.020576438 -0.063990876 -0.12848833
-0.046538293 -0.114462435 -0.15713513 -0.031147262 0.01425308 0.094949216 0.1556861 -0.115701824
-0.02216502 0.015063643 0.04762421 -0.1003145 0.035682898 -0.02962668 -0.08075807 0.029284924
-0.07085751 0.031451087 0.08657931 -0.041451838 -0.020352503 0.12632366 0.1051435 -0.048727136
-0.07621884 0.08661183 -0.08378621 -0.118035495 0.15152079 0.1203817 -0.083570376 -0.03411474
0.006061753 -0.0120015545 -0.084261656 -0.10555446 -0.13046315 0.0137966275 0.14019994 0.09006598
-0.14637065 0.042370062 0.1475353 -0.021647861 -0.043633163 -0.15096492 0.025247257 0.16522335
-0.03716713 0.015543922 -0.14668587 0.049099006 -0.013642294 -0.0877295 -0.14168641 0.09545707
-0.10604559 -0.092504226 -0.046524394 -0.012410088 0.04844012 -0.10789903 0.081745446 -0.08565762
-0.033845805 0.15746436 -0.010395871 -0.12709557 -0.06752139 0.061056416 -0.07752874 0.033283353
-0.095064044 -0.07718855 0.038557492 -0.08890893 0.025301022 -0.1352067 0.06896638 -0.163576
-0.02942437 0.061200164 -0.086845696 0.12874615 -0.011140091 0.13675758 -0.09160264 0.01207959
-0.14963055 -0.0876407 -0.039841473 0.11284588 0.11421127 -0.13706827 0.07910156 0.05038532
00000000: cda1 b83d 71db 16bd aab7 9bbd f528 0b3c
00000010: 9661 e83d b612 a6bd 563c 66bb 7bf0 9c3d
00000020: 102c 0bbe 283b c9bd 08f2 99bd cc25 e0bd
00000030: cb8d 14bd a6b5 6c3d a0bd 65bd 8ba2 343d
00000040: eef0 8dbd 7bcd d83d 7620 8b3c f8c1 b13d
00000050: 2542 a439 2385 0d3e 3a43 0bbe f164 9a3d
00000060: 7b3c b8bd 1027 233e b814 b93d b344 983d
00000070: d13c d63d 5a8e 093a 3488 e8bd 688c e93d
00000080: 1aed 163d 95d7 8fbd b80f b03d 7671 ca3c
00000090: 5edc cb3d 4463 64bd 2304 283e 0024 14be
000000a0: 76cf 63bd fe15 acbd 986f 063e 08fd bdbd
000000b0: 0835 c43d b0d8 21bd c8f7 8fbd 9b14 b4bd
000000c0: 6bb3 fdbc 961d aa3d 4bc4 9ebd d6aa f1bc
000000d0: 064c bc3d cbd2 c23c ce85 dd3d 275e 28be
000000e0: 5343 acba ff31 27be 211b d93c 560d 03be
000000f0: 7fc2 0a3e 585f 84bd a0ff e03c 083c 04be
00000100: edf7 7abc cd41 33bd 1883 a23d 850c 8ebd
00000110: f0ad 433d a690 0e3e f206 023e ab0d 3c3c
00000120: 56cb bfba 9819 dcbd 490a 40bd c690 c4bd
00000130: 1022 06be 36b6 b3bc 90b3 053d ebdd 883d
00000140: ab77 a63c e649 163e 9f36 adbd 67fc a03d
00000150: 6fbb 12be 4b4f 22bd 5873 28be 6e94 96bd
00000160: 86b1 813d 76a9 f3bd 0bae 06be 6b6b 76bc
00000170: daea 793d 2eda f13d 13fb 493d c148 bb3d
00000180: 13ab a1bd 2efa 8e3d 67cd 0ebe 5078 ef3d
00000190: a8f4 093e 1b2d c53d 5009 b5bd 1956 eb3b
000001a0: c07e c93d 4eb8 8ebd 4b9d 22be 3e7a b8bc
000001b0: 6d62 673d 8de0 6d3d 12cd ccbd 3b5b 113e
000001c0: 0057 3b3c 00ff 8dbc d6d0 11be 9053 6f3d
000001d0: 2b99 143d a0de 48bd 5ee1 723d b2c0 cf3d
000001e0: 1bdd cebd 23af 903d 1a63 283e 6ba4 e93c
000001f0: 83db dcbd 8676 183d ce4f b03d 93fe 14be
00000200: a65a 50bc b612 c63d e80c 403d 3704 8b3a
00000210: 46fc 2fbd 3ef8 d43d c6d2 adbd 162b 1d3e
00000220: 15de eabd 4132 0b3e 1561 783d a5d9 b03c
00000230: 2b99 e33d 86ff 053d 4209 21be 286d f13d
00000240: 2c3e a53d e7d4 ee3d 3076 2e3d a52d bebd
00000250: 60ab d13c 96d1 febd ab84 e23c 4aee 03be
00000260: 1249 1a3e 0778 203e d4d7 19be 14db 17be
00000270: 9e97 033e eb8f a83c a60d 83bd 7292 03be
00000280: f09e 3ebd 486b eabd 08e8 20be 8b28 ffbc
00000290: c085 693c bc74 c23d 2d6c 1f3e 14f5 ecbd
000002a0: 6b93 b5bc 80cd 763c 9b11 433d b071 cdbd
000002b0: 3b28 123d a7b3 f2bc 7d64 a5bd f0e6 ef3c
000002c0: be1d 91bd dbd2 003d 7e50 b13d 67c9 29bd
000002d0: 4bba a6bc fd5a 013e 7a55 d73d 1b96 47bd
000002e0: a018 9cbd 8b61 b13d 1b98 abbd 98bc f1bd
000002f0: 4428 1b3e ae8a f63d f226 abbd e6bb 0bbd
00000300: aba1 c63b 2ba2 44bc 6091 acbd f02c d8bd
00000310: 2298 05be 400b 623c 9390 0f3e 8374 b83d
00000320: 30e2 15be 3b8c 2d3d 7e13 173e db56 b1bc
00000330: b0b8 32bd 8c96 1abe 56d3 ce3c 4f30 293e
00000340: 8f3c 18bd efab 7e3c d234 16be 0a1c 493d
00000350: ee83 5fbc 86ab b3bd 3e16 11be ff7e c33d
00000360: 6e2e d9bd db72 bdbd 5d90 3ebd af53 4bbc
00000370: 2669 463d 2bfa dcbd 286a a73d 436d afbd
00000380: e6a1 0abd 563e 213e 7153 2abc 5725 02be
00000390: a848 8abd 4b16 7a3d 63c7 9ebd 2054 083d
000003a0: f0b0 c2bd 0815 9ebd 76ee 1d3d e315 b6bd
000003b0: 1744 cf3c a073 0abe 3f3e 8d3d 7880 27be
000003c0: 600b f1bc 06ad 7a3d 28dc b1bd 08d6 033e
000003d0: ee84 36bc 2e0a 0c3e 2a9a bbbd 79e9 453c
000003e0: c038 19be f87c b3bd d030 23bd be1b e73d
000003f0: 99e7 e93d a05b 0cbe 0000 a23d d660 4e3d

layer2.0.bias f4 [256]
0.11178152 0.050013833 0.07713807 0.13880065 -0.017513275 0.010699445 -0.05131856 0.05120079
0.047143858 -0.11519711 0.05162494 -0.15283829 -0.104068376 -0.18280272 -0.08158828 0.12728432
-0.15191402 -0.13095479 -0.18355295 0.07402309 -0.038199134 -0.098122455 0.10152487 -0.047794912
0.10660478 0.115336 0.073827885 -0.070013404 0.029590774 0.057955947 -0.22824444 0.058055274
-0.025540186 -0.20692073 0.01286556 -0.03606042 -0.004616498 0.023710845 0.124864295 0.059427287
0.15820743 0.100016475 -0.042099074 -0.18717828 0.09325756 -0.17926607 0.12763855 -0.089419864
-0.07224785 0.07294544 0.0045282897 0.0011787427 0.10874585 0.09958591 -0.038445592 0.04898446
-0.12826599 0.019905424 -0.04714162 -0.029120855 -0.07746136 -0.093644395 0.058344185 0.011986769
0.009616629 0.02747327 -0.058407012 -0.12269631 -0.024015939 0.025822163 0.05334971 0.013072475
-0.07117494 -0.053049203 -0.108474575 0.16348977 0.043991856 0.0049136444 -0.060732476 -0.19037256
-0.13898732 0.09870193 -0.112192 0.067879915 0.030472264 0.111600935 -0.1021596 0.11744028
-0.08840543 -0.08405288 0.0800122 0.09267667 0.026465388 -0.0477575 -0.002333977 0.06541339
0.08126978 -0.10612997 0.035872143 -0.18705054 -0.015912514 0.14365512 0.15147895 0.018071143
0.15573706 -0.028301675 0.14744411 -0.061025377 0.078391284 -0.07104673 -0.20010416 0.075154744
-0.0073779095 -0.09834034 0.17630431 0.023746088 -0.12712148 -0.12184875 0.19000705 -0.031917673
0.006082846 0.09041784 -0.13078515 -0.07437168 0.12056764 -0.076612584 0.061842047 -0.15575089
0.08597948 -0.12045757 -0.0647703 0.1623851 -0.05131444 0.18560672 0.15133962 -0.13324814
-0.13514939 -0.10359973 -0.11844408 0.022863427 0.05215725 -0.006121843 0.08084638 -0.11305234
0.13120171 0.1382704 -0.12547377 0.15988532 -0.1440737 -0.050929945 0.015819259 0.021852605
0.004460411 0.1293067 -0.14090082 0.14277536 -0.116686754 -0.10116308 0.018711375 -0.056483325
0.037532266 -0.15866143 0.00033676237 0.21011543 0.1853157 0.01381425 -0.0018628767 -0.0067439727
0.12786974 -0.15873696 0.095348485 -0.06181263 -0.10076584 0.071981356 0.13477978 -0.053874347
0.048855778 0.09116088 0.054112274 0.15485308 -0.16051565 -0.09761909 0.13112663 0.15464513
-0.015672544 -0.08375877 -0.139331 -0.06997408 -0.02736516 0.0168595 -0.08530523 -0.11254444
-0.10219584 0.041244157 -0.070057645 -0.07787414 -0.1123217 0.20648815 0.03297122 0.1331288
0.12331174 0.018886311 -0.07025061 0.108843334 0.10767871 -0.021402296 -0.08717047 0.16107363
-0.04135121 -0.15645586 0.053090926 -0.0060757147 -0.15271112 0.021023886 -0.054389995 0.1120719
0.03919797 0.12308458 -0.037076127 0.18970782 -0.049318925 -0.122589156 0.0024840112 -0.1431764
-0.025531204 -0.117145315 -0.033523414 -0.14578308 0.09853676 0.027019855 -0.008477209 0.08944471
0.07967595 -0.0014022429 -0.04680105 -0.15515603 0.0464549 -0.18731098 -0.09970295 -0.08758844
0.019947067 0.14484364 0.11453961 -0.10403073 0.05816855 -0.046467222 -0.001237932 -0.11492868
-0.16952744 -0.014239651 0.071723156 0.0058358544 -0.072413325 0.10376473 -0.07683565 0.047163587
00000000: b6ed e43d 4edb 4c3d 90fa 9d3d c221 0e3e
00000010: 0078 8fbc ba4c 2f3c 6933 52bd ebb7 513d
00000020: eb19 413d 76ec ebbd ac74 533d a481 1cbe
00000030: cd21 d5bd a330 3bbe c217 a7bd d256 023e
00000040: 598f 1bbe 0319 06be 4ef5 3bbe 6b99 973d
00000050: b276 1cbd 6df4 c8bd 45ec cf3d 99c4 43bd
00000060: 9b53 da3d 4835 ec3d 1333 973d 3063 8fbd
00000070: 5a68 f23c 3763 6d3d e9b8 69be 5ecb 6d3d
00000080: a739 d1bc 07e3 53be 12ca 523c 17b4 13bd
00000090: fe45 97bb 3f3d c23c dab8 ff3d 076a 733d
000000a0: 2101 223e 70d5 cc3d 1470 2cbd aaab 3fbe
000000b0: d2fd be3d 8691 37be aeb3 023e c321 b7bd
000000c0: aef6 93bd 6b64 953d 0c62 943b 0b80 9a3a
000000d0: 25b6 de3d b3f3 cb3d 2079 1dbd eea3 483d
000000e0: 2958 03be b310 a33c 9217 41bd dc8e eebc
000000f0: 10a4 9ebd a2c8 bfbd 50fa 6e3d 2764 443c
00000100: 118f 1d3c a00f e13c 313c 6fbd 3448 fbbd
00000110: 13bd c4bc 0089 d33c 3a85 5a3d ef2d 563c
00000120: 2bc4 91bd 1f4a 59bd eb27 debd dd69 273e
00000130: ce30 343d a302 a13b 9ec2 78bd 06f1 42be
00000140: b152 0ebe 3d24 ca3d ebc4 e5bd a004 8b3d
00000150: f8a0 f93c 088f e43d 0d39 d1bd 8884 f03d
00000160: e80d b5bd eb23 acbd 70dd a33d 44cd bd3d
00000170: f1cd d83c 5e9d 43bd a3f5 18bb 75f7 853d
00000180: c570 a63d ab5a d9bd abee 123d 2d8a 3fbe
00000190: f65a 82bc 541a 133e 4c1d 1b3e ef09 943c
000001a0: 8979 1f3e ead8 e7bc 97fb 163e bff5 79bd
000001b0: 9c8b a03d f380 91bd 1be8 4cbe bbea 993d
000001c0: 64c2 f1bb a966 c9bd 1e89 343e 2887 c23c
000001d0: 222c 02be d68b f9bd 3591 423e 1bbc 02bd
000001e0: 9c52 c73b fd2c b93d 8bec 05be 2e50 98bd
000001f0: 2bec f63d 0fe7 9cbd 164e 7d3d 297d 1fbe
00000200: 0216 b03d 75b2 f6bd 4ba6 84bd 4848 263e
00000210: 172f 52bd b00f 3e3e c6f8 1a3e 3372 08be
00000220: 9a64 0abe 182c d4bd cf92 f2bd 154c bb3c
00000230: d7a2 553d be99 c8bb c992 a53d fc87 e7bd
00000240: be59 063e c196 0d3e 327c 00be fab8 233e
00000250: 0e88 13be eb9b 50bd 6497 813c 3c04 b33c
00000260: a428 923b fa68 043e 4e48 10be b433 123e
00000270: 77f9 eebd 972e cfbd 9948 993c 0f5b 67bd
00000280: 6fbb 193d 2478 22be 7b8f b039 8028 573e
00000290: 66c3 3d3e 2a55 623c c52b f4ba 8bfc dcbb
000002a0: 49f0 023e f18b 22be 1146 c33d 3e2f 7dbd
000002b0: 525e cebd f66a 933d b603 0a3e 59ab 5cbd
000002c0: ff1c 483d 8eb2 ba3d d5a4 5d3d ce91 1e3e
000002d0: 375e 24be 84ec c7bd 0f46 063e 4b5b 1e3e
000002e0: b563 80bc b889 abbd c9ac 0ebe 924e 8fbd
000002f0: e62c e0bc ef1c 8a3c 82b4 aebd b37d e6bd
00000300: 0d4c d1bd a2ef 283d 627a 8fbd 7a7c 9fbd
00000310: eb08 e6bd a171 533e d40c 073d eb52 083e
00000320: de8a fc3d 77b7 9a3c 8ddf 8fbd 41e9 de3d
00000330: a886 dc3d de53 afbc 6e86 b2bd 7cf0 243e
00000340: e35f 29bd f735 20be df75 593d ca16 c7bb
00000350: 4e60 1cbe 493a ac3c 0bc8 5ebd f485 e53d
00000360: 0d8e 203d c513 fc3d 23dd 17bd c442 423e
00000370: a402 4abd 0610 fbbd cbca 223b d69c 12be
00000380: d126 d1bc e2e9 efbd d94f 09bd 2948 15be
00000390: a4cd c93d be58 dd3c fee3 0abc ca2e b73d
000003a0: 252d a33d 77cb b7ba 75b2 3fbd 39e1 1ebe
000003b0: 7e47 3e3d 73ce 3fbe 0f31 ccbd 9161 b3bd
000003c0: 0868 a33c e451 143e be93 ea3d 100e d5bd
000003d0: 2542 6e3d 6a54 3ebd 1b42 a2ba ba5f ebbd
000003e0: 9a98 2dbe 6d4d 69bc 97e3 923d b23a bf3b
000003f0: 704d 94bd 9a82 d43d 025c 9dbd 9b2e 413d

layer2.2.weight f4 [256, 256]
0.03655755 0.07539096 -0.096929446 -0.004319161 0.0018069071 0.002885956 0.06588985 -0.014578853
0.027151288 -0.061092526 0.06250697 0.015759444 0.014148242 0.04571467 -0.013433489 0.02531795
-0.010053497 -0.020137228 -0.01780289 -0.07429313 0.025965206 -0.0012300477 0.0016806708 -0.07439665
-0.05775931 -0.061787184 0.05246754 -0.01638467 -0.0005437884 -0.004066973 -0.0052474095 0.10100284
-0.0071582515 -0.09403943 -0.022680357 0.06385129 -0.032382637 0.07797122 0.07313642 0.030746862
0.025954587 0.027498735 0.012290652 -0.02769184 0.03529389 -0.03998926 0.14046031 -0.020470707
0.019618936 0.017316377 0.012433638 0.018083079 0.066306815 0.014687735 -0.081566796 -0.08715258
0.09847301 0.13611297 -0.030199809 0.067408495 0.047558676 0.0038660471 0.0314444 -0.028119918
-0.032462485 0.011706103 0.04688249 -0.0055955234 0.0032340402 -0.018755807 -0.017629905 -0.01830252
0.08214702 -0.032211244 -0.016754933 -0.07075538 -0.013201674 -0.030566772 -0.022357078 -0.042365763
-0.013209096 -0.055779006 -0.04264517 0.084160656 0.05400832 -0.028230984 0.008708224 0.047819633
0.113303445 0.030603077 0.016548678 0.073633 0.092128545 -0.06454954 -0.0025927208 0.05041026
-0.05523995 -0.037162486 -0.021476874 -0.05409686 0.087214485 -0.0014933244 -0.045395914 -0.08524975
0.045769207 -0.02260853 0.024950145 -0.011846062 -0.044126257 0.067548335 -0.0674878 -0.031856097
-0.014029761 0.08634692 0.014615247 -0.03264138 0.09571008 0.08656049 -0.02259748 0.0033692468
0.013532247 0.025769448 0.020255158 -0.051033273 -0.027628707 0.025963346 0.024646107 -0.0538494
-0.08523609 -0.06706159 -0.021290364 0.068369955 0.00094005215 0.09251037 0.07988331 0.058381524
-0.06345399 -0.06869949 -0.007436678 -0.0053787986 0.014217708 0.0622451 -0.046600167 0.032634273
0.05958454 0.02452327 0.013258679 0.00016950503 0.0023423852 -0.076184966 0.10859223 -0.010554277
-0.025308326 0.051514093 0.048123475 -0.02325597 0.005503363 -0.13180728 0.03140933 -0.012758594
-0.034290314 -0.015574679 -0.06317524 0.005440505 0.08643224 0.01228386 0.014874526 0.027091248
0.021361133 0.045025036 -0.062987834 -0.04617079 0.02404109 0.070061326 0.01577978 0.054927554
-0.06206401 -0.0687141 -0.026905825 0.036245767 -0.07870298 -0.0067841215 0.08026678 0.008750974
0.052255157 -0.05584939 -0.029246872 -0.0653004 0.024316618 -0.041267727 -0.060266998 -0.13698174
0.0013608959 0.097189575 -0.0003225168 -0.019388808 -0.06374836 -0.015147612 0.034767438 0.05428378
0.05893676 -0.047039226 -0.0019448366 0.0060838168 0.012402135 -2.1085218e-06 0.039948855 0.09794232
-0.035487622 -0.04852973 0.010724971 -0.029035565 -0.011961387 0.037571263 0.07150102 0.0349112
0.06217413 0.12513791 -0.04485855 0.057790447 0.01521885 -0.049742293 0.031028701 -0.0055402904
-0.10074942 -0.081159644 0.0382946 0.017999517 -0.034246445 -0.016067386 0.027219448 -0.012974854
-0.059704646 -0.025067884 -0.02810553 0.03305201 0.087417886 -0.006165096 -0.004457525 0.056694966
-0.043366484 0.002598408 -0.009561591 -0.0037247075 -0.06307414 -0.027005807 0.06731202 -0.055638466
-0.05480072 -0.013149554 -0.022836661 -0.04314461 -0.05672601 0.10352487 0.077984214 0.013288895
00000000: 5fbd 153d 9366 9a3d f282 c6bd c087 8dbb
00000010: bed5 ec3a 4f22 3d3b 42f1 863d 24dc 6ebc
00000020: 616c de3c 283c 7abd a703 803d f319 813c
00000030: 07ce 673c 4e3f 3b3d 2318 5cbc 9767 cf3c
00000040: 6cb7 24bc d4f6 a4bc 5ed7 91bc ff26 98bd
00000050: fcb4 d43c 8d39 a1ba f449 dc3a 455d 98bd
00000060: 0795 6cbd 8f14 7dbd 34e8 563d 2539 86bc
00000070: 068d 0eba 3e44 85bb 76f2 abbb 94da ce3d
00000080: c48f eabb bf97 c0bd 28cc b9bc 77c4 823d
00000090: a8a3 04bd 60af 9f3d 8cc8 953d d8e0 fb3c
000000a0: b79e d43c 0745 e13c bb5e 493c ffd9 e2bc
000000b0: 5390 103d c7cb 23bd d4d4 0f3e 2fb2 a7bc
000000c0: e4b7 a03c 13db 8d3c 75b6 4b3c f722 943c
000000d0: decb 873d d3a4 703c 7e0c a7bd 0d7d b2bd
000000e0: 38ac c93d 3361 0b3e 9765 f7bc 770d 8a3d
000000f0: e3cc 423d 825d 7d3b d8cb 003d be5b e6bc
00000100: 62f7 04bd f4ca 3f3c db07 403d a75a b7bb
00000110: 31f2 533b c7a5 99bc 976c 90bc 2bef 95bc
00000120: b23c a83d f0ef 03bd a441 89bc 32e8 90bd
00000130: d64b 58bc 2b67 fabc 3126 b7bc b987 2dbd
00000140: f76a 58bc 8778 64bd b4ac 2ebd 6c5c ac3d
00000150: d437 5d3d aa44 e7bc f0ac 0e3c 85de 433d
00000160: a30b e83d 4eb3 fa3c 1891 873c e6cc 963d
00000170: e4ad bc3d 8d32 84bd a3ea 29bb fd7a 4e3d
00000180: 4943 62bd b137 18bd 45f0 afbc ab94 5dbd
00000190: 829d b23d a7bb c3ba 11f1 39bd 6c97 aebd
000001a0: 7e78 3b3d 8635 b9bc 3f64 cc3c fc15 42bc
000001b0: bcbd 34bd c856 8a3d 0b37 8abd 8a7b 02bd
000001c0: 15dd 65bc a7d6 b03d ca74 6f3c f8b2 05bd
000001d0: a503 c43d a046 b13d 5a1e b9bc 95ce 5c3b
000001e0: 5cb6 5d3c 731a d33c 25ee a53c 4408 51bd
000001f0: 9955 e2bc 15b1 d43c a2e6 c93c 3091 5cbd
00000200: 4290 aebd 9657 89bd 2169 aebc 8c05 8c3d
00000210: d56d 763a 1476 bd3d dc99 a33d 7721 6f3d
00000220: 2af4 81bd 51b2 8cbd 60af f3bb a240 b0bb
00000230: 64f1 683c b8f4 7e3d d1df 3ebd 84ab 053d
00000240: eb0e 743d 06e5 c83c ee3a 593c 29bd 3139
00000250: b482 193b dd06 9cbd 9a65 de3d d9eb 2cbc
00000260: 6853 cfbc 7100 533d 1f1d 453d 4e83 bebc
00000270: 8e55 b43b 7df8 06be 12a7 003d 6c09 51bc
00000280: 0074 0cbd f02c 7fbc 0562 81bd 4446 b23b
00000290: 6303 b13d 3e42 493c 49b4 733c 77ee dd3c
000002a0: 8bfd ae3c 2c6c 383d c4ff 80bd 951d 3dbd
000002b0: d2f1 c43c 507c 8f3d 9944 813c b7fb 603d
000002c0: d536 7ebd fab9 8cbd 9b69 dcbc 7176 143d
000002d0: 072f a1bd 564d debb e962 a43d 3f60 0f3c
000002e0: 8109 563d 54c2 64bd 2397 efbc 37bc 85bd
000002f0: a533 c73c 5908 29bd 87da 76bd f144 0cbe
00000300: 1760 b23a 540b c73d 7917 a9b9 47d5 9ebc
00000310: 808e 82bd b12d 78bc 4d68 0e3d ab58 5e3d
00000320: ac67 713d 34ac 40bd e3e9 feba c15a c73b
00000330: 5332 4b3c 2180 0db6 69a1 233d fc95 c83d
00000340: 785b 11bd 1cc7 46bd cab7 2f3c fedb edbc
00000350: b1f9 43bc 53e4 193d 206f 923d 0cff 0e3d
00000360: 4daa 7e3d 2724 003e 99bd 37bd adb5 6c3d
00000370: 7c58 793c 93be 4bbd e72f fe3c 538b b5bb
00000380: b655 cebd 0737 a6bd ccda 1c3d b973 933c
00000390: 0046 0cbd c09f 83bc 52fb de3c 7b94 54bc
000003a0: dc8c 74bd 2a5b cdbc 923d e6bc 8b61 073d
000003b0: 2608 b33d 9304 cabb 6e10 92bb fb38 683d
000003c0: 0ea1 31bd 0d4a 2a3b 38a8 1cbc 391a 74bb
000003d0: 042d 81bd 483b ddbc e2da 893d 29e5 63bd
000003e0: b876 60bd 3a71 57bc f313 bbbc 67b8 30bd
000003f0: 8859 68bd d904 d43d 30b6 9f3d aab9 593c

layer2.2.bias f4 [256]
0.017506003 -0.079368204 -0.046541367 0.007146164 -0.044075247 -0.08431412 -0.023518456 -0.10496215
0.037121594 0.04237495 0.08865239 0.033014968 0.0565707 0.04497691 -0.004539022 -0.066239975
0.020262888 0.017668061 -0.06660557 0.016993273 -0.014963965 -0.026447533 0.024424898 -0.009232561
0.04334345 0.024513274 -0.037887596 0.033036638 -0.006923502 0.07377993 -0.008244363 0.09944037
0.0021085246 -0.09578108 0.039340824 -0.010009514 0.016283 -0.050517436 -0.04084126 0.0139390165
-0.066511266 -0.022688126 -0.000961975 0.062063396 -0.021874633 0.010787137 0.029550096 -0.012548291
-0.050794706 -0.011003415 -0.035291024 0.04259245 0.052399535 0.0030082138 0.034524914 -0.0397441
0.026590833 -0.04243486 -0.01990515 0.004646078 0.058822837 -0.049628723 0.030976314 -0.029601831
-0.043884616 0.083722234 -0.09390807 0.012040954 -0.026505817 -0.015610818 -0.045793876 -0.0061345818
0.031375483 0.08564578 0.002709245 -0.02641994 0.0007667504 0.055290177 -0.038843047 0.07841663
-0.031022523 -0.058381416 -0.025374396 -0.057520732 -0.03641834 0.05518236 -0.012911086 -0.0025537093
0.008917641 0.0370255 -0.053466722 -0.069916815 0.022528283 0.016771898 -0.013879391 0.022006378
-0.035331983 -0.06610803 -0.012316235 0.019388435 -0.011959553 0.053709317 -0.061963826 0.0065490697
-0.052014302 0.023322739 0.09246774 0.055553004 0.0057486417 -0.057866834 -0.064272694 -0.019285895
0.04158845 0.013561659 0.002572679 -0.01270567 0.035467967 -0.019253122 -0.09190525 0.04738983
-0.092099935 -0.010578065 -0.053964034 -0.003683773 -0.044547923 -0.018943269 0.011284601 -0.08591996
-0.066843905 0.038519055 -0.091413915 0.010720067 0.0036935168 -0.03419658 -0.06437317 -0.009400129
0.08759624 0.010500384 -0.016272588 -0.013296217 0.03949087 -0.019429065 -0.014325558 0.02641464
-0.011739673 0.088701904 -0.03832279 -0.020243201 -0.027497562 0.06314744 -0.006076857 -0.05637636
0.07256712 -0.04777949 0.0052909753 -0.019187832 0.029360186 0.067426026 -0.021318 0.004437932
0.001468629 0.06571763 -0.021672208 0.043368697 0.054804333 -0.042940162 -0.020294037 0.0045337365
0.023311827 -0.040923554 0.022964787 0.046795256 -0.01913701 0.09245059 -0.02062058 0.079518184
-0.068421856 -0.035323303 -0.0058104186 0.0018425254 0.007869585 0.01059586 0.10184264 -0.028421028
0.028350377 0.10448476 -0.008921179 0.041390102 -0.0021770631 -0.001901015 -0.027270045 0.0519549
-0.022392204 -0.031603504 -0.017789079 -0.07061038 -0.051410004 -0.024976915 -0.038797963 -0.06802421
0.06613879 0.028644716 -0.022898046 0.050849505 -0.018653339 -0.052546203 0.004630195 0.0044773496
0.03517653 0.04833578 0.012272064 -0.080923334 0.0016163245 0.01831119 0.035600804 -0.0064778426
-0.063502125 0.050137483 0.072589986 0.06862862 0.00073092623 0.024805253 -0.005438082 0.012512519
-0.11002013 -0.018807543 0.049221437 0.027035268 0.059885878 -0.01784284 0.032356918 -0.03249548
0.06510765 0.008277841 0.060765546 0.025352614 0.017488236 0.024843667 -0.11431068 -0.09227338
0.053066198 0.042045977 -0.03002691 0.0751146 -0.022518236 0.028251078 -0.078164905 -0.0387003
0.07543204 -0.03617843 0.04517067 0.06493243 -0.027542172 -0.06257404 0.012571604 -0.08872745
00000000: c068 8f3c cc8b a2bd 29a2 3ebd 5e2a ea3b
00000010: 3f88 34bd e2ac acbd c7a9 c0bc 65f6 d6bd
00000020: d00c 183d 5b91 2d3d 628f b53d b43a 073d
00000030: aeb6 673d b539 383d 14bc 94bb d3a8 87bd
00000040: 5bfe a53c 9cbc 903c 8068 88bd 7a35 8b3c
00000050: 6b2b 75bc 7fa8 d8bc b916 c83c 2b44 17bc
00000060: e788 313d 10d0 c83c 0630 1bbd 6d51 073d
00000070: 8bde e2bb ef19 973d 5d13 07bc 65a7 cb3d
00000080: 2c2f 0a3b df28 c4bd d823 213d f2fe 23bc
00000090: ed63 853c 5feb 4ebd 2a49 27bd 7960 643c
000000a0: 0f37 88bd 73dc b9bc 0d2d 7cba 3036 7e3d
000000b0: 6e32 b3bc 88bc 303c 0b13 f23c 5997 4dbc
000000c0: 1c0e 50bd ab47 34bc 528d 10bd 6c75 2e3d
000000d0: e5a0 563d 7425 453b ff69 0d3d b6ca 22bd
000000e0: 05d5 d93c 2dd0 2dbd 2010 a3bc 213e 983b
000000f0: 37f0 703d 7d47 4bbd 0ac2 fd3c 8a7f f2bc
00000100: 5bc0 33bd 9076 ab3d e052 c0bd 6c47 453c
00000110: ba22 d9bc 84c4 7fbc 5c92 3bbd 9a04 c9bb
00000120: 9483 003d 0e67 af3d 978d 313b a16e d8bc
00000130: c0ff 483a f477 623d e319 1fbd e698 a03d
00000140: f222 febc 5a21 6fbd f7dd cfbc dc9a 6bbd
00000150: 662b 15bd e606 623d 0589 53bc 225c 27bb
00000160: 4c1b 123c 0da8 173d ecff 5abd 8c30 8fbd
00000170: 3c8d b83c 3865 893c 6366 63bc b846 b43c
00000180: 45b8 10bd a663 87bd 09ca 49bc 7fd4 9e3c
00000190: 00f2 43bc 4dfe 5b3d c8cd 7dbd 9499 d63b
000001a0: f30c 55bd 540f bf3c ba5f bd3d 8c8b 633d
000001b0: 1a5f bc3b c605 6dbd 67a1 83bd 74fd 9dbc
000001c0: a758 2a3d b831 5e3c 649a 283b 712b 50bc
000001d0: dc46 113d b9b8 9dbc d238 bcbd d71b 423d
000001e0: e49e bcbd 9f4f 2dbc 6409 5dbd 756b 71bb
000001f0: e277 36bd ea2e 9bbc 0ce3 383c cef6 afbd
00000200: 75e5 88bd 28c6 1d3d 3837 bbbd 38a3 2f3c
00000210: ee0e 723b b711 0cbd 15d6 83bd 0003 1abc
00000220: a865 b33d cd09 2c3c 174e 85bc 60d8 59bc
00000230: 2ec1 213d b429 9fbc bfb5 6abc 8463 d83c
00000240: c257 40bc 58a9 b53d 5cf8 1cbd 12d5 a5bc
00000250: 9142 e1bc 7253 813d 5f20 c7bb e6ea 66bd
00000260: 129e 943d 6db4 43bd eb5f ad3b cd2f 9dbc
00000270: c684 f03c a816 8a3d 16a3 aebc 126c 913b
00000280: 037f c03a f796 863d ea89 b1bc 60a3 313d
00000290: 827a 603d 06e2 2fbd ae3f a6bc bd8f 943b
000002a0: 72f8 be3c 759f 27bd a620 bc3c 62ac 3f3d
000002b0: 38c5 9cbc bc56 bd3d 7eec a8bc 6eda a23d
000002c0: c220 8cbd 2baf 10bd 5365 bebb e580 f13a
000002d0: 6fef 003c 429a 2d3c e092 d03d 37d3 e8bc
000002e0: 0d3f e83c 1bfc d53d 232a 12bc ab88 293d
000002f0: 0fad 0ebb 7b2b f9ba 6e65 dfbc a9ce 543d
00000300: db6f b7bc ad72 01bd 67ba 91bc 2d9c 90bd
00000310: 4c93 52bd 639c ccbc 9dea 1ebd 4750 8bbd
00000320: c673 873d 53a8 ea3c af94 bbbc 9247 503d
00000330: e3ce 98bc b03a 57bd e4b8 973b bbb6 923b
00000340: 4415 103d bdfb 453d c410 493c 22bb a5bd
00000350: dada d33a 5901 963c 26d2 113d 1544 d4bb
00000360: 670d 82bd f65c 4d3d 0faa 943d 298d 8c3d
00000370: a19b 3f3a 6334 cb3c f031 b2bb 4f01 4d3c
00000380: 3c52 e1bd 4712 9abc 6b9c 493d 1179 dd3c
00000390: e54a 753d 262b 92bc b088 043d fb19 05bd
000003a0: 2957 853d c89f 073c 4be5 783d 49b0 cf3c
000003b0: 7d43 8f3c f284 cb3c b81b eabd d3f9 bcbd
000003c0: f15b 593d 6738 2c3d fffa f5bc afd5 993d
000003d0: 2a78 b8bc ce6e e73c ec14 a0bd 3584 1ebd
000003e0: 1d7c 9a3d d52f 14bd e104 393d 4bfb 843d
000003f0: 1fa0 e1bc d126 80bd 21f9 4d3c bdb6 b5bd

layer2.5.weight f4 [10, 256]
0.058884233 -0.0068412446 0.059748676 0.028207922 -0.06879728 0.0063512214 0.020328352 0.007679675
0.007363601 -0.02508422 -0.042244624 0.035717014 -0.0076503917 -0.048467644 -0.00056633906 -0.024896774
0.06018092 0.03762162 -0.0011449814 0.0151120545 0.011105898 -0.056454115 0.037853044 0.017048512
0.026249502 -0.05090674 0.0029425938 0.019877022 -0.0131172575 -0.029531235 -0.010303018 0.0074595525
0.027947525 0.10032719 -0.0063638696 0.06971235 -0.055197388 0.004766842 -0.071633436 -0.012046053
0.028196817 -0.029777247 0.031535316 0.028470179 -0.014460718 0.04581761 -0.05998328 -0.0396609
-0.0017366508 -0.09832851 0.009284446 0.040390603 -0.032303568 0.033963516 -0.031663306 0.018669926
0.04136823 0.06346403 -0.038539894 -0.037802335 0.008350182 0.04712745 -0.01725387 -0.042850077
0.024896909 -0.052969143 0.061636753 -0.010848912 0.057282664 -0.013864586 -0.025907153 -0.074525625
0.010630338 -0.025122605 0.040175706 -0.07028741 0.010277989 0.004162013 -0.035093658 0.025396112
0.07015311 0.02760948 -0.037301686 0.01433138 -0.009684258 0.0052213264 -0.0032249098 0.022091808
-0.013339597 -0.035421126 -0.002660709 -0.026333863 0.020189095 0.029828921 0.007817251 0.010142745
0.063833535 0.024804791 -0.04502215 0.050534748 -0.018954594 -0.002414444 0.05330547 -0.02634648
0.027175568 0.072464935 -0.036824774 -0.020890672 -0.04559844 0.047335085 -0.013600737 -0.066966645
0.05175764 -0.016342748 -0.021128839 -0.010006246 0.022203168 -0.060252115 0.069727376 0.060484327
-0.015849818 -0.035265554 -0.0074359975 0.022879504 -0.05507964 -0.06298294 -0.05841359 0.07754567
-0.010084271 0.074586906 0.023398196 0.06971198 -0.032164816 0.02636063 0.06096255 -0.036981437
-0.014248069 0.00024553196 -0.05162309 -0.02235936 -0.004206563 0.081101716 0.03695525 -0.008650479
0.05892618 -0.08272918 0.030369125 0.01134289 0.03517188 0.015803274 -0.0049504773 0.06786158
-0.05273261 -0.018747512 -0.05064028 -0.018293647 0.04395952 0.011378259 0.00041832743 0.0049071885
0.0041693146 -0.024255386 0.012009663 0.024996258 -0.04993637 -0.054152105 -0.030466238 -0.054764245
-0.013850024 -0.026181709 -0.050453767 0.042770963 -0.012591375 -0.037684888 0.030112471 0.018583637
-0.030800814 0.004123006 0.043451324 -0.04658319 0.04021268 -0.026191467 -0.048758917 0.02886296
-0.050381906 -0.044024482 -0.020403164 0.073066264 -0.008288351 -0.0314433 -0.007519849 -0.03352207
-0.011827945 -0.0316181 -0.016265968 0.009452966 -0.041203164 -0.039337423 0.028940534 0.07154037
0.042157937 -0.039851412 0.06591235 0.029770851 -0.0016775276 -0.016736267 -0.052417915 -0.0026756155
-0.038737085 -0.07534482 -0.027569607 0.014001742 0.014491128 0.049587734 -0.01258209 0.010722996
0.035169754 0.008516369 -0.032081306 0.0022763512 0.014651965 -0.01884546 0.011107387 0.023056373
0.038019408 0.009939465 0.028388398 0.050240453 -0.024103941 -0.015770925 -0.0017965268 0.044115618
-0.010822104 -0.009509003 -0.050014626 -0.028166605 -0.013848764 0.032056 0.074044496 0.080213964
0.04444513 -0.033236735 0.014022222 0.018305933 -0.02334648 -0.050186012 0.0035639314 -0.048766434
0.01458974 0.04154807 0.015188752 -0.016129315 0.08263546 -0.021524556 -0.050640296 -0.01991318
00000000: 9830 713d 852c e0bb 07bb 743d 4d14 e73c
00000010: 97e5 8cbd e81d d03b a587 a63c c8a5 fb3b
00000020: 5d4a f13b 6c7d cdbc b308 2dbd 014c 123d
00000030: 23b0 fabb 0286 46bd 5f76 14ba 52f4 cbbc
00000040: 4580 763d 2119 1a3d 3313 96ba 8d98 773c
00000050: 83f5 353c 6e3c 67bd cb0b 1b3d 52a9 8b3c
00000060: 3209 d73c 9683 50bd 88d8 403b 23d5 a23c
00000070: c4e9 56bc 7deb f1bc fdcd 28bc 436f f43b
00000080: 35f2 e43c 5778 cd3d 0288 d0bb 59c5 8e3d
00000090: a816 62bd 2b33 9c3b 8db4 92bd cf5c 45bc
000000a0: 03fd e63c 6aef f3bc 2d2b 013d 4b3a e93c
000000b0: a6ec 6cbc 3fab 3b3d 07b1 75bd 7873 22bd
000000c0: 55a0 e3ba 7560 c9bd ca1d 183c 9e70 253d
000000d0: bf50 04bd 541d 0b3d 62b1 01bd acf1 983c
000000e0: bc71 293d 6ef9 813d 02dc 1dbd 9fd6 1abd
000000f0: 34cf 083c b708 413d fd57 8dbc 9083 2fbd
00000100: 9af4 cb3c 2cf6 58bd d276 7c3d a3bf 31bc
00000110: 3aa1 6a3d 4a28 63bc 3d3b d4bc e4a0 98bd
00000120: df2a 2e3c eccd cdbc 488f 243d d8f2 8fbd
00000130: 0365 283c 7f61 883b 5ebe 0fbd 820b d03c
00000140: 6fac 8f3d 472d e23c a7c9 18bd 2ace 6a3c
00000150: b9aa 1ebc a917 ab3b 0259 53bb e1f9 b43c
00000160: 538e 5abc be15 11bd 4a5f 2ebb 1dba d7bc
00000170: 9a63 a53c c85b f43c ed13 003c c22d 263c
00000180: 28bb 823d 6b33 cb3c 2569 38bd 86fd 4e3d
00000190: aa46 9bbc a63b 1ebb d656 5a3d 93d4 d7bc
000001a0: 4c9f de3c 7f68 943d 93d5 16bd ea22 abbc
000001b0: 6ec5 3abd 6fe2 413d a0d5 5ebc cf25 89bd
000001c0: d2ff 533d 3ae1 85bc 6316 adbc 3df1 23bc
000001d0: 6be3 b53c ecca 76bd 3acd 8e3d 6abe 773d
000001e0: 7ad7 81bc 9d72 10bd aba9 f3bb cc6d bb3c
000001f0: 309b 61bd 33fd 80bd 1743 6fbd 44d0 9e3d
00000200: 8038 25bc 05c1 983d 93ad bf3c 28c5 8e3d
00000210: 41bf 03bd 3ff2 d73c deb3 793d d979 17bd
00000220: bc70 69bc beba 8039 bc72 53bd fa2a b7bc
00000230: 35d7 89bb a818 a63d 635e 173d bdba 0dbc
00000240: 945c 713d eb6d a9bd acc8 f83c 87d7 393c
00000250: 6410 103d de75 813c 9d37 a2bb 03fb 8a3d
00000260: 26fe 57bd 6294 99bc 2f6c 4fbd 8fdc 95bc
00000270: e60e 343d e16b 3a3c f552 db39 7bcc a03b
00000280: bf9e 883b 3bb3 c6bc 2dc4 443c f4c4 cc3c
00000290: 148a 4cbd 99ce 5dbd 5594 f9bc 7950 60bd
000002a0: 36eb 62bc 067b d6bc 9ca8 4ebd 9b30 2f3d
000002b0: 0e4c 4ebc 785b 1abd 6eae f63c b63c 983c
000002c0: fd51 fcbc 481a 873b 04fa 313d 04ce 3ebd
000002d0: 0db6 243d 7d8f d6bc 6eb7 47bd 0472 ec3c
000002e0: 425d 4ebd 0453 34bd 8924 a7bc c4a3 953d
000002f0: ddcb 07bc b1ca 00bd 1169 f6bb 704e 09bd
00000300: ffc9 41bc fb81 01bd 3540 85bc 9de0 1a3c
00000310: a6c4 28bd 4720 21bd b314 ed3c c283 923d
00000320: cdad 2c3d 3c3b 23bd 0efd 863d 00e2 f33c
00000330: 7ce0 dbba 7f1a 89bc 2bb4 56bd 6159 2fbb
00000340: c7aa 1ebd 634e 9abd a8d9 e1bc 9067 653c
00000350: 326c 6d3c 821c 4b3d 1c25 4ebc 81af 2f3c
00000360: 290e 103d 3e88 0b3c b067 03bd d62e 153b
00000370: cc0e 703c cb61 9abc c2fb 353c b8e0 bc3c
00000380: 3dba 1b3d 23d9 223c c98e e83c efc8 4d3d
00000390: a175 c5bc 0732 81bc 7079 ebba 94b2 343d
000003a0: 324f 31bc a6cb 1bbc 23dc 4cbd a7bd e6bc
000003b0: ede5 62bc 274d 033d a4a4 973d 3847 a43d
000003c0: 190c 363d 3e23 08bd 76bd 653c 53f6 953c
000003d0: 1e41 bfbc d98f 4dbd d990 693b 50bf 47bd
000003e0: ce09 6f3c 4f2e 2a3d 3eda 783c a021 84bc
000003f0: c83c a93d 4454 b0bc 336c 4fbd f720 a3bc

layer2.5.bias f4 [10]
0.017405028 -0.10394568 -0.51566374 -0.019602923 -0.106810346 0.09193963 -0.203456 0.06647666
-0.017823873 -0.103356175
00000000: fd94 8e3c 79e1 d4bd 8a02 04bf 4f96 a0bc
00000010: 62bf dabd d84a bc3d c556 50be ea24 883d
00000020: 5f03 92bc 67ac d3bd
