Model_Files/helpdesk/EventPredictor_parameters_weighted_0.001.pt (torch, 286727 bytes, 8 tensors)

layer1.weight f4 [4, 1]
000000 89 91 57 3f 3d c9 f2 3f 5b bf 41 3e 5d 8c 4c 40
       0.84206444 1.8967663 0.18920653 3.196067

layer1.bias f4 [9]
000000 24 a0 c0 3e 6e 3d a0 be 66 4c 8c 3f 63 eb 9e 3c
       0.37622178 -0.31296867 1.0960815 0.01939935
000010 d2 37 d0 3d 6f aa 64 bc 69 2f 85 be f9 ff 8e bf
       0.10166897 -0.01395665 -0.26012734 -1.1171867
000020 21 89 e8 bd
       -0.1135428

layer2.1.weight f4 [256, 9]
000000 ca 7a 4d 3d ae f7 9e 3e 00 f4 f7 3e 52 b0 12 be
       0.05016593 0.3104834 0.48428345 -0.14325073
000010 7f cc 03 3d 94 ca 46 bd 62 e7 89 be e3 10 a2 be
       0.032177445 -0.048533037 -0.26934344 -0.3165351
000020 89 83 07 bf 0e 16 17 3f 77 3c 92 3e 1c bb ca 3e
       -0.5293508 0.5901803 0.28561756 0.39595878
000030 bc 3a bf 3e 32 0e f3 be bb 7b 45 bd 40 96 d8 3e
       0.37349498 -0.47471768 -0.0482137 0.42302132
000040 39 1c d7 bd 8a c6 49 bd c9 58 09 bf 0a bb a5 be
       -0.1050343 -0.049261607 -0.536511 -0.32369262
000050 da e3 37 be dc 36 60 bf 63 b9 1c be 69 29 a9 3d
       -0.17958012 -0.8758371 -0.15305094 0.082598515
000060 5f b3 03 bf dc 66 6e 3e 58 07 f4 be 35 2d c1 3e
       -0.51445574 0.23281425 -0.47661853 0.37729803
000070 85 2f ad bf 7b 03 53 3e c8 f9 97 bf 6d 72 3f 3f
       -1.3530127 0.20606796 -1.1873102 0.74783975
000080 e1 bb 94 3f 43 58 a6 bf 94 63 83 3e 37 e4 87 bf
       1.1619836 -1.2995685 0.2566191 -1.0616521
000090 f8 17 bc bc 0f 06 2f bf 51 0e 7e be 45 e0 10 be
       -0.022960648 -0.6836862 -0.24810149 -0.14148052
0000a0 77 48 a4 3e 0e 5b 05 bd db 01 a1 bc bd a4 4e 3d
       0.32086536 -0.03255754 -0.019654205 0.050450075
0000b0 04 91 ef be db 18 25 3e 6b 1c 81 3e be e0 e3 bc
       -0.46790326 0.16122763 0.25216994 -0.027817126
0000c0 db 4c 00 bf 28 6f ff be 86 b6 d8 3e 38 11 95 bc
       -0.5011727 -0.49889493 0.42326754 -0.018196687
0000d0 22 71 d0 bd b0 a9 d4 bd 20 ba 94 be 22 09 ab bd
       -0.10177828 -0.10383928 -0.29048252 -0.08351351
0000e0 8e 8c e0 bd e3 0c ee be e6 62 5b bc 7d 72 a1 3e
       -0.10964309 -0.46494207 -0.013390278 0.3153266
0000f0 d6 8f 9e bd a8 2c 74 3e e4 18 45 be 66 93 84 3f
       -0.07742278 0.2384516 -0.19247776 1.0357482
000100 a3 72 9d be 0d 12 a8 3c 05 7e a3 bf 4d ec f2 3e
       -0.30751523 0.02051642 -1.2772833 0.47445908
000110 aa 37 a6 3d 26 28 93 bf 66 d2 a0 3e 62 b3 a4 bf
       0.08116086 -1.1496627 0.3141052 -1.2867243
000120 d2 08 38 3b 0a cb f4 be 2b a9 88 bd ee f3 48 3e
       0.002808143 -0.47811157 -0.06672891 0.19624302
000130 d5 d3 ba 3e 5e 33 1f bf 5d c3 05 be e3 d8 75 be
       0.3648974 -0.62187755 -0.13062806 -0.24008517
000140 f5 d9 2e be 0e f4 11 bf de 2e 18 3d c8 10 95 bd
       -0.17075332 -0.5701302 0.03715407 -0.072785914
000150 ce 62 05 3f 30 d9 73 bf a7 9d 34 3e 73 c0 6f 3f
       0.5210389 -0.95253277 0.17638265 0.9365303
000160 1e 5d 4f bd 1c bd 17 3f 35 39 c5 3d ea a6 3e 3f
       -0.050625913 0.59272933 0.09630052 0.7447344
000170 c9 e2 ef bd f0 83 2b 3e fd 0a c3 bd 7c 5a c0 3d
       -0.11713178 0.16749549 -0.0952358 0.093922585
000180 6f 42 97 3e bb a5 0d be d5 21 00 3f af 50 25 bd
       0.29542872 -0.13832752 0.50051624 -0.04036015
000190 fa 57 e4 bc 9b f7 d8 3d 44 6f 84 be 79 ea 85 3d
       -0.027873982 0.10594102 -0.2586614 0.06538863
0001a0 3b bd 28 bd ab a3 ea be 72 0c 40 bd cc 20 b3 3e
       -0.04119609 -0.45827994 -0.04688687 0.3498596
0001b0 7e f6 35 bd 2c a7 fe bd 43 2d 57 3e ae 7b 5d be
       -0.044424526 -0.12434229 0.2101336 -0.21629211
0001c0 c5 c0 25 3f c4 7c 2f 3d 98 aa c7 bd 55 19 8d 3d
       0.6474727 0.042843595 -0.09749335 0.06889597
0001d0 c5 66 ae be 7e 9d a8 be 49 be a0 be 3c e6 ca 3d
       -0.34062782 -0.32932657 -0.31395176 0.09907195
0001e0 7b 48 67 bf 0e 45 cc 3e b8 ca 5d 3c 49 c8 05 bf
       -0.9034497 0.39896435 0.013537101 -0.52258736
0001f0 cf b0 55 3e e3 b6 a5 be c6 f6 0c be e0 7e fa be
       0.20868228 -0.32366094 -0.13766012 -0.48924923
000200 56 3e 13 3f 6f 15 23 be e0 76 ed 3e 19 b1 c1 3e
       0.5751699 -0.15926145 0.46379757 0.37830427
000210 79 11 c6 be 3d 92 45 bd 39 ec db be 04 82 12 bf
       -0.38685206 -0.048235167 -0.4295366 -0.5722964
000220 82 1d 52 3f 75 34 b6 be 8e b6 e1 3c ed 87 20 bf
       0.82076275 -0.35586897 0.02755287 -0.62707406
000230 a9 8b 2a be d6 ee b2 3f 52 26 43 3f 3c 0f 13 3f
       -0.16654839 1.3979137 0.7623035 0.5744512
000240 ec aa 40 bd ab be 28 be bd 95 d5 3d a4 b9 df be
       -0.047038004 -0.16478984 0.10428951 -0.4369632
000250 75 03 b9 bd bd ff 29 bd b6 95 43 3e 40 bd 0a 3d
       -0.090338625 -0.041503657 0.19100079 0.03387189
000260 fd e2 fa be 6d a9 1c 3d c8 1e b0 3e 34 bc e7 3f
       -0.49001303 0.038247515 0.34398484 1.810431
000270 7f 3f 1e 3d 65 e0 64 3c d4 7f 3f ba 31 59 09 3f
       0.038634773 0.013969515 -0.00073051197 0.5365172
000280 7b f7 cf bd 84 ad 1a 3d 83 a5 c2 bd 96 a5 16 3f
       -0.10154625 0.037763134 -0.09504225 0.58846414
000290 f3 3b e2 3e c5 21 10 3d a9 5f 2c 3c 23 fb 8e 3d
       0.44186363 0.035188455 0.010520854 0.06981494
0002a0 75 88 0d 3f 43 e9 2d be d4 01 e7 bd df 2b 2a bf
       0.5528634 -0.16983514 -0.112796456 -0.6647319
0002b0 e0 53 48 3d 2f e3 07 bf 00 55 af 3f 4c 6e ce be
       0.048908114 -0.5308103 1.3697815 -0.40318525
0002c0 c1 35 16 bd 50 17 8e 3f ef 62 56 be 45 fa 65 3f
       -0.036672357 1.1100864 -0.20936178 0.89835006
0002d0 bf b2 a3 be 71 7f ef 3e 22 50 ae bd 38 24 13 3f
       -0.3197231 0.46776918 -0.08511378 0.5747714
0002e0 7f 19 e2 be d3 71 06 3d 25 8b 9d 3d 79 2b b6 bd
       -0.44160077 0.032823395 0.07692555 -0.088950105
0002f0 06 f0 8a 3e 7b ca 6f 3e 25 36 00 bd a6 5d 3a bf
       0.27136248 0.23417084 -0.031301636 -0.72799146
000300 fd ac 1d bf 64 26 ee bd 78 8a 9d 3d 18 00 6a be
       -0.61592084 -0.11628416 0.076924264 -0.22851598
000310 2f d7 c3 3b 5c cc 22 bd 71 5f a9 3c 72 02 8c 3c
       0.0059765796 -0.039745674 0.020675393 0.01709101
000320 80 0e 2b 3f 2d 0e 2a be e1 9d 9a bd b6 d4 e7 3d
       0.66819 -0.1660697 -0.07549644 0.11319868
000330 7e da 3d bd 80 05 41 bd a8 3f 4d 3e 69 21 bc bf
       -0.04635095 -0.047124386 0.20043814 -1.4697696
000340 ba 66 70 3f 7d 9e aa be a3 37 b8 3f c4 f0 69 bf
       0.9390675 -0.33324042 1.4391979 -0.91383004
000350 e9 4e 4a bd 0b 7e 90 3f 5e 90 d1 be ce 1e 2b 3f
       -0.04939166 1.1288465 -0.40930456 0.6684388
000360 c4 63 e8 3d 1e e1 0b bf 62 67 39 bf 3a a6 08 bf
       0.11347154 -0.54640377 -0.72423375 -0.5337864
000370 f0 b5 dc 3e e4 10 e6 bd da ea 01 3e d3 7d 72 3e
       0.43107557 -0.112336904 0.12687245 0.2368081
000380 cb a2 f1 3d 36 c8 be 3d 0c 3e f0 3d 42 21 8e be
       0.117986284 0.09315531 0.117305845 -0.2775975
000390 ca 9a 50 3d 62 1c a1 3d 16 da 1c bf 29 90 0c 3d
       0.05092887 0.07866742 -0.6127027 0.03431717
0003a0 e6 6b 69 3d 5c 76 3b be bc 0a 0d 3d 5d 86 0a 3d
       0.056987666 -0.1830687 0.034434065 0.033819545
0003b0 8f 0f 0e 3f 4a fd ca 3f 42 4e 0d bd e1 3b 12 3b
       0.5549249 1.5858548 -0.03449846 0.0022313523
0003c0 0d f8 af 3e e8 84 62 be d1 08 77 bd 0f a1 9c be
       0.34368935 -0.22121012 -0.060311142 -0.30591628
0003d0 d2 ce b1 bd 5d 3e fa 3c 59 7c 34 be 40 a2 fe be
       -0.08682026 0.030547315 -0.1762556 -0.49733162
0003e0 14 94 0a 3e bc af 7c bd 5f d2 ce 3e d3 00 95 3c
       0.1353305 -0.06169103 0.40394875 0.01818887
0003f0 37 50 4d bf ba a4 21 bf a1 e2 1b bf 92 54 97 bf
       -0.80200523 -0.6314198 -0.60892683 -1.1822684

layer2.1.bias f4 [256]
000000 db f7 c5 be f7 4c e8 3e 82 a7 01 3f f9 81 56 3f
       -0.3866566 0.4537122 0.5064622 0.8379207
000010 3e cf 52 3f af 63 07 bf fc 31 ad 3f 1c 72 2e 3f
       0.82347476 -0.5288648 1.3530879 0.6814287
000020 62 77 32 bf 43 13 53 bf 3f f4 a1 3e 93 75 85 bf
       -0.69713414 -0.82451266 0.31631657 -1.0426506
000030 44 e9 bb 3e cd 1f 0e 3e 44 3b 92 3e 4d f7 5c 3f
       0.36701405 0.13879319 0.2856084 0.8631485
000040 6e 03 1d bf 9d 18 80 bd 9c ad d2 bd c0 a5 f8 3c
       -0.6133336 -0.062546946 -0.102870196 0.030352473
000050 40 6e e4 bf 5b 72 78 bf 6b d9 53 3f ce fb ba 3d
       -1.7846146 -0.9704949 0.8275363 0.09130059
000060 aa cc 1a be 4b 42 66 3f 90 69 20 c0 56 68 1d 3f
       -0.15117136 0.89944905 -2.506443 0.6148733
000070 7a e5 7f 3e 6a 72 b1 bf 37 e6 9a 3e 8c 32 15 3f
       0.24989882 -1.3863041 0.30253765 0.58280253
000080 63 7c 18 bf 0d f1 08 c0 dc bc f3 3d a9 f3 43 be
       -0.595648 -2.1397126 0.119012564 -0.19135918
000090 09 18 ff be 81 9f d2 bf c4 24 8e 3e 33 51 96 bd
       -0.49823025 -1.6454927 0.27762425 -0.07339706
0000a0 44 a3 9a 3e 91 ed 42 bf 3c 89 d3 be b0 7c 8b 3f
       0.30202687 -0.7614375 -0.4131564 1.0897427
0000b0 9b a9 91 3f 76 6b 2d 3e 2e 5b c5 be 21 9c ae 3e
       1.1379884 0.16935524 -0.38546127 0.34103492
0000c0 c6 df 2c bf 9b b4 d8 3f 91 46 33 3f ef fd 64 3f
       -0.6752895 1.6930116 0.7002955 0.8944997
0000d0 de 75 bf 3e 90 33 47 be 1e 52 16 40 81 b6 7e 3c
       0.37394613 -0.19453263 2.348762 0.015546442
0000e0 88 fd 49 3e a6 52 13 bf f7 67 c4 be 13 84 fd bf
       0.19725621 -0.57547987 -0.3836057 -1.9805931
0000f0 d9 c0 e3 bf 76 96 3d 3e 9c b4 01 bf 24 e7 ad 3f
       -1.7793227 0.18514428 -0.50666213 1.3586164
000100 a9 b5 f4 3e 61 85 6e 3f 28 72 ef 3d 04 a5 57 3e
       0.47794846 0.9317227 0.116916955 0.21059042
000110 99 db b5 3f 57 31 99 be 4c 91 41 3f 7d a5 b4 3e
       1.4207641 -0.29920456 0.7561233 0.35282508
000120 9b 60 88 3f 61 c9 ca bf ac 17 4f 3e ee 4a 6c 3e
       1.0654482 -1.5842706 0.20223874 0.23075458
000130 52 e2 5c bf 48 e4 a1 3e 27 61 8a bf e4 99 1c 3f
       -0.8628284 0.31619477 -1.0810899 0.6117232
000140 43 c4 21 3f 7b 68 24 be 73 cc b1 3e 08 e2 0e bd
       0.63190097 -0.16055481 0.34726295 -0.03488353
000150 da 82 e1 bd ac cd f7 bc 93 c0 b4 3b 30 0e 3a bf
       -0.11011286 -0.03024944 0.0055161207 -0.726779
000160 03 f7 a5 3e 8f ba 08 bd 53 27 69 3e 7a 2b 7e 3e
       0.32415017 -0.03338104 0.22768907 0.24821272
000170 52 3c 8f 3d 51 b6 25 bf 8b 84 78 3e bd e0 af be
       0.06993927 -0.6473132 0.24269311 -0.3435115
000180 47 e6 b2 3e 5b 98 24 bc 51 bf 8d 3f 77 b7 32 bf
       0.34941313 -0.01004609 1.107401 -0.69811195
000190 42 25 45 bf 63 7b 91 bf a7 3a 8d 3f da 75 68 3f
       -0.77009976 -1.136578 1.1033524 0.9080483
0001a0 d7 af b4 bf 01 c3 47 3f 73 64 97 3f 05 6c 0e 3f
       -1.4116162 0.7803193 1.182753 0.55633575
0001b0 01 63 f2 3e 8f 06 0a 3f d5 98 02 c0 70 08 27 be
       0.4734116 0.5391626 -2.0405781 -0.16311812
0001c0 ae 92 83 3e ba 41 04 3e a4 bf d1 bf f1 e4 69 bf
       0.25697845 0.12915698 -1.6386609 -0.9136496
0001d0 47 37 41 bf 6f 52 b2 be 55 9c 01 3d 6a e2 22 3f
       -0.7547497 -0.34828517 0.03164323 0.6362673
0001e0 1b b0 27 3f 59 0a 3b bf 08 04 82 3f f7 2d ec be
       0.6550309 -0.73062664 1.015748 -0.46128818
0001f0 27 b4 29 bf 8f 1d 35 3f 26 92 f0 be 56 50 31 bf
       -0.66290516 0.7074823 -0.46986502 -0.6926321
000200 f6 86 98 3f 32 c1 aa 3f 9d 39 60 bf 53 0a 24 bf
       1.1916187 1.3340209 -0.8758791 -0.64078254
000210 45 66 1f 3f 54 58 b8 3f 60 c8 b4 3f ff 4a 8d 3f
       0.62265426 1.4401956 1.412365 1.1038512
000220 b7 c2 e2 3e c1 8c 06 bf e5 d3 cd 3e 04 6b 26 bf
       0.4428918 -0.52558523 0.40200725 -0.6500704
000230 27 89 a7 3d c5 9a 03 3f f0 6b 62 bd 7f bb 1e bf
       0.081804566 0.51408035 -0.05527872 -0.62004846
000240 1d 46 95 3e 05 44 fc be 0a ee 1c bf b7 0b 5b 3f
       0.29155055 -0.49270645 -0.6130072 0.8556475
000250 af f2 8d bf 46 3c cd 3f d1 75 36 3f c0 17 49 be
       -1.1089686 1.6034019 0.71273524 -0.19637966
000260 8a 88 1d bd 46 a0 de 3f a9 18 1d bf 2e 00 80 3e
       -0.038460292 1.7392662 -0.61365753 0.25000137
000270 39 1f 40 3f 80 76 84 3f 6d 3f ec be f1 98 50 3e
       0.7504764 1.0348663 -0.4614214 0.20370843
000280 13 b0 27 3f cb c2 38 3f fd 49 d9 be 61 f0 55 3d
       0.6550304 0.7217223 -0.4243926 0.052231196
000290 3a 68 24 bf cf 83 77 bf 4c 57 38 bf 5e 7d 2b 3e
       -0.6422154 -0.966855 -0.72008204 0.16747043
0002a0 c2 f9 a3 be 9a c8 2c 3e eb 23 c1 3e 05 07 38 3d
       -0.32026488 0.16873398 0.37722716 0.04492857
0002b0 a0 fb cb 3c 1a 43 ef be cc 27 69 bf 5d a3 ee 3f
       0.024900258 -0.46730882 -0.9107635 1.8643605
0002c0 fc dd 7f be 9e d0 d0 3f 5d 7f cf be b0 ed 91 bf
       -0.24987024 1.6313665 -0.40526858 -1.1400661
0002d0 9a 68 d2 bf 02 ac 54 bf 9c 5b 36 bf fb 5c 9e 3f
       -1.6438172 -0.83074963 -0.71233535 1.2372125
0002e0 43 98 3f bf 24 8e 7e bd a7 f8 fc be c3 24 d5 3f
       -0.7484171 -0.062147275 -0.49408457 1.6651844
0002f0 8a fb 9a be ed c6 b6 3f 7a ee 6d bf 8f 5d 69 bf
       -0.30270034 1.4279457 -0.9294201 -0.91158384
000300 70 4f f0 bf 44 2a 68 bf a5 4c d0 be b5 02 2b 3d
       -1.8774242 -0.9068949 -0.40683475 0.04175063
000310 06 81 c9 be 87 31 41 3f 83 70 05 bf e1 e7 4b 3f
       -0.3935625 0.754662 -0.52124804 0.79650694
000320 95 af 38 be 47 72 cd bf b8 97 5f bf 48 19 96 3f
       -0.18035729 -1.60505 -0.8734088 1.1726465
000330 a7 61 cc be 69 da b7 3e cc 0d 7c bf f0 78 b7 3f
       -0.39918253 0.3590882 -0.9845855 1.4333782
000340 aa 47 ed be e0 41 14 40 25 aa c9 3e be 9e 51 3f
       -0.46343738 2.3165207 0.39387622 0.81882846
000350 6c 9f d9 be 54 d5 c6 3f 05 06 d5 3e 00 c9 04 bf
       -0.42504442 1.5533853 0.41606155 -0.518692
000360 8c 8f e0 be 3b cd 92 bf f3 3e b6 3f 54 3c a3 bf
       -0.43859518 -1.1468881 1.423796 -1.2752786
000370 07 73 1c be 1a 31 65 bf 1f 31 15 3f dc 8b 20 3d
       -0.15278254 -0.8952805 0.5827808 0.03919588
000380 b7 ef 19 bf 43 8e 1b 3f 3a 50 ba 3f 0a 89 b9 be
       -0.601314 0.6076395 1.4555733 -0.36237365
000390 cd 26 3a bf fb 7e 51 be cf ad c5 bd db 2b a4 be
       -0.72715455 -0.20458595 -0.09652292 -0.3206471
0003a0 52 2d c2 be 47 e0 78 bf 80 7a ce 3f d1 22 25 bf
       -0.37925202 -0.9721722 1.6131134 -0.6450625
0003b0 1a 23 c3 3c a4 8f 55 be 55 8f 82 3e fc c5 56 bf
       0.023820449 -0.20855576 0.2549998 -0.8389585
0003c0 af b9 e5 3e 53 80 ce be 86 84 8e bf b4 c0 8d 3e
       0.44868228 -0.4033228 -1.1134193 0.27686083
0003d0 13 42 15 3f 71 4b 27 bf 6a d1 29 bd f5 82 44 3f
       0.58303946 -0.6534949 -0.04145948 0.76762325
0003e0 8d 62 2d bf 18 fc 33 bf c7 9f 41 3e 73 ff 2f 3e
       -0.677285 -0.7030654 0.18908606 0.1718729
0003f0 08 3f 91 bf 88 ba 37 bf dd 79 11 3e ef 4e 25 bf
       -1.1347361 -0.71769 0.14206643 -0.6457357

layer2.3.weight f4 [256, 256]
000000 45 d2 7c be 75 11 a7 3e c4 d8 af 3e 02 4e 82 3e
       -0.24689586 0.32630506 0.34345067 0.2545014
000010 61 d5 9a be cc 7c 4c bf 46 1c 2f 3f e4 0b 40 be
       -0.3024092 -0.79877925 0.68402517 -0.18754536
000020 d7 6a a9 3e 43 7b 2d 3c 14 16 92 bd 6f c6 98 3e
       0.33089325 0.01058847 -0.07133117 0.29838893
000030 12 16 36 bf 4b f3 89 bd ab d9 04 3f 4b 08 b0 3e
       -0.71127427 -0.067358576 0.51894635 0.34381327
000040 e2 eb fa be 9d 0a ec bd 5f 70 96 be 35 ef 14 bd
       -0.4900809 -0.11525462 -0.29382607 -0.036360938
000050 59 e5 ca 3e 96 50 08 be 04 31 0b 3d 0c 9a ea 3e
       0.39628103 -0.13311991 0.03398229 0.45820653
000060 61 90 0e 3f 06 7f 0f bf 9e 4c 62 3d 06 b3 85 be
       0.55689055 -0.560532 0.05524885 -0.26113147
000070 aa d0 40 3f e6 e5 8c be 8b d2 7e 3c 9c 1f 9e be
       0.75318396 -0.2751915 0.015553127 -0.3088349
000080 90 87 10 3f c4 5e c7 3d 32 39 ec 3d 4f e0 87 bf
       0.5645685 0.09734872 0.11534347 -1.0615329
000090 2d 10 9a be 53 5f a3 3e 80 2c d4 3e d3 46 5a 3e
       -0.30090466 0.31908664 0.414402 0.2131608
0000a0 8a a6 2d 3f c3 a7 c6 3e 9b e0 8a be fc a6 f5 3d
       0.67832243 0.38799867 -0.27124485 0.1199474
0000b0 26 aa bf be dd 85 d7 3e fd df 13 be a2 6f a5 be
       -0.374345 0.42094317 -0.14440913 -0.32311732
0000c0 53 c0 93 bf d7 00 8a be d3 46 51 3f 92 39 03 bc
       -1.1543068 -0.26953766 0.81748694 -0.008009331
0000d0 42 88 04 be 8c bf ef be fa 20 ed bd 65 2a a2 be
       -0.12942603 -0.46825826 -0.115785554 -0.3167297
0000e0 be 53 86 be 06 53 2e bf 5f ec c3 3e 5b 5c 2c bf
       -0.26235765 -0.68095434 0.38266274 -0.67328423
0000f0 e1 a9 b9 3d a1 4e 20 be 5d da 74 bd f8 60 b1 3e
       0.09065605 -0.15654995 -0.05977856 0.34644294
000100 61 e8 54 3e ef 4b a3 3f 7b 09 8d be 54 93 f0 3c
       0.2079177 1.2757548 -0.27546296 0.029367127
000110 5b 6a 1b 3d af d9 13 be 23 1c 70 3d e5 79 ea 3d
       0.037943225 -0.14438508 0.058620583 0.11449031
000120 ae 64 b3 bd 4a d4 c8 be f3 64 ab be 73 d4 d8 bd
       -0.087594375 -0.39224464 -0.33475456 -0.105873965
000130 7b a8 bf be c1 80 eb be 28 4d c1 3e 05 b9 a6 be
       -0.37433228 -0.4599667 0.37754178 -0.32563034
000140 7c 84 b4 be 25 a4 c3 bd 95 90 ac 3e fe b2 d9 3d
       -0.35257328 -0.095527925 0.33704057 0.10629843
000150 b0 02 fc be cf 02 00 3e 38 13 44 be ba 02 19 be
       -0.492208 0.12501071 -0.19147956 -0.14942446
000160 7d dd 38 bf 98 fd af 3e 17 eb 3d be 08 9e 47 bf
       -0.72212964 0.34373164 -0.18546711 -0.7797551
000170 0d 8f ad 3f 6c 3e 49 bf ff 88 b2 bc 23 6c 9e 3d
       1.3559281 -0.78610873 -0.02179384 0.07735469
000180 3e 56 7d bd 9f 00 c8 bd 69 9a b5 3d 18 5c 15 3e
       -0.061849825 -0.097657435 0.08867342 0.14585912
000190 c6 d4 ae 3d 64 df 57 3d ee e0 05 3f 48 3a e9 be
       0.08536677 0.052703276 0.5229634 -0.45552278
0001a0 96 fe 5f 3e 90 83 b1 3f bb 92 c4 3d 5c fc 96 3e
       0.2187446 1.3868275 0.09598299 0.2948941
0001b0 c2 c8 00 3f e3 d6 96 bd 02 4a 83 bf b1 7b e6 be
       0.5030633 -0.07365205 -1.025696 -0.45016244
0001c0 d2 e0 c1 bd 71 57 23 3e 9c 71 3f 3e f6 bd b9 be
       -0.09466709 0.15951325 0.18695682 -0.3627774
0001d0 bc 4a a9 be 3d d4 fe 3e 7f d0 b5 3f b3 7e db 3e
       -0.3306483 0.497713 1.4204253 0.428701
0001e0 ab 69 8a be 5b 6b f6 3e 48 fc 17 3e ff 17 78 bf
       -0.27033743 0.4812878 0.14842331 -0.96911615
0001f0 a4 80 ad 3d cb b0 67 3e e0 58 09 bf 6a 16 18 3f
       0.08471802 0.22626035 -0.5365124 0.594092
000200 6b cb d6 3d f4 7f 2e bf 3b 9f 31 be 4b dd b7 3e
       0.10488018 -0.6816399 -0.17345898 0.3591102
000210 77 0d 77 3e 19 31 82 bd 18 72 62 3e a2 4f 07 3f
       0.2412623 -0.06357021 0.22113836 0.52855885
000220 15 e9 a8 3e 9d ef f8 3c f9 aa 93 3f 08 34 e1 bd
       0.32990327 0.030387694 1.1536552 -0.10996252
000230 af c2 02 3f 81 ec 22 bf 30 72 41 3f ef ef 08 bf
       0.51078314 -0.63642126 0.7556486 -0.5349111
000240 a8 ee bf bc ff 6f b0 3e 39 d2 5c be 1e 9d 36 3f
       -0.02342923 0.34460446 -0.21564569 0.7133349
000250 b8 0b b1 be 54 ab 8f 3c 2a 3c 6f 3d 2d 6e af be
       -0.34579253 0.01753775 0.058406986 -0.34263745
000260 ad 02 73 be d2 52 19 3e c0 53 02 3f 8b 85 af 3e
       -0.2373149 0.14973 0.5090904 0.34281573
000270 39 56 2b 3f dd 53 4a 3e cc 65 64 3e 1a 4d 8a be
       0.6692844 0.19758554 0.22304457 -0.2701195
000280 48 12 21 3f 85 7f 91 be 1d 98 85 be a8 8f 56 3e
       0.6291852 -0.28417602 -0.26092616 0.20953238
000290 79 86 bb 3e 44 74 10 bf ec 2c 2a 3e eb da 83 3e
       0.36626032 -0.5642741 0.16618699 0.2575296
0002a0 ed ff 5c 3d 6b 4e 02 be 58 fb 97 be d9 bb c9 be
       0.053955007 -0.12725227 -0.29683948 -0.3940113
0002b0 70 91 e3 bb 48 ec dc 3c 82 6a a2 be 7a c6 0e 3e
       -0.0069448277 0.026968136 -0.31721884 0.139429
0002c0 97 f5 1b 3e 15 84 13 3e 91 ed 31 bf f5 44 1e bd
       0.15230404 0.14405854 -0.6950312 -0.03863998
0002d0 6f c2 8f be cb 0e c0 be 33 98 ab be be c7 71 3f
       -0.2807803 -0.37511286 -0.33514556 0.9444541
0002e0 00 41 e0 bc 0e 2c 5c 3e 48 94 e8 3e f3 7c 58 3e
       -0.027374744 0.2150118 0.4542563 0.21141414
0002f0 7d e1 56 be 3c 8c e7 3e 26 41 ea bd 65 4c d9 3e
       -0.20984454 0.45224178 -0.11438207 0.42441097
000300 38 8d 17 bf a0 78 0f be a7 0f 55 bf 94 20 80 be
       -0.5919986 -0.14010859 -0.8322701 -0.25024855
000310 9d 07 08 3e 28 ea 3c 3e 19 0f c0 bf e7 ad 07 3d
       0.13284154 0.18448699 -1.5004607 0.03312483
000320 8a 2a 66 3d f0 fe 53 bf aa b5 62 3e 50 47 89 3e
       0.056192912 -0.8281088 0.22139612 0.2681222
000330 e0 03 01 3f 8f 0a 26 bf c9 08 14 3f c5 a2 cd 3d
       0.5039654 -0.6485986 0.57825905 0.100408114
000340 2b 4a 29 be 02 82 bd 3e 98 ef 69 be c1 91 26 bf
       -0.16532199 0.3701325 -0.22845304 -0.6506615
000350 d4 81 23 be 64 c0 59 3d 19 a2 2a 3f 07 1c dc 3e
       -0.15967494 0.053161994 0.6665359 0.42990133
000360 43 5d 70 3f bb 12 5e be cb 14 62 be 4c 05 30 bd
       0.93892306 -0.21686833 -0.22078244 -0.0429738
000370 54 f6 e6 bb 5b 3a 64 bd 40 2f 02 bf f9 dc 37 be
       -0.0070484076 -0.055719715 -0.5085335 -0.17955388
000380 cc 14 91 3e 0c 2c 90 bd 83 af 5b 3d de 13 5e 3e
       0.2833618 -0.07039651 0.053634178 0.21687266
000390 6a bb f5 bd 71 85 50 be 44 7b 2f 3e 11 f7 ad 3e
       -0.11998637 -0.20363404 0.17136866 0.3397756
0003a0 b3 f0 ea 3d f2 57 2f 3e 60 0a 98 3e 85 76 8a 3e
       0.11471691 0.17123392 0.29695415 0.27043548
0003b0 d8 40 d3 be 8c 24 84 3e 01 f6 9e bd 78 a4 26 3e
       -0.4126041 0.25809133 -0.07761765 0.16273677
0003c0 10 46 dc 3d 29 bf e4 be d5 94 ca 3d ac 8c d8 be
       0.10755551 -0.44677094 0.09891669 -0.42294824
0003d0 9c 63 f8 3e c8 08 78 be a7 8d 56 3e 74 d5 12 3d
       0.48513496 -0.242221 0.20952474 0.035848096
0003e0 6c 99 7e be 26 85 50 bf 96 e5 c8 3e 96 14 35 3f
       -0.24863213 -0.8145317 0.3923766 0.70734537
0003f0 9b 96 e0 be 99 c8 17 be dc 24 dc be 39 24 f5 3c
       -0.43864903 -0.14822616 -0.4299687 0.029924499

layer2.3.bias f4 [256]
000000 cc bc 2b 3d b1 d9 c3 3f 19 04 86 3e 45 1e bc 3f
       0.041928098 1.5300809 0.26175 1.4696738
000010 6f a7 8b be 53 71 48 bf c9 11 28 40 e7 11 f9 be
       -0.2727618 -0.7829792 2.6260855 -0.4864647
000020 fe 5c 68 bf 46 b1 f0 3e cc 3b d1 3e 07 c2 8c 3f
       -0.90766895 0.4701025 0.40865934 1.0996712
000030 e3 27 3d 3f d6 0d 56 3e 68 e8 29 3f 80 a4 3b bf
       0.7388899 0.20903715 0.6637025 -0.7329788
000040 00 7a 51 40 b4 36 92 be 33 67 46 40 06 28 24 be
       3.2730713 -0.2855736 3.1000488 -0.16030893
000050 17 f5 5e bf 99 42 d6 bf 5c c9 ab 3f 51 a5 97 3e
       -0.8709273 -1.6739074 1.3420825 0.29618314
000060 8d 55 de 3e c8 03 a8 bd b9 5f d0 bd 84 7e 6d bf
       0.43424645 -0.08203846 -0.10174508 -0.9277117
000070 d1 d4 74 be e3 cc 89 bd 73 1e b4 3f 3c 34 c8 bf
       -0.23909308 -0.06728532 1.4071792 -1.5640941
000080 0d 54 bc 3f 51 4b 00 c0 d7 8e b5 bd 5a c9 9f bf
       1.471315 -2.004597 -0.08865135 -1.2483323
000090 b2 0c 45 be 17 b2 12 be 47 56 f6 3f 57 c6 b2 bd
       -0.19243124 -0.14325748 1.924508 -0.087292366
0000a0 f1 ad 5a 3f c6 2e b0 bf 3d a6 73 bf fd 3e bf 3f
       0.85421664 -1.3764274 -0.95175534 1.4941097
0000b0 e4 61 44 3f 64 28 aa 3e 86 a0 14 bf 3d 5a ec 3d
       0.7671187 0.3323394 -0.5805744 0.11540649
0000c0 8f f6 96 3e a2 95 cb 3d 29 9d 09 3f d4 54 19 40
       0.29484984 0.099406496 0.5375543 2.3958025
0000d0 cb ee 8c 3e 4a 9a 19 c0 7a aa 17 be 72 ff a1 3f
       0.27525935 -2.400042 -0.14811125 1.2656081
0000e0 bc 03 4a 3e 46 70 ce be 5a 60 87 3e ab 34 d8 3e
       0.19727987 -0.40320033 0.26440698 0.42227682
0000f0 c5 c6 cc be 94 95 97 bf e6 5e a3 3f 3d 40 e6 be
       -0.399954 -1.1842523 1.2763336 -0.44970885
000100 72 c3 42 c0 60 b6 8f bf b1 0d 62 3d 0b 43 89 be
       -3.043179 -1.1227531 0.05518884 -0.26808962
000110 b5 46 42 3e 32 a4 09 3e 3f e3 ac 3f ba 1d 86 3f
       0.18972285 0.13441542 1.350685 1.0477822
000120 c8 b3 32 40 4b 9b bb 3f fe 4b fa bf cc 0a a9 3f
       2.792223 1.4656767 -1.9554441 1.320642
000130 dc 13 37 bf dc a6 ff 3e 18 86 97 3f 3d de 89 bf
       -0.7151468 0.4993199 1.1837797 -1.0770947
000140 5b 7f 82 3f 0b e8 2d bf ec 34 76 bf f9 fd ee be
       1.0195116 -0.67932194 -0.961745 -0.4667814
000150 6b 84 b5 bf b7 b2 e6 3f 27 c0 c1 bf fe 04 2e c0
       -1.4181036 1.802329 -1.5136765 -2.7190547
000160 b0 04 19 c0 f4 e5 94 bf 8b e6 09 3e 36 4d 24 be
       -2.390911 -1.1632676 0.13466851 -0.16045079
000170 44 eb 38 c0 a4 46 c0 3e c3 ae 10 40 2a 7c 8b 3e
       -2.8893595 0.37553895 2.2606666 0.27243167
000180 e9 3f d5 3e bf 3d 87 3e 84 04 95 bf 81 6e dc 3f
       0.41650322 0.26414296 -1.1642003 1.7221223
000190 e9 83 04 bf 99 1f 8e 3f de 34 1b bf 01 af b0 be
       -0.5176378 1.1103393 -0.60627544 -0.34508517
0001a0 82 0a e9 3f 6a a0 29 bd 65 c1 fb 3f 8c 07 2b 40
       1.8206332 -0.04141275 1.9668394 2.6723356
0001b0 2f a0 7c bf c6 93 a3 ba 08 17 f7 3d 53 9d 85 3f
       -0.9868192 -0.0012479953 0.1206494 1.0438637
0001c0 fa 1e 81 3d 16 25 29 40 96 5b b2 3f 88 9b c8 be
       0.063047364 2.6428885 1.39342 -0.3918116
0001d0 68 48 a4 3f aa f1 3b 3f ce 9d 14 40 3d f8 a1 be
       1.2834597 0.73415625 2.3221316 -0.31634703
0001e0 cd fd 0f 3f 6f 2f 1f 3e c3 11 b1 3f 9c a1 7f be
       0.56246644 0.15545438 1.3833545 -0.24963993
0001f0 c6 f7 57 3f ec 31 8f 3f ae 68 43 3f 25 01 50 40
       0.8436245 1.118711 0.76331604 3.2500699
000200 69 64 41 bf 23 53 67 bf f2 ea 81 be 8d 2b 5e be
       -0.7554384 -0.9036123 -0.25374562 -0.21696301
000210 06 b4 83 bf 63 17 ad 3d c4 de a8 3f 06 d8 24 bf
       -1.0289314 0.08451726 1.3192983 -0.64392126
000220 d5 da 05 3f b9 c6 c5 3d 62 44 fa bf 99 65 bf 3e
       0.52287036 0.09657044 -1.9552119 0.373822
000230 aa 0b 71 c0 4c dc a3 bf e2 6d 9e 3f f1 5c 2b be
       -3.766337 -1.2801604 1.2377284 -0.16734673
000240 47 be 84 3f 4d 3f 89 be bf ff 9b bf 30 7a a1 bd
       1.0370568 -0.26806107 -1.2187423 -0.078846335
000250 42 a6 38 3c 38 48 16 3f 5f c4 47 c0 42 2d f1 bf
       0.011270108 0.5870395 -3.1213605 -1.8841937
000260 9a 7d 00 bf 63 83 16 3f 2b 4b a3 bf 5c d2 29 c0
       -0.5019165 0.5879423 -1.2757314 -2.6534643
000270 91 e6 9e 3f 1f 8d eb 3f 54 72 38 40 f1 9f 70 bf
       1.2414113 1.8402442 2.881978 -0.9399405
000280 2b a0 5a 3f 43 69 a9 3f 91 6c 44 bf 40 94 16 bf
       0.85400647 1.3235248 -0.7672816 -0.5881996
000290 db 8b f8 3f f9 ca 17 bf 08 1f 9c 3e 46 fe 11 c0
       1.941768 -0.59294087 0.30492425 -2.2811446
0002a0 a0 c3 4c 3f ae 8c 97 be bf 84 0a bf a6 ec af 3d
       0.79986 -0.29599518 -0.54108804 0.08590059
0002b0 ee e7 b4 be 1c 07 4f bf 58 5a e5 3e e3 d7 65 c0
       -0.35333198 -0.80870223 0.4479549 -3.5913017
0002c0 c3 e4 ef 3d 17 0a 29 40 05 de 64 3f a7 fd 10 3f
       0.11713555 2.6412408 0.89401275 0.5663704
0002d0 eb 2b 90 bf 8f 32 bd bf 6f eb a9 3e 34 c0 4b 3e
       -1.1263403 -1.4781054 0.33187434 0.19897538
0002e0 fa 6f 02 40 d3 f8 98 3d 78 8b 89 3e 54 15 5f bd
       2.0380845 0.074693345 0.2686422 -0.0544637
0002f0 2d d6 b0 bf 5e 02 3b c0 14 35 5c 3e eb 0d 02 bf
       -1.3815361 -2.9220195 0.21504623 -0.5080249
000300 d9 1b 8c bf 7f 2e 14 c0 0e f7 fe 3e 6c 55 70 bf
       -1.0945998 -2.315338 0.49797863 -0.93880343
000310 87 c7 3c bf d4 a0 96 3e 41 4d aa 3f d4 8e 0f bd
       -0.73741955 0.29419577 1.3304826 -0.03504832
000320 a2 98 27 be 43 c1 0b bf 75 22 42 bf a4 67 05 c0
       -0.16366819 -0.5459177 -0.7583383 -2.0844507
000330 fd 20 b0 3f af 92 2d 3f 95 be 08 c0 a6 a0 42 3f
       1.3760067 0.67801946 -2.1366322 0.7602638
000340 6d a8 bc bf 06 29 09 3e 44 d9 df bf b9 28 09 bf
       -1.47389 0.13394555 -1.7488179 -0.5357776
000350 c9 f1 d4 be f6 60 3b 3f 25 bc 15 bf ef 22 aa bf
       -0.41590717 0.73194826 -0.5849021 -1.3291911
000360 88 e2 48 3e 5b 27 d5 3f 02 dc 9c be 29 b1 42 3f
       0.19617665 1.6652635 -0.30636603 0.76051575
000370 1a 3a 24 3f c5 52 09 bf d4 83 2e c0 9d 0b 4c 40
       0.64151156 -0.5364192 -2.7267962 3.1882088
000380 15 9c df bf b0 60 de bf 09 26 58 bf ea ea e3 3f
       -1.7469507 -1.7373257 -0.8443304 1.7806065
000390 67 3b 46 40 90 84 1d 3e b2 ac b3 3f 13 62 9e 3f
       3.0973756 0.153826 1.4037077 1.237368
0003a0 53 b4 b3 bf 9e 13 b3 3d 4a c0 98 3e 0b 4d a8 3e
       -1.4039406 0.08743976 0.29834205 0.3287128
0003b0 fb ab 43 3f 3a e3 2f bf 08 03 cc 3f 5f fe 3b 40
       0.76434296 -0.68706095 1.5938425 2.9374006
0003c0 53 7f 07 3f 3d f0 9d bf 74 8c 29 40 c5 26 32 3e
       0.52928656 -1.233894 2.6491976 0.17397602
0003d0 e0 f0 bc 3f 46 ee 9a 3f 99 a2 59 3f 2f 75 86 3f
       1.4761009 1.2103965 0.8501373 1.0504512
0003e0 63 cc d5 bf fa 46 a4 3f 32 44 84 3f 97 03 1f 3f
       -1.6702999 1.283416 1.0333312 0.6211485
0003f0 f3 8d 22 3d 78 11 01 3e 62 ca 44 c0 d8 ec 40 3f
       0.039686155 0.1260432 -3.0748525 0.75361395

layer2.6.weight f4 [10, 256]
000000 15 d4 fe 3c ab 8d 7f 3d 02 e4 ba 3d 85 b4 13 bd
       0.031106988 0.062390964 0.0912552 -0.03606083
000010 ec fc 4b bd 8d b2 40 3c 07 e2 1a bd ba 03 58 3d
       -0.049801752 0.01176132 -0.037813213 0.05273793
000020 fc 8d 3d 3e c8 86 40 3d b5 db 8d 3e 41 2a 10 bd
       0.18511194 0.047003537 0.27706686 -0.035196546
000030 98 ed 05 bc 98 2a 9c bc d6 c7 ee 3c ab a3 60 bb
       -0.008174323 -0.019063279 0.029148024 -0.0034277241
000040 8b d8 65 3d dd 8a 28 3c 81 b3 da 3d b6 01 aa bd
       0.056114715 0.010287014 0.10678769 -0.083011076
000050 6d 44 02 bc 66 cf 94 bc 86 15 9b bd 39 a8 8f 3d
       -0.007950884 -0.018165302 -0.07572465 0.07014508
000060 36 d2 11 be bf d3 99 bc 29 78 95 3d 19 c2 06 3e
       -0.14240345 -0.018777726 0.07298309 0.1315998
000070 ea 3e af 3d ce f3 26 bd 1c fa 0e 3d 99 e4 9a bb
       0.08556922 -0.040759854 0.03490649 -0.004726958
000080 ed a7 b6 3d 56 2b df 3d aa 7f c9 3d c1 fd a3 3d
       0.08918748 0.108969375 0.09838803 0.08007384
000090 3e 67 19 3e 57 8a a5 bd 36 26 48 3c 18 46 26 3e
       0.1498079 -0.08083027 0.012216141 0.16237676
0000a0 5c 9d 66 3e fb f7 85 bd 97 91 2b 3d fc 5a 3d 3d
       0.22520965 -0.06541439 0.041886892 0.046229348
0000b0 8b fa ba 3d 82 60 09 3e 56 01 3f 3e e3 99 c5 bc
       0.091298185 0.13415721 0.18652853 -0.02412123
0000c0 ec cf 93 bb 92 6e b7 bd 50 c4 0c 3d c0 44 88 3c
       -0.00451087 -0.089566365 0.034366906 0.016634345
0000d0 20 fe c3 3d ed 10 9a bc c3 dc c1 bd 8d 38 4a 3d
       0.09569955 -0.018806899 -0.09465935 0.049370337
0000e0 55 98 ff 3d 1a ce f7 3d f2 d5 a1 3d a8 53 1b bd
       0.12480227 0.12099858 0.07902135 -0.037921578
0000f0 fc 2c 36 bc 8c 42 76 bd 3a c5 00 be 17 58 5b bc
       -0.011119124 -0.060122058 -0.12575236 -0.0133877015
000100 e4 ed f9 3d d0 69 f1 3d 64 25 62 3c d7 a3 e0 3b
       0.12203577 0.1178776 0.01380286 0.0068554687
000110 1f 73 8a bd 32 b6 00 be 15 26 d7 bc fe 0e 31 be
       -0.06760239 -0.12569502 -0.026263276 -0.17290875
000120 5d 22 fe bd 2d f2 ce bc 85 22 67 3d 1e c3 bb 3c
       -0.12408898 -0.025261963 0.056429405 0.022920188
000130 1b 49 d7 3d d9 04 46 bd 3b e8 43 3d 07 0a 15 3e
       0.10511991 -0.048344467 0.047828894 0.14554606
000140 c6 c7 a6 3d 16 d7 e7 3d 77 f3 93 bc dd fc 7b 3d
       0.081435725 0.11320321 -0.018060429 0.061520446
000150 8e 1f c9 bd c9 17 32 bb 25 0d c7 3d 6b b7 04 3e
       -0.09820472 -0.0027174822 0.09719304 0.12960593
000160 96 73 23 3e 4e 78 6b bd 56 16 00 bd 33 a4 3a be
       0.15962061 -0.05748778 -0.0312713 -0.182267
000170 4b 54 6e 3d f6 f3 24 bd 10 5a d5 bd cd 7d 12 be
       0.058185857 -0.04027172 -0.10417569 -0.14305802
000180 b2 87 9a 3d d8 a9 35 bd 4f 7c 83 bc f8 f0 9c be
       0.07545413 -0.04435143 -0.016050486 -0.30652595
000190 b3 be a5 bc da 5d 40 3d 39 28 d9 3d 6f a8 74 3d
       -0.020232534 0.046964504 0.10603375 0.059730943
0001a0 46 0b 88 bd dd 16 47 3d 69 b9 1f be 10 86 aa bd
       -0.06642775 0.04860579 -0.15598072 -0.08326352
0001b0 a8 80 88 3c 25 f8 68 bb 07 99 9c bd 26 d7 21 be
       0.01666291 -0.0035548296 -0.07646375 -0.15804729
0001c0 92 e2 ca bd bc 5f a3 bd bc 1c 49 bd a5 db 94 3d
       -0.09906496 -0.07977244 -0.04909967 0.07268456
0001d0 c9 4f 92 bd c1 b3 5c be b6 8f 48 bd e0 9c aa bd
       -0.07144124 -0.21552946 -0.04896518 -0.08330703
0001e0 61 2d 77 be 6b a8 fc 3c 76 87 88 bc 45 d9 c5 bd
       -0.24138404 0.030842027 -0.016666155 -0.096605815
0001f0 3a 57 8e bd 5a 0d 31 3d fc 0a 46 bd 54 6c c5 bd
       -0.06950231 0.043225624 -0.04835032 -0.096398026
000200 07 1b 4c 3d 83 34 9e 3d 45 10 81 bd 0f 0f 3e 3c
       0.049830463 0.077248596 -0.06301931 0.01160027
000210 21 60 22 3d 54 5b 5d be 7e 6f f2 bd 03 ad aa bd
       0.039642457 -0.2161687 -0.11837672 -0.083337806
000220 8c aa 1a be 5e 8b ac 3d 57 d4 ba 3d b8 2f 03 be
       -0.15104121 0.0842502 0.09122532 -0.12811172
000230 3f 73 01 bd 4d ea 95 bd 05 c9 98 3d b0 1a b7 3d
       -0.031604048 -0.0732008 0.074602164 0.08940637
000240 4d 02 42 be ac 3d 1d be 55 ce 54 3d d2 b1 b1 3d
       -0.1894619 -0.15355557 0.051954586 0.08676495
000250 44 1b 9a bd 24 af ab bd fc 1f cf 3d 9f 63 ca 3c
       -0.07524732 -0.08383015 0.101135224 0.024705706
000260 9f fa db bd 15 07 c9 bd af 6c 14 be 9e f0 60 3c
       -0.107411616 -0.09815804 -0.14494585 0.013729243
000270 b5 c6 10 bb c8 3a 00 be e9 a9 85 bd 3b 14 11 3e
       -0.0022091095 -0.12522423 -0.065265484 0.14167874
000280 3f 6a 06 be b2 cf 2a bd ec 6e 51 bc 61 23 99 bd
       -0.13126467 -0.04170198 -0.0127827935 -0.07477451
000290 52 b6 cc bd ee 57 91 3d bb 1c 08 3d 43 43 aa bd
       -0.09995712 0.070968494 0.033230525 -0.083136104
0002a0 ff 9c 49 bd ce d5 5a bd 49 af 88 bd b5 5b cd 3d
       -0.04922199 -0.053426556 -0.06674058 0.10027257
0002b0 10 f7 1b bd ba e2 7b 3d b1 cd 53 3c ba 74 e2 3d
       -0.038077414 0.06149552 0.012927459 0.1105742
0002c0 0d a4 a7 3d b7 41 a4 bd f1 f8 7e 3d 67 ea a8 bd
       0.08185587 -0.080203466 0.062249128 -0.08247834
0002d0 f1 e4 07 be 6a be 1d bd 59 50 16 3e 7d cd 82 3b
       -0.13270928 -0.03851167 0.14679088 0.0039917813
0002e0 31 e2 83 bc 58 17 19 3d 50 6f ae bd 30 2c 2f 3e
       -0.016099067 0.037375778 -0.08517325 0.171067
0002f0 81 0a 6d bd 90 46 b3 bd 4e c6 38 be 5d 5f eb bd
       -0.057871345 -0.08753693 -0.18044397 -0.114927985
000300 6a 89 64 3d d2 ea 82 bd ac e4 56 3c 4a c1 72 3d
       0.05579511 -0.06392445 0.013116043 0.059266366
000310 3b ca b8 3d 5e 1f b6 bd 7a b7 0a 3d b6 20 81 3c
       0.090229474 -0.088927016 0.033866383 0.015762668
000320 fd 10 7a 3d 87 28 19 bc db ce 72 3d 45 b2 f9 3d
       0.061051358 -0.009348041 0.059279304 0.12192205
000330 11 2a 1d bd fa 9b 04 bd e6 cf 36 3e 2e 1a de 3b
       -0.038370196 -0.032375313 0.17852744 0.006778023
000340 d5 77 19 3e 07 35 8d 3d 8e 85 c8 3d b2 60 1f 3d
       0.14987119 0.0689488 0.097910985 0.038910575
000350 1e 47 4d 3d 87 b4 2f bd 6f 57 24 3d 8e 57 90 bd
       0.05011665 -0.042896774 0.040122446 -0.0704795
000360 13 4f 88 bd 4b 1e 53 be fd c3 0e 3e cf 2c e5 3d
       -0.06655707 -0.20617025 0.13941951 0.11190187
000370 a1 60 a3 bd eb fc 95 3d c4 64 5d bd 09 0c f5 bd
       -0.07977415 0.07323631 -0.054051176 -0.11965186
000380 48 a6 17 3e 6a 94 03 3d a9 0c 05 be 4e 1d 12 bd
       0.14809525 0.03212396 -0.1299311 -0.03567248
000390 c0 0a 86 bd 35 fb 63 3d 06 9d 08 bd 7c 8b c2 bd
       -0.06545019 0.05565949 -0.033352874 -0.09499261
0003a0 54 63 cd 3d ee ab 0e bd 58 77 2a 3e 18 8e b1 bc
       0.10028711 -0.034831934 0.16647089 -0.0216742
0003b0 95 c6 ae 3d b4 c0 a4 3d c9 e8 c1 bc 8a ac 9d bd
       0.0853397 0.08044568 -0.02367057 -0.07698925
0003c0 24 dd 02 3d 18 26 42 3d 9c fa dd bd 77 fa 3c be
       0.031949177 0.04739961 -0.108388156 -0.1845492
0003d0 fd 58 c2 3d 8c be 66 bd e2 d5 14 be a6 04 61 3d
       0.094896294 -0.056334063 -0.14534715 0.054936074
0003e0 d6 f4 37 3e 9d 48 08 be 96 7c e6 bb 82 82 98 bd
       0.17964491 -0.1330895 -0.007033895 -0.074467674
0003f0 f9 b1 85 bd d2 c0 08 3c c1 2b a3 3b 40 35 b8 bc
       -0.06528086 0.008346753 0.004979581 -0.02248633

layer2.6.bias f4 [10]
000000 7b 32 0e c0 af 8b 4f c0 57 0f 59 c1 26 9d 7d c0
       -2.221831 -3.2429006 -13.566245 -3.9627166
000010 6f 7b 8f c0 81 0b 60 3f b4 ec a3 c0 80 71 57 3f
       -4.4838176 0.87517554 -5.1226444 0.8415756
000020 d4 31 29 bf e9 55 9e 3f
       -0.66091657 1.2369968
