Model_Files/helpdesk/EventPredictor_parameters_laplacianOnWeighted_0.0001.pt (torch, 286743 bytes, 8 tensors)

layer1.weight f4 [4, 1]
00000000: fa9a a8bd 6f8e 32bf 7ec6 73bf ef68 8cbf
-0.082326844 -0.69748586 -0.9522475 -1.0969523

layer1.bias f4 [9]
00000000: 818a b7bf f378 1bbf 3dcc bc3c 44bb 60bf
00000010: b773 a4bf b8ed 0fbf a150 84bf f06a 73bf
00000020: 3248 3dbf
-1.4339143 -0.6073143 0.023046607 -0.87785745 -1.2847813 -0.56222105 -1.0337106 -0.9508505
-0.73938286

layer2.1.weight f4 [256, 9]
00000000: 52a3 6dbb 5987 b93d 2e1d 2a3e 8ae0 673b
00000010: 7c8e 59bd aa70 6ebd 3941 0bbd 13c6 6bbd
00000020: 0dd8 45bd 1627 dcbe d7e9 b33e b611 26be
00000030: 8088 243e 48fa edbc a656 50be ce78 933e
00000040: 3e53 0cbf fdbb e3bd 71e1 383e cdf6 febd
00000050: 54c1 123e c399 22be e5a0 2a3d 476d 9b3e
00000060: 8734 03be bea5 243f b92a 3b3e 8ac5 acbc
00000070: c498 0e3e 0a42 9c3e 1cfe 94bd b9d0 5cbe
00000080: 92fb 8b3c 3659 923b a4e4 af3c da3a 273a
00000090: c0e1 18bd 9ee0 303d a632 5c3e 2d2f bbbd
000000a0: eede 5bbe 0d9a 01bd cbdc 883e 409e 49bc
000000b0: 6d29 433d e903 8fba 91d9 b8bc 404a 1cbe
000000c0: ceaa 3ebd 79f2 c93e 7a6a c2bd 60c3 933c
000000d0: 8b56 30be 481a 0b3d 38ff fcbc cb2e 8c3d
000000e0: 1903 25bd f5dd 593d e5eb b9ba b8cb db3d
000000f0: da68 913d deae 6fbe 8237 253d 7a13 5a3c
00000100: 784d 343d dcf6 423e 4ab1 9b3d 0afe 70be
00000110: 6f20 df3d 9055 473d 5fc8 6a3e 8542 ddbc
00000120: e8a8 50be a52c 63bd 9390 6fbd ad8f 3f3d
00000130: 9ddd c63d a178 083e 4d16 223e d8c5 77be
00000140: 18b0 ed3c af2a f73e 7055 0f3c 0af0 603e
00000150: b158 dc3b 1502 d5bc 033f de3c 24f2 4a3c
00000160: e542 9bbe 653d 2e3b 9eeb 1cbd 920f b73c
00000170: d4c7 8bbe 1d99 4fbe 8b65 93bd 3bda 2d3d
00000180: 69f5 cc3e f0b8 9fbe 7042 433e f913 aabd
00000190: 78d2 51bf 047e 063c d481 4ebf 5b5f 47be
000001a0: b3f5 7cbf 7aaa 2cbf 58c8 1b3e f37c a4bf
000001b0: 9e5f 7dbf ddea f33d 657d 97be 1ffe fe3d
000001c0: 1048 9dbc 398d 53be 5970 b03d c1cb 8dbe
000001d0: b101 07be 2be5 423c b94d 4dbe faea 94bd
000001e0: 2174 ecbc eccc 33be b74a 473a 5274 66bd
000001f0: 5981 a83d 8321 713d d797 02bf 1afc 80ba
00000200: 1c63 81be 8a1e 983b 97b4 03bf 1000 05bf
00000210: c811 ee3c f7d2 203d ff93 96be b53a 0dbe
00000220: 6e65 9ebe 9123 a23e 08be 85bf e691 0dbe
00000230: 7ebd c7be 8c38 1cbf b1f7 1b3e 7e78 31be
00000240: ce97 fa3d c49a db3e b056 f93c f6a2 10bc
00000250: 178a 6a3d 515e 433e 2664 603e 6762 c1bd
00000260: bf1a dc3e ae93 9a3e 63bc f3bd c8c8 4c3e
00000270: 74e8 93be 0368 0e3e d1fd a23b 7872 bb3d
00000280: 74fa 9a3e 87c5 a8be a6c8 c83d b55f 893e
00000290: 4be3 973e 265e 313f 443f 8a3e ecc0 b13e
000002a0: dc3f 6a3e b3f4 a1bd 22e6 813e 3e97 04bd
000002b0: 6041 31be c010 a23e 36ff d5be dd8a 43be
000002c0: 8f50 1e3d a32c bf3e 4d3b bb3e 34cb 833b
000002d0: d332 7dbf a45f 25bd d7c9 d6bd b3f4 673e
000002e0: cd2e 91bd 6d34 14be f694 81bb 35c6 f1be
000002f0: 6a9e dbbd f4f7 a1bf eff2 b6be 5e82 55be
00000300: cbab 513e c3de 46be 2de5 c139 4e8c 83ba
00000310: d5ce 4f3e a2b8 2cbe b5c9 4ebd ef86 1fbf
00000320: e8c5 933b 2ed2 09bf a2d7 d0be 2de9 9fbf
00000330: fe7f 5ebf 559a bc3d 9aa7 82bf 239c fabb
00000340: 1830 d33b 6085 8f3e cfad e33d a0de 03bb
00000350: 970c fa3c 9ea8 ad3b 0316 cbbb 2cf0 eb3d
00000360: 0d70 643a b6ef 3e3b 7c39 98be c07d 863d
00000370: 5997 dc3d 7873 15bc 07cf cd3d 337a 92ba
00000380: f2af e6bb 0af6 c1be e80a 123d 130a dbbd
00000390: 7f5a 8a3e 2c51 74bd 7f37 0b3f dbcf 8fbd
000003a0: a566 043e 5784 8c3d 4329 cd3f 58ad 75be
000003b0: 5c0e b13e 67f1 c0bd 04d8 a5be de6e 29bd
000003c0: 3f8c f03d a04a 363f 01ec 373d 8b1f 323e
000003d0: 32b3 8f3c 0fc9 693e 2bd0 b7bd 0821 283e
000003e0: 8276 45be 17ad 993e cb04 0ebe bde2 8abb
000003f0: cd1b a2be 3255 c63c 9a01 8bbe dfa3 c1bc
-0.0036260677 0.09059019 0.16612694 0.0035381638 -0.0531144 -0.058212914 -0.033997748 -0.057561945
-0.048301745 -0.4299857 0.35139343 -0.16217694 0.16067696 -0.029050007 -0.20345554 0.28803104
-0.5481452 -0.1111984 0.18054749 -0.12449417 0.14331561 -0.15878968 0.041657347 0.3035681
-0.12813006 0.643154 0.18278016 -0.021090288 0.13925463 0.30519134 -0.0727503 -0.21563996
0.017087732 0.004466201 0.021471329 0.0006379314 -0.037324667 0.04318296 0.21503696 -0.091398574
-0.2147176 -0.031641055 0.26730952 -0.012305796 0.04764693 -0.00109112 -0.022564681 -0.15262699
-0.04654961 0.39442804 -0.09492965 0.018037498 -0.17220514 0.03396061 -0.030883417 0.068448626
-0.040286157 0.05319019 -0.0014184682 0.10732216 0.07100077 -0.2340655 0.04033614 0.013310308
0.044019192 0.19039482 0.076021746 -0.23534408 0.10894858 0.048665583 0.22927998 -0.027009258
-0.20376933 -0.0554625 -0.058487486 0.04676788 0.09710238 0.13327266 0.1582882 -0.24196565
0.029014632 0.48274752 0.008748397 0.21966568 0.00672444 -0.02600197 0.027129656 0.012386832
-0.30324474 0.0026586887 -0.03831064 0.022346292 -0.27300894 -0.20273252 -0.07197102 0.04244445
0.40030983 -0.31195784 0.19068313 -0.08304591 -0.81961775 0.008208755 -0.8066685 -0.19469969
-0.9881241 -0.67447627 0.15213144 -1.2850631 -0.98974025 0.11910031 -0.29587856 0.124508135
-0.019199401 -0.20659341 0.086151786 -0.27694514 -0.13184239 0.011895458 -0.2004918 -0.07271381
-0.028863968 -0.1755864 0.0007602381 -0.056263275 0.08227796 0.05886985 -0.5101294 -0.0009840757
-0.25270927 0.0046423124 -0.51447433 -0.5195322 0.029061213 0.03926369 -0.29409787 -0.13791926
-0.3093676 0.3166776 -1.0448618 -0.13825187 -0.3901176 -0.61023784 0.15231206 -0.1733112
0.12235986 0.42891514 0.030436844 -0.008827915 0.0572606 0.19078948 0.21913204 -0.09442597
0.42989156 0.30190796 -0.11901166 0.19998467 -0.28888285 0.13906865 0.004974105 0.091526926
0.30269206 -0.329632 0.09803896 0.2683083 0.29665598 0.69284284 0.27001393 0.347175
0.22875923 -0.07908001 0.2537089 -0.0323708 -0.17310095 0.31653404 -0.41796273 -0.19095941
0.038651045 0.37338743 0.3656868 0.0040220264 -0.98905677 -0.040374413 -0.10487717 0.22651939
-0.07089005 -0.14473124 -0.003954525 -0.47221532 -0.107235745 -1.2653794 -0.3573222 -0.20850512
0.2047569 -0.19420914 0.00036982578 -0.0010036321 0.20293744 -0.16867307 -0.05048533 -0.6231527
0.0045096762 -0.53836334 -0.40789515 -1.2493035 -0.8691405 0.09209124 -1.0207398 -0.0076480075
0.006444942 0.28031445 0.11117136 -0.0020121709 0.030523581 0.0052996418 -0.0061976924 0.115204185
0.00087142066 0.0029134578 -0.29731357 0.06566954 0.10771055 -0.009121768 0.10049253 -0.0011175334
-0.0070400173 -0.37883025 0.035654932 -0.10695281 0.27022168 -0.059647724 0.54381555 -0.07022067
0.12929781 0.06861179 1.6028217 -0.23991907 0.34581268 -0.09421044 -0.3239137 -0.041365497
0.117455 0.7120762 0.044902805 0.17394845 0.017541502 0.22830604 -0.08975252 0.1641885
-0.19283488 0.3001487 -0.13869016 -0.004238455 -0.31661835 0.024210546 -0.2714966 -0.02363771

layer2.1.bias f4 [256]
00000000: ae96 7c3e 3455 cd3c bedd 393e 49dd 633e
00000010: 38ff 2abf e68f 97bd fb03 44be c480 e63e
00000020: e6fd 4dbd 2e25 b8bc ff8d cabe 7553 80bd
00000030: 8c2e 5a3d 7064 453d 691e 223f a3d0 3c3d
00000040: 6f00 e7be c8f2 b83c d001 e8bd b0f4 813e
00000050: 87ff c13e 6ba3 443f 22f7 95be f56e c3be
00000060: 824a 003c 3dd4 5e3e ae97 f33d 9f09 13bf
00000070: dc5f a9be 1a64 b2be 6abb ad3d 7220 48bd
00000080: 0125 18bf fb4c 303e 1486 33be 9365 4abd
00000090: 137e 7cbe dfcd c13e 844f 13bf ceee 3bbf
000000a0: e3c9 903e f1c2 c33e 4f87 3ebe 13de 213e
000000b0: f3e4 8bbf 5197 02be 88a6 da3e 673e f5be
000000c0: cd13 293e 45ff 44bf c43e d13e c540 863d
000000d0: c4d8 4b3f 2b07 813d 0566 28bf 814c 98be
000000e0: 99bc 78be d712 ddbd d0ad d7be bcaf 3e3f
000000f0: bd05 4dbd 0a7b cf3e b32b 0fbf 73b8 42bf
00000100: dc26 03bf 0d6f c23e 2e26 79bf 6128 443e
00000110: 4cf6 73be 33b9 58be 3d0a 07bf 292f a83e
00000120: bd5e 083f 6adc b3be c577 1c3e 1485 f8bd
00000130: bf70 143f a59a 0dbf acdf d0be d272 4f3f
00000140: 7b16 323f 6167 1abe c828 61be 8940 35be
00000150: 7a8a aebd aec6 86ba c173 de3e 793a bebd
00000160: c2dc a73e 7a81 42bf 8508 923e 15f8 b6bd
00000170: 13dd 96be dfd9 49bd 930e f6be d24b 0b3e
00000180: 9d5a 62be 8454 14be b1d3 0bbf 1c0c 9f3e
00000190: 7c5a d43e bdb2 93be 99b5 89bd 3248 37be
000001a0: 7581 a23d 50a6 433e 64a7 943d 148b 13bd
000001b0: d745 3f3e 2f3a 32bf ca8d e4be 8bdb 02bf
000001c0: 035f 8ebf 0fee 123e 242c 093f 9be2 41be
000001d0: cf49 863e 597f 10bf 0956 32bf 42b0 b63e
000001e0: 0193 fd3e cecc 083f 754d 883e 18eb aebe
000001f0: 5dcb ab3e eeb2 9e3e 11a4 ac3d da0f 0cbe
00000200: 8d6a 09bf bb1c 74bf c408 0bbe a7d5 0a3f
00000210: f737 7a3f 8d34 e5be db45 edbd 297e 6abf
00000220: 111a 3bbd d803 2fbd 2395 e93e 4276 b83d
00000230: 258b f13e 9ff6 b43e c077 dcbe 1ca0 09be
00000240: 237c 283c 3c3c 853e a180 7dbe 92bc 033f
00000250: bdf4 07bf 889a 0abf a420 81bb a442 913e
00000260: 659e c23e cb0b 9ebd 6d59 fabe e7fd 2b3f
00000270: 7607 ea3e 144b babe 407c 00bf dd59 b8bd
00000280: 6628 9c3e 29e9 c13e bda0 babe 1a32 bc3b
00000290: c70a 5ebf 808a 0f3d 360b 84be ac86 32bf
000002a0: 1dc2 55bd e051 ef3c c302 d9bd 1fb4 44bf
000002b0: a030 5dbf 6570 56be d582 b13e 5b51 6cbe
000002c0: cdbc 93bc 3aaa 33be 244e 623c 98db b13e
000002d0: 9781 0d3f 1dd0 43bd f526 f93e f467 58be
000002e0: c1ca 483e c726 8b3d c4b4 a13e ad04 953e
000002f0: ea26 abbe 5718 abbe a2f4 efbe 3e84 d0be
00000300: ef33 ac3d 1261 53bf 87d2 833d 8b24 9d3e
00000310: ab2e ec3e de64 963e 40e7 e3bd 0f7b cbbd
00000320: 5dc4 1f3f 662f 8dbe fbed a33e 3d5d eb3e
00000330: e0f3 5abe 2e51 ba3e e751 f2be 6567 223f
00000340: f373 0a3f bf80 9c3e 3f36 f93e 2d34 5a3e
00000350: 0f30 46be 61a9 99be 99f5 2f3f 157d ac3e
00000360: a445 12bf 5354 e1be 0e59 93bd c4ba c8be
00000370: 3259 ecbe 3916 833e 38d5 b33c bb55 613e
00000380: 2a9e 0d3f 1dfa 3abf 8b59 173c ff1d febd
00000390: e697 c0be b64b e53e 0b58 15bf 15e3 0f3f
000003a0: 48f6 eebc f942 663e acf1 b73e 8736 7d3d
000003b0: 105a 03be 7125 e43c 182b d03e 1357 4bbe
000003c0: 063f f13d 5c9e b9be 6710 c1be 0350 e5bd
000003d0: 26ca 20bf 2c59 aabd 34c8 06bf 2176 91be
000003e0: 9b47 e63e 7f8a cd3d 0b37 6c3d 7a1b 993d
000003f0: 90ff 8a3e decd 1bbd 4a70 c2be e91d 64be
0.24666855 0.025065042 0.18150994 0.22252382 -0.6679568 -0.07400493 -0.19142143 0.45020115
-0.050290965 -0.022478666 -0.3956146 -0.06265918 0.053267047 0.048191488 0.6332765 0.04609741
-0.45117518 0.022576705 -0.11328471 0.25381994 0.37890264 0.76811856 -0.2929011 -0.3817059
0.007830264 0.2176065 0.11894165 -0.57436556 -0.33080947 -0.34841996 0.08483012 -0.048859067
-0.59431463 0.17216866 -0.17531615 -0.049413275 -0.24657468 0.3785238 -0.57543206 -0.7341126
0.28279027 0.38234666 -0.18606304 0.15807371 -1.0929245 -0.12753035 0.42705178 -0.47899172
0.1651146 -0.7695201 0.408682 0.065553226 0.79627633 0.06300195 -0.6578067 -0.29745868
-0.24290694 -0.10794609 -0.42124796 0.744869 -0.0500543 0.4052356 -0.55926055 -0.760627
-0.5123117 0.3797535 -0.9732388 0.19156028 -0.23824424 -0.21164398 -0.5275 0.3284848
0.5326956 -0.351291 0.15280063 -0.12134758 0.57984537 -0.55314094 -0.40795648 0.81034577
0.6956555 -0.15078498 -0.21988213 -0.177004 -0.08522506 -0.00102826 0.43447688 -0.092884965
0.32785612 -0.75978816 0.28522125 -0.08934037 -0.2946554 -0.049280044 -0.48057994 0.13603142
-0.22104879 -0.14485365 -0.5461989 0.31063926 0.41475284 -0.28847304 -0.0672409 -0.17898634
0.07934848 0.19106412 0.0725849 -0.036021307 0.18678986 -0.6962003 -0.44639426 -0.51116246
-1.1122745 0.14348625 0.5358298 -0.189341 0.26228186 -0.5644432 -0.6966253 0.3568135
0.49526218 0.5343751 0.26621595 -0.34163737 0.3355359 0.30995888 0.08429731 -0.13677922
-0.5367821 -0.9535634 -0.13577563 0.5423226 0.97741646 -0.44766656 -0.115855895 -0.91598755
-0.045679156 -0.042728275 0.45621595 0.09006931 0.4717647 0.35344407 -0.43060112 -0.13439983
0.010283503 0.26022518 -0.247561 0.5145961 -0.53107816 -0.54142046 -0.0039406586 0.28371155
0.3801147 -0.07717093 -0.4889635 0.671843 0.45708817 -0.36385405 -0.5018959 -0.09001515
0.30499572 0.378732 -0.3645076 0.0057432773 -0.86735195 0.035044193 -0.25789803 -0.6973674
-0.052187074 0.029213846 -0.1059623 -0.7683734 -0.8640232 -0.20941313 0.3467013 -0.2307791
-0.018034363 -0.17545405 0.0138125755 0.3473785 0.55275863 -0.047805894 0.48662534 -0.21133405
0.19608594 0.067945056 0.31583226 0.2910513 -0.33428127 -0.33417007 -0.46866328 -0.40725893
0.08408343 -0.8256999 0.06436639 0.30691943 0.46129355 0.2937383 -0.11128092 -0.09935581
0.62409 -0.27575225 0.32017502 0.45969573 -0.21382093 0.3639006 -0.47328112 0.6343902
0.54083174 0.30566975 0.486742 0.21308966 -0.1935427 -0.30012038 0.6873413 0.3368918
-0.57137513 -0.44009647 -0.0719472 -0.3920499 -0.461618 0.25602892 0.021952257 0.2200536
0.55319464 -0.7303789 0.009237657 -0.12408065 -0.3761589 0.44784325 -0.5833747 0.56205875
-0.02917017 0.22486486 0.35926569 0.06181958 -0.12827325 0.027849885 0.40657878 -0.19857435
0.11779599 -0.3625363 -0.37707826 -0.11196902 -0.62808454 -0.083177894 -0.52649236 -0.28410438
0.44976506 0.10036182 0.05766968 0.07475944 0.27148104 -0.038038127 -0.37976295 -0.22277035

layer2.3.weight f4 [256, 256]
00000000: 6d65 623c 1181 c9bd f3a6 9e3d 115f 3e3d
00000010: 8c1b 843d 5f75 23bd e7eb 66bc 70fa 053d
00000020: a5e5 b6bc 4581 433c abd4 f33d ed73 ab3d
00000030: 824f a03d 25d8 5ebd 574c 743d 4fa4 b13d
00000040: 9d82 3e3e 4706 adbd f4a5 493d d004 bb3d
00000050: 8a0a babc e894 26be d449 823d daf8 b93b
00000060: 83dc 963d 17e4 debc d3e6 b5bd c7e6 c9bc
00000070: f21a 173c 5a9e 043e 480a bf3b 4a8a a4bd
00000080: 18cd 0fbe 8055 d9bc c38c f63d 5045 d33c
00000090: c2bd 573d 05ba 443c fe4b e43c 84a3 9d3d
000000a0: 275e 81bc 8b50 303d d2ef ad3b 918d 22be
000000b0: 815c fabd 3aea e23d cc61 c03b 8e9e f63d
000000c0: 474b 66bd 2908 0dbd a258 14bd 7da3 83bd
000000d0: 49f9 73bd e1e0 8a3c 9c1e 413d 8a96 02bd
000000e0: e83b f43d a30d 2ebe b8b4 c83d a7c6 ffbd
000000f0: 17cb 563c c33e 663d 3e1d dfbd 6f04 4c3e
00000100: 1110 71bc 3521 4ebd 4721 76bc 9e7b 7abd
00000110: a1fa 0e3d b075 623e 5534 4bbd 5ebb 2bbc
00000120: 3895 053b 9d41 43be 82bd 85bd 96c7 6d3a
00000130: dcb8 bebc 97ee 83bd d204 5f3d f3cd 9ebd
00000140: a90b bcbd 73c0 37bd 59e7 c53d fa34 4b3c
00000150: 8da0 293d 8181 54bd cbb1 7f3e c8be 8ebd
00000160: d3f1 12bc 51e8 373e 56cb 14bd 5d7d 433b
00000170: a07a 283e b2f8 d33d cf98 85bd 12cb 80bd
00000180: b8bd bcbe 9a03 12bc 5f96 8ebd bc39 b1bd
00000190: f95e 823e 33aa 973c 6a5d fcbd cdf5 813d
000001a0: 6cd2 493d 7211 f6bc 77b8 5cbe 5e09 9cbd
000001b0: 0579 9abc dfcf fabc a2cd 17bd 5f01 5b3c
000001c0: 77b7 d9bd 7006 9fbd 88c2 54be 482d e83c
000001d0: be76 57bd 1e4d 403d 8d18 d2bd 57b9 a4bd
000001e0: fcb4 ac3d 13ab 9c3d 4eac 1f3b bbf5 1fbe
000001f0: f2a2 3e3e a37c 27bb 52e4 8d3d 6063 8bbd
00000200: 8b37 bb3c 957d 11be 92a8 cfbd e564 2abe
00000210: be4d 8cbd 189b 72bd b7a5 febd d706 58bb
00000220: c247 cc3c 9198 553d e686 03be 9728 803d
00000230: 7cef f33d 3b76 51bc 1eef 363d fc5e 6b3d
00000240: 584d c7bd 3320 b73b 5645 75bc d7b1 f43b
00000250: 6ee5 103c 60df c2bc 8925 0dbd e879 403b
00000260: f17f e0bc 40d6 2dbc 37cd 64bd 5a81 4c3d
00000270: 066a d23d 3c6c da3d d980 993d 0350 463d
00000280: 26b8 cebc 3bc9 f9bc 3757 65bd 90d8 50bd
00000290: ea75 073d 765a 8e3c f757 80bd a11c 86bc
000002a0: 3f00 cfbc c49a b9bd ebbe d8bd 1ce7 74bb
000002b0: 69d0 f4bb ae4c 0cbd 0faa a7bd 236b 29bd
000002c0: 7771 a63d 3580 223c 5ea1 b1bc 4d34 92bd
000002d0: 0c41 c5bc 360c 26be 8e41 70bd 050e a2bd
000002e0: a052 eebd 5bdb 3fbe d48d 7fbc 51be 2bbe
000002f0: 0f11 ef3c 0fb2 88bb a6b3 1dbe 42cc 023d
00000300: d2b4 87ba 1fc6 9ebd eda4 59bd 1d66 aabd
00000310: 6bc7 473e 53c2 973d 604a dfbc 375d 69bb
00000320: 347d bdbd 80b9 15be a926 293c 71db 8a3d
00000330: 2a56 1fbc eafb b6bd a5e2 8e3b de18 463e
00000340: 8436 263e d5fc eb3d 7a51 613d e4e7 babd
00000350: b0cf 3bbb cc38 103d 608f a53d bcc1 40be
00000360: b822 dfbc feaf 053e d2bd a7bd 7596 b83c
00000370: c728 dd3d ee9a 7cbd d7a5 91bb e98b 2abd
00000380: 444f 55be e42c 29bc f844 99bd b6ac e63d
00000390: bd1f 7d3d 697f a83d 43d9 20bc a63c f5bd
000003a0: 94cf 6bbd 6ba9 45bd 9a6e adbc f65f 0dbd
000003b0: d04d b93d d15e 053d 1608 0bbe 41e5 62bd
000003c0: b244 4b3d 3923 9dbd 731c ecbd 0561 3d3b
000003d0: ada6 463d 3c80 e3bd 308e 5ebc 2e85 88bc
000003e0: ad3c 70bd d8e2 e93d aedf eebc c8a9 863a
000003f0: 0b65 8c3d 3f60 08bc 1b04 ec3d 8555 163d
0.013818127 -0.098390706 0.07746687 0.04647738 0.06450567 -0.039906856 -0.014094329 0.03270954
-0.0223263 0.011932676 0.119057976 0.083717205 0.07827665 -0.05440535 0.059643116 0.086739175
0.18604513 -0.08448463 0.04923053 0.09131777 -0.022710104 -0.1626774 0.06361738 0.0056754174
0.07366278 -0.027208371 -0.08881917 -0.024646176 0.009222733 0.12951031 0.005830083 -0.08034189
-0.14043081 -0.026530027 0.12038567 0.025789887 0.0526712 0.012007241 0.027868267 0.07697204
-0.015791966 0.04304556 0.00530813 -0.15874316 -0.12224675 0.110798314 0.0058710333 0.12041961
-0.056224134 -0.03443161 -0.03621734 -0.06427667 -0.05956391 0.016952934 0.047148332 -0.031881846
0.11925489 -0.1699739 0.09800094 -0.12489062 0.013109944 0.056212198 -0.108942494 0.19923566
-0.014713303 -0.050324637 -0.015022582 -0.061153047 0.034906987 0.22115207 -0.049610455 -0.010481684
0.002038313 -0.19067998 -0.06530286 0.0009070573 -0.023281507 -0.06441992 0.054447956 -0.077541254
-0.091819115 -0.04486127 0.09663267 0.012402767 0.04141288 -0.051881317 0.24970166 -0.069699824
-0.008968788 0.17959715 -0.03632673 0.002982936 0.16453028 0.10350169 -0.065232866 -0.062887326
-0.36863494 -0.0089119915 -0.06962275 -0.0865359 0.25463083 0.018513774 -0.12322505 0.06345711
0.04927294 -0.030037615 -0.21554743 -0.07618974 -0.018856535 -0.030616699 -0.03706134 0.013367026
-0.10630696 -0.077649 -0.20777333 0.028341904 -0.052603476 0.046948545 -0.10258589 -0.08043163
0.084329575 0.07649817 0.0024364176 -0.15621082 0.18616846 -0.0025556467 0.06928314 -0.06806064
0.022853633 -0.14208062 -0.10139574 -0.1664005 -0.06850766 -0.05922994 -0.12433951 -0.0032963061
0.02493656 0.05214745 -0.12844428 0.06257742 0.119109124 -0.012784536 0.044661634 0.05746363
-0.09731549 0.0055885552 -0.014970144 0.007467489 0.008843763 -0.023788154 -0.034459624 0.0029369537
-0.027404757 -0.010610163 -0.05585977 0.049928047 0.102741286 0.10665175 0.07495279 0.04841615
-0.025234293 -0.030491462 -0.055991378 -0.05098778 0.033071436 0.01737712 -0.06266778 -0.016371073
-0.025268672 -0.09062722 -0.1058329 -0.0037369197 -0.0074711335 -0.034252815 -0.08186733 -0.04136194
0.081271105 0.009918262 -0.021683391 -0.07138882 -0.024078868 -0.16215596 -0.058656268 -0.0791283
-0.11636853 -0.18736021 -0.015597779 -0.16771819 0.029182939 -0.004171617 -0.15400562 0.031933077
-0.0010353571 -0.07752632 -0.0531358 -0.08320258 0.19509666 0.07410111 -0.027257144 -0.003560854
-0.09252396 -0.14621544 0.010324159 0.067801364 -0.009725133 -0.089347675 0.004360514 0.19345424
0.16231734 0.11522833 0.055009343 -0.09126261 -0.0028657727 0.035210416 0.08083987 -0.18823904
-0.027238235 0.13055417 -0.08190502 0.022532681 0.10798793 -0.06167119 -0.0044448185 -0.041637335
-0.20831019 -0.010325644 -0.07483858 0.11263411 0.061797846 0.082274266 -0.009817424 -0.119744584
-0.05757101 -0.048257273 -0.021170903 -0.034515344 0.09048045 0.032561127 -0.13577303 -0.055394415
0.04962606 -0.07672734 -0.11528864 0.002889694 0.0484988 -0.11108443 -0.013583705 -0.016665068
-0.058651615 0.1142022 -0.029159393 0.0010273987 0.0685521 -0.008323728 0.115242206 0.03670265

layer2.3.bias f4 [256]
00000000: e49d 12bf d7d4 5abd 3e2e 70be ab59 3ebf
00000010: c328 5a3f eb27 d9be 12b3 6c3f 057e 25bf
00000020: e279 38bf 7085 ff3e d608 863f ca8d 24bf
00000030: 367e 5c3f 672a 8d3e ad28 a33f 4aa7 bfbe
00000040: 8de5 433f af53 b3bd 64d2 e93e a685 393f
00000050: 061f 8abf 81cc ee3e 197a 70bf 58e5 56bf
00000060: c062 7fbf 5e61 cd3c 69e8 5fbf c6c9 813f
00000070: 0de6 63be 325b 943f e17a 393f 517d 803f
00000080: 978e 533f 4025 e03e 6205 66bf 12fd 3cbf
00000090: 80a1 4c3f faa0 5b3f f7da 58bb 42c9 d5be
000000a0: eb2a 433c 336a bebd 503e bbbe fbc2 483f
000000b0: a2f8 0dbe 1862 59bf b446 0f3f 8600 22bf
000000c0: fd3a 32bd 749b e3be 770b 95bf 187d 59bf
000000d0: 013f 2a3f 3bad f03e 5a03 6abe 07dc 163f
000000e0: 038c 7abf f01c 93be 84ec 27bf f9ec af3e
000000f0: ad33 0bbf 9efd 2fbf d9bb db3e d09e 3bbf
00000100: daa2 58bf dca9 973f 37d8 43bf 0962 603f
00000110: e83e 8cbf ac26 de3e 5882 4ebe 81a6 88be
00000120: 4132 8b3e 3e21 72bf 89cb 0bbf ca2d 92bd
00000130: e6d2 02bf bb58 4e3f 43f0 fabd ecca 5f3e
00000140: 5796 62bf 07a5 553f c9e5 663f 4d57 4dbe
00000150: b572 2d3f 0427 7b3f e083 1fbf 167a 60bf
00000160: 6d03 503f 91e0 493f 8276 9ebe f794 72bf
00000170: aacf 94bd 4e7e 5a3f 599c 11bf 6060 d13e
00000180: aace 28bf e7ea 803f 4c57 613f 9765 4abf
00000190: 41c3 02be 35a2 703f 1cbb b83e e61e 113f
000001a0: 6618 fabe 2f02 103f ad8b a13e 43e5 fcbe
000001b0: a81c 0e3f 4aa8 553f 0663 cdbe cc05 4b3f
000001c0: 7283 1c3f 8dfa 91bf b606 193e 39e7 dfbe
000001d0: 5f9b 553f d692 dd3d f32c 91be 212e 38bf
000001e0: a1fe 513f d502 93bf 0976 cebe f83c 04bf
000001f0: e2cd 56bf 3320 cfbc d502 6cbf b94a 87bf
00000200: f88c 9dbe 7ff3 87bf 3d4b ca3d f517 76bf
00000210: 2bab 6f3e 2598 633f 87cf 71be fe7b cb3d
00000220: 3877 40bf caf7 86bf 8fcf 513f 8ce5 9fbb
00000230: e6d6 253f f0bd 83bf 41bc 523f 2a66 8b3e
00000240: 7f73 0e3f 9c95 68bc 952f 813f fc0f 2b3f
00000250: b0cd 343f 2c50 94bf d205 1fbf fd41 8fbf
00000260: c544 60bf d076 7c3f d2d1 613f f3e9 8cbf
00000270: 72e7 b33e 420d 2dbf 1510 e13e 4aac 693e
00000280: 589b 963d fd3f 17bf 3ac7 51bf 50b2 5e3e
00000290: 0aab 6cbf 42de a33d bf92 7bbf 484a 7d3e
000002a0: 0b90 093f 6639 a8be d5f2 37be ee00 4cbf
000002b0: 300a 77bf 4329 f9be 203d fbbe a41a b83e
000002c0: fb34 2bbe 871e 623f db09 d0be 89a8 81bf
000002d0: 6510 0c3e 19a2 383f 3d5a 333f 4ca8 c1bd
000002e0: 05b9 8b3d b168 c5bd 94e8 31bf 69c8 80bf
000002f0: 50fd 2fbf 8a80 07bf 8ef5 80bf ab63 bebb
00000300: fe21 313f 85ef bfbe d246 2ebd e1e9 84bf
00000310: 6668 18bf 81b4 7f3f db1c 20bf 1842 bcbe
00000320: c627 403f 74c2 8b3f 60c4 9d3e 5ce3 e7bd
00000330: f4d1 013f 783d e0bd a07a 193f 3d14 4bbf
00000340: d236 883f af07 d9be 0188 88bf 8d59 6bbf
00000350: d1e3 b03d 50b2 49be 3b77 2abf 3912 763f
00000360: 0af4 10be 6cb9 f3be 9ffa b53e 1414 24bf
00000370: d1ae 7b3f fada 52bf 74c1 01bf 499b 84be
00000380: c906 6f3e dc89 f5be e800 003f 45bb 273f
00000390: eac8 953e 288a 33bf 2d28 86bf 9bae 7abf
000003a0: 8676 73bf f604 c0be 536b 3dbf 55a8 553f
000003b0: b137 61bf feb3 32bb 78bd adbf d4b6 5ebf
000003c0: 54c2 30bf dd74 0c3e 66bc 523e 48d1 863e
000003d0: 9567 1a3f 6b53 723f 828e 853f 71f5 3c3e
000003e0: e943 703f 1dd0 89bf 178b 853f ce84 4b3f
000003f0: 6ecd a23c 1448 1a3f 6a5d 59bf db57 60bf
-0.5727217 -0.053425636 -0.2345514 -0.7435557 0.8521845 -0.42413267 0.9246074 -0.64645416
-0.7206098 0.49906492 1.0471447 -0.6427885 0.8613008 0.27571413 1.2746788 -0.3743232
0.7652214 -0.08756196 0.45668328 0.72469556 -1.0790718 0.466404 -0.93936306 -0.839437
-0.99760056 0.025070842 -0.87464005 1.0139701 -0.22255726 1.1590331 0.72453123 1.0038244
0.8263945 0.4377842 -0.89851964 -0.73823655 0.7993393 0.85792506 -0.0033089498 -0.4175511
0.011912088 -0.092976 -0.36570978 0.78422517 -0.13864377 -0.84915304 0.5596726 -0.6328205
-0.043513287 -0.4445454 -1.1644124 -0.849565 0.66502386 0.47007164 -0.22852841 0.58929485
-0.9786989 -0.28733015 -0.6559527 0.34360483 -0.54375726 -0.68746364 0.42916754 -0.73289204
-0.8462349 1.1848712 -0.7650179 0.8764959 -1.0956697 0.4338888 -0.2016691 -0.26689532
0.27186778 -0.94581974 -0.54607445 -0.0713764 -0.51103055 0.8060414 -0.122528575 0.21854752
-0.8851065 0.83454937 0.90194374 -0.20052834 0.67753154 0.9810641 -0.623106 -0.8768629
0.8125523 0.78858286 -0.3094979 -0.9475855 -0.07266171 0.85348976 -0.5687919 0.4089384
-0.65940344 1.0071687 0.8802383 -0.79061264 -0.12769796 0.9399751 0.36080253 0.5668777
-0.4884674 0.5625333 0.31551877 -0.49393663 0.55512476 0.83459914 -0.4011461 0.7930572
0.6113807 -1.1404587 0.14943966 -0.43731096 0.834402 0.10819022 -0.28354606 -0.7194539
0.8202916 -1.1485239 -0.4032443 -0.5165553 -0.839079 -0.025283908 -0.9219182 -1.0569679
-0.30771613 -1.0621184 0.09877632 -0.96130306 0.23405139 0.8890403 -0.23614322 0.09935759
-0.75181913 -1.0544369 0.81957334 -0.004879659 0.64781034 -1.0292339 0.823185 0.27226382
0.55644983 -0.014195826 1.0092646 0.66821265 0.70626354 -1.1586967 -0.62118256 -1.1192013
-0.87604934 0.98618793 0.88210785 -1.1008896 0.35137516 -0.67598355 0.43957582 0.2281963
0.07353848 -0.59082013 -0.8194462 0.21747708 -0.92448485 0.08001377 -0.9827079 0.24735367
0.5373542 -0.32856292 -0.17963727 -0.7968892 -0.9649992 -0.48664293 -0.49070072 0.35957825
-0.16719429 0.8832783 -0.4063252 -1.0129558 0.13678129 0.7212234 0.7005957 -0.09455928
0.06822399 -0.09639109 -0.6949551 -1.006116 -0.687459 -0.5293051 -1.0074937 -0.005810221
0.6919249 -0.37487426 -0.04254801 -1.0383874 -0.595343 0.998848 -0.6254403 -0.36769176
0.7506069 1.0918717 0.30813885 -0.11322662 0.5071099 -0.10949224 0.59952736 -0.79327756
1.064173 -0.42388675 -1.0666505 -0.9193352 0.086372025 -0.19696927 -0.6658818 0.96121556
-0.14155594 -0.47602403 0.3554277 -0.64093137 0.98313624 -0.8236538 -0.5068581 -0.25899723
0.23342432 -0.4795674 0.5000138 0.65520126 0.29254848 -0.70132685 -1.0481011 -0.97922677
-0.9510273 -0.37503785 -0.7399189 0.8345998 -0.87975603 -0.0027267928 -1.3573446 -0.86997724
-0.6904652 0.13716455 0.20579681 0.26331544 0.60314304 0.94658536 1.0434115 0.18453003
0.9385362 -1.0766636 1.0433072 0.7949952 0.019873347 0.6026623 -0.84908164 -0.87634057

layer2.6.weight f4 [10, 256]
00000000: 3a75 043e 75c0 f63c 748a 18bd 7ca3 983d
00000010: 8bf4 e4bd 9f19 66bd 4c43 cfba 975e 983c
00000020: 8ffd 823c 081e 013c c5b2 623d f57e e5bb
00000030: 2455 983c d2b7 0dbd 6ea6 a9bd ab81 5e3d
00000040: 746e 07be 0c33 93bb fd48 48bd 7157 a73c
00000050: 56c0 d9bc 278f a0bc 53a3 cc3d 3503 313d
00000060: a7a4 9ebc 57ad 0b3d df41 9ebd dfe5 00be
00000070: d515 373d 62f7 603d 9b3c 873d 8b52 11be
00000080: db71 9e3c 0232 b9bc 876f a53d 5460 ffbb
00000090: 0fa8 8fbc fbd3 79bc 5b31 1bbc 5b07 3c3d
000000a0: 5d32 adbc 68d5 ef3b 7c82 06bc 8164 963c
000000b0: 8eb2 973d c350 063c ab00 d1bc d561 97bc
000000c0: 8ba7 aeba 6289 703c 4d9b 3b3e 8ab8 d13d
000000d0: b8a1 6cbd 99ff 953c 6c9e 943c 5a3c f2bd
000000e0: 5a39 9f3c 0fb7 cd3c 662b ba3d 817c 203c
000000f0: 03ef a63b faea b6bc 100b 2bbc f196 2a3d
00000100: 1cbe d9bc 36bb 9f3d a34e 1c3c eab2 ef3d
00000110: f620 9cbd be37 0abd e4ce 3c3d 55f9 c33c
00000120: 8f5e 2c3d 6ac7 bcbd 964e 153a ae98 883d
00000130: e630 4cbb 3207 a7bc 2ecb 26bd eadc 22bd
00000140: 9eb2 fb3d 6b95 e6bc 26d8 ecbc d55b 6b3c
00000150: 947b b1bd 69e1 d0bd 981b 7dbd 968a 80bc
00000160: 3a51 80bd 86ba f0bd 18a6 fa3b d844 033e
00000170: 7ca6 17bd 45d3 2b3c 3990 c7bb 5ad8 e23c
00000180: 4b09 df3d 06e0 d4bd 18a7 e8bd 8587 d5bc
00000190: 7d20 363d e8fc edbc 6cb1 2ebc dc86 083d
000001a0: ad6a a2bb 8f9e 993d 3ac3 8a3d e9e9 b43d
000001b0: cdf8 80bd e3e0 07bd 7150 553d 6a17 20be
000001c0: c1c9 edbc c9f2 b0bc b455 903d 75c2 55bd
000001d0: f37f a2bd 25d0 a83d 0a31 033d 141a ddbc
000001e0: 26ce de3d 5f4e 9abc e2f4 ae3c de67 26bd
000001f0: 864c 653c 8d25 77bd 7726 8b3c 284d 35bd
00000200: 886c 033c c159 95bd e8bf 89bb 594f 6cbd
00000210: 3e0e 103c 643a 2ebd 89fb 28bd 3e02 883d
00000220: cabd 83bd f43e 2c3e 0d57 ccbc 9c9b 433d
00000230: b300 9cba 6128 c73d 86fb d9bc 9d20 43bd
00000240: f946 09bb cbc7 833d 2b35 57bc 88f2 af3d
00000250: 86c1 633c 863c 38bd 6142 acbd d98d b1bd
00000260: ad87 0f3d 1fb0 5b3d e657 733d 9e2e 7bbc
00000270: 5190 863a ed6f df3b 96a9 43bd 0103 8d3d
00000280: 3365 543d c2fd 213c 404f 253d 22e3 873c
00000290: 1ac6 023e 1c1b 18bd 7c14 81bd b5a9 4cbb
000002a0: d7be 093d 71de 99bc 1c16 8b3d b4ed ca3d
000002b0: d71b 003d 649b e63c 05da 053d 2691 bbbc
000002c0: 0c8e 2d3d 1c70 883d ed76 73ba c8af 233e
000002d0: 9e5c dabb 89b2 86bc eea3 f33c 591c 4ebd
000002e0: 0206 273d d24b cd3c 6e9d 483d ff05 d13d
000002f0: 6491 523d 2867 cabd 0e50 303e 8f84 09bd
00000300: bd63 b43d 8bff 93bb 2731 b53b ae68 033e
00000310: daf5 873d 9a6c 08bd 3809 1cbb a800 493b
00000320: 7bac afbd 59a9 9e3d 9f66 63bc 31cc 8d3c
00000330: 076f c9bc 8c06 9bbc 7fc4 b9bc f993 32bc
00000340: d906 0dbe 0fb9 1f3d a9ce 323e 1335 a93d
00000350: f248 f83c 26cb 95bd 0e3d 9abc 10f1 d13d
00000360: d6ca adbb c651 253c 3a34 07bd 4cd7 90bd
00000370: 415b 2d3c a11f a43d 8e45 393d 3a37 ee3c
00000380: d5bb 9ebc ccec 00bb 55f6 3bbc 43ba ee3a
00000390: c38b 63bd bdd2 993d 2748 30bd 37cb 88bc
000003a0: dfc4 9c3d 2c5f 803d fa8d 0f3d 92a0 0bbe
000003b0: 9980 f4bb 2acc 983b 8036 05bd 7c33 32bd
000003c0: e568 93bc 3b89 6cbd 7848 4b3c e3f8 14bd
000003d0: c4cc 63bd 29aa 10be e804 be3d 8b43 373d
000003e0: f71e 88bd e77b 223e a65c 4cbe 221e dcbd
000003f0: 3b7d 6b3d b753 8fbd b4f1 f23c e172 ecbc
0.12935343 0.030121068 -0.037241414 0.07453057 -0.11179455 -0.056176778 -0.0015812903 0.018599791
0.015990047 0.007880695 0.05534627 -0.00700366 0.018595286 -0.034599133 -0.08283697 0.05432288
-0.13225728 -0.0044921692 -0.048897732 0.020427437 -0.02658097 -0.01959951 0.09992089 0.04321595
-0.019365622 0.034100857 -0.07727408 -0.12587689 0.044698555 0.054923423 0.066033565 -0.14191644
0.0193414 -0.022606853 0.08077913 -0.0077934656 -0.017536191 -0.015248294 -0.0094722165 0.045905452
-0.02114218 0.007319141 -0.008209821 0.01835847 0.074071035 0.008197966 -0.025513014 -0.018479267
-0.0013325078 0.014681192 0.18320961 0.10240276 -0.057771415 0.018310355 0.018141948 -0.118279174
0.019436527 0.025111703 0.09090309 0.009795309 0.0050944104 -0.022328842 -0.010439649 0.041647855
-0.026579909 0.077993795 0.009540233 0.11704047 -0.07623474 -0.033744566 0.046095744 0.023922602
0.042082366 -0.09217723 0.0005695609 0.06669746 -0.0031157075 -0.020389173 -0.04072111 -0.03976146
0.12289928 -0.02814742 -0.028911661 0.014365156 -0.08666149 -0.101992436 -0.061793894 -0.015691083
-0.06265493 -0.117543265 0.0076491944 0.1281923 -0.037024006 0.010487382 -0.0060901907 0.027691055
0.10890444 -0.103942916 -0.113599956 -0.026065597 0.044464577 -0.02905126 -0.010662418 0.033331737
-0.0049565644 0.07500946 0.06775518 0.08833677 -0.06297455 -0.033173453 0.052078668 -0.15633932
-0.029026868 -0.021600144 0.070475966 -0.0521874 -0.079345606 0.082428254 0.03202919 -0.026989974
0.108791634 -0.018836198 0.021357004 -0.0406264 0.013995295 -0.060338546 0.016986115 -0.044263035
0.008021481 -0.0729251 -0.004203785 -0.05769286 0.008792458 -0.042536154 -0.041255508 0.06641053
-0.06432684 0.1682089 -0.024943853 0.047755823 -0.0011902064 0.097244985 -0.026609194 -0.047638524
-0.0020946844 0.06434592 -0.013135235 0.08591181 0.01390112 -0.044979595 -0.08411098 -0.086696334
0.0350415 0.05363476 0.05941 -0.015330939 0.0010266398 0.0068187625 -0.04776915 0.068853386
0.051854324 0.009887161 0.04035878 0.016587798 0.12770882 -0.03713523 -0.06302735 -0.0031229083
0.033629265 -0.018782826 0.067913264 0.099086195 0.03127655 0.028150268 0.032678623 -0.02289636
0.042371795 0.06662008 -0.00092874357 0.15985024 -0.006663873 -0.016442554 0.029741254 -0.050320003
0.040777214 0.025060568 0.04897826 0.10206222 0.051408187 -0.09882957 0.17218038 -0.033573683
0.08808086 -0.004516547 0.005529541 0.12832901 0.06638689 -0.033306696 -0.0023809206 0.0030670557
-0.0857782 0.07747144 -0.013879447 0.01730928 -0.024589075 -0.01892402 -0.022676704 -0.010899537
-0.13772143 0.038994845 0.17461647 0.08262076 0.03030822 -0.07314138 -0.018827941 0.10251057
-0.005303721 0.010090297 -0.03300879 -0.070723146 0.010580839 0.08013845 0.04523235 0.029079068
-0.019376675 -0.0019672392 -0.011472304 0.0018213469 -0.05555321 0.07510898 -0.04303756 -0.016698463
0.07654738 0.062681526 0.03504751 -0.13635471 -0.007461619 0.00466301 -0.03252268 -0.04350613
-0.017994354 -0.05774806 0.012407415 -0.03637017 -0.0556152 -0.14127411 0.092782795 0.04474215
-0.06646531 0.15867577 -0.19957218 -0.10747935 0.057492476 -0.06998389 0.029656269 -0.028863372

layer2.6.bias f4 [10]
00000000: 1f4b 43bf d606 5fbf 19bc 8bc0 1929 5bbf
00000010: abfe 94bf aa69 463f b7e7 a9bf 4a9f c93e
00000020: fa3c 1abf 84e0 bcbe
-0.762865 -0.87119806 -4.366711 -0.85609585 -1.1640218 0.7750498 -1.3273839 0.3937934
-0.6024929 -0.36890042
