Model_Files/helpdesk/EventPredictor_parameters_binary_0.0001.pt (torch, 286599 bytes, 8 tensors)

layer1.weight f4 [4, 1]
00000000: 1fe2 3bbf 576f 89bf 030e 25bd 1f87 433f
-0.7339191 -1.0737103 -0.040296566 0.76378053

layer1.bias f4 [9]
00000000: 5891 423f 382a ee3e aaf0 52bf a498 e93e
00000010: df7a 1a3e 1e75 3a3e 24b0 fd3e eef9 3ebf
00000020: 1f2d 433e
0.76003027 0.46516585 -0.82398474 0.45624268 0.15085934 0.18208739 0.49548447 -0.7460011
0.19060181

layer2.1.weight f4 [256, 9]
00000000: 2e7e 2bbf 56c5 37be fb1d 143b 5742 9ebe
00000010: 840f e53d 4207 40bd baf9 ab3d 5034 083f
00000020: 49b7 b73c f293 2abf f391 ee3d 81e0 8bbd
00000030: 5e33 a13d b03d f63d 6221 b4bc b118 453e
00000040: 5b8e 89bd 1f59 dc3a a090 593e 2b74 34be
00000050: 1e3a 4abd eec3 00bd c7be 3abe 8b95 993e
00000060: 2062 933e 2be4 c4be 19cc 333e 33b1 abbe
00000070: 7280 d43e 6465 203e 24ff 963e dbe1 a23d
00000080: f9da f7bc e99e 033e bbc2 bb3d 0557 12be
00000090: 31cd 183e 589e 6c3c a7d5 96be 2829 1bbe
000000a0: 665b 2ebe b67e 503e 7285 3fbe 27dd 493e
000000b0: 4047 b83c fc92 103e ce73 f8bd 7995 903d
000000c0: 2585 343e 3365 f13e a668 4ebb b830 f03d
000000d0: 6ac2 fc3c cbd2 a8be d67e 1d3f 6ceb 963e
000000e0: 2ac2 83bd c821 523e 1bb2 973e e645 af3c
000000f0: aef4 a63e 2c1b 9cbe d34d 93bd 20c9 b6be
00000100: ebd8 34be 5686 eb3d df51 713e db20 163d
00000110: 0a0f 0bbe 5d6a 113e 52d5 3fbc f391 993d
00000120: 19dd 123e 994d 07bc 76ae 30be 1d4c 853e
00000130: 5ee3 24be eda4 fc3d 8a71 323e f7cf 8cbe
00000140: 79b5 69be e004 cfbc 5a9b 613b 9be6 c5be
00000150: b995 743e 4ace 553e d418 9abe eec6 883e
00000160: f255 b5be 325f 52bd 32ba 04be 6504 1fbf
00000170: 93ff a53d e248 5ebf b8cd aabe f6b0 363e
00000180: 2281 45bf 182f ed3d 40f0 8ebd ba88 0f3e
00000190: 7bda 06bf 5361 2f3e 5fe3 bdbe 8c35 9abe
000001a0: f7ac e7bd eea5 cfbe 5187 7c3d 47a5 1ebf
000001b0: 398b 473e 8d71 af3e 0402 1bbe e262 b9bd
000001c0: 857d d8be 56f7 8b3e 39cc 53be 99f3 abbe
000001d0: 045b c53e d53a 2b3e c9fb f6bc cab6 c03c
000001e0: bdf5 353e 8775 27be a965 d9bc e276 2d3d
000001f0: 1c3a 57bb d42c b4bd 2a36 793d 1ecb 96bd
00000200: 21ee 353e 13ab 73bd 685b 2dbe 5f52 a2bb
00000210: a7f7 503d 9de8 93be 94dc 473e 5611 583f
00000220: c05c fd3d d2af 5e3d 0e8d 243e 6768 fb3e
00000230: 6aeb 86be ed59 9bbd dd72 90bd e496 8c3d
00000240: 67b3 323e ab6d 093e ecc0 83be 300f 30be
00000250: 2e64 31be d931 473e 9473 783e 3f6a 96be
00000260: 3c12 c3bc 37b5 fbbd 38d5 963c 24e8 a33e
00000270: 1dc3 65be d378 983d 272b 8a3d d7b9 95be
00000280: 2010 95bd 1ae2 61be 008d c63e fa12 e93b
00000290: 3a44 aa3d 2d9a 2b3e 9832 e53c 0828 2a3e
000002a0: 16c0 2ebe ed48 83be 0a5d 95be 4ca5 68bd
000002b0: bacf bc3e 85be ecbe 9bad 1dbe 56ee 30bd
000002c0: 19fe 89be d54d 963e 18e7 843e 0f50 073d
000002d0: 762a 7f3e b74b 71be 5134 113e 3887 bdbd
000002e0: 1ad3 fabd f6b8 773e 15ff 6fbe 8d8b fe3e
000002f0: 6556 e4bd ff57 cd3c 3595 d43e 637d 913f
00000300: b944 c53d ff4c 95bb 0397 83be 5d09 f43d
00000310: 14eb 263f a67c 813e ff0b 963d 1fc8 103e
00000320: 0c0e 263e 88b8 46be 4fdc 8e3e a809 453e
00000330: 217f 62be e78e ad3e 43b3 9dbe 4cb5 f43e
00000340: d959 d9bd c471 513d 14e8 813e 464c 05bc
00000350: 52fa 42be c68c f03d ec6b 8a3d 0ad6 0d3d
00000360: 6539 043e b6b2 84bd a7b6 a2bd b5f7 8dbd
00000370: 9763 343e 0869 8d3d 6a62 82be 8640 873d
00000380: 8082 933d d15c fd3d c6cb d6be 0f43 94bf
00000390: 84d9 fbbe b2b1 03b7 5a26 a23d cf28 d3be
000003a0: 36b4 8ebf 1612 c8be 757f 9f3e a692 653e
000003b0: a473 d0be 7d6c 86be e6c2 d3be d5d4 363e
000003c0: a314 89bd e007 9a3d 4c7e d63d 2139 483e
000003d0: 324f b13d 8770 1abe 38ab b63e 9954 2abe
000003e0: 1492 8e3e 75f5 2dbd 1f62 b9bd 8cda 29be
000003f0: 3f41 42be a305 663e 8b15 c9be fb9e 9aba
-0.6698941 -0.17946371 0.0022600878 -0.30909988 0.111846 -0.04688192 0.08397241 0.5320482
0.022426264 -0.66631997 0.11648931 -0.0682993 0.07871126 0.12023485 -0.021988574 0.192477
-0.06716605 0.0016811228 0.21246576 -0.1762244 -0.04937183 -0.031436853 -0.18236838 0.29996905
0.287858 -0.38455328 0.17558326 -0.3353363 0.41504246 0.15663677 0.29491532 0.07953235
-0.030255781 0.12853588 0.09168001 -0.14291008 0.14922024 0.014442049 -0.2945988 -0.15152419
-0.17027053 0.20360836 -0.18703249 0.19713269 0.022494912 0.1411857 -0.12131463 0.0705976
0.17628916 0.4714752 -0.003149548 0.11728042 0.030854423 -0.32973322 0.6152166 0.29476488
-0.06433518 0.20520699 0.2962807 0.021395635 0.3260855 -0.3048948 -0.07192578 -0.3570032
-0.17660873 0.11500232 0.23566388 0.036652427 -0.13579956 0.1420073 -0.011708574 0.07498541
0.14342155 -0.008258247 -0.17254052 0.26034632 -0.16102359 0.123361446 0.17426124 -0.27502415
-0.22823133 -0.02527088 0.0034424872 -0.386525 0.2388524 0.20879474 -0.30097067 0.2671427
-0.35417134 -0.051360317 -0.12961653 -0.6211608 0.081053875 -0.8682996 -0.33360076 0.17840943
-0.77150166 0.11581248 -0.06979418 0.14017001 -0.52677125 0.1712697 -0.37087533 -0.30118978
-0.11312287 -0.40556282 0.061652485 -0.61970943 0.19486703 0.3426632 -0.15137488 -0.090520635
-0.42283264 0.2733714 -0.20683374 -0.33584288 0.38546002 0.16721661 -0.030149357 0.02352466
0.17769523 -0.16353427 -0.026537733 0.042349704 -0.0032841032 -0.08797613 0.06084267 -0.0736296
0.1776662 -0.05948932 -0.169294 -0.004953667 0.05101743 -0.28888407 0.19517738 0.8440145
0.12371206 0.054366894 0.16069433 0.4910309 -0.26351482 -0.07585511 -0.070531584 0.068647176
0.17451249 0.13420741 -0.25733125 -0.17193294 -0.17323372 0.19452609 0.2426284 -0.29377934
-0.023812406 -0.12290423 0.018412217 0.32013047 -0.22437711 0.074449204 0.06746512 -0.29243347
-0.07278466 -0.22058907 0.3877945 0.007112858 0.083137944 0.16758032 0.027978227 0.16616833
-0.17065462 -0.25641575 -0.29172546 -0.056798264 0.36877233 -0.46239105 -0.15398256 -0.043196045
-0.26951674 0.29356256 0.2595756 0.033035334 0.24918541 -0.23564039 0.14180113 -0.092543066
-0.12247296 0.24191651 -0.2343715 0.49715844 -0.11149291 0.025066374 0.41520086 1.136639
0.096322484 -0.004556298 -0.2570115 0.119158484 0.6520245 0.25290412 0.07326507 0.1413884
0.16216296 -0.1940633 0.27902457 0.19241965 -0.22118808 0.33898088 -0.30800828 0.4779457
-0.1061284 0.051133886 0.25372374 -0.008135861 -0.19040802 0.117456004 0.06758866 0.03462795
0.1291252 -0.06479399 -0.079449944 -0.06932012 0.17616116 0.06904799 -0.2546571 0.06604104
0.07202625 0.12371219 -0.41952342 -1.1582965 -0.4918939 -7.849581e-06 0.07917471 -0.41242072
-1.1148746 -0.39076298 0.3115193 0.22419223 -0.40713227 -0.26254645 -0.41359633 0.17854626
-0.06693389 0.07521033 0.10473308 0.19553043 0.086576834 -0.15081988 0.35677505 -0.16633834
0.27845824 -0.042470414 -0.09051918 -0.16587275 -0.18970202 0.22463088 -0.39274248 -0.0011796647

layer2.1.bias f4 [256]
00000000: 1853 05be a1a0 bb3d 99d1 9abe 666f 5cbd
00000010: 90bd 6dbd 8d60 be3e c182 b73e aa7b b03e
00000020: 1352 b03e 35f9 4f3c be6f 46be 8b7e d73e
00000030: 16ce ba3d 1857 283e c892 91be 019e 0cbd
00000040: 1632 f3ba aafd 383e f1c8 e03e 514d 1b3f
00000050: e7dd a9be e313 7cbe 41fa d9bc 31c9 573e
00000060: 8e88 40bc 01a4 7cbd a480 30bd 2574 2d3e
00000070: cdc7 503e 7385 8d3c 3dda cf3e 261e b4bd
00000080: a601 f63e 5a7a bc3e b0a0 96be a134 cc3c
00000090: 61cb 243d 3c19 14bd cce4 1c3d 89cc 30be
000000a0: 64b5 063c 688f c3be 744b fc3d 1137 653e
000000b0: 8227 0d3f 58f1 a7be 85d9 753d ce16 503d
000000c0: f404 c43d ee78 cabe d55b c0bd 9577 6abe
000000d0: be80 12bf 5398 f4be c0b0 80be 74ef 0abf
000000e0: 8894 6e3e 2c2e 653e 046b 8fbe 8347 c7be
000000f0: 28bf 9fbd 4001 aebd 7cb8 95bd 8cec 593e
00000100: fd8e de3d f7a7 c13e 59c7 f63e 1d21 22bf
00000110: b97e 4f3e 8922 91bd de3c b93e 2c32 adbe
00000120: d4e8 073e 8037 85be 3efd 0d3f 5a84 b13c
00000130: 1fea 8d3d 47f1 003e 0fd8 2e3d 5889 25bf
00000140: 085d 12bf 774b 32be 3194 8ebe c16c a4be
00000150: d6d0 fcbe a91e 91be 51ba 41bd 7596 b93c
00000160: fa08 663e 15fc 0b3e e222 5bbe af31 bd3d
00000170: cd1c be3e 5a1d 123f 704b 55be 6dd4 a33d
00000180: 8d19 b53d f929 ac3e b579 85bb e36e 94be
00000190: 84d3 03bf eb93 9f3e 30b4 10bf 8212 44be
000001a0: cb3f e6be f8c9 893e 8777 f63e 0686 d7be
000001b0: 5843 213e a34e 9ebe b0b2 89be 3c61 18bf
000001c0: 315a 053e fe27 9fbe 7aee 0e3e 39af 833e
000001d0: d2bb 01be 3e8b e9be 0baf 903d 9f49 823c
000001e0: d78c 333e aa67 40be 9304 46be a60c 163d
000001f0: b57b 463e 6189 21be e63a 193f 4077 1f3e
00000200: a95b 5dbc aa91 d83d 3214 e83e d16f 85be
00000210: 9114 db3e 9077 66bc 1b58 be3e a98c 89be
00000220: 90c7 c33e d8a7 c83e 09b9 4fbd f8cf c3be
00000230: 31b6 eebe aa17 233f 14e8 123e 6c15 d33e
00000240: 5a3e 75be a34a 133f a772 cbbe 0c95 ccbb
00000250: a548 e03e 527b cfbd 1b9f 6b3e 505c 9b3e
00000260: bb23 7cbe 8852 05bf 1b5c 9bbe 8ea4 65be
00000270: 3cd0 94be 1bc2 3d3e 5ded 543e c099 f03e
00000280: 5471 f03c a838 2abd 1ef5 703d c204 7f3e
00000290: 4bfe dc3d a56d 5d3e b76b 4f3d 7d9f 7bbe
000002a0: 0721 143d e88a ffbe 6a6c a43e 84b1 2d3f
000002b0: 5662 9abe de60 8ebe e103 cbbe e8f9 243f
000002c0: 74a2 d33e dc65 d03e 6613 2c3d 4b29 c03e
000002d0: 0509 41be 3cc0 0fbf faaf 3fbe 7bbf 1f3e
000002e0: 71e0 91be e0e1 44bd c1b2 84be 22b5 16bd
000002f0: 75c9 16be cc7c 68be 2731 053f 6da5 8cbe
00000300: 31bf 12bf c6ab 793e 7768 b8bc 1d2a f1be
00000310: af42 90be c07c c2bc cf56 a7be 02b7 e7be
00000320: d6bc 0f3e 26f4 f13e eff7 9dbe fdb6 a9bd
00000330: 7bd2 ff3d 2d28 a33e c640 7fbd 6055 e5be
00000340: c590 413d eaa9 393f 0e1e 9f3e dc32 233c
00000350: cb5b e3be 0867 81be 5525 5c3d 47fc 3f3c
00000360: 652d 0c3f 7be6 183c 108a 41be bd23 e8bd
00000370: 0d62 283d 184b 953e 539a dabe 61c5 11bd
00000380: 40e1 903e 57f1 43be e474 023e 4b09 d7bc
00000390: b052 9c3e c34a 4e3e 7b68 dabd 5bff 753e
000003a0: 4e41 cf3e cfc3 c93d af2e 30be a916 94be
000003b0: 974c 7e3d 0d48 1e3f b86a 0ebe e186 aabc
000003c0: 2589 54bd a4e6 643e 6f2a 6ebe a99e bc3e
000003d0: 86d1 643e df8a c1bd 0c28 2fbe b033 363e
000003e0: a45b 803e e073 85be d1a3 ec3c 3955 a03e
000003f0: 4ec5 8bbe 7923 473e e7f0 123e 12e7 9bbe
-0.13019979 0.09161497 -0.30238035 -0.053817175 -0.05804211 0.37183037 0.35841945 0.34469348
0.34437618 0.012693693 -0.19378564 0.42088732 0.09121339 0.16439474 -0.28432298 -0.03433037
-0.0018554355 0.18065515 0.43903306 0.6066485 -0.3317711 -0.24616961 -0.026608588 0.21072842
-0.011751307 -0.061679844 -0.04309143 0.16938837 0.20388718 0.017275548 0.4059619 -0.08794813
0.48048133 0.36812097 -0.2941947 0.02492744 0.04023302 -0.036156878 0.038304135 -0.17265524
0.008221958 -0.38195348 0.12319079 0.22384287 0.5513841 -0.32801318 0.060021896 0.050803
0.09571257 -0.39545387 -0.093925156 -0.2289718 -0.57227695 -0.47772464 -0.2513485 -0.54271626
0.23298848 0.22380894 -0.28011334 -0.38921747 -0.07800132 -0.08496332 -0.07310578 0.21281642
0.108671166 0.3782346 0.48198965 -0.63331777 0.20263185 -0.07086665 0.3617925 -0.3382734
0.1327241 -0.26018906 0.5546454 0.021669555 0.06929421 0.1259204 0.04268652 -0.64662695
-0.57173204 -0.174116 -0.27847436 -0.32114223 -0.4937808 -0.28343704 -0.047296826 0.022654751
0.22464362 0.1367038 -0.21400025 0.09237992 0.37131348 0.57076037 -0.20829558 0.079995014
0.08842764 0.33625773 -0.0040733465 -0.2899085 -0.5149462 0.3116754 -0.56524944 -0.19147685
-0.44970545 0.26911902 0.48138067 -0.4209444 0.15748346 -0.3091937 -0.2689414 -0.5952337
0.13022687 -0.310852 0.13958159 0.25719622 -0.12669304 -0.45614046 0.07064637 0.015904246
0.17534195 -0.18789545 -0.19337682 0.036633156 0.19383128 -0.15775062 0.59855497 0.15572834
-0.013510623 0.10574658 0.45327908 -0.26061872 0.42789128 -0.014066592 0.37176594 -0.26865128
0.38238192 0.39190555 -0.050713573 -0.38244605 -0.46623376 0.63707983 0.14346343 0.4122728
-0.23949566 0.5753576 -0.3973591 -0.0062433537 0.43805423 -0.10130943 0.23009913 0.30343866
-0.24623005 -0.5207906 -0.30343708 -0.22426054 -0.2906512 0.18531077 0.20793672 0.46992302
0.029350914 -0.041557938 0.058827512 0.24904159 0.1079069 0.21623857 0.050639834 -0.24572559
0.03616431 -0.49910665 0.32113963 0.6784899 -0.3015315 -0.2780828 -0.39651397 0.64443827
0.4133488 0.40702713 0.042010687 0.37531504 -0.18851097 -0.561527 -0.18719473 0.15600388
-0.28491548 -0.048066974 -0.25917628 -0.036793835 -0.14725287 -0.22703856 0.52028126 -0.2746996
-0.57322985 0.24381933 -0.02251075 -0.47102442 -0.28175876 -0.023741126 -0.32683417 -0.4525681
0.14036879 0.47256583 -0.3085322 -0.08286855 0.12491318 0.3186659 -0.062317632 -0.44791698
0.047257204 0.72524893 0.31077617 0.009960856 -0.4440597 -0.2527392 0.05374654 0.011717862
0.54756767 0.009332295 -0.18900323 -0.113349415 0.041109134 0.29158854 -0.42695865 -0.035588626
0.28296852 -0.19135033 0.12739903 -0.026249548 0.30531836 0.20145707 -0.10664459 0.24023192
0.4047951 0.09851801 -0.17205308 -0.28923538 0.06208476 0.6182869 -0.13907897 -0.020816268
-0.051888604 0.22353607 -0.23258375 0.36839798 0.22345552 -0.09450316 -0.1710512 0.17793155
0.25069916 -0.26064968 0.028886707 0.3131502 -0.2729897 0.19447125 0.1434971 -0.3044973

layer2.3.weight f4 [256, 256]
00000000: e85f 493d 36c1 de3d 2700 b2bc 366f b53d
00000010: 99ad 9b3d 78f9 413c 5fd1 3dbd 1338 3ebd
00000020: db51 9fbd 7802 443c 9242 98bd a142 9d3b
00000030: a61f 1dbe 7476 9e3c fae2 58bc cb9c 2c3c
00000040: b85e 03bd aee0 623c e893 b73c 056f f1bd
00000050: b5de cc3d 4769 ac3d ba84 c93d 31a1 3a3d
00000060: 960b 8c3d 4f83 a7bd 7ee6 143d f699 21bd
00000070: d8a7 e03b 7ad5 b2bd 125f 11bd e89b a7bd
00000080: 1a1a a2bb ed0f 02be 13c0 2c3d 1f73 b4bc
00000090: 61f6 243d 8a04 043c b400 4dbc bb8b d73b
000000a0: ec52 673b dec3 5c3d 6f35 9c3a a870 68bc
000000b0: 9ca1 863b 4727 6a3d fabd 74bd b264 713d
000000c0: 2246 203d c782 193d 57a4 0dbd db38 debc
000000d0: 818d 19bc b8ea 9c3d 6331 ea3d 88d6 133d
000000e0: 7753 e23b 6732 1fbb c2ee 7c3c ebae d3ba
000000f0: eef7 d2bd ee6e 35bc 3d16 6cbc 5a48 f4bc
00000100: ecac 12bc 4696 bc3c b675 a93c 5ff4 593d
00000110: a1c3 f33b 01c9 30bd 87db 33bc 3506 efbb
00000120: 7ccf ed3d 2b52 d6bd 3cd3 443d a2c3 5d3d
00000130: 5b05 c0bd 967e 3f3c 4461 3d3d acdf d3bd
00000140: fb78 bb3b 0e8e 0abd 8f59 693d 7b87 823c
00000150: 8793 413d c17c c83c 5bfe 95bd fa00 2bbe
00000160: 32d2 f0bd 583f 893d fa70 0e3d 8be4 41bc
00000170: 0c5c a0bd 6960 2fbd ac77 9bbd 7574 2537
00000180: 6d88 8c3c 535d 803d ee68 0c3c 9bb6 a73c
00000190: 2aa7 ad3d a3df 0e3d 1a8b 97bd cda2 89bc
000001a0: c705 a53c d18a 61bd d0fa 86bc fed8 973c
000001b0: 0ec3 08be e372 043d b3d8 e63d 451e 3b3d
000001c0: 2c6b f23d c9a2 893d bc1f 12bd ee9c 3e3d
000001d0: cee5 aa3d b68a 8fbb 16f9 4dbc 87fc b73b
000001e0: b4b7 6ebd 5f0b 0e3c 271b 623d da79 eebc
000001f0: c4ee dfbc 0030 05be 33e3 353d 2cd5 c4bd
00000200: 10f1 38bd 913b 82bd d0cf 203b 223c 0f3e
00000210: a4e3 44bd 789c 05be e6a5 b9bb e142 8e3d
00000220: 335c 4a3c 7898 31bd 8bf6 71bc 5ec0 7e3c
00000230: 04df 033d 678c 4f3d 3dc9 6bbd 21ea 66bd
00000240: 8167 d7bc e1ca 823d 276d babd 1a2b c0bd
00000250: a4e9 d9bc 9a6e c8bd 06ab d0bc cdf3 07bb
00000260: a5e0 4abd cd28 c03c 1a4c c03d 1751 113d
00000270: 2873 24bd a906 84bd 9819 33bd 4c18 52bd
00000280: 97db 003d aa09 a93d c3df bb3d a16d 71bd
00000290: 8ba9 26bd 9bca f1bd fdb4 cc3d 7820 693b
000002a0: 2ba8 f6bc 1d3b 303d dacd a43c 1f1b ba3c
000002b0: 9811 39bc 657b d33d d322 213d 2181 debd
000002c0: afca 01bd 32be b13d 1687 41bd 1452 eebc
000002d0: cf1b 35be 0c2a b03c 396a 5c3c 2813 06bc
000002e0: c48c 9c3d ac64 d9bd 05da cabc d74f babd
000002f0: 5829 4c3c 02e1 983d 5dc7 0dbe bba0 c03c
00000300: 4018 c73d 1e12 12bd f851 823c d23c 7ebd
00000310: 519b 61bc 528e a03d 4d0b 3bbd 6525 b53d
00000320: 3e56 7cbc 7390 a63c 98c1 dbbc 3e3d e1bd
00000330: 62a4 a93d df6f c2bd 7660 47bd 6a3d fc3d
00000340: 227b 4dbd e4c9 6dbd 6b91 10be f025 803d
00000350: 681d 34bc 0e30 833d 4772 a93d ca6f e63c
00000360: 3409 f8bd 4152 dabb 1c6c 0fbd a122 50bd
00000370: da92 3c3d 3cac fd3b 87ff ab3d 6285 33bd
00000380: 2b82 acbd bbf1 a6bd dfd9 8c3c 4365 45bd
00000390: 2cb8 cf3c e19c 16be 3b70 9c3d 78b3 783d
000003a0: 606c 10be 4b24 9cbd 5864 0abe aa83 00be
000003b0: 207d 323d 5304 e9bc 8c89 4f3d dc8a 0ebd
000003c0: 9704 b73b f3fd a03c 7851 983c 5d4e b0bc
000003d0: 538d da3d 6289 53bd 8269 083d 509f 17bd
000003e0: 4bdc 27bb d03b dc3c a5ca 003d 7351 ccbd
000003f0: 5a36 783d 1106 0abd 9843 c03d c165 843c
0.04916373 0.10876696 -0.021728588 0.088591024 0.076014705 0.011839263 -0.04634225 -0.046440195
-0.077792846 0.011963479 -0.07434572 0.0047992026 -0.15344104 0.019343592 -0.013237709 0.010535429
-0.032072753 0.013847513 0.022409394 -0.117887534 0.100034155 0.084185176 0.09839769 0.04556388
0.06838147 -0.08179342 0.036352627 -0.03945347 0.006855946 -0.08732124 -0.035491057 -0.08184034
-0.004946959 -0.12701388 0.042175364 -0.02202755 0.040274028 0.008057723 -0.012512375 0.0065779365
0.0035297228 0.05389773 0.001191778 -0.014187016 0.004108621 0.057166364 -0.05975149 0.05893392
0.039129384 0.037478235 -0.034580555 -0.02712672 -0.009372116 0.076619565 0.11435201 0.036093265
0.0069069224 -0.0024291517 0.015437784 -0.0016150152 -0.10301195 -0.011073811 -0.014409599 -0.029819656
-0.008952361 0.023020875 0.020686012 0.053211566 0.0074390923 -0.043160442 -0.010977632 -0.007294441
0.1161184 -0.10464891 0.04805301 0.054141648 -0.093760215 0.011687895 0.046235338 -0.103453964
0.005721209 -0.03382688 0.056970175 0.015933743 0.047259834 0.02447355 -0.07323905 -0.16699591
-0.117588416 0.06701535 0.03477571 -0.011834274 -0.078300565 -0.042816553 -0.07591185 9.861881e-06
0.017154897 0.062678 0.008569939 0.020472815 0.0847915 0.034881245 -0.073995784 -0.016801262
0.020144356 -0.055064026 -0.016477019 0.018536087 -0.13355657 0.032336127 0.11271801 0.045683164
0.11836848 0.06720502 -0.035674796 0.04653638 0.08344613 -0.0043805493 -0.012571594 0.0056148204
-0.05828066 0.008669703 0.055201676 -0.029110838 -0.027335532 -0.13006592 0.044406127 -0.09610972
-0.04515177 -0.06359018 0.0024537928 0.13987783 -0.048068658 -0.1304797 -0.0056655286 0.0694635
0.012351084 -0.043358296 -0.014768253 0.015548794 0.032195106 0.050671007 -0.057564963 -0.056375626
-0.026294472 0.06386352 -0.091028504 -0.09383221 -0.026600666 -0.097867206 -0.025472175 -0.0020744682
-0.049530644 0.023456955 0.09389515 0.035477724 -0.040148884 -0.06446583 -0.04372558 -0.051292703
0.031459417 0.082537964 0.091735385 -0.05894244 -0.040689033 -0.11806222 0.09995458 0.0035572331
-0.030109486 0.043025125 0.020117689 0.02271801 -0.011295699 0.1032627 0.03933985 -0.10864473
-0.031687435 0.08678855 -0.04724797 -0.029091872 -0.1768639 0.021504425 0.01345306 -0.008183278
0.076440364 -0.10614905 -0.024762163 -0.090972595 0.012461029 0.07464792 -0.13845582 0.023514142
0.09721422 -0.03566181 0.015908226 -0.06206972 -0.0137699405 0.078396454 -0.045665074 0.08845023
-0.015401421 0.02033255 -0.026825711 -0.10998009 0.08283307 -0.09493994 -0.048675977 0.12316401
-0.050166257 -0.058053866 -0.14117973 0.06257236 -0.010993339 0.0640565 0.0827375 0.028129477
-0.1211113 -0.0066626375 -0.03501521 -0.050814275 0.046038486 0.007741479 0.08398347 -0.043828376
-0.08423265 -0.08151575 0.017193733 -0.048192274 0.025356375 -0.14708282 0.07638594 0.06071803
-0.14103842 -0.0762411 -0.1351484 -0.12550226 0.04357636 -0.028444445 0.050668284 -0.034800395
0.005585264 0.019652342 0.018593535 -0.021521742 0.10671487 -0.05164469 0.033303745 -0.037017167
-0.0025613483 0.02688399 0.031443257 -0.09976473 0.06059871 -0.03369719 0.093878925 0.016161801

layer2.3.bias f4 [256]
00000000: 7fbd 963e 74d0 09bd 6efa 953e 7ec9 2e3f
00000010: b168 f23e 154c 4abe c1e9 55bd 54fb 4bbf
00000020: 5c6e 123f f046 243f 41ec 2c3f 4b71 9bbe
00000030: 7a88 22bf e9d3 e43e 68ce 14bf e2ae 55bf
00000040: fa0c 93bf ee9a 3bbf 85c7 d13e 8825 42bf
00000050: 1aa9 09bf a085 17be ea37 bfbe 8b08 31be
00000060: c234 eb3e fac7 e03e fe7f 193d 8be2 f4be
00000070: a8a3 c4be 3f96 1abd deb3 3dbe eb25 323f
00000080: 8c95 3fbf 5953 14bf 2e6a 5a3f 3502 843f
00000090: f6dd 623f a18f 65bf f1fb 4abe 816e 3e3f
000000a0: 8a13 353f 9cd0 5cbf a9ed 413f 1701 843f
000000b0: 0f71 973f 51bc 113f ab21 953f e95d adbf
000000c0: 03ad 94be 59c7 203e 26f1 0b3d 3250 64bf
000000d0: 5663 6bbe 99e1 32bf aa40 383f 24d9 e3bc
000000e0: 008a 1dbd e5ce a03f 328d 103e 2818 dd3e
000000f0: 6944 b93e c63e 68bf c630 77bf c1a9 c23e
00000100: e16d fd3e 2e15 5dbf 0e32 983e a66c 473f
00000110: cc9d 23bf 41e7 33bf 3d8e 80bf b461 3bbf
00000120: c78f 013f 6feb ecbe 111f 76be 6c2e 35bf
00000130: 37fd 42bf 3965 043f 3cad 2ebf 00a4 003e
00000140: 01fd 1abf 1098 d2be 8bd5 583e 30f9 8b3d
00000150: ff22 733f fc7c 29bf d328 35bf 36eb 2fbf
00000160: a05f 583f 0711 8b3f f68f 5b3f a921 84bc
00000170: b0a6 15bf 9d15 aebe 1bfd 703e eed2 553e
00000180: e0e8 c9be 6029 3cbf ea99 0f3e 0359 6a3e
00000190: b5e8 c33e bf78 c33e 3dea 06bf 2158 063e
000001a0: a475 163f deab 79be a682 8c3d bb76 13bf
000001b0: 01fd c2be 7b2f 0fbf 83e9 ac3e 8ab8 6b3f
000001c0: 6255 68bf 85e7 513f 28a1 3a3f 09f3 61bf
000001d0: ff9d 703f b2ef 1b3f 4514 3abf c256 2c3f
000001e0: fd4c 3f3f 13fb 383f 3d18 123f f21d 29bf
000001f0: 903e 14bf 5ea0 dc3e a93f 5cbf 7aed 16bf
00000200: c519 943e b138 25bf 8b3d c03e feee 7b3f
00000210: 979e 43bf 5505 19bf 013e edbe 65ad 51bf
00000220: 3322 75bf b68f c3be af93 05bf 99f0 35bf
00000230: e56a 5a3f ccc3 d5bd 618d 27bf 4759 863e
00000240: c0ff 8f3e 1bfb df3e 496b 3e3f 0654 17bf
00000250: b961 f03e 7384 e7be 65c5 43bf 550f 593f
00000260: c6d4 1f3f 8bde 05bf bebf cb3e 7008 53bf
00000270: bc51 213f 50e0 483f 9550 bb3d a94f f7bc
00000280: 8918 813e d38c b1bf 4f0b c83e ebc6 693d
00000290: 5068 c23d ae99 acbe f25e 73bf 219b 6f3f
000002a0: c95e 3ebf ee14 86be e8c1 93bf 38df 2abf
000002b0: 3cf9 3f3f c1cb 123f 048d 0d3f fe33 023f
000002c0: 1eed 42bf a562 4c3f 1152 3abf 76ac f0be
000002d0: 3d0d a2be f103 8cbf 3245 41bf 47ab 7e3d
000002e0: 2e9e 463f 3da5 333f 2fe6 b2be b894 ee3e
000002f0: 2dd3 9c3f b907 523f 08b4 05bf c788 4d3f
00000300: 0480 553d e551 5b3f 23da 52bf f534 34bf
00000310: 6593 3a3f a7b8 3a3f 28d0 4a3f 5b85 873d
00000320: af98 52bf 481b e7be 4a72 443f 1598 efbd
00000330: 109b fabd b30c 2d3f 27a2 84bf 43fe 323f
00000340: 2a04 9a3e b8cd 5dbf bb01 343f 09a8 e03d
00000350: 7135 683f 8bbb 47bf f506 3fbf 5357 0bbf
00000360: 4ee5 1e3f 2be5 22bf f36c 353f f53a ec3e
00000370: 4835 41bf 64fb 98be de2b edbe 68ce 9d3f
00000380: 1492 03bf 5352 833f 7c55 4abf d511 2b3f
00000390: f0be a83f e545 32bf 7b69 533f d70e edbd
000003a0: fce9 4fbf dd0a 5ebf 54a5 533f 20cf 35bf
000003b0: bcea 203c 98ad 283f aa86 17bf 7f86 0fbf
000003c0: a767 13bf 751b 173d 58fb 703e 8cb7 10bf
000003d0: 65bf 38bf 3f9f 4ebf e6c0 0b3f 55e7 6cbe
000003e0: 0cb5 34bf 3e72 663f ee18 783f 54ff 2ebf
000003f0: 3e1f 1d3f 5685 02bf c1d7 4abd ff49 133f
0.2944145 -0.033646062 0.29292625 0.682762 0.47345498 -0.19755585 -0.05222488 -0.7968037
0.57199645 0.6417074 0.67547995 -0.30359873 -0.63489497 0.44692925 -0.5812745 -0.83469975
-1.1488335 -0.7328328 0.40972534 -0.7583852 -0.53773654 -0.14797068 -0.37347347 -0.17288415
0.4593869 0.4390257 0.03747558 -0.4782909 -0.3840611 -0.037740942 -0.18525645 0.6958911
-0.74837565 -0.5793968 0.8531827 1.0313174 0.88619936 -0.89672285 -0.1982267 0.74387366
0.7073294 -0.8625581 0.75753266 1.0312833 1.1831378 0.56927973 1.16509 -1.3544284
-0.29038247 0.15701045 0.034165524 -0.8918487 -0.22987112 -0.69875485 0.7197367 -0.027813502
-0.038461685 1.2563139 0.14116362 0.43182492 0.36185005 -0.90720785 -0.965588 0.38020137
0.49497893 -0.8636044 0.2972569 0.7790016 -0.63912654 -0.7027474 -1.0043408 -0.7319596
0.5061001 -0.46273372 -0.24035288 -0.7077396 -0.76167625 0.51716954 -0.68233085 0.12562561
-0.60542303 -0.4113164 0.2117521 0.06834638 0.94975275 -0.66206336 -0.7076542 -0.6871828
0.8452091 1.0864571 0.8576654 -0.016129332 -0.5845747 -0.34000865 0.23534052 0.20881245
-0.39435482 -0.73500633 0.14023557 0.22885518 0.3826348 0.3817806 -0.5270117 0.13119556
0.58773255 -0.24381968 0.06860857 -0.57603043 -0.38083652 -0.55931824 0.33771905 0.9207846
-0.90755284 0.81993896 0.72902155 -0.8826147 0.9399108 0.6091262 -0.7268718 0.6731988
0.7472685 0.7225811 0.57068235 -0.6606132 -0.5790796 0.430911 -0.8603464 -0.5895611
0.2892591 -0.6453963 0.37546954 0.9841155 -0.76413864 -0.5977376 -0.46336368 -0.81905204
-0.9575531 -0.3819558 -0.5217847 -0.7107025 0.8531936 -0.10437736 -0.654501 0.26239988
0.2812481 0.43746266 0.74382454 -0.59112585 0.46949556 -0.45218238 -0.76473075 0.8478902
0.6243404 -0.522927 0.39794725 -0.8243475 0.6301534 0.78467274 0.09146229 -0.030189352
0.2521403 -1.3871101 0.39071128 0.05707447 0.09492552 -0.33710998 -0.9506675 0.9359608
-0.7436338 -0.26187843 -1.154355 -0.66746855 0.74989676 0.57342154 0.552933 0.50860584
-0.7614306 0.7983802 -0.72781473 -0.47006577 -0.31650725 -1.0938703 -0.7549621 0.06217506
0.77585113 0.7017401 -0.3494124 0.46597838 1.2251946 0.82043034 -0.5222783 0.8028683
0.05212404 0.85671836 -0.823641 -0.70393306 0.72881156 0.7293801 0.7922387 0.066172324
-0.82264227 -0.45138 0.7673689 -0.11698929 -0.12236607 0.675975 -1.0361985 0.6991922
0.30081302 -0.86642027 0.7031514 0.1096955 0.90706545 -0.7802054 -0.7461999 -0.5443012
0.6206864 -0.6363093 0.7086937 0.4613873 -0.75471926 -0.29879296 -0.4632253 1.2328615
-0.5139477 1.0259498 -0.7903669 0.66824085 1.318327 -0.696379 0.82582825 -0.11575096
-0.81216407 -0.86735326 0.82674146 -0.7101917 0.00982159 0.65889883 -0.59189856 -0.560646
-0.57580036 0.03689142 0.2353338 -0.5653007 -0.72167045 -0.8071174 0.54591215 -0.23135121
-0.70588756 0.9001807 0.9691304 -0.6835835 0.61375797 -0.50984704 -0.049522165 0.57534784

layer2.6.weight f4 [10, 256]
00000000: d95c 933c 4680 f1bb fcfe d13c 4f23 84bd
00000010: d692 903d 4bc7 05bd 4924 20bc bd0c a5bc
00000020: 7b96 15be 8904 babc aa22 80ba d9ef 13bd
00000030: 0842 473c 2468 47bd d05b e03b 921e c03d
00000040: 9bd3 df3c bb7e 603c 0977 823c 1f04 85bd
00000050: a3de 143d 1d8a d1bc fb56 a83c cfd6 633d
00000060: 94bb 23bd e279 efbc 2bae 22bd 8770 34bd
00000070: 19c1 4a39 be1d 21bb c1d3 443d 72c0 e1bd
00000080: a8ed 853d 99d7 90bd 84b6 04be 2533 6ebc
00000090: 3746 963c 9855 973d 1242 a9bd 6987 afbc
000000a0: 5eba 23bb e4ae 7dbc 44f0 3cbd fc31 bdbd
000000b0: 6521 75bd e8a2 0abd ebe6 46bd 106d 4fbc
000000c0: 2724 8b3d 23a4 e3bb 3973 5f3d 5d6c 0d3d
000000d0: dcf9 3ebd 439b 463d 0929 053d 80b3 683c
000000e0: 60b6 583d 4e8a cbbc c549 42bd 2397 8cbd
000000f0: f79f 83bd a0d1 673d a779 ad3d 4ae1 40bc
00000100: 5f0d d83b 3581 123d c54e 8ebd db88 99bd
00000110: 9ac7 0dbd a544 4ebd 01c3 07bb 7b37 663d
00000120: c761 a0bd c74a e8bc 8d4e 4b3c cc00 893d
00000130: 999b d33c ee01 dbbc 1eec 1dbd 9501 34bd
00000140: 1c6b be3c aa21 0dbc 1c53 8abd 21a5 d6bd
00000150: 4e9a f6bd edd1 953d 80e4 593d eb10 6a3c
00000160: 73fd 093d 184f 06bd a1a9 a03d 7875 f53c
00000170: 97c1 86bd 684b 16b8 6954 ccbc 107e 1a3d
00000180: affd fbbc f77c 063e f4ec 1fbc 59d3 c6bd
00000190: 59c1 7f3c b2b9 3dbd 9297 1f3d 8d1d 92bd
000001a0: 54c3 cbbd bd0b 5cbd b2e6 fdbc bb5c 993b
000001b0: 02ec f43c 58ef fbba d762 133c 3fa1 f43d
000001c0: f795 26bd 511e 9ebc 190d 88bd b333 b73d
000001d0: d216 9cbd dcad 9abd 95e0 86bc 8ce2 bdbd
000001e0: cb20 ce3d fc6e 493b ab80 18bd c501 78bd
000001f0: b649 053d ffce 0a3d e06f 9f3d e25a b43b
00000200: 635c 253d 4c45 92bc 2a11 bebc dfdd 19bd
00000210: 3f6b 023c fb68 fb3c 24b4 d63c c5d7 83bd
00000220: 5f68 1bba 5acc b83c fd5f d9bc 0bea d43d
00000230: dc17 babc e767 2abc 0040 b0bb 4bbd e5bb
00000240: 5321 b23c be02 833c 705b e1bc e01d 5f3d
00000250: 94a0 ffbc 0c91 f53c 1177 edbd 7198 68bd
00000260: c462 19bd 8aba 993c db2c aabd 46cb fb3c
00000270: dd2f 0abe e22e 4d3d 8a1f a53d 5ac2 023d
00000280: 74c3 38bd 3bd7 f03c 9151 95bd 0f41 acbd
00000290: f290 0dbd f5fe ccbc 5e9e 0bbe 63e3 8f3d
000002a0: 0d33 ac3d 889e 36bd ef74 0a3d df4b b9bd
000002b0: 55c1 a2bd c2b2 7a3b b297 55bd ac3b 4fbc
000002c0: 6629 d9bb e944 1cbd 1fec 863c 56f0 09bd
000002d0: 2819 b1bc 99e8 023d 122d c13c 96b3 b8bc
000002e0: c478 463d 92d0 a9bb 0697 86bc f798 043a
000002f0: a440 21bd e6cb cebc 140a 703c 0f9e afbd
00000300: ec02 053c 36b9 8abc ad92 4a3c 6bf8 123d
00000310: 65fe c7bd a711 c33d b660 973d 4881 63bd
00000320: f8f7 70bd b00f 23bc 22a5 dc3c 7795 8b3d
00000330: cbac bd3c 34ec 003d b55f dd3d 59bd 4e3d
00000340: 0f77 323d 2054 d23a c0a4 27bd 5b59 8ebc
00000350: 01e1 c3bd 3160 d83c b1ce 813b 8066 903d
00000360: 99cc c1bc 66d2 313d 833f 853d 60dd 67bd
00000370: f652 c33d 7fb0 933d b408 f5bb 780c afbc
00000380: 3653 aabd 0490 58bd f748 603c a366 72bd
00000390: 73b6 b7bc f8d6 b53d 196c debd 34a4 80bd
000003a0: 4b62 46bc 09e2 133d 868a c9bc aeb2 9c3d
000003b0: e440 17bb 3717 efbb 534b bebc 86bd 8b3c
000003c0: 9858 273d 187d f5bb 9ac4 adbd 80f8 a33d
000003d0: c99d 613d 07ef b0bd 04bd 8a3d bfeb 033c
000003e0: a81f d4bc 0a98 f6bd 387a a0bd 6b55 01bc
000003f0: b513 a1bc 6624 cc3c bb03 f63c ff07 513c
0.01798861 -0.0073700277 0.025634281 -0.06452047 0.07059257 -0.032660764 -0.009774276 -0.020147676
-0.14608185 -0.02270724 -0.0009775956 -0.03611741 0.012161739 -0.0486833 0.0068468824 0.09380831
0.027322581 0.01370209 0.015925901 -0.06494927 0.036345135 -0.025578553 0.020549288 0.05562478
-0.03997381 -0.029232923 -0.03971688 -0.044052627 0.00019336156 -0.0024584378 0.048053507 -0.11023034
0.0653947 -0.07072372 -0.12960249 -0.014538561 0.018344028 0.073893726 -0.08264555 -0.021426873
-0.002498291 -0.015483592 -0.046127573 -0.092380494 -0.0598463 -0.033846766 -0.048560064 -0.01266028
0.06794005 -0.006947057 0.054553244 0.03452717 -0.046625003 0.048487913 0.032509837 0.014202952
0.0529083 -0.024846222 -0.047433633 -0.068647645 -0.06426995 0.0565964 0.08470469 -0.011772463
0.006593391 0.035767753 -0.06948618 -0.07496806 -0.034614183 -0.050358433 -0.0020715597 0.056205254
-0.078311495 -0.02835597 0.012408865 0.06689605 0.02583103 -0.026734319 -0.038555257 -0.04394682
0.023244433 -0.008613983 -0.06754133 -0.104807146 -0.1204115 0.07315431 0.05319643 0.01428626
0.033688974 -0.032790273 0.07844854 0.02996324 -0.06579893 -3.5833014e-05 -0.024942594 0.03771788
-0.030760614 0.13133608 -0.009761084 -0.0970828 0.0156100625 -0.04631967 0.038962908 -0.071345426
-0.09949365 -0.053722132 -0.030993793 0.004680244 0.029897694 -0.001922111 0.008995733 0.11944818
-0.04067036 -0.019301565 -0.06643123 0.08945408 -0.0762154 -0.07552692 -0.016464511 -0.09271726
0.100648485 0.0030736318 -0.037232082 -0.060548563 0.032541 0.033888813 0.0778501 0.005503998
0.04037131 -0.017855309 -0.023201544 -0.03756511 0.00796014 0.030689707 0.026208945 -0.06437639
-0.0005928333 0.02255838 -0.026535029 0.10396203 -0.022716455 -0.010400749 -0.005378723 -0.007011091
0.021744406 0.015992519 -0.027509421 0.05447185 -0.0312045 0.02997639 -0.11594976 -0.056786004
-0.037447706 0.018765707 -0.08309337 0.030736577 -0.13494821 0.05009354 0.08062656 0.03192363
-0.045108274 0.029399505 -0.07290948 -0.084108464 -0.03456206 -0.025023917 -0.13634631 0.070257924
0.08408175 -0.04458478 0.033802923 -0.090476744 -0.079470314 0.003825352 -0.05214662 -0.012648504
-0.0066272495 -0.038151655 0.016470013 -0.033676468 -0.02161844 0.031960104 0.023581062 -0.02254657
0.048455015 -0.005182334 -0.016429435 0.0005058194 -0.039368287 -0.02524371 0.01465084 -0.08575069
0.008118372 -0.016934019 0.012364072 0.03588144 -0.09765319 0.09524851 0.07391493 -0.055543214
-0.05883023 -0.009952471 0.02693421 0.068156175 0.023153683 0.03147526 0.1080927 0.050473545
0.043570574 0.00160468 -0.040928602 -0.017376592 -0.095644005 0.026413055 0.003961407 0.070508
-0.02365713 0.043413542 0.065062545 -0.056607604 0.09537308 0.07211398 -0.007477844 -0.02136825
-0.083166525 -0.05287172 0.013689271 -0.059179913 -0.022425866 0.08878893 -0.10860462 -0.06281319
-0.012108396 0.036104236 -0.024602186 0.07651268 -0.002307945 -0.0072964686 -0.023229277 0.017058145
0.040855974 -0.007491719 -0.084847644 0.08006382 0.055082116 -0.08639341 0.06774333 0.008051812
-0.025894001 -0.12040718 -0.078358114 -0.0078939 -0.019662717 0.0249197 0.030031076 0.012758254

layer2.6.bias f4 [10]
00000000: 1f3a 1abf 5196 eabe 3fa9 38c0 890e dcbe
00000010: b1c5 2cbf 13e9 e33e 2d22 3ebf 6fea 6f3e
00000020: 50cb b0be 0ff7 aebc
-0.60244936 -0.45817807 -2.88533 -0.4297984 -0.67489153 0.4451376 -0.742709 0.23429273
-0.34530115 -0.021358041
