Model_Files/helpdesk/TimestampPredictor_parameters_binary_0.001.pt (torch, 277513 bytes, 7 tensors)

layer1.weight f4 [4, 1]
00000000: d2b7 e33b 9d02 8abc 7b83 7bbf 7f6c dac0
0.0069494033 -0.01684695 -0.982475 -6.825744

layer1.bias f4 [9]
00000000: ec19 13c0 715c 1941 6486 1d3f 2e3d 2e41
00000010: b073 3c41 4bdd 3941 926a 2441 3bb3 dabf
00000020: 555f 3441
-2.2984571 9.585069 0.6153319 10.889936 11.778244 11.616527 10.276018 -1.7085947
11.273274

layer2.1.weight f4 [256, 9]
00000000: 5487 903d 8fe0 0040 7959 bf3d 8c5f fc3f
00000010: dc95 493f ae5e a33f 2032 ba3f b240 023e
00000020: f0d8 a43f 978e cd3e 777b 0f3e b3a2 033f
00000030: ea6b 783c 24fa 2e40 2c4f c3bd 8a26 ed3d
00000040: 5143 db3e 9c54 be3f 3ce9 873e 7529 6c3e
00000050: 1bb0 2d3c 24d1 f83e df1b 5ebe 95ea 093f
00000060: 50e4 283e 5b56 cc3d 1eab 263f f92e 933e
00000070: 704b 50bd 0fad 2a3f 834b 083e 3f34 9040
00000080: 3d12 203d 8a4f 8c3d a459 13be 50f0 0c3e
00000090: ae1d 813f cbb2 953e 90fb 9e3e 84e4 f73e
000000a0: 598d 99be 84df 3b3f 165b ce3e e32b f9be
000000b0: 39ce 2f3f 146b d03e 93e6 333c da5f 973f
000000c0: 2b39 6b3d 52cf 803c 7441 0dbd c0db 1ebf
000000d0: fbc7 0a3f fea1 59bd 02ac 403e 4c71 1f40
000000e0: f80e f43d 75f7 ea3f 4193 2240 3a53 783f
000000f0: 9549 2e40 5192 343e 56c2 8c3f 3635 1a3e
00000100: 079e 853f 528a e73d 8aaa e03f 765d ae3f
00000110: 7ea7 193f 6879 b53f 0d99 f23d 2383 933f
00000120: 469d eb3e 1aa5 1040 a1ce 083f f94e 8cbe
00000130: 30d5 df3f 24b9 d33f 2ad6 2240 e13f cf3e
00000140: 2ba7 d33f 6610 ccbd d4dd 253f bc7f 223f
00000150: 9b81 763f f76e 813f be04 2c40 3f70 9e3f
00000160: 673c 94bd 884f 0d3e e55f ff3d 6697 f43f
00000170: c42d 0a3e a200 783f b00b cc3f 8840 ad3f
00000180: 14aa b73f f616 e53d ae34 ad3f de3d 763e
00000190: de5b 21bf 10b9 b03e 4a98 14bf 3d5d dfbf
000001a0: c5b6 e7bd c3dd 9b3f ffae 243e 955b c8bd
000001b0: 1ba8 e0bd af7d 9440 cf82 933e e388 8a40
000001c0: 7a8c 8540 86e2 6c40 b8d1 8c40 7b3f 87bc
000001d0: d510 8140 41d7 2e3d 273d f93e 3082 b23e
000001e0: ad14 c93e d274 e33e aac2 473e 152e 893e
000001f0: a6b9 263f 1ec9 8b3e 7c74 943e 9547 093f
00000200: a42c 373f 4913 1fbe c4ea 37bf a6f3 353e
00000210: e1ee b23e 5a10 703e c679 cd3e 9b5f a13e
00000220: 3372 373e 1509 313f 5f52 e0bd b177 6f3f
00000230: ec11 043f 93d3 833e a0bf 193e 8109 82be
00000240: 084f 8e3d 2d83 e83e 1e5e d13e 932f 96bf
00000250: e8ba ffbf b2a3 1d3e 6005 d93e 0b35 a43e
00000260: b7e3 29bb 5a1a 413e 449b fe3f a69c 333e
00000270: f03a b0be c698 aabf 11ca acbd 0a25 953f
00000280: a74c 873d 9f66 86be d40d d93d f39b 853f
00000290: 3648 da3d 289d cb3e a0da 893f 59a4 e53e
000002a0: 600c b53f e132 933d ecf2 b03f 0078 e23e
000002b0: 8f87 1840 55f5 163e 60c7 0fbe 94d8 f53f
000002c0: 5efa 8f3f 565b 7d3f 090c 8f3e bbea cd3f
000002d0: b278 0c3e e884 ec3f 40cf d83d e211 3d3f
000002e0: c670 ce3f db5c c53f ace1 0140 55c0 2b3e
000002f0: 0fef 0240 6d07 10bc 2202 b83f b450 03be
00000300: 0a16 0140 8369 8e40 d913 1540 9240 0c40
00000310: 5a9c 58bd bab5 3640 f9ab 403e 6d07 f23f
00000320: 55d5 d23d f990 db3f b827 b63f e7b3 663f
00000330: db50 0a40 3a80 383e 7a93 6a3f b5df 0a3d
00000340: 2111 cb3d d3ce 3f3f c245 0ebe 431d e03f
00000350: ec54 2e3e 3485 d83d 795e 8e3e d482 60bc
00000360: c518 063e 4daf f43f 7148 be3d d5a3 0640
00000370: 25d3 d83f 0177 5d3f ae29 0940 2fa3 0e3e
00000380: e3e0 993f 6ef4 5f3e c47c 133f 3d6f 403f
00000390: 3173 893e 285e de3f a864 e93e 725f 6a3f
000003a0: f05b 2f3e 5096 033e f360 bbbe fb20 f3be
000003b0: 47e0 593f a803 77bd 0f94 e4bf c773 e03f
000003c0: 5361 c1bc de8d aebe cd99 d93f bf18 d93e
000003d0: 8f2f 85bf 94cc 213f dada af3d 16a2 2abf
000003e0: c3c6 82bc 8771 0dbd ccbc fb3e bc51 333e
000003f0: d199 f03e a06e 783e 6200 2e3f 7aa0 033e
0.07057062 2.013706 0.093432374 1.9716659 0.7874429 1.2763269 1.4546547 0.12719992
1.2878704 0.4014785 0.14011942 0.51420134 0.0151624475 2.7340174 -0.09536585 0.11579616
0.42824796 1.4869571 0.2654513 0.2306269 0.010601069 0.48597062 -0.2169032 0.5387357
0.16493344 0.099774085 0.65104854 0.28746775 -0.050853193 0.66670316 0.13310055 4.5063777
0.039079893 0.06851108 -0.14389664 0.13763547 1.0087183 0.2923797 0.31051302 0.4841653
-0.29990652 0.7338793 0.40303868 -0.48666295 0.68674046 0.40706694 0.010980266 1.1826127
0.057427566 0.015723858 -0.03448625 -0.6205406 0.54211396 -0.053133003 0.18815616 2.49129
0.119169176 1.8356768 2.5402377 0.97001994 2.723241 0.1763394 1.0996807 0.15059361
1.0438851 0.113056794 1.7552044 1.3622272 0.600212 1.4177675 0.11845598 1.1524395
0.46018428 2.260077 0.5344029 -0.27404 1.7486935 1.6540875 2.5443215 0.40478423
1.6535391 -0.09964065 0.6479161 0.6347616 0.9629151 1.0111989 2.6877894 1.2378005
-0.07238083 0.1379987 0.12469462 1.9108703 0.1349402 0.96875966 1.5941067 1.3535318
1.4348779 0.1118602 1.3531702 0.24047038 -0.63030803 0.3451619 -0.58044875 -1.7450329
-0.113141574 1.2177051 0.1608238 -0.09783093 -0.109695636 4.640342 0.28810737 4.32921
4.173398 3.701326 4.4006004 -0.016509762 4.0333047 0.04268575 0.48679468 0.3486495
0.39273587 0.44425064 0.19507852 0.2679297 0.6512703 0.27301878 0.2899512 0.5362485
0.7155249 -0.155347 -0.718426 0.17768726 0.34947875 0.23443738 0.40131968 0.31518254
0.17914657 0.69154483 -0.10953211 0.9354201 0.51589847 0.25747356 0.15014505 -0.25397876
0.06948668 0.4541258 0.40892118 -1.1733268 -1.9978914 0.15394476 0.42386913 0.3207172
-0.0025923082 0.18857709 1.9891133 0.17540225 -0.34419966 -1.3327873 -0.084369786 1.1651928
0.06606417 -0.2625017 0.10598341 1.0438217 0.106583044 0.39768338 1.0769844 0.4485195
1.4144402 0.07187439 1.3824134 0.44232178 2.3832738 0.14742024 -0.140409 1.9206719
1.1248281 0.9896749 0.2793887 1.6087259 0.13717917 1.847806 0.10586405 0.7385541
1.6128166 1.5418962 2.029399 0.16772588 2.045841 -0.008790833 1.4375651 -0.12823755
2.0169702 4.45038 2.3293364 2.191441 -0.052883483 2.8548417 0.18815602 1.8908516
0.10294596 1.7153617 1.4230871 0.9011826 2.161185 0.18017665 0.9163128 0.03390475
0.099153765 0.74924964 -0.13893798 1.750893 0.17024583 0.105722815 0.27806452 -0.013703067
0.13095386 1.9115998 0.09291161 2.1037495 1.6939436 0.8650971 2.143169 0.13929437
1.2021755 0.21870586 0.5761225 0.75169736 0.26845697 1.7372484 0.45584607 0.9155189
0.17124915 0.12850308 -0.36597404 -0.474861 0.85107845 -0.06030622 -1.7857684 1.7535332
-0.023605978 -0.3409261 1.7000061 0.42401692 -1.0405139 0.63202786 0.085866645 -0.66653574
-0.015963918 -0.034532096 0.49167478 0.17511648 0.46992353 0.2426095 0.67969334 0.12854186

layer2.1.bias f4 [256]
00000000: 62ad 1b41 095f 8d41 c00d f83e 3e54 9c41
00000010: 8b82 07c1 6a87 0bc1 86d2 8341 b06f 3941
00000020: f498 7440 3ff6 9440 e239 7941 6fb7 5bc1
00000030: c882 9f41 39c2 fec0 e960 8fbf 1e30 17c1
00000040: bea3 56c1 ede7 62c1 822d 9e40 b077 2441
00000050: bbcb 7241 0c66 8e41 3dfa 8241 8607 b4c0
00000060: ae0d 9241 7f13 a840 bf34 64c1 0232 0cc1
00000070: c798 dbc0 c5f0 c5c0 e9e0 5a41 b9fe 8541
00000080: 8251 5641 20a6 923f 9278 4241 e170 2ac1
00000090: 6266 6d41 75f7 49c1 037d 3ec1 845b 4d40
000000a0: b31b ca40 74ce ee40 ac59 de40 93f8 9541
000000b0: e4d0 3ac1 320e 4d41 b1ab ba40 6966 3741
000000c0: cde3 5f41 2c86 8c41 369b 0dc1 5a22 0441
000000d0: 3e88 5b41 e0d5 8241 2b2e 8341 1bf9 27c1
000000e0: d578 d6c0 07d5 7441 ff3b 9541 da10 4741
000000f0: 7a1a 4840 1c48 ea40 8c49 e8c0 7640 0a41
00000100: f43f 53c1 77be 9941 fcc8 053f c22c 8041
00000110: bff1 8a41 3e7f 9d40 a631 8241 c7d4 17c1
00000120: 3c18 fd3e 987e 49c1 cb37 a740 0011 44c1
00000130: f3a3 b5c0 8c02 5f41 e903 6741 3331 c640
00000140: 1748 47c1 95cd 3ac1 ef42 5541 1996 fcc0
00000150: b45d 5ac1 9775 2741 a915 aa40 9c7f 47c1
00000160: 0fca 2dc1 7925 8e41 2503 f240 306a 8d41
00000170: 2899 f5c0 0862 7fc0 6462 13c1 a591 4941
00000180: 6723 8941 6654 ccc0 bc88 3dc1 ffe3 1dc1
00000190: 5e1e 8041 811d ab41 b179 afc0 1531 a540
000001a0: 74db c340 b997 8f41 8427 6f41 1b12 3ac1
000001b0: 10c3 7441 1a6a 4ac1 fd8e a740 bdc7 cd40
000001c0: 74f6 31c1 d273 d340 560a 26c0 2dc0 4cc1
000001d0: 8744 8541 3f4e 8241 1e32 3441 01fd 61c0
000001e0: c774 e0c0 2ef9 5fc1 140a 39c1 23df bfc0
000001f0: 8262 2441 7892 9740 3e45 3bc1 3701 8740
00000200: 3236 b641 31ee 26c0 fba2 7841 17f7 85c1
00000210: 5c94 af40 a981 a440 d644 5841 58b0 06c0
00000220: 4916 8341 57eb 9141 67c3 9e41 95e6 8441
00000230: 6f81 8241 153d 6141 874c 9940 8ca9 67c1
00000240: a46e 3940 e1d9 9c41 7044 12c1 af3c ab40
00000250: 95b7 3dc1 5cbc 02c1 6605 9141 5581 c03f
00000260: 3d23 8941 eba3 5241 e504 6341 d247 00c1
00000270: 9e03 9940 209b 63c0 8458 1bc1 3bb3 3e41
00000280: 10f9 2941 53ff c9c0 9928 da40 179f 6d41
00000290: 3348 e0c0 4918 8741 f311 6540 8808 ab41
000002a0: 3a51 8041 3e43 e2c0 a8bc 7c41 cbf7 1fc1
000002b0: 3ba2 2cc0 cf54 8e41 d4ca 69c1 8fb1 87c0
000002c0: e6ec 9641 afba fac0 b9af 8941 0914 2440
000002d0: ebb0 c4c0 5a26 fc40 415c c940 08a2 2541
000002e0: d5f3 32c1 84ab 8f40 822e 5a41 3ad4 8c41
000002f0: 2e40 db40 dc57 dac0 139c 8341 285b 29c1
00000300: 8124 9a41 8a25 54c1 1ae0 3341 b35e a940
00000310: 8f78 9241 6c4b 9d41 d282 79c0 acc6 0141
00000320: 94fc 42c1 c87f 44c1 095a f5c0 16c4 1c41
00000330: 27bc 8a41 2143 0641 6791 8141 70ec 9041
00000340: df9e 8741 c3c7 7041 142d 4c40 adc6 2e3f
00000350: 587d 1fc1 69ea c3c0 dd02 48c1 c376 9241
00000360: 3e49 2841 b6e0 b2c0 ce21 8f41 1d0c 36c1
00000370: d988 4541 2690 9241 7cd5 2dc1 3553 c340
00000380: 7e65 6741 00e6 9741 6f96 a6c0 ab2d 2140
00000390: d5dd 2641 c909 09c1 a76d 8e40 f3ff 1d41
000003a0: 90c8 4d41 8205 5d41 ee72 24c1 76a6 8f41
000003b0: e961 7e41 78f2 6741 a73c 2dc1 9bd6 5241
000003c0: e420 1fc1 dca0 9741 2755 0fc1 2f8d 9641
000003d0: 7a62 2641 4d65 f340 8390 40bf 3691 8241
000003e0: 84da 07c1 fc20 c540 9fe7 8641 dd55 8a40
000003f0: 1476 52c1 e29b fdc0 bce5 46c1 1304 8241
9.72983 17.671404 0.4844799 19.541134 -8.469371 -8.72056 16.477795 11.589767
3.8218355 4.6550593 15.576632 -13.732284 19.938858 -7.961209 -1.120145 -9.449247
-13.414976 -14.1816225 4.943055 10.279221 15.174739 17.799828 16.372187 -5.6259184
18.25668 5.25238 -14.262877 -8.762209 -6.8623996 -6.185641 13.67991 16.749376
13.394899 1.1456947 12.154436 -10.652558 14.837496 -12.622914 -11.90552 3.2087107
6.3158813 7.462702 6.9484463 18.746374 -11.675999 12.815966 5.8334584 11.4625025
13.993115 17.565514 -8.850393 8.258387 13.720762 16.354431 16.397543 -10.498317
-6.70225 15.302009 18.654295 12.441614 3.126616 7.3213024 -7.258978 8.640738
-13.203114 19.218 0.522598 16.021854 17.36804 4.9217825 16.274242 -9.489448
0.49432552 -12.593407 5.2255607 -12.25415 -5.6762633 13.938122 14.438455 6.193506
-12.4551 -11.675191 13.328841 -7.8933225 -13.647877 10.466208 5.315144 -12.468655
-10.861831 17.768297 7.562884 17.67685 -7.674946 -3.9903584 -9.211521 12.598058
17.142286 -6.3853025 -11.845882 -9.868163 16.014828 21.389406 -5.483605 5.1622415
6.1205387 17.949083 14.947147 -11.62942 15.297623 -12.650904 5.2362046 6.430632
-11.122669 6.607888 -2.5943809 -12.796918 16.65846 16.288206 11.262236 -3.5310671
-7.014255 -13.998335 -11.5649605 -5.9959884 10.27405 4.7366295 -11.704405 4.2188983
22.776463 -2.608288 15.53979 -16.74565 5.4868603 5.1408277 13.516806 -2.1045132
16.385881 18.239912 19.845411 16.612589 16.3132 14.077413 4.7905917 -14.478893
2.897378 19.606386 -9.141708 5.3511577 -11.85732 -8.170986 18.127636 1.5039469
17.142206 13.165019 14.188695 -8.017534 4.7816916 -3.556343 -9.70911 11.918757
10.623306 -6.3124175 6.817456 14.85134 -7.0088134 16.886858 3.5792205 21.379166
16.039661 -7.0707083 15.796059 -9.997996 -2.6974018 17.79141 -14.612019 -4.2404246
18.865673 -7.8352885 17.210802 2.5637228 -6.1465964 7.8796816 6.2925115 10.352058
-11.184529 4.489687 13.636354 17.603626 6.8515844 -6.823225 16.451208 -10.584755
19.267824 -13.259165 11.242212 5.29281 18.308867 19.661827 -3.8986096 8.111004
-12.186665 -12.281197 -7.6672406 9.797873 17.341871 8.391389 16.195997 18.115448
16.952574 15.04877 3.1902514 0.68271905 -9.9681015 -6.1223645 -12.500699 18.30799
10.517881 -5.5899305 17.891506 -11.377957 12.34591 18.320385 -10.86462 6.103907
14.462278 18.987305 -5.2058635 2.5184124 10.429158 -8.564889 4.4508853 9.874988
12.861465 13.813845 -10.278059 17.95628 15.898904 14.496696 -10.827308 13.177394
-9.94553 18.953545 -8.958289 18.818937 10.399042 7.606116 -0.7522051 16.320904
-8.490849 6.1602764 16.863096 4.3229814 -13.153828 -7.9252787 -12.4310875 16.25199

layer2.3.weight f4 [256, 256]
00000000: 8580 fb3f d5c5 3f3f 034e 893e 947b ddbd
00000010: f088 8d3e 4889 973e 3149 f23f 880f 143f
00000020: 2b53 a73f d5ee cc3c 6c70 e43e 2f28 c0be
00000030: 70dc 693e d9a1 88bf 8293 6e3f cf10 3fbd
00000040: 5a05 2ebe c22c 84bd 2e30 003f e003 963f
00000050: 10db 933f 0562 863d 168f 0140 f64b 5b3e
00000060: a0c2 1a40 b2ae e33c 60d9 4c3e 084b 13be
00000070: 73b1 a1be 1076 c6bc 28c8 e13f 40ae 0bbe
00000080: f77b da3f 10c8 1c3e e2a6 0e40 2ef2 a0be
00000090: ee3c 383f e257 5bbd 3dab 96bd 64c9 9dbe
000000a0: 77f4 b43f 00d3 833f 7709 903d 0835 ac3f
000000b0: 831d ccbd cb6b 0f40 caea b33f efae e33f
000000c0: 5e35 593f 9aaf 3d3f cc80 fdbe 96bf 0640
000000d0: ebae 20be 9585 4a3f c7c1 c4bb a3d2 e4be
000000e0: 6654 c53e 2033 263c 7e56 3b3e e719 6a3f
000000f0: 770a 363f 346c 7a3f 8c9b 5fbf ee43 063f
00000100: d7dc b6be cd2d bb3e 8761 ca3e aef8 273e
00000110: 3200 cf3e e030 d53e d4cb 653f 5c12 1e3d
00000120: f2cc 48be 47ef 41bf 5e3f 1ebe ec6d 12bf
00000130: 1c75 f1bd 0c8b 503f bc08 de3e c003 8f3f
00000140: 20b5 d1be a7c6 83be c2c0 af3f baf9 2abf
00000150: a891 acbe d271 743d 68ed 5a3f b665 a7be
00000160: 5e0b cb3e 9652 2e40 8fb9 8b3f 1d4d 5f3f
00000170: 9a3e af3d a879 283f 4dbe 53be ac7c 603f
00000180: 8a4c e73f 1e31 25be 3b80 a7bd 0f21 ffbb
00000190: 546b aa3f 9533 05bf 5a11 d8bd ad0e ca3f
000001a0: e71c b73f 9835 1140 4f73 113f c9f8 0ebf
000001b0: 3071 1b3f aa11 bdbe a642 8b3e b315 3340
000001c0: abe0 b9be cfb2 103f c2a8 d53e 43f2 5abe
000001d0: 599b c13f c5e7 233f 20ae 493f 477c 61bd
000001e0: caf3 983d b016 9abe 41cf 223e e364 febd
000001f0: a780 da3e 1057 0940 d7e6 12be f711 a23e
00000200: 5596 e5bd 0041 ac3f e136 4f3f d2ed a3be
00000210: ad05 c33e 034f 1140 feca 083f 3ad6 ec3e
00000220: d08d 5a3f ea98 12be 3ecc 04bf 3bd1 583f
00000230: dee9 563f 6bed b23f 9e23 623f 0cbe f5bc
00000240: b418 2c3e 9492 12bf c0b7 6cbe 26cc 9a3e
00000250: c6cd 93bf c87e 8e3d 53d8 ff3f bad1 5fbd
00000260: 6dcf 273f 32ea b43e a3b3 3a3e fec8 d63d
00000270: ba7d f93d abac 1c3e 72dd 96bf 3eea 8d3e
00000280: 9d0f d33f e086 4cbf 8163 363f fe01 b73e
00000290: 136c d1be 2088 f73f d976 8b3f c0d5 6b3c
000002a0: a4b2 dd3f 5aa3 cd3d b954 a33f 7a52 5ebf
000002b0: d997 fb3d 9bce b33f 6b59 c33e 62db cdbe
000002c0: 061e 5e3f 4dea 0a3f 020e 953f 41cf 243f
000002d0: f8af 03be 6fee 0e3f ef7e f53e 095f d23f
000002e0: dd84 bfbf a7ef b23d baea 593e d3d5 003e
000002f0: 31d2 df3d 52b1 34bf 99bd ca3e 20b0 59bf
00000300: d0f7 b63c af24 edbe 1856 4c3f 2375 1d3f
00000310: e57e cc3f ff18 dabd 1114 373e e2ac 643e
00000320: 2fcf 2ebe e6da fcbe 817b fd3d 83d9 cc3f
00000330: fd45 083e 24e6 d23f 7f27 953f ae38 223f
00000340: e84c 563d 9cc7 11bd 5f29 adbd eb84 ea3b
00000350: e57e 83bc 6760 dabe 019e e1be 778f 0140
00000360: 8ee8 363f ff53 5c3f 1164 9e3f 1f02 3dbe
00000370: 7bbc 453f ba07 e13f 4ec9 f43c cafe b13f
00000380: d2d6 9c3e 2f54 1b40 1110 6cbe c6f9 6f3f
00000390: e77a f53f fc1c 523e 3b0a 2e3f 35e5 373e
000003a0: be85 933f 8bbe 1140 8b98 61bd af09 07bf
000003b0: 0cf3 f73e b4e2 0b40 9065 fbbd 73e6 9b3f
000003c0: f903 efbb 9fca 8d3d f048 423e 036a 5f3d
000003d0: 84ee c73f d84f 8b3e b077 163e 0f45 f73f
000003e0: 6542 92bd 555d 2e3f 1582 12be 5bd2 183f
000003f0: 8dd0 cabd e090 653e 1ed7 06be ff75 243f
1.9648596 0.7491124 0.2681733 -0.10814586 0.27643538 0.29596925 1.8928586 0.578362
1.3072256 0.025016228 0.4461702 -0.37530658 0.22837996 -1.0674392 0.9319383 -0.04664689
-0.16994229 -0.064538494 0.50073516 1.1719933 1.1551228 0.065616645 2.0243583 0.21415696
2.418129 0.027793262 0.20004797 -0.14384091 -0.31580696 -0.024226218 1.7639208 -0.1364069
1.7069081 0.15310693 2.2289357 -0.31434768 0.7196797 -0.05355061 -0.0735688 -0.3081771
1.4137105 1.0298767 0.07033055 1.3453684 -0.099665664 2.2409542 1.4056027 1.778776
0.84847057 0.7409607 -0.49512327 2.1054435 -0.15691726 0.7911008 -0.0060045454 -0.44691953
0.38540953 0.010144025 0.18294713 0.91445774 0.7110972 0.97821355 -0.8734672 0.524474
-0.35715362 0.3655838 0.39527532 0.16403458 0.40429837 0.4163885 0.8976414 0.038591728
-0.1960943 -0.75755733 -0.1545386 -0.5719898 -0.11789915 0.8146217 0.4336604 1.117302
-0.409585 -0.25737497 1.37307 -0.667873 -0.33704877 0.05967886 0.85518503 -0.32694787
0.3965711 2.7237906 1.0916003 0.8722704 0.08556862 0.6581063 -0.20678063 0.87690234
1.8070233 -0.16132018 -0.08178755 -0.0077859233 1.3314004 -0.5203183 -0.105501845 1.5785729
1.4305695 2.268896 0.5681657 -0.55848366 0.60719585 -0.3692754 0.27199286 2.7981994
-0.3630422 0.5652284 0.41730314 -0.21381478 1.5125533 0.6402553 0.7878132 -0.05505016
0.07468374 -0.30095434 0.15899374 -0.12421586 0.4267628 2.1459389 -0.14345871 0.3165433
-0.11210314 1.3457336 0.80943114 -0.3201738 0.38090268 2.2704475 0.5343474 0.46257192
0.8537264 -0.14316145 -0.5187415 0.8469426 0.83950603 1.3978704 0.883356 -0.029997848
0.16806298 -0.5725491 -0.2311697 0.30233878 -1.1547172 0.06957775 1.9987892 -0.05464337
0.6555088 0.35334927 0.18232588 0.10487555 0.121821836 0.15300243 -1.178633 0.27717775
1.648914 -0.798933 0.7124558 0.35743707 -0.40902767 1.9338417 1.0895644 0.014394224
1.7320142 0.100409225 1.276023 -0.868446 0.12284822 1.4047426 0.38154158 -0.40206438
0.8676456 0.54263765 1.16449 0.64378744 -0.12860096 0.5583257 0.47948405 1.6435252
-1.4962422 0.08737116 0.21280947 0.12581567 0.10928763 -0.7058307 0.39597777 -0.8503437
0.022334963 -0.4631705 0.7981887 0.6150686 1.5976225 -0.10649299 0.17878748 0.22331575
-0.17071222 -0.49385756 0.12377072 1.6003879 0.13307948 1.6476483 1.1652678 0.63367736
0.052319437 -0.035590753 -0.084551565 0.0071569583 -0.016051719 -0.42651674 -0.4406586 2.0243814
0.714486 0.8606567 1.2374288 -0.1845784 0.77240723 1.7580483 0.029881146 1.390588
0.30632645 2.4270132 -0.23053004 0.937405 1.9178132 0.20518869 0.6798436 0.1795853
1.152519 2.2772548 -0.055077117 -0.5274915 0.48427618 2.1857119 -0.12275231 1.2179703
-0.0072941747 0.069234125 0.18973136 0.05454446 1.5619664 0.27209353 0.14694095 1.931795
-0.0714157 0.68111163 -0.14307435 0.59695977 -0.09903059 0.22418547 -0.13167998 0.6424255

layer2.3.bias f4 [256]
00000000: 5921 1141 a886 4541 6927 3741 aa1e 8e40
00000010: f965 e0be 2988 8041 a58d 8bbd 907f 1041
00000020: 5e40 1c41 168a 31be 538f c5bd 88a6 a9bd
00000030: 3667 6441 8eef 56be ea60 8741 7365 4cbe
00000040: cbb8 34be 64f6 c6be f2f9 edbe 0c46 1341
00000050: f51e 1a40 1097 b8bd e29e 8abe 8ee0 3241
00000060: 1a3e 3a3f 5437 4dbe 4628 71be 0a93 30be
00000070: 6c36 55bf 2f16 84be af00 09bf 09bf 1641
00000080: 8b12 58bc 85cf 20bd 7add fcbd 7e9d 9abe
00000090: 6740 13be 11e0 9840 fa17 94bf 6883 1cc0
000000a0: f1f3 d63f 19d1 8141 8cb6 1941 2df4 5f41
000000b0: a0ba 1c41 2672 4f3e 3da9 d640 063e 0b41
000000c0: 3b7d 00be 2708 7e41 86a2 6ebe 4d75 55be
000000d0: 0102 00bf c0fb 0440 ad79 03bf 0a31 4340
000000e0: f4ad 90be 55a0 3dbe 0807 e9be 3e7e 8241
000000f0: c5e1 14be fd90 59be fdf4 2b41 57f4 78bd
00000100: f75f e240 1d05 993e d900 c940 f4f0 a9be
00000110: e095 5fbe 5d35 07be 83f5 e840 42d5 7341
00000120: 59aa 4641 41e7 ab3f 8cb5 9cbe 2fbd 963c
00000130: 0a81 7641 f38a 8abd 9779 7dbe 8825 3141
00000140: 2438 4fbe 1dc8 3141 c38b 8dbe 7a91 d5be
00000150: aade 33bf dab2 25bf ce17 8641 7410 6540
00000160: a80a b840 b08e 6041 1844 adbe 7b5a 3abe
00000170: a78c 0fbe 5c15 3a41 efb2 c540 9431 ecbd
00000180: 9f86 ccbe 1b76 c03e 9c2b 21be ed3b dabd
00000190: 62f7 18be 3170 98be 3283 7f41 9a01 2fc0
000001a0: 4137 7abe 0f15 40be 1ed3 b0bd 92e0 cabe
000001b0: 47d7 3e41 98e9 78be a13d 8541 c910 b2be
000001c0: ba75 0d41 da21 f1be 5910 3641 6d9e 8441
000001d0: 19e7 9ebe d09f 62bf 4323 4abe 151e 0841
000001e0: 57bf 1c3f 8678 d1be c7a8 6941 0dca f13c
000001f0: e964 f6be b475 c1be 5603 7841 d0f1 d7bd
00000200: c563 e63f cfd2 5540 0bc2 d240 d97d 42c0
00000210: 2aa6 9ebd bee3 6cbe d4e3 45bd f142 51be
00000220: 7296 febd 70d7 21be 075a a4bf f972 09bf
00000230: 9c87 073e dbfa 673f fbac 653d f2dd 0041
00000240: 923b 32be 84ee 1641 06f4 df40 918a 62bb
00000250: d764 c6be a7cd 8740 3111 4cbe df48 3cbe
00000260: e475 b33f a906 8141 619c 683f 6415 f640
00000270: 4dd9 4141 7ebc 90bf dea8 54be 5bdb 18be
00000280: a429 a7be 6d2d 8641 fa10 27be c6ae 5041
00000290: d590 4abe 7de9 cbbd 10a2 fc40 b18d 12bf
000002a0: e959 86be 81d7 8cbf c041 9b40 863e 2841
000002b0: 96a8 3a41 ef94 9c40 2aac 8341 90d6 1abe
000002c0: b822 543f f102 dfbe 4198 7741 84f2 eb40
000002d0: 0eb0 3d41 70d3 4a3d a8f6 86bf 2491 b6bd
000002e0: 85b9 da40 8ce0 4e41 9067 8dbe f4de 053f
000002f0: 5e8a 54be 17bd 8cbd 7c5f 8dbe 559d 93bf
00000300: 629c bfbd 97d5 9f3f 88f5 6e41 3863 e6bd
00000310: d57f ecbe 58e1 31bf e92a c3bd 4e81 7dbf
00000320: 76e5 2241 b5e0 7d41 ddbd 1641 0c1e 4e41
00000330: 3f96 5441 e008 5b41 5445 bfbe 0da3 25be
00000340: 4079 cfbe 66fe 10be 21d8 3941 d5a4 4141
00000350: b28e 62bf 3c06 8dbe 9102 3440 d0c7 46be
00000360: 97b2 8341 b8bd abbe 640e 1141 dcf9 133f
00000370: 576d ec3f 45bf 73bd 0cb2 5ebe 5e40 6241
00000380: f924 7941 babd 0dc0 b065 0ebf cd1b a2be
00000390: cf9e 06be d29a 39be 0213 40bf fa28 5141
000003a0: a76c 26be de18 6b41 6b3f 06be 05e7 ec3f
000003b0: f903 6040 4c41 e0bc 578d 973f ea55 f03e
000003c0: 78fa 7441 54f2 8d3d 4385 c53e a212 4041
000003d0: 062a 8841 a35f ebbd 079b 40be cc00 0cbe
000003e0: 4288 15bf 02e4 66be 891c 8541 26db 29be
000003f0: 3b76 90be ce98 323e 9c09 30bf 61dd 1c40
9.0706415 12.345375 11.447122 4.441243 -0.438278 16.066484 -0.06814126 9.031143
9.765715 -0.17337832 -0.096464776 -0.082837164 14.275198 -0.2098982 16.922321 -0.19960575
-0.17648618 -0.38859856 -0.46479756 9.204601 2.4081395 -0.09013188 -0.27074343 11.179823
0.7275101 -0.20040637 -0.2355052 -0.17243591 -0.83286166 -0.25798175 -0.5351667 9.421639
-0.013188015 -0.039260406 -0.12346931 -0.30198282 -0.14380036 4.777352 -1.1569817 -2.4455204
1.6793195 16.227098 9.607067 13.997113 9.795563 0.20258388 6.708159 8.702642
-0.12547772 15.87699 -0.23304185 -0.20845528 -0.5000306 2.0778656 -0.5135754 3.049868
-0.28257716 -0.18518193 -0.45513177 16.311642 -0.14539249 -0.21246715 10.747312 -0.060779896
7.0742145 0.29886714 6.2813535 -0.33191645 -0.21834517 -0.1320395 7.2799697 15.239565
12.416589 1.3429948 -0.3060726 0.018400757 15.406504 -0.06764784 -0.24753414 11.071663
-0.2023626 11.111356 -0.27645692 -0.41712552 -0.70261633 -0.6472603 16.761623 3.5791292
5.751301 14.034836 -0.33841014 -0.18198578 -0.14018498 11.630215 6.1780925 -0.11532894
-0.39946458 0.37590107 -0.15739292 -0.10655961 -0.14938119 -0.29773095 15.96953 -2.7344728
-0.2443514 -0.18758033 -0.086340174 -0.3962446 11.927558 -0.24307859 16.655092 -0.3477843
8.841242 -0.4709614 11.378991 16.577356 -0.3103569 -0.88525105 -0.19740014 8.507344
0.6122946 -0.40912265 14.603705 0.02951529 -0.48123863 -0.37785113 15.500814 -0.10544169
1.7999197 3.3409917 6.586187 -3.0389311 -0.07746537 -0.23133752 -0.048312977 -0.20435692
-0.12431039 -0.15804839 -1.2839974 -0.5369106 0.13235325 0.9061715 0.05607317 8.054186
-0.17405537 9.433231 6.998538 -0.0034567455 -0.3874881 4.243854 -0.19928433 -0.18387173
1.4020352 16.128252 0.90863615 7.690111 12.115552 -1.1307523 -0.20767543 -0.14927427
-0.32648957 16.77218 -0.1631507 13.042669 -0.19781812 -0.09956644 7.894783 -0.57247454
-0.2624047 -1.1003267 4.851776 10.5152645 11.666159 4.8931804 16.459064 -0.15120912
0.82865477 -0.43556932 15.474671 7.373354 11.855482 0.04951805 -1.0544024 -0.08914402
6.8351464 12.929821 -0.27618074 0.52293324 -0.20755908 -0.068720035 -0.2761191 -1.1532389
-0.093559995 1.2487057 14.934944 -0.11249393 -0.46191278 -0.6948447 -0.09529669 -0.9902543
10.181021 15.86736 9.421353 12.882336 13.286681 13.689667 -0.3735758 -0.1617548
-0.40522194 -0.14159545 11.615266 12.102742 -0.88498986 -0.2754382 2.8126566 -0.1941216
16.462202 -0.3354318 9.066013 0.5780313 1.8470868 -0.05950858 -0.21747607 14.140715
15.571527 -2.214705 -0.5562391 -0.31661835 -0.13146518 -0.18125466 -0.75029004 13.072504
-0.16252385 14.693571 -0.1311013 1.8508002 3.5002425 -0.027374886 1.1840008 0.46940547
15.31115 0.06930986 0.38578233 12.004549 17.02052 -0.11492851 -0.18809138 -0.13672179
-0.5841104 -0.22547916 16.638933 -0.16587505 -0.28215203 0.17441103 -0.6876466 2.451012

layer2.6.weight f4 [1, 256]
00000000: ebfa cf3c 0d65 933d ee2e 9b3d b446 143e
00000010: 1421 373c 2494 c33d 8394 983c 469d 1b3e
00000020: b3a6 4a3d 1fa1 2dbe d402 92bc 3097 af3b
00000030: 0450 983d 49bd df3c 2ed7 88ba 8579 15bb
00000040: cd6c 0abc 8852 4abc c2a2 cb3c 6b06 073e
00000050: 9d80 d13d 9ff7 b03c 0f9f cc3c 6eaa ae3d
00000060: 3050 6cbd df19 6cbc dc62 113e 45b3 f73c
00000070: 1c18 c4bc d9f2 2d3d 4dc6 0b3b 1838 d13d
00000080: d4a5 833d dae3 80bd 4a45 c9bb 1a6b e4bc
00000090: 2443 b83c 9a31 e23c 1e5c a63c 5664 ecbe
000000a0: 1398 9e3d 4bc8 813d 5945 f33d e3eb 8d3d
000000b0: f897 263d b052 d8bc cb7d 883d f2bf babc
000000c0: 6307 d53c b808 6f3d 8cff 34bb 69fa 2cbc
000000d0: c94d efbb 0880 303e a55b bdbc 320c 003e
000000e0: e7ab a2bc 2f53 c1bc 797d d43c df83 d13d
000000f0: 8bf7 6f3d c654 8abc 0033 8f3d b1c8 733c
00000100: e5bf 9c3a 4686 a03c 6d07 a43c b36a a6bc
00000110: fd7b 72bb bffa f83c a786 fe3d 7ef5 f93d
00000120: 1109 093e 208e 843c b8b1 e63c 669b 58bb
00000130: b3a5 9f3d ff88 e43d 3e26 13bc f961 8c3d
00000140: 8ad2 a53c 5c62 ef3d 49f4 9dbb 271c a0bc
00000150: af92 18bb 60ed f5bd 92b4 3b3d 94a6 b43d
00000160: 04ba e13d dd3f 1f3d bd0d b6bb 1da9 903c
00000170: b6f7 4fbc 5861 083d 570c b03b aaed abbc
00000180: 9001 0fbc 834e d9bc 807e b1bc 88c4 503c
00000190: 0af2 d83c 5e47 d03a bf88 0d3e bdc2 59bd
000001a0: 0124 e5bd 95a5 6ebc f18a c4bc e52f d13c
000001b0: e5b1 103c ee21 1cbd 7ebe ea3c e900 73bc
000001c0: c75f 4b3d ef56 213c f2d1 7f3d dd58 dc3d
000001d0: 0aff 6fbb 17b3 883b 61e3 86bc 4c8d 053e
000001e0: 67cc 2c3a 5666 2fbb 654d 8b3d e519 b7bd
000001f0: d341 003d 46b2 2b3c e5d9 d53d 4f83 d83c
00000200: 7ff7 f93c de8a 79be f80e e2bb 0bf2 c8bb
00000210: 4488 f7bc 5b1c ed3c ba92 10bc e228 833c
00000220: cfd3 7bbc b5c1 c73a 6f5d 73bd b528 1d3d
00000230: 18c4 323b 846d 023e 5c5a c13c bc02 a53d
00000240: 02d8 73bc 2ee1 2ebd 4061 943d 95dc 073c
00000250: 394b f13c d685 013d a5de f23c e4d7 b3bc
00000260: 802c 6bbc 751a ad3d 3d56 54bd 22b7 953d
00000270: 1769 b73d fe4a 48bc 1f3e 67bc 607f df3c
00000280: 9bb4 473c 3eb6 463d 468a 93bd b2c7 723c
00000290: b00f d2bc f6a3 d03c 0785 963b a463 aebc
000002a0: e8ba cdbc d052 96bd 42ee 693d b646 7f3d
000002b0: ee82 063e 461f eb3c 5b02 9f3d 4e5a 5d3c
000002c0: 2efd 303d c631 1d3b c81c a13d 1995 023e
000002d0: b42c 3d3d 7737 8ebc 2c1c ffbc e548 4c3c
000002e0: 3480 9d3d 2015 923d c04a 693c 87ad ffbc
000002f0: 8fc1 4bbc ed79 e7bc 9f36 a2bd 4cbd ef3c
00000300: 846a d3bc 051a 233d 9fb7 c13d 676e 3c3c
00000310: b0c9 07bb a0be 91bc 717a 893a 793d c9bd
00000320: bb19 b93d e458 963d a0f5 803d 2b30 1e3e
00000330: e2b3 073d 62bc cb3d 8a28 8c3c 777a c9bc
00000340: 9f5a 8dbd 97ec f23b fd69 af3b cfe0 f83d
00000350: 7023 abbb 0f8a 24bc cadf 8c3e 1eb7 adbc
00000360: 5276 633d d746 f7bc 4ca2 b83d 6aa1 20bb
00000370: 71a2 94bb 607d 99bc 925f a0bc cba8 653d
00000380: a943 4b3d 40d1 35bd 7398 a4bc 1bf1 6bbc
00000390: ff83 a7bc 17cd d23c b218 533c e111 e03d
000003a0: 93cc c73c fa3b 073e 1832 36bc 6a1f 753e
000003b0: f980 a33e 7749 e0ba bf56 653b 4acc c3bc
000003c0: 1154 323d 6483 b5bc bdc6 b7bc 2fa3 a1bc
000003d0: 5750 b83d f45c e73a 6733 4f3e 691d c03c
000003e0: d391 c13c b952 da3c 30d6 8b3d f7c5 ec3b
000003f0: 3e92 a23c 283c 14bc d21a c33c 274b e03d
0.025388202 0.07197008 0.075773105 0.14480096 0.01117732 0.0954974 0.018625503 0.15196714
0.049475383 -0.16955994 -0.017823614 0.005358599 0.07437137 0.027311938 -0.0010440105 -0.0022808027
-0.008448792 -0.012348779 0.024857882 0.13186042 0.10229609 0.02160245 0.024978189 0.08528601
-0.05769366 -0.014410465 0.14197868 0.03023685 -0.023937277 0.042467926 0.0021327913 0.10215777
0.064281136 -0.06293459 -0.006142293 -0.027883101 0.022492953 0.027611542 0.020307597 -0.461703
0.077438496 0.06337031 0.118784614 0.069297574 0.040672272 -0.026406616 0.06664618 -0.022796605
0.026004499 0.058357924 -0.0027618138 -0.010557749 -0.007302974 0.1723634 -0.023114989 0.12504652
-0.01985736 -0.023599235 0.025938736 0.102302305 0.058585685 -0.016886126 0.06992149 0.0148793915
0.0011959044 0.019595277 0.020023072 -0.02031455 -0.0037000172 0.030393003 0.12428027 0.12205027
0.13382365 0.016181052 0.028160915 -0.003305161 0.077952765 0.111589424 -0.008981286 0.06854624
0.020241994 0.116886824 -0.004820381 -0.019544674 -0.002328079 -0.12008166 0.045826502 0.08820835
0.11021808 0.038879264 -0.005555837 0.017658764 -0.012693336 0.03329596 0.005372565 -0.02098735
-0.0087284 -0.026526695 -0.021666765 0.012742169 0.0264826 0.001589041 0.13821696 -0.053164233
-0.11188508 -0.014565845 -0.023992034 0.025535533 0.008831476 -0.038118295 0.028655287 -0.01483176
0.049651887 0.009847387 0.06245608 0.10759137 -0.003662052 0.00417174 -0.016465845 0.13042182
0.00065917376 -0.0026763878 0.06801871 -0.08940486 0.031312775 0.010479515 0.10441951 0.0264298
0.030513523 -0.2436938 -0.006898757 -0.0061323694 -0.030216344 0.028944185 -0.008824045 0.016010705
-0.015370323 0.0015240224 -0.059415277 0.0383689 0.0027277526 0.1273709 0.023602657 0.08057162
-0.014883043 -0.042695217 0.072451115 0.008292337 0.029454814 0.031621777 0.02964718 -0.02195353
-0.014353871 0.08452312 -0.051840056 0.073103204 0.08955591 -0.012224911 -0.014113932 0.027282417
0.012189056 0.048513643 -0.07204108 0.014818119 -0.025642246 0.025468808 0.004593495 -0.021287747
-0.025113538 -0.07340014 0.057111986 0.062323295 0.13135883 0.028701436 0.07764121 0.0135103
0.0432102 0.0023985966 0.07866818 0.12752189 0.04618521 -0.017360432 -0.031141363 0.012468551
0.076904684 0.071329355 0.014239013 -0.031210674 -0.012436285 -0.02825638 -0.079205744 0.029265068
-0.025807627 0.039819736 0.09458851 0.011500931 -0.002071958 -0.017791092 0.0010488761 -0.09826178
0.09038111 0.07341173 0.06296849 0.15448062 0.033130534 0.099480405 0.017109174 -0.024594529
-0.0690205 0.0074134576 0.005353211 0.12152254 -0.0052227303 -0.010042681 0.27514488 -0.021205481
0.05553276 -0.030185146 0.09015331 -0.0024510273 -0.004535966 -0.018736541 -0.019576821 0.056069177
0.049625073 -0.04438901 -0.020092225 -0.014400746 -0.020448683 0.02573256 0.012884306 0.1094091
0.02438954 0.13206473 -0.011120342 0.23937765 0.31934336 -0.0017111738 0.0034994332 -0.023901124
0.043537203 -0.022157378 -0.022433633 -0.019731132 0.089996986 0.0017651604 0.20234452 0.023451524
0.023629105 0.026650773 0.068279624 0.0072257477 0.019845124 -0.0090475455 0.0238165 0.10951834
