Model_Files/helpdesk/TimestampPredictor_parameters_weighted_0.001.pt (torch, 277514 bytes, 7 tensors)

layer1.weight f4 [4, 1]
0	0xbb0db616	-0.0021623424
1	0x3c3db3f1	0.011578546
2	0x3f8e89fb	1.1135858
3	0x40abb78f	5.366157

layer1.bias f4 [9]
0	0x410b5fad	8.710858
1	0x40658482	3.5862126
2	0x3f8294b8	1.0201635
3	0xc0ca2883	-6.3174453
4	0xc112f167	-9.183936
5	0xc0a7fef7	-5.2498736
6	0xc1122f45	-9.13654
7	0xc0a033e5	-5.006335
8	0xc01ca003	-2.4472663

layer2.1.weight f4 [256, 9]
0	0xbddfab74	-0.10921374
1	0x3c48cc17	0.01225569
2	0xbe20e2b3	-0.15711479
3	0xbff8d019	-1.9438506
4	0xc041a79d	-3.0258553
5	0xbeac027d	-0.33595648
6	0xc00cc1b6	-2.1993232
7	0xbabdbe42	-0.0014476257
8	0xbdddd18f	-0.10830986
9	0xbd4a0193	-0.049317908
10	0xc02abec6	-2.667894
11	0xbe8e181d	-0.27752772
12	0xc01747fd	-2.3637688
13	0xbef2fb1e	-0.47457212
14	0xbf8b9a9e	-1.090656
15	0xc0028a84	-2.0397043
16	0xbf69dde5	-0.9135421
17	0x3e2671c3	0.16254334
18	0xbd916885	-0.07100014
19	0x3d46955e	0.04848229
20	0xbe40b3be	-0.18818566
21	0xbecf9e01	-0.40550235
22	0xc0130fac	-2.2978315
23	0xbe8d87f1	-0.27642778
24	0xbf399d24	-0.725054
25	0xbcffcdc7	-0.031226052
26	0xbdc60968	-0.09669763
27	0xbe94ab3d	-0.29036894
28	0xbe22efb9	-0.1591176
29	0xbf4f9ebe	-0.81101596
30	0xbd05c1f4	-0.03265567
31	0x3d2196a3	0.0394503
32	0xbd25648b	-0.04037909
33	0x3b4b243a	0.0030996935
34	0xbcc584d3	-0.024111187
35	0xbd22951d	-0.039692987
36	0xbe30f820	-0.17282152
37	0x3e3699a1	0.17832042
38	0xbf001da1	-0.5004521
39	0x3edd40f8	0.4321363
40	0x3f29b907	0.66297954
41	0xbf3354b0	-0.700511
42	0x3f118031	0.5683623
43	0xbd0f506f	-0.034988817
44	0xbe5d0b89	-0.21586432
45	0xbd58ea26	-0.052957676
46	0xbf8a59b2	-1.0808623
47	0xbf2f2831	-0.684207
48	0xbef4957d	-0.477703
49	0x3ed4ae5b	0.41539273
50	0x3f42536a	0.7590853
51	0xbe90577c	-0.28191745
52	0xbef91fea	-0.4865716
53	0xbe8805f5	-0.26567045
54	0xbe28a52a	-0.16469255
55	0x3f5e816b	0.86916226
56	0xbf1bfeee	-0.60935867
57	0xbf276e2e	-0.65402496
58	0x3fb8308d	1.4389817
59	0xbe128d91	-0.14311816
60	0x3f03f971	0.5155249
61	0x3e0f545c	0.13997024
62	0xbe576af3	-0.21036892
63	0xbe62cdea	-0.22148862
64	0x3f97e07e	1.1865385
65	0xbf28baf5	-0.65910274
66	0xbd446aeb	-0.047953527
67	0x3f227573	0.63460463
68	0x3dd2d341	0.102942
69	0x3def4026	0.11682157
70	0xbd945f98	-0.072447956
71	0xbe2d8395	-0.16944726
72	0xbddd608f	-0.10809433
73	0x3d2f235a	0.042758323
74	0xbec6d8ae	-0.38837188
75	0xbfac1f11	-1.3446981
76	0xc03fd51b	-2.997382
77	0xbf61f630	-0.8826628
78	0xc0252336	-2.580274
79	0xbc1611cd	-0.0091595175
80	0xbdc58342	-0.09644176
81	0xbdb92f49	-0.09042222
82	0xbeb0188f	-0.34393737
83	0xbf3f5385	-0.74736816
84	0xbe4aec83	-0.19816785
85	0x3df0de48	0.11761147
86	0xbce5dfc2	-0.028060798
87	0xbc8ffc84	-0.017576464
88	0xbe04ce74	-0.1296938
89	0xbd347f8f	-0.04406696
90	0xbc7e34ff	-0.015515565
91	0xbd6fac70	-0.05851406
92	0xbe5dc87d	-0.21658511
93	0xbd5ff2ec	-0.054675028
94	0x3e65fe63	0.22460322
95	0xbddab9d4	-0.10679975
96	0x3e2294bf	0.15877055
97	0xbd88c630	-0.06678426
98	0xbd95dbdb	-0.07317325
99	0xbe673c54	-0.22581607
100	0xbfa2e2bc	-1.2725444
101	0x3ddf997a	0.10917945
102	0xbf29bebf	-0.6630668
103	0x3f08f092	0.5349208
104	0xbdda8d3e	-0.10671471
105	0x3f07c2a5	0.5303138
106	0xbefe2c7f	-0.49643323
107	0xbdbe03a8	-0.09278041
108	0xbdf15ef7	-0.11785691
109	0x3e800dfb	0.25010666
110	0xbf540a22	-0.8282796
111	0x3e99787e	0.2997474
112	0x3e074e97	0.13213573
113	0xbe16b33d	-0.14716811
114	0xbe18e954	-0.14932758
115	0xbd700735	-0.058600623
116	0xbe3a1b44	-0.18174464
117	0xbe5601f4	-0.20899183
118	0x3cc81602	0.024424557
119	0xbdfb6479	-0.12275023
120	0xbf75b9d0	-0.9598665
121	0xc0578777	-3.367643
122	0xbf60cc0e	-0.8781136
123	0xbf43417b	-0.7627179
124	0xbc2e97ed	-0.010656339
125	0xbf242068	-0.6411195
126	0xbdaa3070	-0.0831002
127	0x3ca6293b	0.020283332
128	0xbda8d62b	-0.08243974
129	0xbf2c6d36	-0.6735414
130	0xbfcc84c5	-1.5978018
131	0xbf7c1340	-0.98466873
132	0xbf0f46ed	-0.559676
133	0xbd00bd49	-0.031430516
134	0xbf18a4b8	-0.5962634
135	0xbe19e292	-0.15027836
136	0xbbb45b90	-0.005504079
137	0xbda745a2	-0.08167578
138	0xbeecdf7d	-0.46264258
139	0xbfa9e95b	-1.327434
140	0xbf6b96b3	-0.92026824
141	0xbf018e5a	-0.50607836
142	0xbbcb51be	-0.006204813
143	0xbdad1043	-0.08450367
144	0xbd75792a	-0.059930004
145	0xbfab72cd	-1.339441
146	0xbf00b082	-0.5026933
147	0xbf03f2c8	-0.5154233
148	0xbe0bd0b5	-0.13653834
149	0x3eea3efa	0.45751172
150	0xbe801590	-0.2501645
151	0xbf179899	-0.5921722
152	0xbe6dbaae	-0.23215744
153	0xbe806ca8	-0.25082898
154	0xbff2893c	-1.8948131
155	0xbf26c176	-0.6513895
156	0xbfcea231	-1.6143247
157	0x3ea349ac	0.31892145
158	0xbf02f5b8	-0.5115619
159	0xbfb18441	-1.3868486
160	0x3e79346e	0.24336407
161	0xbe9afb00	-0.30269623
162	0xbe3385d8	-0.17531526
163	0xbe6c620b	-0.23084275
164	0xbeeb1e57	-0.45921585
165	0x3f33946c	0.7014835
166	0x3d32dc8c	0.04366736
167	0xbdb815be	-0.08988522
168	0xbeb6f90d	-0.35736886
169	0xbef619ff	-0.48066708
170	0xbd99e351	-0.0751406
171	0xbdb436c0	-0.08799505
172	0xbf0a0120	-0.53907967
173	0xbeea20c0	-0.4572811
174	0x3cdcc212	0.026948009
175	0x3f156706	0.58360326
176	0xbdb12e29	-0.086513825
177	0xbb320828	-0.0027165506
178	0xbe622efd	-0.22088237
179	0xbdb37478	-0.08762449
180	0xbd6fc895	-0.0585409
181	0x3e112b8a	0.14176765
182	0xbce6202b	-0.02809151
183	0x3e8836c0	0.2660427
184	0x3e55edc0	0.20891476
185	0xbd950b8a	-0.072775915
186	0xbe37371c	-0.17892116
187	0xbe75d100	-0.24005508
188	0xbdbfbd71	-0.09362305
189	0xbd3d1af4	-0.046168283
190	0xc0246b55	-2.569051
191	0xbdeb4bcc	-0.114890665
192	0xbfdb96e4	-1.7155423
193	0xbe9d552f	-0.30729052
194	0xbf6472f5	-0.8923791
195	0xc0138757	-2.3051355
196	0xbf796238	-0.97415495
197	0x3d1efafe	0.038813584
198	0xbe58fb16	-0.21189532
199	0x3e24c4e8	0.16090739
200	0xbcaa0c0e	-0.020757701
201	0x3f818454	1.0118508
202	0x3fe5f166	1.7964294
203	0xbf8ac337	-1.0840825
204	0x3fb7d36b	1.4361395
205	0x3e576c75	0.21037467
206	0xbe079b17	-0.13242756
207	0xbde73e03	-0.11291125
208	0xbed8b60f	-0.423264
209	0xbeddbf07	-0.43309805
210	0xbbab3bab	-0.005225619
211	0x3e325d1b	0.1741833
212	0xbbbfe7b1	-0.005856477
213	0xbef3ec1f	-0.47641084
214	0xbc992a90	-0.018697053
215	0xbdb1aa6a	-0.08675082
216	0xbe4c1bad	-0.19932432
217	0xbe69c976	-0.22830757
218	0xbf5686e9	-0.83799607
219	0xbdc608ed	-0.09669671
220	0xbd45d5ca	-0.04829959
221	0xbe8bb899	-0.27289274
222	0xbde076bc	-0.10960147
223	0xbdde6ec8	-0.108609736
224	0xbe3294be	-0.17439553
225	0xbd684264	-0.05670394
226	0x3d0c0762	0.03418673
227	0xbea5b916	-0.32367772
228	0xbcf1fce7	-0.029539539
229	0x3e97006f	0.29492518
230	0xbdbcce5a	-0.09219046
231	0x3e8eaa1f	0.27864167
232	0xbe0dbc80	-0.13841438
233	0x3c669620	0.0140738785
234	0xbd87882e	-0.06617771
235	0xbe1d977d	-0.1538982
236	0xbf45c614	-0.7725537
237	0xbd1209ab	-0.03565375
238	0x3c7e1067	0.01550684
239	0x3eb13b80	0.34615707
240	0xbd808ffd	-0.062774636
241	0x3e1c6e46	0.15276441
242	0x3bc249f6	0.005929227
243	0xbec15fb8	-0.3776834
244	0xbfa609d0	-1.2971745
245	0xbe893317	-0.2679679
246	0x3f30e7fa	0.6910397
247	0x3f036164	0.5132048
248	0xbe9b7be7	-0.30367967
249	0x3f47de40	0.780735
250	0x3d38b4c1	0.045094255
251	0xbcf5fbfe	-0.030027386
252	0xbe09a448	-0.13441575
253	0xbd34ab90	-0.044108927
254	0xbec8878a	-0.39165908
255	0x3e3e658f	0.18593429

layer2.1.bias f4 [256]
0	0x418cac77	17.584211
1	0xc158f33d	-13.559384
2	0x418ac410	17.345734
3	0xc00287bc	-2.0395346
4	0xbfb6a30f	-1.4268512
5	0xc0c0833e	-6.016021
6	0xc0eec917	-7.462047
7	0xc0cb0c66	-6.3452635
8	0x4162f713	14.185321
9	0xc04c1005	-3.1884778
10	0xc0243500	-2.5657349
11	0xc0716fca	-3.772448
12	0xc0794868	-3.8950443
13	0x41b5a812	22.707066
14	0x41829f93	16.327917
15	0x41ab8406	21.439465
16	0xc0ccd535	-6.4010262
17	0xc175d3a1	-15.364167
18	0xc0428076	-3.0390906
19	0xbfd8438f	-1.6895617
20	0xc027f4d9	-2.6243193
21	0xc154140a	-13.254892
22	0xc0f9038e	-7.781684
23	0xc0bba6d8	-5.8641167
24	0xc0a94755	-5.2899575
25	0xbfba94fe	-1.4576719
26	0xc0c64b86	-6.196719
27	0xc025b87e	-2.5893855
28	0xbded29a6	-0.115802094
29	0xc1114f12	-9.081804
30	0xc1616e9f	-14.089507
31	0xc11f2ac3	-9.94794
32	0xc0139853	-2.3061721
33	0x41b6af5e	22.835629
34	0xc035d522	-2.8411336
35	0xc07fc74e	-3.9965396
36	0xc0e4c060	-7.1484833
37	0xc033765b	-2.8040988
38	0xc14b5724	-12.708775
39	0xc109a98c	-8.603893
40	0xc0827471	-4.076714
41	0xc09891df	-4.7678065
42	0xc0853d66	-4.163745
43	0xc0c72e61	-6.2244115
44	0xc0be5f65	-5.949145
45	0x410f77fb	8.966792
46	0x4140547b	12.020625
47	0xc1019c9e	-8.100737
48	0xc0f461ff	-7.6369624
49	0xc0c69685	-6.205874
50	0xc0a29fce	-5.0820074
51	0xc072658b	-3.7874477
52	0xc058053f	-3.3753202
53	0x41f53431	30.650484
54	0x4152c0b6	13.172049
55	0xc0e2ea55	-7.091105
56	0xc0a36982	-5.1066294
57	0xc118db31	-9.553514
58	0xc05f1ad3	-3.4860122
59	0x41bfb074	23.961159
60	0xc0338446	-2.8049483
61	0xc02daf1b	-2.7138126
62	0xc0131cd1	-2.2986338
63	0x41a06a34	20.051857
64	0x410c40eb	8.765849
65	0xc12ffd0c	-10.999279
66	0xc052ee19	-3.2957823
67	0x4192778e	18.308376
68	0xc1225d84	-10.147831
69	0xc0cfde1e	-6.495864
70	0xc10861cf	-8.523879
71	0xc0b4f8a9	-5.655354
72	0x41b75551	22.916658
73	0xc14b5d9f	-12.710357
74	0x4141c167	12.109717
75	0xc1449874	-12.28722
76	0xbfdac6fc	-1.7091975
77	0x41a74b13	20.911657
78	0xbfc68d8f	-1.551195
79	0xc0dcef22	-6.904191
80	0xc0e35cde	-7.1050863
81	0x41abe0cf	21.48477
82	0xc1162b82	-9.385622
83	0x41601d37	14.007133
84	0x41b6499c	22.785942
85	0x41a2267d	20.268793
86	0x41c1c605	24.22169
87	0x4196d8e7	18.85591
88	0x41d7a687	26.956312
89	0x414e77ad	12.904218
90	0xc08afd7f	-4.3434443
91	0xc110a8c2	-9.041201
92	0x41bd8354	23.689125
93	0x41be3ad1	23.778719
94	0xc0d92fb0	-6.787071
95	0xbe3d7f7a	-0.1850566
96	0xc101b593	-8.10683
97	0x3fff6ee9	1.9955722
98	0x417a3e14	15.640156
99	0xc0bff615	-5.9987893
100	0x41ad240c	21.642601
101	0xc14d976a	-12.849466
102	0xc093a816	-4.6142683
103	0xbfa7ab8f	-1.309923
104	0xbee94827	-0.4556286
105	0xc15e49a6	-13.892981
106	0xc0e32881	-7.0986943
107	0xc09df085	-4.9356103
108	0x41d97750	27.183258
109	0x41bbfa05	23.49708
110	0x41640352	14.250811
111	0x417e3bb3	15.889575
112	0xbff3b7ae	-1.904043
113	0xc087a27e	-4.2385855
114	0x41aa8cf4	21.318825
115	0xc082b0c0	-4.084076
116	0xc003393e	-2.0503688
117	0x419da44b	19.705221
118	0xc0c3fd20	-6.124649
119	0xc05798e7	-3.3687074
120	0xc1116008	-9.085945
121	0xc0a3b88b	-5.116277
122	0xc0cff1f4	-6.4982853
123	0x418efa90	17.872345
124	0xc0b246fc	-5.571165
125	0xc0f2a84f	-7.5830455
126	0xc0629694	-3.5404406
127	0xc082df56	-4.0897627
128	0xc091a232	-4.551049
129	0x413ed7d3	11.927691
130	0xc1031f81	-8.195191
131	0xc11fd964	-9.990574
132	0xc0ecbbed	-7.39794
133	0xbf96df25	-1.1786848
134	0xc10cec0f	-8.8076315
135	0xc109f7c1	-8.622987
136	0x419ef3ff	19.869139
137	0x41726f96	15.152243
138	0x400afbe4	2.1716242
139	0x40885c19	4.2612424
140	0xc100e42c	-8.055706
141	0x4158b105	13.543218
142	0xc04ec016	-3.230474
143	0xc02494d3	-2.5715835
144	0xc117b4ea	-9.481668
145	0xc1489107	-12.535407
146	0xc08f2ea1	-4.474442
147	0x41a202b1	20.251314
148	0xc02f4275	-2.7384312
149	0xc0c50cfb	-6.1578345
150	0xc111fdef	-9.1244955
151	0x41b3163e	22.38586
152	0xc0cbbebb	-6.3670325
153	0xc0bfbab6	-5.991542
154	0x4197763e	18.932735
155	0xc04019f7	-3.0015848
156	0xc0c24ad2	-6.0716333
157	0x41ab90e8	21.445755
158	0x41a91e48	21.139786
159	0x418f3d98	17.905075
160	0x41750169	15.312844
161	0xc0ea6a54	-7.3254795
162	0xc16f1c27	-14.944373
163	0xc0d831c2	-6.756074
164	0x41816df5	16.17869
165	0xc03423b5	-2.8146794
166	0xc0bdcee4	-5.931505
167	0xbfc3b4f4	-1.5289598
168	0xc0372b95	-2.862035
169	0xc086b5e7	-4.209705
170	0xc0611fc9	-3.517565
171	0xc020524f	-2.5050237
172	0xc0649c3c	-3.5720358
173	0xc00442c4	-2.066575
174	0x41a293cb	20.322165
175	0xc144b4ac	-12.294109
176	0x40e9f358	7.310955
177	0xbfb82a07	-1.4387826
178	0x41bc8af7	23.567854
179	0xbffdd8ef	-1.9831828
180	0x41c04220	24.032288
181	0xc10fcecb	-8.987987
182	0x41991070	19.133026
183	0x419e5ed8	19.79631
184	0x416fc03b	14.984431
185	0x418027f8	16.019516
186	0xbfe5d24c	-1.7954803
187	0xc0458bff	-3.0866697
188	0xc06f4776	-3.7387366
189	0x415a4239	13.641168
190	0xc00d47fc	-2.2075186
191	0xc07ca976	-3.947843
192	0xc0ccbb81	-6.3978887
193	0xc0c8e296	-6.2776594
194	0xc0e26d3f	-7.0758357
195	0x4124df66	10.304541
196	0x41a0ef86	20.116955
197	0xc06d6f1d	-3.7099068
198	0xc0717a4d	-3.7730896
199	0x419c81b0	19.563324
200	0xc135f6fe	-11.372801
201	0x41a64f75	20.788797
202	0xc0a03d38	-5.007473
203	0x41b644cf	22.783598
204	0xc12b2c99	-10.698388
205	0xc0dd4b77	-6.915462
206	0xc0d8e1a0	-6.777542
207	0xc0e1b32e	-7.0531225
208	0x41906dfe	18.053707
209	0x41998960	19.192078
210	0xc0c93aa0	-6.2884064
211	0xc0d3783a	-6.608426
212	0xc0ddcbf4	-6.9311466
213	0xc11a2cfc	-9.6359825
214	0xc0c40c35	-6.12649
215	0x41d5ce81	26.725832
216	0xc0ceb298	-6.459301
217	0x41b2d31c	22.35308
218	0xc08aff04	-4.34363
219	0xc011dc7f	-2.279083
220	0xc03fa312	-2.994328
221	0xc086ee6e	-4.216605
222	0x419a2661	19.26874
223	0x414c5dc1	12.772889
224	0xc10b4387	-8.703986
225	0xc12261fc	-10.148922
226	0x41c8ca3d	25.09875
227	0xc1176383	-9.461795
228	0x41aadf02	21.35889
229	0x41876e78	16.92894
230	0xc10bfccd	-8.749219
231	0x41b2a4b2	22.330418
232	0xc117245f	-9.44638
233	0xc074748c	-3.8196135
234	0xc121c2c2	-10.110048
235	0xbfbf56ef	-1.4948405
236	0xc0f6596e	-7.6984167
237	0xc176325b	-15.387294
238	0xc0f6b19d	-7.7091813
239	0xbfec65b4	-1.8468537
240	0xc172d3fd	-15.176755
241	0x410351a5	8.207433
242	0x415aec94	13.682758
243	0x41bc0dd2	23.506748
244	0x4189f9d0	17.246979
245	0xc0320322	-2.7814412
246	0xc10973e0	-8.59079
247	0x41086d9f	8.526763
248	0x40952695	4.6609597
249	0x41842b7f	16.521238
250	0x419970ef	19.180143
251	0x41973e4d	18.90542
252	0xc08cb463	-4.39702
253	0xc14817db	-12.505824
254	0xc0e22572	-7.067071
255	0xc098a1cd	-4.769751

layer2.3.weight f4 [256, 256]
0	0x3ff9e1e7	1.9522065
1	0xbe20968e	-0.15682432
2	0x3f36626f	0.7124395
3	0xbe25d9d7	-0.1619638
4	0x3e8917bb	0.26775917
5	0x3dcb5749	0.09928758
6	0x3cd1cc0a	0.025609989
7	0x3ec6d8c8	0.38837266
8	0x3fa0ac47	1.2552575
9	0xbd850500	-0.06495094
10	0xbe82ba13	-0.25532588
11	0x3c14c6fa	0.009080643
12	0x3dc0da78	0.094166696
13	0x3fc53af9	1.5408622
14	0x3e4ac41f	0.19801377
15	0xbe03f454	-0.12886173
16	0xbe6ef413	-0.23335294
17	0xbe72c254	-0.23706943
18	0xbd81415a	-0.06311293
19	0xbd2eb00f	-0.04264837
20	0xbd7ff411	-0.06248862
21	0xbea4ce72	-0.32188755
22	0xbc9b0fe1	-0.01892847
23	0xbdfc30db	-0.12314006
24	0xbe4830fa	-0.19549933
25	0x3d9d0d96	0.07668607
26	0xbe94c9c9	-0.290602
27	0x3e905dec	0.28196657
28	0x3d9c4333	0.07630005
29	0xbe87e1fd	-0.26539603
30	0xbecc98d4	-0.3996035
31	0x3e861f2c	0.26195657
32	0xbdcdb13c	-0.100435704
33	0x3f906dcf	1.1283511
34	0x3edd2d49	0.43198612
35	0xbe96a055	-0.294192
36	0x3cb73b38	0.022367105
37	0x3dd9b7cc	0.106307596
38	0xbea57f55	-0.3232371
39	0xbe9bb069	-0.30408028
40	0x3dec2314	0.11530128
41	0xbe244487	-0.16041766
42	0xbd499a54	-0.049219444
43	0xbe6b4ca5	-0.22978456
44	0xbe3920c8	-0.18078911
45	0x3da428da	0.08015604
46	0x3e73661e	0.23769423
47	0xbc26f676	-0.010190597
48	0xbd143d1c	-0.03619109
49	0xbe4f2a5d	-0.20231004
50	0xbe1d8527	-0.15382825
51	0x3e858847	0.26080534
52	0x3bf60bb4	0.0075087193
53	0x3ea13471	0.31485322
54	0x40071f40	2.1112823
55	0x3e8f23c1	0.27956966
56	0x3e7c8224	0.2465902
57	0xbebd1d38	-0.36936355
58	0x3f5749a7	0.8409676
59	0x3ec8542c	0.39126718
60	0xbe1bb2cd	-0.15204926
61	0xbe455f3c	-0.1927461
62	0xbd122df1	-0.035688344
63	0x3e6c78bf	0.23092936
64	0xbca797c4	-0.02045811
65	0xbdde8b8d	-0.10866461
66	0x3e8090b3	0.25110397
67	0xbbfb3e98	-0.007667374
68	0xbe5ad4aa	-0.21370187
69	0x3cd3dffb	0.025863638
70	0xbe174360	-0.14771795
71	0x3ea8d4ed	0.3297495
72	0x3eaff652	0.34367615
73	0xbe3ac406	-0.1823884
74	0x3f15cc74	0.58515096
75	0xbe01afc1	-0.12664701
76	0xbdb4702f	-0.0881046
77	0x3ea701d2	0.32618576
78	0x3a83ce90	0.0010056067
79	0x3d6c6502	0.057713516
80	0xbd4f87c1	-0.050666574
81	0x3ec85e2c	0.39134347
82	0x3b14b74b	0.002269226
83	0x3de15ad6	0.11003654
84	0x3e2a13da	0.16609135
85	0x3e7f26f2	0.249172
86	0x3fc7e7d5	1.5617625
87	0x3f355b06	0.70842016
88	0x3dd1ba22	0.1024058
89	0x3e2336a3	0.15938811
90	0xbf02935a	-0.5100609
91	0x3de4093b	0.11134573
92	0x3ec785b4	0.38969195
93	0x3f81f266	1.0152099
94	0xbe810c59	-0.25204733
95	0xbe91fe1e	-0.2851419
96	0x3ea9055a	0.33011895
97	0x3eb0a08a	0.34497482
98	0x3ddc0eee	0.10745035
99	0xbe140c55	-0.1445783
100	0x3f771334	0.96513677
101	0xbcfeb397	-0.031091494
102	0xbe398e49	-0.18120684
103	0x3e8a41c5	0.27003303
104	0x3ec645cc	0.38725126
105	0xbe97a46a	-0.29617625
106	0xbe338bda	-0.17533818
107	0xbe5a9765	-0.21346815
108	0x3f67c490	0.90534306
109	0x3fbd886f	1.4807261
110	0x3f6246c2	0.8838922
111	0x3e461ba8	0.19346488
112	0xbe2a1542	-0.16609672
113	0x3e0d6fa8	0.13812125
114	0x3fc0b540	1.5055313
115	0xbdb98627	-0.09058791
116	0x3ed4ce75	0.41563764
117	0x3e9b870f	0.3037648
118	0x3df96e48	0.121792376
119	0xbe687e3d	-0.22704406
120	0x3eab97e9	0.33514336
121	0x3ec4766b	0.38371596
122	0xbdb812c9	-0.08987958
123	0x3f282248	0.6567731
124	0xbe0f0e2a	-0.13970247
125	0xbce34640	-0.027743459
126	0xbe33575e	-0.17513797
127	0x3ea14b1a	0.3150261
128	0x3e80c5d1	0.25150922
129	0xbe407628	-0.18795073
130	0xbec36236	-0.38160866
131	0xbf483354	-0.7820332
132	0xbe83b231	-0.25721887
133	0x3d80c00c	0.0628663
134	0x3c9032a7	0.017602278
135	0xbdb4592d	-0.088060714
136	0x3e050c3b	0.12992947
137	0x3e929102	0.28626257
138	0xbe10c321	-0.14136936
139	0x3eca27dd	0.39483538
140	0xbd99e2a9	-0.07513935
141	0x3e6b9457	0.23005806
142	0xbda75732	-0.08170928
143	0x3f01528f	0.505166
144	0x3e149cd4	0.1451295
145	0x3e0d40ff	0.13794325
146	0x3e610988	0.21976292
147	0x4002cb58	2.043661
148	0x3c67b582	0.014142396
149	0x3ea724f5	0.32645383
150	0xbda3944b	-0.07987269
151	0x3e9f521d	0.31117335
152	0xbe44f710	-0.19234872
153	0xbe280494	-0.16407996
154	0x3fa4ee99	1.2885314
155	0x3e2fcb22	0.17167333
156	0x3e6a13d0	0.2285912
157	0x3f1150e4	0.56764054
158	0x3fa81088	1.3130045
159	0x3f8c169d	1.0944401
160	0x3bfca8e6	0.007710564
161	0x3e00b416	0.12568697
162	0xbe8f74fb	-0.28018937
163	0x3e026134	0.12732393
164	0x3e9e686e	0.3093905
165	0x3c05646f	0.008141621
166	0xbd5c5e5c	-0.053800926
167	0xbd3a02ad	-0.045412708
168	0x3f377366	0.7166046
169	0xbdf9d787	-0.12199312
170	0x3eaf7c29	0.34274414
171	0xbd0922f2	-0.033480592
172	0x3d4b2686	0.049597286
173	0xbe4c2eba	-0.199397
174	0x3e88a02f	0.2668471
175	0xbd4fc46f	-0.050724443
176	0xbe096dc9	-0.13420786
177	0x3ec8566f	0.39128444
178	0x3f1b557d	0.6067732
179	0xbe217b9a	-0.15769807
180	0x3de33f72	0.110960856
181	0xbee12478	-0.43973136
182	0x3f6b9df1	0.92037874
183	0x3e82c658	0.2554195
184	0x3e019aa4	0.12656647
185	0x3ed0626f	0.407001
186	0xbd2b49ff	-0.041818615
187	0x3c44f92a	0.012022296
188	0xbe5043dd	-0.20338388
189	0x3e9df37f	0.30849835
190	0xbd4d3592	-0.050099917
191	0x3eb3a5ec	0.35087526
192	0x3e91b338	0.28457046
193	0xbe024d4c	-0.12724799
194	0x3e1b728e	0.15180418
195	0xbc87ab48	-0.016561165
196	0x3ed80501	0.42191318
197	0x3d77aa56	0.06046518
198	0xbea17505	-0.3153459
199	0x3e299a06	0.16562662
200	0xbda5cb8e	-0.080954656
201	0x3fc60535	1.5470339
202	0x3e6d7d97	0.2319244
203	0x3e0e8dd8	0.13921297
204	0xbe8a7d02	-0.27048498
205	0x3e35cc87	0.17753802
206	0x3ea3cd8a	0.3199275
207	0x3e99cf90	0.3004117
208	0x3ed76c7b	0.42074952
209	0x3fa9af91	1.3256704
210	0x3e67b9fe	0.22629544
211	0x3dbe949f	0.09305691
212	0x3ebe6bba	0.37191564
213	0xbdeaf791	-0.11473001
214	0x3d8b7a87	0.068104796
215	0x40224e6e	2.536037
216	0x3e02c063	0.12768702
217	0x400871bb	2.1319416
218	0x3d5bd10a	0.053666152
219	0x3e7e8316	0.24854693
220	0xbe7c7fcb	-0.24658124
221	0xbde67dd9	-0.11254472
222	0x3d097ac3	0.03356434
223	0x3eb82d3a	0.35972005
224	0xbe1e1d4d	-0.15440865
225	0xbf0d708d	-0.55249864
226	0x3f49b19b	0.7878663
227	0xbe926557	-0.2859294
228	0xbc9d3e93	-0.019194877
229	0x3fd1bdc4	1.6386037
230	0xbe0f69d8	-0.1400522
231	0x3fa777a1	1.3083383
232	0x3d1f7417	0.03892907
233	0x3d68a2a3	0.056795727
234	0xbe4b3faf	-0.19848512
235	0x3d952954	0.07283273
236	0xbe575de3	-0.21031909
237	0xbe0e0100	-0.13867569
238	0x3eb6a1ff	0.35670468
239	0xbd4a6861	-0.04941595
240	0xbdf56d98	-0.11983794
241	0x3e456109	0.19275297
242	0x3e14e94c	0.1454212
243	0xbd9aca14	-0.075580746
244	0x3f84496e	1.0334909
245	0xbdf95b5c	-0.121756285
246	0xbd7264d0	-0.059178174
247	0x3f684639	0.9073215
248	0x3f3d1c92	0.7387172
249	0x3b671dbc	0.0035265526
250	0x3f263784	0.6492846
251	0x3f87a3fa	1.0596917
252	0xbc852c62	-0.016256515
253	0x3ecb9004	0.39758313
254	0xbe358546	-0.17726621
255	0xbd382903	-0.044960987

layer2.3.bias f4 [256]
0	0x4188c7a0	17.097473
1	0xbec5c1b8	-0.38624358
2	0x4167aa23	14.479037
3	0x3ea408e4	0.32038033
4	0x4159b717	13.6072
5	0x3e12f832	0.14352491
6	0x3f46b47a	0.77619135
7	0x418230bc	16.273796
8	0x403d295e	2.9556499
9	0xbbf7d17c	-0.0075628143
10	0x415a0114	13.625263
11	0xbdad20a4	-0.08453491
12	0x41858d6d	16.694056
13	0x4188884e	17.066555
14	0x3d4ecd4f	0.050488766
15	0xbddcbd83	-0.10778334
16	0xbded3421	-0.115822084
17	0xbe71d053	-0.23614626
18	0xbd22813c	-0.03967403
19	0x4156db42	13.42853
20	0xbd7999e5	-0.06093778
21	0x41329e7e	11.163694
22	0xbddc8a96	-0.10768621
23	0xbcd7b332	-0.026330564
24	0xbe12330a	-0.14277282
25	0x403dcffd	2.9658196
26	0x3fda03d1	1.7032415
27	0xbd83e9b0	-0.06441057
28	0x3ec52dff	0.38511655
29	0xbc35ca5a	-0.011095608
30	0x4183b53a	16.46349
31	0x3e1cb2f7	0.15302645
32	0xbd3e305b	-0.046432834
33	0xbe9a3c85	-0.30124298
34	0xbeb1740d	-0.34658852
35	0x403e3020	2.9716873
36	0x419249cd	18.286036
37	0x3effac5a	0.4993618
38	0x3ee878e2	0.45404726
39	0x3ee8a972	0.45441777
40	0xbce87bc1	-0.028379323
41	0xbd9b4e19	-0.07583255
42	0x4122d72c	10.177532
43	0x418dc66f	17.721891
44	0x4179f10c	15.621349
45	0x3ce667a9	0.0281256
46	0xbd2a9453	-0.04164536
47	0xbd63e318	-0.055636495
48	0x3cbb2567	0.022844983
49	0xbe06ed41	-0.13176443
50	0x41859534	16.697853
51	0x41599c7f	13.600707
52	0xbde3aae4	-0.11116579
53	0xbe653843	-0.22384743
54	0xbf203906	-0.6258701
55	0xbdde3486	-0.10849862
56	0xbeea6246	-0.45778102
57	0x418fe935	17.98887
58	0x418c1a1b	17.512747
59	0x41955c1a	18.669971
60	0x3e85ee34	0.26158297
61	0xbe508349	-0.20362581
62	0x3eee9add	0.46602526
63	0x41030830	8.189499
64	0xbd849f1e	-0.06475662
65	0x417cc3c6	15.797796
66	0xbdf6899c	-0.12037966
67	0x3fd92035	1.6962954
68	0xbcc81bb3	-0.02442727
69	0x4188d9d6	17.106365
70	0x4161f7fd	14.123044
71	0x40b86c5e	5.7632284
72	0xbf144d83	-0.57930773
73	0xbea7f7d4	-0.32806265
74	0xbef8bb0a	-0.485802
75	0x4143bd89	12.233773
76	0xbd3e76d2	-0.046500035
77	0xbe7f8406	-0.24952707
78	0xbce912a2	-0.028451268
79	0xbe18c464	-0.14918667
80	0x4123c94b	10.236644
81	0xbf20e6bc	-0.6285207
82	0xbef9e97a	-0.4881094
83	0x40a742ba	5.2268953
84	0x4138be09	11.546395
85	0x403d5299	2.9581664
86	0xbe28ef44	-0.16497523
87	0x40ca98b7	6.331142
88	0xbd7c6bf4	-0.06162639
89	0x3e77be2f	0.24193643
90	0x414f038c	12.938366
91	0x3d4e6e36	0.050398074
92	0xbead8052	-0.33886963
93	0x418c7645	17.557749
94	0xbe39d86c	-0.18148965
95	0x3c9b581f	0.018962918
96	0x416b48df	14.705291
97	0x418b769b	17.432913
98	0xbdbaddbf	-0.09124326
99	0xbc815f5a	-0.015792537
100	0xbd8fc257	-0.07019489
101	0xbe1b3eb5	-0.1516064
102	0xbda6cc6e	-0.081444606
103	0xbe01b11d	-0.1266522
104	0x4178375c	15.513515
105	0xbd9bc02e	-0.07605015
106	0xbc9c6926	-0.019093107
107	0xbd64a750	-0.055823624
108	0xbd6f94e2	-0.058491595
109	0x4193b4fb	18.46337
110	0xbdb63640	-0.08897066
111	0xbe92a5e4	-0.2864219
112	0xbe3882dc	-0.18018669
113	0xbcbc04d0	-0.022951514
114	0xbe0652bb	-0.13117497
115	0x4186d777	16.855207
116	0xbde681fa	-0.1125526
117	0x418111d7	16.13371
118	0xbe95e236	-0.29274148
119	0x3f98ffb5	1.1953036
120	0x3cfd7842	0.030941132
121	0x4157e856	13.494223
122	0xbed5a846	-0.41729945
123	0x418ce9db	17.614187
124	0xbe3921b4	-0.18079263
125	0xbd92fa5d	-0.07176659
126	0x3dbb1285	0.09134392
127	0x3d90d768	0.070723355
128	0xbd666af4	-0.056254342
129	0xbe0f49f9	-0.13993062
130	0x419537df	18.65228
131	0x415e2206	13.8833065
132	0x410a4f39	8.644341
133	0xbce46798	-0.027881429
134	0xbeac409a	-0.33643037
135	0xbd8623e2	-0.06549813
136	0xbf06191f	-0.5238208
137	0x40d3c17a	6.6173677
138	0x3dba1044	0.09085134
139	0xbe5d2d63	-0.21599345
140	0xbdd1aaa6	-0.10237627
141	0x409984b9	4.7974515
142	0xbd9902c0	-0.07471228
143	0xbdca84cd	-0.09888611
144	0xbe0029b8	-0.12515914
145	0x418b36e0	17.401794
146	0xbc44e3b0	-0.012017176
147	0xbeab3a74	-0.33443034
148	0xbec55f7a	-0.38549405
149	0xbf0f4dfd	-0.55978376
150	0x41709f91	15.038957
151	0xbde5205a	-0.11187811
152	0xbe15c27e	-0.14624974
153	0x4089c9c3	4.305879
154	0xbddf1274	-0.108921915
155	0xbf21880d	-0.6309822
156	0xbc0fd464	-0.008778665
157	0xbc09e035	-0.0084152715
158	0x3f440654	0.76572156
159	0xbdd888ea	-0.10572989
160	0x3e62489d	0.22098012
161	0xbde4db85	-0.111746825
162	0x413e1226	11.879431
163	0xbd452ee1	-0.04814041
164	0xbd7fa29a	-0.06241093
165	0x4158f627	13.560096
166	0xbeb4cec4	-0.35314
167	0x3a1b8857	0.0005933097
168	0xbd0f649b	-0.035008054
169	0xbd79f3d7	-0.06102356
170	0xbde9a6c6	-0.11408763
171	0x416895fa	14.536615
172	0xbe906e6e	-0.2820925
173	0xbf1e4d6f	-0.61836904
174	0xbe20fc2d	-0.15721197
175	0xbea4b3fb	-0.32168564
176	0x3fb9f86c	1.4528937
177	0xbe199070	-0.14996505
178	0xbdf9ff7d	-0.12206934
179	0xbd1a01ac	-0.03759925
180	0xbe8e3589	-0.2777522
181	0xbd383199	-0.044969175
182	0xbe13b7f9	-0.14425649
183	0xbe4cad7e	-0.19988057
184	0xbc2120e0	-0.009834498
185	0xbec94a51	-0.3931451
186	0xbddd5703	-0.10807612
187	0xbe323d23	-0.17406134
188	0xbf25c3cd	-0.64751893
189	0xbe19d2d3	-0.1502183
190	0xbc16a7cc	-0.009195279
191	0x3f669d22	0.90083516
192	0x418e021c	17.75103
193	0x40371991	2.8609354
194	0xbc698cb0	-0.014254734
195	0x3cc5eb6d	0.024160111
196	0x3c072b3d	0.008250055
197	0xbdea380b	-0.114364706
198	0xbeda78fd	-0.42670432
199	0x412d0554	10.813801
200	0x3dd79977	0.10527318
201	0x3f881185	1.0630347
202	0x3f37416f	0.7158422
203	0xbdad17ac	-0.08451781
204	0x40bce25b	5.9026313
205	0xbcc3dfb7	-0.023910386
206	0xbecb5889	-0.39715984
207	0x40d0b359	6.521893
208	0x41499899	12.599755
209	0xbcd2e69d	-0.02574473
210	0xbf0e9113	-0.55690116
211	0x40b15959	5.5421567
212	0x3f516c9b	0.81806344
213	0xbdd9eb27	-0.10640555
214	0x411c23ff	9.758788
215	0xbe1c6b79	-0.15275373
216	0x41868fc7	16.820204
217	0xbde7ac4b	-0.11312159
218	0xbe0453b5	-0.12922557
219	0xbe83de81	-0.25755695
220	0x4141edb5	12.120534
221	0xbe3e5ab5	-0.1858929
222	0xbecb681e	-0.39727873
223	0xbe939f57	-0.28832504
224	0xbe2e615c	-0.17029327
225	0x40ae5f78	5.449154
226	0x415b8875	13.720815
227	0xbe411e34	-0.18859178
228	0x3c81a3a5	0.015825102
229	0xbdd7d0bf	-0.10537862
230	0xbe82e125	-0.25562397
231	0x3dd89cbc	0.1057677
232	0xbd3ebb2f	-0.04656523
233	0x41932108	18.391129
234	0xbe045495	-0.1292289
235	0x3f6824fb	0.9068143
236	0x3f08e725	0.534777
237	0x41810313	16.126501
238	0xbd8a9d32	-0.06768264
239	0x3fb05b3f	1.3777846
240	0xbc98174a	-0.018565793
241	0xbe8aa2ad	-0.27077237
242	0x4113ccdb	9.237514
243	0xbe009075	-0.12555106
244	0x4185ff82	16.74976
245	0xbe27af74	-0.16375524
246	0xbeb5ad05	-0.35483566
247	0xbe08ef36	-0.13372502
248	0xbdba2bd1	-0.090903886
249	0x3c9e5b75	0.01933072
250	0xbd2b144a	-0.041767396
251	0xbf261982	-0.6488267
252	0xbda45ca7	-0.080254845
253	0xbe3683cf	-0.17823718
254	0x416c56db	14.771205
255	0xbe5c7c3e	-0.2153177

layer2.6.weight f4 [1, 256]
0	0x3dcaa83e	0.09895371
1	0x3cf8f538	0.030390367
2	0x3d338fc0	0.043838263
3	0xb997707e	-0.00028884778
4	0x3e5f1446	0.21785077
5	0x3c9f1448	0.01941885
6	0x3dd0c49e	0.10193752
7	0x3dd1e313	0.10248389
8	0x3d1e427c	0.038637623
9	0xbc5e6ef9	-0.013576263
10	0x3dcc009c	0.09961054
11	0xbc0e6dbd	-0.008693156
12	0x3d8d63d2	0.06903805
13	0x3da83992	0.08214106
14	0xbc1af63f	-0.009458124
15	0x3cc159d8	0.023602411
16	0xbab4c95d	-0.0013792921
17	0x3b0fcb94	0.002194141
18	0x3c9048a1	0.017612757
19	0x3e49e3ec	0.19715852
20	0x3bc725db	0.006077511
21	0x3e478f71	0.19488312
22	0xbcc97748	-0.02459301
23	0xbceccc13	-0.028905904
24	0xbc8a28e2	-0.016865198
25	0x3dde04f4	0.108407885
26	0x3b4770b9	0.0030432178
27	0xbcf79731	-0.03022346
28	0xbcdafcaa	-0.026731808
29	0x3cd40788	0.025882497
30	0x3da3ca02	0.07997514
31	0x3cad82bc	0.021180503
32	0x3cb81b3c	0.022473924
33	0xbb44c927	-0.0030027123
34	0xbce636be	-0.028102275
35	0x3de1a543	0.11017849
36	0x3e1b7276	0.15180382
37	0xbce2a252	-0.027665291
38	0x3dac1df6	0.08404152
39	0x3e40062f	0.18752359
40	0xbb1299ba	-0.002236946
41	0xbcf09031	-0.02936563
42	0x3e788f16	0.24273333
43	0x3df3dd06	0.11907391
44	0x3e1f4dc3	0.15557007
45	0xbbde014a	-0.006775056
46	0xbcae971e	-0.021312293
47	0xbbbf2b91	-0.005834051
48	0xbc843948	-0.016140595
49	0xbcc8911c	-0.024483256
50	0x3e11c0c4	0.1423369
51	0x3e2133b2	0.15742376
52	0x3c4346d8	0.011918746
53	0xbcf11e4a	-0.029433388
54	0x3bb8db81	0.0056414013
55	0x3c2cbdbd	0.010543284
56	0xbbfe6d09	-0.007764463
57	0x3de371af	0.11105668
58	0x3de58c17	0.11208361
59	0x3d83d585	0.0643721
60	0xbb789126	-0.0037928312
61	0x3cff6955	0.031178156
62	0x3ba8190a	0.005129938
63	0x3e1c7c03	0.15281682
64	0xbb067a3c	-0.0020519635
65	0x3da67de7	0.08129483
66	0xbc034aa7	-0.008013404
67	0x3bd4ccce	0.006494141
68	0xbc1f8015	-0.009735127
69	0x3e028fdb	0.12750189
70	0x3db31aea	0.08745368
71	0x3efa0592	0.48832375
72	0xbcaab7b8	-0.020839557
73	0xbc9fd43f	-0.019510387
74	0xba603534	-0.000855285
75	0x3de723d7	0.11286133
76	0xbcd5cfc0	-0.02610004
77	0x3bf21df0	0.0073888227
78	0xbcdfc9ff	-0.027317999
79	0x3c87b44b	0.016565463
80	0x3e3a6b11	0.18204905
81	0xbb1cb50d	-0.0023911626
82	0x3b17b7a0	0.002315022
83	0x3e0560a9	0.13025154
84	0x3e546087	0.20739947
85	0x3d92992c	0.071581215
86	0x3c354d6f	0.011065825
87	0x3dc95d62	0.098322645
88	0x3ccb634f	0.024827627
89	0x3b987a05	0.0046532177
90	0x3d79be10	0.060972273
91	0x3cdd1f6a	0.026992518
92	0x3d000b1d	0.0312606
93	0x3e31cd2a	0.1736342
94	0x3c8d445d	0.017244512
95	0xbcf886d7	-0.030337734
96	0x3dd7d62b	0.10538896
97	0x3e18f416	0.14936861
98	0xbd01a6ec	-0.03165333
99	0xbcec8584	-0.028872259
100	0xbafb42ce	-0.001916969
101	0xbce2985c	-0.027660541
102	0x3c0f3d3a	0.008742625
103	0x3cd05406	0.02543069
104	0x3e3fbdd7	0.18724762
105	0xbcb2d975	-0.021832207
106	0x3bdeb230	0.006796144
107	0xbc8bfb06	-0.01708747
108	0xbc1ee6fc	-0.009698626
109	0x3e17fd9d	0.1484284
110	0x3ca59e2b	0.020217022
111	0xbc5a527e	-0.013325332
112	0x3c6ae1ca	0.014336059
113	0x3b8ac960	0.0042354316
114	0xbb8b356c	-0.0042483117
115	0x3db0cfd7	0.08633392
116	0x3c9fe78e	0.019519594
117	0x3dc1cd53	0.094629906
118	0x3cc87b3b	0.024472823
119	0x3b2c32d3	0.002627541
120	0x38c146de	9.216157e-05
121	0x3dfb1c7e	0.12261294
122	0x3c3b5e9a	0.011436129
123	0x3e1ec689	0.15505423
124	0x3c46087e	0.012086986
125	0x3ca4a4ab	0.020098051
126	0xbc411cba	-0.011786634
127	0xbca52bfd	-0.020162577
128	0xbc9ee9ca	-0.019398589
129	0x3c3dd2f2	0.011585938
130	0x3f14e1e9	0.5815721
131	0x3ee7e997	0.45295402
132	0x3e0d26ae	0.13784286
133	0xbc8ec406	-0.017427456
134	0xbb3c410e	-0.00287253
135	0x3c3c6be4	0.0115003325
136	0xbcc96ddf	-0.024588523
137	0x3e11adda	0.14226475
138	0xbc8e76ef	-0.017390696
139	0x3cdbe593	0.026842868
140	0xbc78de1e	-0.015189676
141	0x3ecaf30f	0.39638564
142	0xbbbfa57f	-0.005848586
143	0x3c9d6ab2	0.019215915
144	0xbce24024	-0.027618475
145	0x3de38863	0.11109998
146	0x3c61f8c7	0.013792223
147	0x3c341aa9	0.010992684
148	0xbc8ea3b7	-0.01741205
149	0xbcc13571	-0.023585053
150	0x3d9fa7f7	0.077957086
151	0xbced7e89	-0.028991
152	0x3e4a5914	0.19760543
153	0x3f062dda	0.52413714
154	0x394990ed	0.00019222843
155	0xbda9b18a	-0.08285816
156	0x3c429a11	0.011877553
157	0xbceabecb	-0.02865543
158	0x3df08fad	0.11746154
159	0x3c44adb2	0.012004303
160	0xbcd001ce	-0.025391486
161	0x3c58259e	0.013192562
162	0x3e2535d2	0.16133812
163	0xbcb24a8f	-0.021764068
164	0xbbc47467	-0.0059953216
165	0x3e0c7d76	0.13719735
166	0x3bf8d7b1	0.007594072
167	0xbc988ce9	-0.018621879
168	0xbd01bf95	-0.031676847
169	0x3cb34fbb	0.021888604
170	0x3cf9fd54	0.030516304
171	0x3df7f5c5	0.12107424
172	0x3b58bec8	0.00330727
173	0xbcf75349	-0.03019108
174	0xbcdd9b20	-0.027051508
175	0x3ce4640a	0.027879734
176	0x3d985381	0.07437802
177	0x3a80c005	0.0009822851
178	0xbcb6b06e	-0.022300925
179	0xbc33b491	-0.010968343
180	0xbcf9c1ec	-0.030487977
181	0xba8530a7	-0.0010161594
182	0x3c9e4668	0.019320682
183	0x3bb6fe6a	0.0055845277
184	0xbb92ff10	-0.004485972
185	0x3a7524c3	0.0009351486
186	0x3cd850a0	0.026405632
187	0x3ce9cf0e	0.028541114
188	0xbb4c1aab	-0.0031143825
189	0x3cced766	0.025249194
190	0xbcb8374c	-0.022487305
191	0xbb354d27	-0.0027664395
192	0x3de20890	0.110367894
193	0x3c5e957c	0.013585445
194	0x3c72878c	0.014802825
195	0x3bba1211	0.005678423
196	0xbcc658e1	-0.024212303
197	0x3b0c65c5	0.0021422964
198	0x3bba659f	0.0056883837
199	0x3dd67dea	0.10473235
200	0xbce97ce9	-0.028501945
201	0xbcc0e8df	-0.023548542
202	0xbcd13767	-0.025539113
203	0x3c11568d	0.008870733
204	0x3bcf9b28	0.0063356347
205	0x3bc58c0a	0.006028657
206	0xbba733f5	-0.0051026293
207	0x3dd6f5c6	0.10496096
208	0x3e261ad6	0.16221175
209	0xbbadd0bc	-0.005304424
210	0x3d9bce54	0.07607713
211	0x3f5b2cd0	0.85615253
212	0x3c874a29	0.016514855
213	0x3a853df9	0.0010165564
214	0x3e6c3315	0.23066361
215	0xbb8aeba8	-0.004239518
216	0x3d95c76a	0.07313426
217	0x3c2810c7	0.010257906
218	0xbbcd1c3d	-0.00625947
219	0xbcd874f4	-0.026422955
220	0x3eec4613	0.46147212
221	0xbb1290dd	-0.0022364177
222	0xbc82c1eb	-0.015961608
223	0x3a02ed13	0.0004994433
224	0xbcc95903	-0.024578577
225	0x3e299ddc	0.16564125
226	0x3dce73af	0.10080659
227	0xbce2f8f6	-0.027706604
228	0xbc8292f6	-0.015939217
229	0x3cf037b9	0.029323446
230	0x3ab16ab3	0.0013535827
231	0xbceb4c1f	-0.02872282
232	0x3c8ceef4	0.017203785
233	0x3de75b4c	0.1129671
234	0xbc7c49dd	-0.01539847
235	0x3cf70049	0.030151503
236	0xbc061502	-0.00818372
237	0x3dcc15b9	0.09965081
238	0xbb900b9d	-0.0043959157
239	0x3c8e30f8	0.017357334
240	0xbcf5c79e	-0.030002411
241	0xbcc1cb33	-0.023656463
242	0x3e6e025c	0.23243088
243	0xbc310843	-0.010805192
244	0x3d20623a	0.039156176
245	0xbcac1dc4	-0.021010287
246	0x3c240e09	0.010013112
247	0xbc03c0b5	-0.00804155
248	0xbcce2d73	-0.025168156
249	0x3c905549	0.017618792
250	0xbc289eb1	-0.010291741
251	0xbcb078bf	-0.021541951
252	0xbbdec73c	-0.006798653
253	0xbccfc31c	-0.02536159
254	0x3e9330be	0.28748125
255	0xbcbac081	-0.022796871
