Model_Files/helpdesk/TimestampPredictor_parameters_feedforward_0.0001.pt (torch, 304455 bytes, 5 tensors)

layer2.0.weight f4 [256, 36]
000000 73 a9 1d be 67 14 92 3d e7 f0 0a 3e 72 32 72 c0
       -0.15396671 0.07132798 0.1356846 -3.784329
000010 52 f3 d4 bc 6a 92 a7 3d 25 87 96 bc 2e 1b bd 3c
       -0.02599493 0.08182223 -0.018374989 0.02308425
000020 26 87 8f bd 8c 78 22 3e b5 a1 b5 bc ec 4e 8b bd
       -0.070081994 0.15866297 -0.022171834 -0.068021625
000030 22 b6 3b bd 85 99 73 3d 67 03 60 bd 56 23 a5 ba
       -0.045827992 0.05947258 -0.054690745 -0.0012599032
000040 c7 30 eb 3d 97 29 da bd 16 3f 0f be 4e f0 e3 3b
       0.11483913 -0.10652464 -0.13988909 0.006956137
000050 06 d2 aa 3d ad 3e b2 3e fd 47 5d 3d 3c 47 c4 3f
       0.0834084 0.34813443 0.05402373 1.5334239
000060 28 53 03 be 87 aa 2b 3d 08 f2 23 bd 1c 0b c9 3d
       -0.1282469 0.041910674 -0.04002574 0.09816572
000070 bd 19 89 bc f2 1d 57 be 95 91 2e 3e 72 72 95 bf
       -0.016735906 -0.21007517 0.17047723 -1.1675551
000080 22 26 37 3e 83 6d 10 be 6b cd 24 bc ed 30 80 3d
       0.1788564 -0.14104275 -0.010058741 0.06259332
000090 15 6f 84 3d f9 76 6c bd 7d 1f 64 be 4f f2 a1 3f
       0.064665 -0.05773065 -0.22277637 1.2652072
0000a0 3d 2d 02 3e 4d cb d3 bd 01 7b 5b 3e e0 b9 79 3d
       0.1271257 -0.10341511 0.21433641 0.06096828
0000b0 e7 ae 11 3e c0 90 4e bd 38 45 a1 bd 48 ae 14 bd
       0.14226876 -0.050431013 -0.078745306 -0.03629902
0000c0 b7 5c a9 bd 89 4a 97 3c 61 fb 63 3e 36 a2 64 bd
       -0.08269637 0.018468158 0.22263862 -0.05581876
0000d0 5a 73 97 3d 15 62 1e be 86 1b fc bd f1 8d 27 be
       0.073950484 -0.15467103 -0.12309937 -0.1636274
0000e0 06 dd 94 3d 39 bb ee bb 9c aa 77 3e 9e 43 ae be
       0.072687194 -0.0072855023 0.24186176 -0.34035963
0000f0 5b a7 31 be 0f 29 dd 3d 3c 3c 72 3d 39 4e 6c bd
       -0.17348997 0.10798847 0.059139475 -0.057691786
000100 47 e5 2b 3c ad 2d 1a bd c9 8b fc 3d 84 7f 94 3f
       0.010491676 -0.037641216 0.123313494 1.1601415
000110 90 3f 53 bc 83 11 76 3c 3f 5f cc bd 8f 1f 1f 3f
       -0.012893572 0.015018824 -0.09979104 0.6215753
000120 e3 fb 06 bd a9 90 26 3d 3f 9d 15 3e 7d 52 86 40
       -0.03295506 0.040665302 0.14610766 4.1975694
000130 a8 2a 30 3d 0d d9 86 bd 5a 30 03 be 55 35 5e bd
       0.04300943 -0.06584368 -0.12811413 -0.05425008
000140 87 e4 29 3e 78 49 88 bd 45 95 47 3e 1b 17 45 3e
       0.16591083 -0.06654638 0.19490536 0.19247095
000150 c6 e5 27 3d 82 7d 6e bd c8 65 cc bd 84 67 50 3e
       0.040990613 -0.058225162 -0.09980351 0.20351988
000160 f6 88 94 bd c6 45 1b be eb ff 1d be 80 42 bf bc
       -0.07252686 -0.15163335 -0.15429656 -0.02334714
000170 bc de 4e 3e c3 a1 60 bc e2 87 a0 3d 29 b3 9d bf
       0.20202154 -0.013710442 0.078384176 -1.23203
000180 1a 2e 85 bd a1 1d ad bd 6c 13 1a bd 0d 37 4d 3d
       -0.06502934 -0.08452917 -0.03761618 0.05010133
000190 be 50 bb bc e5 bb da 3c f6 54 95 3e af 2c ad 3f
       -0.02286565 0.026700923 0.29166383 1.3529261
0001a0 a0 91 00 bd ed 8a f1 3c 4c 4c 2e 3e 03 2d 89 3f
       -0.03138888 0.02948519 0.17021292 1.0716861
0001b0 a7 51 89 3c 24 8e 16 3d d0 be 1b bc a9 c0 49 c0
       0.016762568 0.03675665 -0.009505942 -3.152384
0001c0 29 6a f0 3d e2 ef 5b bb 5c ff e9 bc f1 12 f6 bc
       0.117389984 -0.003355973 -0.028564148 -0.030038329
0001d0 00 ea 1e 3e e0 be 81 3c 12 9e 79 bc 87 3b 21 be
       0.15518951 0.015838087 -0.015235441 -0.15745364
0001e0 45 56 36 3d 5f b9 11 be f5 81 9f bd 03 b6 2d 3d
       0.044515867 -0.1423087 -0.07788459 0.042409908
0001f0 7e 5a a3 bd 0e 98 4d bd 86 34 f5 bd ff a6 06 3e
       -0.079762444 -0.05019384 -0.11972909 0.13149641
000200 e2 97 f5 bd ab f6 94 3e 06 14 4c 3e 93 05 e2 3f
       -0.1199186 0.29094443 0.19929513 1.7657951
000210 31 1c 01 3e 5f 38 e9 bd d6 5c 23 3d 2c 24 e5 bd
       0.1260841 -0.11387705 0.039883457 -0.1118854
000220 16 fd cd bd 65 5a 40 be 0a be b0 3d ac c8 88 bf
       -0.10058038 -0.18784483 0.08629997 -1.068624
000230 66 8c 5e bc c9 fb aa bd 93 ed fd 3d 6a 7e 0c 3e
       -0.013583278 -0.083488055 0.12398829 0.13720098
000240 80 1d 35 3e 72 25 d7 bd 82 cd 83 be b9 78 8a bf
       0.17687035 -0.10505189 -0.25742728 -1.0818092
000250 2f 85 ce 3d 67 39 9f bd 3e 79 b8 ba 47 cf b4 3d
       0.100839965 -0.077746205 -0.0014074219 0.088285975
000260 c0 fe 77 bc bb 8f 02 3e 02 2c 70 be ee 13 69 be
       -0.015136421 0.12750141 -0.23454288 -0.22761509
000270 38 a6 25 3e 00 d2 89 3d a6 a0 40 3d 67 2c 24 be
       0.16176689 0.067295074 0.047028206 -0.16032563
000280 7c ef 03 be af b4 1f be 00 cd 9d bb 00 dc f3 3d
       -0.12884325 -0.15596269 -0.0048156977 0.11907196
000290 70 91 bf 3d 48 ca fb be 34 5d f9 3b 01 88 92 be
       0.09353912 -0.49177766 0.0076099876 -0.28619388
0002a0 0d 84 85 3d ac 66 cd bb 13 55 1c be fb d8 82 bd
       0.06519327 -0.006268343 -0.15266828 -0.06389042
0002b0 7f 52 8e 3c 76 27 cf 3b 93 5f 2b bf 58 3d 0f bf
       0.017373322 0.006321843 -0.6694271 -0.5595298
0002c0 90 73 57 bc 14 f9 93 3d c5 e0 d2 bd 4f d2 22 bf
       -0.013150111 0.07225242 -0.10296778 -0.63602155
0002d0 8a c0 05 bd cd 29 83 3d 6b 78 2c bf 08 48 a1 be
       -0.032654323 0.06404457 -0.67371243 -0.31500268
0002e0 05 21 9a 3d 71 c9 13 3e 1f 86 c3 bb 3e 9b c6 bd
       0.07525829 0.14432313 -0.005966916 -0.09697579
0002f0 e8 42 f5 3d 3b e7 fa bd 5e 68 e4 bd fd b0 84 be
       0.11975652 -0.12251135 -0.11152719 -0.2591628
000300 c2 3c 7d bc c6 f7 2c 3d 13 51 73 3d de aa 48 be
       -0.01545638 0.042228483 0.05940349 -0.1959643
000310 0e 47 9b bd 9a 4a 2a be c2 30 20 3e 16 83 04 3e
       -0.07581912 -0.1663002 0.156436 0.1294063
000320 36 91 2c bc d9 78 13 be 7f 41 bf bb 38 1c 99 bd
       -0.010532668 -0.14401568 -0.005836665 -0.074760854
000330 06 83 09 bd 5e f1 dc 3c e0 b9 13 3e a6 a6 33 3d
       -0.03357222 0.026970562 0.14426374 0.0438601
000340 53 24 70 be 00 45 8a be d7 8c 44 be 83 b9 95 3d
       -0.23451357 -0.27005768 -0.19194351 0.07310774
000350 50 07 43 3c a9 34 1c 3d 18 42 1e bd 60 8c 6b 3e
       0.011903599 0.03813616 -0.03863725 0.23002768
000360 fc 73 4e 3c a5 66 f7 3c f1 6d 22 3c bc b0 e3 3f
       0.012600895 0.030200312 0.009913907 1.778831
000370 fa 6a 98 3d 8a c0 0a bd f2 53 11 3e e1 ec 9b 3d
       0.07442279 -0.033875026 0.14192179 0.076135404
000380 b6 b4 dc 3c 70 44 e4 bd 1b 42 d0 3c 28 9d 6c bd
       0.026941638 -0.11145866 0.025422147 -0.057767063
000390 fe 9f a1 bd a1 10 3c 3d 2c 3a 7e bc b0 03 34 be
       -0.07891844 0.045914296 -0.015516799 -0.17579532
0003a0 cf 31 be 3d a7 ee 20 3d bd 6f 0a 3e 4b 2b 97 bd
       0.09286844 0.039290097 0.13519187 -0.07381304
0003b0 cf 96 13 3e 16 ea 57 3d ad 14 af 3d b3 13 28 3f
       0.14412998 0.052713476 0.085488655 0.6565506
0003c0 2d 38 8f bd 87 2d c7 3d 3b e2 a0 3c 66 61 e7 3d
       -0.069931366 0.097254805 0.019639125 0.11297874
0003d0 45 b2 6b 3d 07 23 27 be e9 bc 61 be a6 73 84 3e
       0.057543058 -0.16321956 -0.2204472 0.25869483
0003e0 74 3c 03 be ec c0 cb 3d 53 6c 97 3e 7f a4 7c 3f
       -0.1281603 0.09948906 0.29574832 0.986885
0003f0 e5 9a 9c bd 66 cb 9d ba 4e 3b 12 bd 90 8e af 3f
       -0.07646731 -0.0012038767 -0.03570109 1.3715382

layer2.0.bias f4 [256]
000000 e7 be 72 c0 31 16 cb 3f 95 bb 80 40 5c d6 5a c0
       -3.7929018 1.5866147 4.022898 -3.4193335
000010 db 9b 68 bf 52 5e 71 be 09 21 f8 3f 8a fa 8c 3f
       -0.90862817 -0.23571137 1.9385082 1.1013958
000020 d9 02 4c 40 6a e2 49 40 16 46 c3 3f bf d8 16 bf
       3.1876738 3.1544442 1.5255764 -0.5892448
000030 03 0b 3e 40 a2 c6 80 40 64 15 81 be 5b 0c 5b 3e
       2.969422 4.024247 -0.25211632 0.21391432
000040 e9 a1 4f 3f 26 01 68 3f e8 18 b2 bf 0e ea e4 3d
       0.8110643 0.9062675 -1.3913851 0.11177455
000050 f4 59 04 3f b1 8b b4 3f 2e 7c 00 c0 d9 79 bf bf
       0.5169976 1.410513 -2.0075793 -1.495906
000060 e2 e2 a5 be 57 0b eb 3e 3d f7 81 bf cc f7 73 40
       -0.3239966 0.4590709 -1.0153576 3.8119993
000070 74 ff d9 bf f1 08 01 c0 9d dd 6a 40 a9 81 72 bf
       -1.7031083 -2.0161707 3.6697762 -0.94729096
000080 0d d0 d5 be d6 01 52 40 2c 7b d9 bf f1 d3 9f 3f
       -0.41760293 3.281362 -1.6990714 1.2486554
000090 27 fe df 3e 6e 07 1f bf b6 00 0a bf 26 97 36 bf
       0.4374859 -0.6212071 -0.53907335 -0.71324384
0000a0 cc 58 d6 3f 06 2b 37 40 52 7d 55 40 e1 0c 6e 40
       1.6745849 2.862001 3.335774 3.719536
0000b0 09 42 16 c0 6c 6a 5b ba c6 47 de bf cb 7b 50 3e
       -2.3477805 -0.0008370045 -1.7365654 0.20359723
0000c0 d5 39 93 3e 92 23 7a 40 e5 fc 53 3f 1e 16 e9 be
       0.2875506 3.908421 0.8280776 -0.45524687
0000d0 bf f2 34 40 75 a7 26 40 96 a0 16 40 1a c9 a6 bf
       2.827316 2.6039708 2.3535514 -1.3030121
0000e0 1c 1b 28 40 3f 71 e0 3f 8b 70 65 c0 ae a3 95 be
       2.6266546 1.753456 -3.584994 -0.2922644
0000f0 bd 65 1e bf 3d 1e 9f be b9 59 73 40 a0 d3 0b bf
       -0.6187399 -0.31077757 3.8023512 -0.5461979
000100 0e 72 13 3f 1e c4 57 bf 4e 16 a6 bd 3a f4 b6 3d
       0.5759591 -0.84283626 -0.08109723 0.08933301
000110 a6 a8 e0 bf 16 1b c7 3f af 08 67 40 7a 12 0c c0
       -1.7551467 1.5555141 3.609905 -2.1886277
000120 3d a8 d0 3e f5 77 4d 40 d4 4c 3e 40 a5 a0 78 c0
       0.40753356 3.2104466 2.9734392 -3.884805
000130 9c b4 15 bf 0d 01 33 40 b7 36 4b bf 01 c9 b3 bf
       -0.58478713 2.7969391 -0.79380363 -1.4045717
000140 fc c3 47 c0 48 17 0b 40 b4 bf a3 be b5 cd 60 bf
       -3.121337 2.173296 -0.31982195 -0.87813884
000150 e2 15 ff 3c 7e 99 6f 40 ec 33 75 40 63 58 e8 3f
       0.031138364 3.7437434 3.831294 1.8151973
000160 21 b3 72 40 9e b2 0a be 64 4c 02 3e 11 37 f4 be
       3.7921832 -0.135447 0.12724453 -0.47698262
000170 bb 95 18 40 0e 95 b7 3d 7e d4 60 3e aa 7b 63 be
       2.3841388 0.08963977 0.2195606 -0.22215143
000180 a2 3e 58 40 51 84 0d bf 14 b0 0c 40 60 74 29 bf
       3.3788228 -0.55280024 2.198247 -0.661932
000190 c5 ad 08 c0 93 35 ff 3f 0c 9c 12 c0 18 37 0f 40
       -2.135606 1.9938225 -2.2907743 2.2377377
0001a0 b3 c9 52 bf d3 8a 71 c0 c9 84 c6 3e 40 dc c4 be
       -0.8233902 -3.7740982 0.38773182 -0.38449287
0001b0 35 cf 02 bf 5c 6f 27 bf 02 d1 b7 bf 39 1f 32 c0
       -0.5109742 -0.65404296 -1.4360659 -2.7831557
0001c0 77 ac 7c 40 4c 07 c7 bf 3c 9f dd 3e 2e 21 1a 3e
       3.9480264 -1.5549102 0.4328555 0.1505172
0001d0 81 37 75 c0 b1 7f 58 3d 7a 0b 6b 40 00 ab 11 c0
       -3.8315127 0.05285615 3.6725755 -2.276062
0001e0 84 c5 6d 40 88 f9 b0 3f 52 f9 28 bf 8b 78 78 40
       3.7151804 1.3826151 -0.6600543 3.8823574
0001f0 3f 9f 6c bf 22 7e 6d 3f c4 62 6a 40 c6 5b 27 bf
       -0.9243049 0.9277059 3.6622782 -0.6537441
000200 7c 64 0b bf b2 ca 0b 3f 9a dd 40 c0 e2 74 9e be
       -0.544502 0.54606164 -3.0135255 -0.3094855
000210 18 d3 18 bf 3a 84 6a 40 30 4a 26 bf 30 39 81 bf
       -0.59697104 3.6643205 -0.6495695 -1.0095577
000220 81 18 52 40 49 9c 1a 40 a7 5b 5b c0 e9 e0 53 3e
       3.2827456 2.415789 -3.427469 0.20691265
000230 53 8a 91 bf 37 81 70 40 9c 70 77 3f b3 17 c3 bf
       -1.1370338 3.7578866 0.96656203 -1.5241607
000240 bf 2e 69 40 55 52 81 40 d0 45 77 40 67 7c 78 3e
       3.6434782 4.0413003 3.863636 0.24266206
000250 e1 55 0b 40 8f 7e 61 c0 f7 51 06 bf cf 0c dc 3e
       2.1771166 -3.5233495 -0.5246882 0.42978522
000260 7e fd 72 40 92 cc ad 3c ac 6f 43 40 1f 34 b9 3f
       3.796722 0.02121571 3.053691 1.4469031
000270 bb 56 5f bf 42 6a 3e bf d0 d3 09 3c 93 97 09 bf
       -0.87241715 -0.74380887 0.008412316 -0.5374691
000280 e6 e7 77 40 7f 9d 72 c0 46 02 6a c0 0b 70 63 c0
       3.873529 -3.7908628 -3.6563888 -3.5537136
000290 55 03 a5 3f a3 6b 00 c0 b2 19 0e 40 b9 e4 e6 3e
       1.2891642 -2.0065696 2.2203183 0.45096377
0002a0 f8 f5 6b 40 25 a9 e6 be 8e 0d 62 bf e9 f9 67 40
       3.6868877 -0.45050922 -0.8830193 3.6246283
0002b0 8e e7 76 40 ea 4f 50 40 76 ea 3e 3f f6 7c 1a bf
       3.857883 3.2548776 0.7457651 -0.60346925
0002c0 6b ec 22 bf ef 1e 60 bf d1 a4 40 bf 00 57 02 bf
       -0.63641995 -0.875472 -0.7525149 -0.50914
0002d0 5c 43 77 3f 8e 1c 2e 3f 7c 8e 49 bf 94 14 d6 bf
       0.9658716 0.6801232 -0.7873304 -1.672503
0002e0 e1 8a 74 40 ea 55 7d bf 00 25 f9 be d4 44 e7 3f
       3.8209765 -0.9895922 -0.4866104 1.806788
0002f0 3e 46 e2 3f 77 ee 71 40 27 14 f8 3f 50 23 3d bf
       1.7677686 3.7801797 1.938115 -0.7388201
000300 e0 65 3d c0 a3 8d 80 bf 38 d3 ae 3f 99 70 58 40
       -2.959343 -1.0043224 1.3658209 3.3818724
000310 ab e9 5e 40 51 5c 16 c0 3c 47 54 40 b0 05 60 c0
       3.483012 -2.3493845 3.3168478 -3.5003471
000320 47 67 6c c0 c2 cb 68 c0 b1 f8 07 3f f5 93 20 40
       -3.6938035 -3.6374364 0.5311385 2.5090306
000330 2a 48 af be 30 db 7b 40 f2 fb 44 3f 2c a4 4f 40
       -0.34234744 3.9352531 0.7694694 3.2443953
000340 a9 a8 59 40 71 df d8 be 73 0f cf be 25 f1 2a bf
       3.4009192 -0.42357972 -0.40441474 -0.6677421
000350 48 f5 1a c0 77 c5 30 bf 95 f0 7c 40 81 6f 12 c0
       -2.4212208 -0.6905131 3.952184 -2.2880557
000360 fa 20 5f bf 9f af 22 3e 23 f5 6b bf b2 b8 5a 40
       -0.87159693 0.15887307 -0.92170924 3.417523
000370 cd 9a 73 40 b6 06 c1 be 4b d3 0d 3f c7 76 a9 3f
       3.8063233 -0.37700433 0.5540053 1.3239373
000380 a5 4d 7b 40 dd f6 6f be d9 ee fa bf 38 39 60 40
       3.926614 -0.23434015 -1.960414 3.5034924
000390 2f 74 2d bf 2a bd 45 bf 4f 42 b7 3f 1d ba 4c bf
       -0.6775541 -0.77241766 1.4317111 -0.79971486
0003a0 5b 1f 12 c0 6d 0b 4c 3f 59 f3 33 bd 19 16 4f 40
       -2.2831638 0.79704934 -0.043933246 3.2357237
0003b0 3a 31 3c c0 69 4f 04 40 e7 fa fa 3f 62 a8 49 3f
       -2.9405046 2.0673468 1.9607819 0.78772557
0003c0 e2 50 d9 3f d3 62 bd 3e db 52 7d 40 42 57 19 bf
       1.6977808 0.3698946 3.958182 -0.5989877
0003d0 00 e4 88 be 9f 50 12 40 74 6f b9 be b9 56 52 bf
       -0.2673645 2.2861707 -0.36217844 -0.8216358
0003e0 e2 9b 05 40 3f 0d 09 3e 79 f8 4d bf 64 f0 28 c0
       2.0876393 0.13383959 -0.80457264 -2.6396723
0003f0 01 1f a7 bf 06 b8 5e 3e 21 17 3d bf 01 3d d4 be
       -1.3056337 0.21749887 -0.73863417 -0.41452792

layer2.2.weight f4 [256, 256]
000000 9e 9a 92 bc 3c 96 1f 3d 3e 26 c5 3d 8d 79 23 3d
       -0.017895993 0.038961634 0.09626435 0.03991084
000010 8d e0 ea bd 26 32 91 bd 0c fb 3f 3c 32 13 80 3d
       -0.11468611 -0.07089643 0.011717569 0.06253661
000020 af 10 36 3e d5 69 df 3c bf 34 0a 3e 52 67 ef bd
       0.17779802 0.027272144 0.13496684 -0.11689629
000030 77 1e 63 bc ec a0 cd 3c fa 5a 4e 3c c0 ad 4e 3d
       -0.013862244 0.025101148 0.012594933 0.05045867
000040 85 10 2f 3e 9d 4e 7e 3b e2 45 8f bd 76 76 67 3d
       0.17096145 0.0038804181 -0.06995751 0.056509458
000050 0b 4a 2c bb 51 1f bc bd 4a 5b d6 bd c6 f9 d4 bd
       -0.002628925 -0.09185661 -0.10466631 -0.10399203
000060 94 ac 1b bd d3 81 24 3e 4f 35 2c 3d a0 02 52 3d
       -0.03800638 0.16065149 0.042043027 0.051272035
000070 12 12 24 3d 0b 95 aa bc c7 1c 4d 3c 14 a0 94 bc
       0.040056296 -0.020823022 0.012519068 -0.018142737
000080 6c f4 11 3d 97 1f 2f bd 16 10 08 bd 6e 81 de 3c
       0.03563349 -0.042754736 -0.033218466 0.027161326
000090 70 87 1c 3e f6 7e e0 bc 04 9c 27 bd 6d b7 24 bc
       0.1528604 -0.02740429 -0.040920272 -0.010053498
0000a0 a0 11 5a 3c f9 9a 7d bc 90 bd 84 b8 c4 d7 02 3e
       0.013309866 -0.015478843 -6.329559e-05 0.1277762
0000b0 e5 2b bd bd 72 43 2d 3b 52 66 ea bd f9 45 6a 3d
       -0.09236888 0.0026437906 -0.11445297 0.057195637
0000c0 21 f2 c6 bc ac aa e5 3d 1a 4b 82 3d 3a 29 12 bd
       -0.024285378 0.11214194 0.06361981 -0.035683848
0000d0 42 26 ae bc 1b 13 b4 bd 6b 1c 33 3d 2e c6 9c bd
       -0.021258477 -0.087927066 0.043728273 -0.07654987
0000e0 61 c3 fe 3c b6 eb 36 bd a6 b1 dd bd 41 b6 12 bc
       0.031099023 -0.044658385 -0.108248994 -0.0089545855
0000f0 17 3b 60 3d 02 87 8d bd f1 f5 ff 3d 04 32 ba bd
       0.054743852 -0.06910516 0.124980815 -0.09091571
000100 00 f1 42 bd f0 09 95 bd f6 32 ad 3c 3c a4 0d 3d
       -0.047593117 -0.07277286 0.021142464 0.034580454
000110 45 49 63 3d e8 25 b4 bc 72 d5 d5 3d 03 d3 4d bd
       0.055489797 -0.021990731 0.10441102 -0.050250065
000120 a9 0f 6f 3d 4d 91 ad bc 35 f1 af 3c 05 b8 14 be
       0.058364544 -0.021187449 0.021477321 -0.14523323
000130 f7 c1 86 3c c2 5b 91 bd 1f d1 e0 3b 5d 7a 50 bc
       0.016449912 -0.070975795 0.0068608667 -0.012724486
000140 01 d1 fb bd e1 ff 4c 3d 94 1e 64 3d 78 fc 82 bd
       -0.12295724 0.050048713 0.055693224 -0.06395811
000150 a0 54 45 3d b1 cd ce 3d f4 c3 2f bc c8 d8 51 3e
       0.048176408 0.10097826 -0.010727871 0.20492852
000160 d2 0c 86 bc 8d 44 cb bc ec c2 7d bd 74 2f 85 3d
       -0.016363535 -0.024812961 -0.06195347 0.065031916
000170 a3 9e 0c 3d 75 61 1a bd f7 82 af 3d 52 77 28 3d
       0.034330975 -0.0376906 0.085699014 0.041129418
000180 f8 3d 2a 3e 2f 1a 7b 3a 6e e7 11 3e 2c 66 f3 bd
       0.16625202 0.0009578792 0.1424844 -0.11884722
000190 b2 7e f1 bd 47 b1 04 3d 7b 2c 4a 3c df 49 40 bb
       -0.11791743 0.032395627 0.0123397065 -0.0029340906
0001a0 68 10 81 bd 56 00 71 bd 4d 6c 13 3d e5 2b 7b bb
       -0.06301957 -0.05883821 0.035991956 -0.0038325724
0001b0 81 ac dd bc 7e cb 1b 3c f2 bc c6 3c 38 9d b6 bb
       -0.027059795 0.009508966 0.024260018 -0.005572941
0001c0 79 32 33 3e be 79 86 bd 65 85 c7 bc 12 18 48 bc
       0.17499723 -0.06566189 -0.0243556 -0.01221277
0001d0 9c e0 1a bd cb b8 29 bd 9f aa 84 3d 1e 02 08 be
       -0.03781186 -0.041435998 0.06477856 -0.13282058
0001e0 fb 75 02 3e a3 91 a5 3c b7 7b 1e bd 28 1e 03 3c
       0.12740318 0.020211047 -0.038692202 0.008002795
0001f0 a1 68 db 3d b5 dc 42 bd c5 f1 de 3d ab bf 12 3c
       0.10713316 -0.047573764 0.10885958 0.00895683
000200 68 02 9c 3d be 74 14 3d f3 8f 99 bc d6 f8 65 bd
       0.076176465 0.036244147 -0.018745398 -0.05614551
000210 81 3b a0 bd 48 13 79 3d 86 dd e1 bd 67 bb 1b bc
       -0.078238495 0.060809404 -0.1102858 -0.009505129
000220 45 8b d6 3d a7 cb af 39 b7 4d 88 bd e1 69 23 3d
       0.10475782 0.00033530334 -0.06655448 0.039895896
000230 05 ad f4 bd 56 42 e6 3d 90 72 d2 bd db bb 96 3c
       -0.11947063 0.11243121 -0.10275757 0.018400123
000240 19 57 6c bc f4 24 15 3d 8c 8d 7e 3d a3 42 13 3e
       -0.014425063 0.036412194 0.06214671 0.14380889
000250 f2 f0 1a 3d de 3b 03 be 15 25 a2 bc 73 b1 ff 3d
       0.03782744 -0.12815806 -0.019793073 0.12485018
000260 d7 b6 98 3d 99 72 1f 3b 89 93 82 bc 33 ef 3e 3d
       0.07456749 0.002432978 -0.01593949 0.046614837
000270 1f 7f 12 3e b8 e3 94 39 b6 19 27 3d 70 99 82 bd
       0.14306305 0.00028398423 0.040796004 -0.06376922
000280 21 05 16 3e 12 81 c4 bd 36 d4 fd bd 0e 05 b4 bd
       0.14650394 -0.09594931 -0.12393992 -0.087900266
000290 fa ca b5 3c a7 a4 c7 bd 45 5f ce 3d c7 85 20 3d
       0.022191513 -0.09748202 0.10076765 0.03919008
0002a0 1f 61 bd 3d 07 b9 5f bd 8b f2 26 3d 79 18 85 3c
       0.0924704 -0.054619815 0.04075865 0.016247021
0002b0 3f 89 90 3d 1d 16 70 3d 53 a5 01 3d 07 95 f8 3d
       0.070574276 0.05861484 0.031651806 0.121378
0002c0 dd ae b0 bd f7 61 a7 bc 06 7d 23 bd 20 58 f7 3c
       -0.086271025 -0.020432455 -0.039914154 0.030193388
0002d0 07 48 94 3d 94 82 dd 3c 38 c1 a6 bd 78 a8 90 bd
       0.072403006 0.027039804 -0.08142322 -0.07063383
0002e0 35 33 91 3d 39 30 d5 bd e9 91 d4 3c 00 bc bc bc
       0.07089845 -0.10409588 0.025948482 -0.023038864
0002f0 61 0f 2b 3c 50 25 df 3d 8b 03 47 bc 3e e7 59 bd
       0.010440678 0.10895789 -0.012146841 -0.053199045
000300 cd 59 b7 bd b3 a7 a9 bd d3 a4 09 3e 41 63 3b 3d
       -0.08952675 -0.08283939 0.13441782 0.045748953
000310 0c 61 44 bd 2e b8 f3 bd 43 0f 13 3e fb 4f f8 bc
       -0.047944114 -0.11900364 0.1436129 -0.030311575
000320 1c 5c d2 bb 2a ff b1 bd bb 44 1a 3d 48 33 cc bb
       -0.0064196717 -0.08691247 0.037663203 -0.006231699
000330 c6 1b 3f bd 09 9b cb 3c 8e ce ef 3d 86 d6 82 3d
       -0.046657346 0.0248542 0.11709319 0.06388573
000340 fd 62 2d 3d 85 30 b1 3b fd ae ae bd d3 5a 60 bd
       0.04233073 0.0054073953 -0.0852947 -0.054774117
000350 e3 29 1f 3d a1 e2 a7 3b 40 df 12 3e 6d 2e 89 bd
       0.038858306 0.005123452 0.14342976 -0.06698308
000360 64 40 9d bc a1 25 7c bd 41 61 e4 3c 29 a2 ab 3d
       -0.019195743 -0.061559323 0.027878406 0.08380539
000370 73 7b 01 3b d4 6b 2b 3d dc d3 d7 3d 07 f7 10 3e
       0.001975742 0.04185088 0.10538456 0.14156733
000380 71 58 a8 3d e6 65 18 bc c5 78 90 bd 05 1e b1 3d
       0.08219994 -0.009301638 -0.07054285 0.08648304
000390 f0 ea fc bd b9 e2 45 bd 0e 38 37 3d 4b 0a 20 3a
       -0.12349498 -0.048311923 0.044731192 0.00061050494
0003a0 67 92 69 3d 36 2e ba bd 91 98 02 bb 33 8a 08 3d
       0.057024386 -0.09090845 -0.0019927362 0.033334922
0003b0 9e b8 07 bd 07 03 5e bc a1 e0 a7 3d c1 ca 98 3c
       -0.03313505 -0.013550526 0.081971414 0.018651368
0003c0 dd ae 33 3d f7 d5 22 bd 22 b5 4b 3d 1d 43 57 bd
       0.043867934 -0.039754834 0.04973329 -0.05255424
0003d0 10 1f 18 bc 76 cf 53 3d 01 41 11 bd 9c 4b d6 bd
       -0.00928475 0.051711522 -0.035462383 -0.1046364
0003e0 ef 23 69 3d a6 05 cf 3d 6e bb 8e 3c 85 87 f2 bc
       0.056919035 0.10108499 0.017423358 -0.029605636
0003f0 09 e2 5b bd 0e d2 78 3d 1e e4 af bc de cb 66 bd
       -0.05368236 0.0607472 -0.02147108 -0.056346767

layer2.2.bias f4 [256]
000000 a5 9a 37 40 1c 4c 2a 40 15 f0 69 bd 85 5d 2f 40
       2.8688138 2.6608953 -0.057113726 2.740083
000010 c9 a5 0e bd bf 95 b4 bd c0 4e e7 bd 82 bd e2 bc
       -0.034826074 -0.08817624 -0.11294317 -0.027678255
000020 14 fc 31 40 c4 a4 6d bd 12 c9 c4 bd c7 8f 61 bc
       2.7810106 -0.05801846 -0.096086636 -0.013767189
000030 1b 0a b0 3f 86 f7 98 bc bf bf 2f 40 82 5f 4d bd
       1.3753084 -0.018672716 2.7460783 -0.05013991
000040 ef 5d 35 40 59 ff 2f 40 5b 26 36 40 88 18 38 40
       2.8338583 2.7499602 2.846091 2.8764973
000050 09 84 58 be 04 d7 1d be 6e b2 34 40 3e d6 33 40
       -0.21144117 -0.15414053 2.8233905 2.8099513
000060 5c 65 35 40 e9 77 a2 bd e3 ff 6f bd 2f 46 32 40
       2.8343115 -0.07933027 -0.058593642 2.7855337
000070 9b b9 36 40 a3 ad b5 bd b4 5c 33 40 e8 42 35 40
       2.8550785 -0.08871009 2.8025331 2.8322086
000080 fd 23 2b 40 10 5b 1e 40 61 d9 32 40 ae 12 a8 bd
       2.6740716 2.474308 2.7945178 -0.08206688
000090 60 d0 a8 bc d5 e6 2c 40 6b 52 32 40 00 cb c1 bd
       -0.020607173 2.7015889 2.7862804 -0.09462547
0000a0 d4 a4 04 bd fc 5b 40 bd f9 79 19 40 2e 2d 31 40
       -0.032383755 -0.046962723 2.3980696 2.7683825
0000b0 b1 53 33 40 19 ce 31 40 4b dc 55 bd 74 e8 33 40
       2.801983 2.7782042 -0.05221204 2.8110628
0000c0 8f 5c dc bd 32 b2 35 3e 57 b6 3e bd 7b 2d 30 40
       -0.10759842 0.17743757 -0.04656061 2.752776
0000d0 f9 b4 2f 40 dd f1 30 40 e2 12 34 40 1c a6 f7 bd
       2.7454207 2.7647622 2.8136525 -0.1209223
0000e0 43 30 3c 40 99 94 03 3d 46 ac 37 40 f0 cb a4 bd
       2.9404457 0.032124136 2.8698897 -0.080467105
0000f0 63 d7 33 40 ed bc 32 40 8c 8a 66 bd 7b 86 31 40
       2.8100212 2.792781 -0.056284472 2.773833
000100 de 6a d4 bd 5c 16 31 40 00 da 34 40 50 f8 81 bc
       -0.10371946 2.7669897 2.8258057 -0.015865475
000110 59 44 36 40 1b dd 3a 40 5c cf c2 3f a2 19 2d 40
       2.8479216 2.9197452 1.5219531 2.7046895
000120 73 fe 31 40 cf 71 df bd 33 40 33 3f 43 8b c7 bd
       2.7811553 -0.10910379 0.70019835 -0.09743359
000130 b7 e9 ca bd ea a3 ea 3f b3 92 36 40 7c 04 6f be
       -0.09907859 1.8331273 2.8527038 -0.23341554
000140 3b 1f 30 bd b7 0c 38 40 4c cb 33 40 3e 3d 35 40
       -0.042998534 2.875776 2.8092833 2.831863
000150 23 e3 35 40 62 3e 30 3d a2 aa 30 40 06 6f dd bd
       2.8419883 0.043028243 2.7604146 -0.10812192
000160 f7 be 2d 3d dd 92 30 40 f6 fc 15 bd 3e e8 35 40
       0.042418446 2.7589638 -0.036618195 2.8423
000170 e8 75 38 40 e7 8f 19 3d 35 39 12 be f7 d6 07 be
       2.8821964 0.03749075 -0.14279635 -0.13265596
000180 8b c7 e8 bc c0 29 fc bd 48 c4 ec bd 1a 10 87 bd
       -0.028415462 -0.12312651 -0.11560875 -0.06594868
000190 fa 76 06 3d 20 79 8f be 39 4f 33 40 46 5b 39 40
       0.03282831 -0.280221 2.8017104 2.896196
0001a0 04 34 60 bd d9 e0 3c bc a6 a5 38 40 33 72 34 40
       -0.054737106 -0.011528217 2.8851104 2.8194702
0001b0 73 be ac bd 0e 3e 2f 40 58 d5 a9 bd 16 bf 30 40
       -0.08434763 2.7381625 -0.08292645 2.761663
0001c0 36 f1 a0 3f 98 1b 04 be 2b 9b 31 40 96 1a 39 40
       1.2573612 -0.12901151 2.7750957 2.8922477
0001d0 6b 0f 3d be 8b 3a 8e bd d5 37 c8 bb 44 69 30 40
       -0.18462913 -0.0694476 -0.0061101713 2.756425
0001e0 8d 80 d6 3e 92 ce ef 3d 95 81 44 be 48 27 8d bd
       0.4189495 0.11709322 -0.19190057 -0.06892258
0001f0 f3 92 30 40 89 ce 1a bd 72 76 35 40 86 90 2a 40
       2.758969 -0.037794624 2.8353543 2.665071
000200 7a 34 37 40 e9 46 d2 bd 9d 4b d5 3c c6 da 1a be
       2.862578 -0.10267431 0.026037032 -0.15122518
000210 44 f9 0d be 1b 54 2d bd 6f a7 70 bd 0f 3c 2f 40
       -0.13864619 -0.042316537 -0.058753427 2.7380407
000220 13 dd 19 bd 09 04 53 bd e1 11 c8 bd f0 94 31 40
       -0.03756435 -0.05151752 -0.09769035 2.7747154
000230 5c e7 15 40 2f 6d f7 3f da a6 33 40 6f 63 31 40
       2.342246 1.9330195 2.8070588 2.771694
000240 0d fa a2 bd 5a d9 f6 bd 3c 3e fc 3f a2 32 32 40
       -0.0795785 -0.12053175 1.9706492 2.7843404
000250 05 f9 34 40 81 4d 0e be 22 68 55 bd e4 22 1c 40
       2.827699 -0.13896753 -0.052101262 2.4396296
000260 99 d6 46 bd 1c 3e 31 40 0f b0 a4 bd 40 c1 0c bd
       -0.0485445 2.7694159 -0.08041393 -0.034363985
000270 1b 06 9e bc 21 ff 91 bd 0f 86 2d 40 56 51 0f bc
       -0.01929002 -0.0712874 2.7113073 -0.008747419
000280 6a 73 37 40 5e 27 63 3f e3 57 34 40 63 be 9e bc
       2.8664193 0.88731945 2.8178642 -0.019377893
000290 fe ca b3 bd ca 7b 35 40 66 3e d9 bd b9 bc 33 40
       -0.08778952 2.8356805 -0.10607605 2.8083937
0002a0 4f 1d 35 be aa 1d 2e 40 9c c7 35 40 b3 87 a5 3f
       -0.17686962 2.7205606 2.8403082 1.2932037
0002b0 4d 01 31 40 5c ff 4c bd fe ba 86 3b 24 6e 34 40
       2.7657044 -0.050048217 0.0041116467 2.8192225
0002c0 0d be e3 bc 65 f2 4f 3d 80 fa c7 3f 93 f3 03 be
       -0.027800584 0.050768275 1.5623322 -0.12885885
0002d0 54 c1 36 40 c9 3d 35 40 e2 4a 34 40 b2 cc c4 bd
       2.8555498 2.831896 2.8170705 -0.09609355
0002e0 c1 79 ae bd 57 c6 35 40 0c cc 1e bd d1 00 d2 bd
       -0.085193165 2.8402307 -0.038768813 -0.10254062
0002f0 2a 46 d5 bd c0 c4 04 40 76 fc 71 bd 24 91 34 40
       -0.10413773 2.0745087 -0.059078656 2.8213587
000300 d9 c6 c2 bd 0a 36 f2 bd e4 e9 c8 bd 38 c8 34 40
       -0.095105834 -0.118267134 -0.09810236 2.8247204
000310 fa 67 32 40 62 23 f2 3c f9 9c 31 40 e5 e5 f9 bd
       2.7875962 0.029557887 2.7752059 -0.12202052
000320 84 6b c9 bc 31 a8 52 bd ec db 38 40 27 62 34 40
       -0.0245874 -0.05142993 2.888423 2.8184907
000330 1d 1c ea bd 92 a5 35 40 57 53 35 40 10 d7 34 40
       -0.114311434 2.8382306 2.8332117 2.8256264
000340 91 d5 d7 bc e0 8e 34 40 5a 02 81 bd 6c ab db 3f
       -0.026346954 2.8212204 -0.06299277 1.7161689
000350 f9 e0 2a 40 1f 24 58 be 6e c0 97 bd 25 93 ea 3f
       2.6699812 -0.21107529 -0.0740975 1.8326155
000360 fc e7 35 40 9b 20 e2 3f 70 78 30 40 c8 83 37 40
       2.8422842 1.76662 2.757351 2.8674183
000370 e1 73 03 bd c4 77 13 3e c4 a8 04 bd 03 ac 32 40
       -0.032092933 0.14401156 -0.03238751 2.7917488
000380 a3 65 b0 bc a9 e1 c1 bd 4f 39 9b be 4c 88 d7 bc
       -0.02153284 -0.094668694 -0.3031716 -0.026310109
000390 3e 6a 35 40 de f6 9e bd 94 54 da bc 75 b9 80 be
       2.8346095 -0.0776193 -0.026651658 -0.25141492
0003a0 75 20 04 3f 87 03 b9 be 5a 09 99 bd 3a 4a 34 40
       0.51612025 -0.36135504 -0.07472487 2.8170304
0003b0 aa 8a 34 40 25 6a 75 bd 26 9d ca bd 4f 5a 35 40
       2.8209634 -0.05991568 -0.09893255 2.833637
0003c0 55 b9 37 40 16 4c 31 40 e2 01 36 be 32 d1 36 40
       2.8706868 2.770269 -0.17774156 2.8565183
0003d0 35 86 41 be d8 db 3c bb e6 ce 29 bd 95 16 32 40
       -0.18898852 -0.002881756 -0.04145708 2.7826283
0003e0 55 a4 2c 40 2a 8f 27 be ae d2 37 40 b7 68 35 40
       2.69753 -0.16363207 2.8722339 2.8345163
0003f0 63 8d b0 bd bb fc 2e 40 04 09 c8 bd 02 ae 36 40
       -0.086207174 2.7341754 -0.097673446 2.8543706

layer2.5.weight f4 [1, 256]
000000 39 90 a0 3c b3 66 33 3c 6e 7f 20 bd 30 61 c5 3c
       0.01960002 0.010949778 -0.039184026 0.024094194
000010 37 c7 ef 3a 48 c8 ae 3a 3c 9f 83 bc 69 1b 43 bd
       0.0018293624 0.0013334835 -0.01606714 -0.047633562
000020 eb 9c e0 3c 57 15 ca bb dd 48 04 be d8 c3 ba bc
       0.027418574 -0.0061670947 -0.1291842 -0.022798464
000030 d0 1b 0e 3d bd b5 ee bc 5f 1a 82 3c 5d aa b0 ba
       0.034694493 -0.029139394 0.015881715 -0.0013478507
000040 ef a5 c5 3c 88 10 e3 3c 83 bb 80 3c 2b e0 d8 3c
       0.024126975 0.027717844 0.015714413 0.02647408
000050 62 0a 40 bd 2f 7c e3 bb 6a 50 84 3c 10 67 a4 3c
       -0.0468849 -0.006942294 0.016151626 0.020068675
000060 3e eb af 3c 9d b6 8a bb 73 39 00 ba e0 1c bc 3c
       0.021474477 -0.004233195 -0.0004891373 0.022962987
000070 7c 45 b6 3c ea b0 4b 3b f1 2d d8 3c 5a 01 57 3c
       0.02224993 0.003108079 0.026389094 0.013122881
000080 a2 d0 8f 3c 17 3f da 3c 80 d7 77 3c d3 ea 63 bd
       0.017555539 0.026641412 0.015127063 -0.055643868
000090 c3 e6 13 bb fa 35 90 3c c7 44 65 3c 2c 0c 09 bb
       -0.0022567965 0.017603863 0.013993449 -0.0020911796
0000a0 da e5 b6 bc d5 2b 11 bd bb 29 99 3c 74 ca d5 3c
       -0.022326399 -0.035442192 0.018696656 0.026097514
0000b0 56 75 98 3c a9 f6 86 3c 06 cb 9b bc 64 c6 9e 3c
       0.018610638 0.016475039 -0.019017708 0.01938171
0000c0 f9 04 10 3d b8 7e 19 3d 78 0e 66 bb 25 b3 ee 3c
       0.035160992 0.037474364 -0.003510384 0.029138157
0000d0 ae c7 61 3c ca 06 0a 3d a6 4b 93 3c eb b8 e6 3a
       0.0137805175 0.03369788 0.017980408 0.0017602717
0000e0 16 b3 b5 3c 7d 2d e2 38 e4 92 57 3c 7a ff b1 bc
       0.022180121 0.000107849926 0.01315758 -0.021728266
0000f0 d1 0e a6 3c 4d 43 02 3d d6 c4 d9 ba 93 98 38 3c
       0.020270737 0.031802464 -0.0016614448 0.011266845
000100 6c d3 de bc 57 e7 50 3c 35 0b 6f 3c 1f fb ab bb
       -0.027200423 0.012750468 0.014590074 -0.005248442
000110 87 67 82 3c 40 73 d3 3c 16 01 ed 3c 8a 78 b4 3c
       0.015918506 0.025811791 0.028931182 0.022030134
000120 ed 6e a5 3c 11 5c 2e bc df a3 56 3d fb 32 24 bd
       0.020194495 -0.0106420675 0.052402373 -0.04008768
000130 61 bb 87 bb 2c fc 51 3c 89 36 e3 3b 2f 3e 52 bd
       -0.0041422104 0.01281647 0.0069339913 -0.051328834
000140 3d e4 70 b9 fd 2c ae 3c a3 33 36 3d 20 86 c2 3c
       -0.00022973209 0.021261686 0.04448284 0.023745596
000150 59 dd c2 3c 06 a5 02 bb cb ea 7c 3c 8f 46 9c bc
       0.023787187 -0.0019934787 0.015436838 -0.019076614
000160 27 c9 3c bd 87 8f 9e 3c d8 36 a8 bb 8e de 85 3c
       -0.04609027 0.019355549 -0.005133491 0.016341474
000170 9a fd bd 3c 74 60 84 3a aa d9 d6 bc 0f 56 08 bd
       0.023192216 0.0010099546 -0.026226837 -0.033285197
000180 7e 31 6c bc bb 00 cf bc a8 23 a3 3a 81 cb 0c bd
       -0.014416097 -0.025268903 0.001244654 -0.034373764
000190 3d c1 db 3a a4 3c c9 be 53 59 b8 3c 4e b5 b7 3c
       0.0016765964 -0.39304078 0.02250353 0.02242532
0001a0 b0 89 0f 3b 02 ea bf 3a 13 29 96 3c 96 ee a8 3c
       0.0021902137 0.0014641883 0.018330133 0.02062158
0001b0 15 f6 c6 3a a6 ef da 3c b4 5a b4 bc 96 39 8d 3c
       0.0015179539 0.026725601 -0.022015907 0.017239373
0001c0 fa ca b7 3c 80 1b 11 3b 68 7a e7 3c ea 59 a6 3c
       0.022435654 0.0022141635 0.02825661 0.020306546
0001d0 86 a8 39 bd ca fa 25 bd 16 d1 d2 3b c5 0d ae 3c
       -0.045326732 -0.040522374 0.0064336164 0.0212468
0001e0 cb a7 22 3d a6 61 23 3d 2e 16 cb bd 00 d5 77 bb
       0.0397108 0.039888047 -0.0991634 -0.0037816167
0001f0 c6 96 4f 3c f3 4b 2b 3b 6d 00 07 3d 81 4c 86 3c
       0.0126702245 0.0026137799 0.03295939 0.016393902
000200 65 52 c8 3c 63 17 c8 bc 8d 81 21 3c 6b 4a 70 bd
       0.024453351 -0.024425214 0.0098575475 -0.05866472
000210 0c 89 9e bb bf 3e e3 3a 17 3f 82 bd 49 b2 b0 3c
       -0.0048381146 0.0017337425 -0.0635969 0.021569388
000220 78 04 cb bc ab ab 1b 39 33 22 f5 bc 36 ff 57 3c
       -0.024782404 0.00014845903 -0.029923534 0.013183406
000230 78 3f 6a 3c f6 2b 9a 3c 6a 0c 79 3c 6e 32 80 3c
       0.014297359 0.01881979 0.015200714 0.015649047
000240 eb 1c 30 3a 1d 66 13 3a 27 01 bf 3c f1 bb 32 3c
       0.00067181763 0.0005622821 0.02331598 0.010909067
000250 9a fa 7d 3c d1 31 58 3a a4 3d 50 bb b8 61 c0 3c
       0.015501643 0.00082471693 -0.0031775022 0.023484096
000260 d0 ba 66 bb 04 5f bd 3c ad 06 a5 bb 87 5d 0f bd
       -0.0035206564 0.023116596 -0.005036196 -0.035001304
000270 51 65 de bc ee 29 f2 bc f2 a0 e8 3c a0 ce eb bc
       -0.02714792 -0.02956101 0.028397057 -0.02878505
000280 29 e2 d5 3c ae 74 29 3d 91 62 a6 3c 59 cf 8d bc
       0.026108818 0.04137104 0.020310672 -0.017310785
000290 42 70 13 bd e3 32 93 3c 59 ec d6 bc 43 d4 b9 3c
       -0.03599573 0.0179686 -0.026235746 0.022684222
0002a0 08 7c 9c ba 7f e7 9e 3c da a3 d6 3c 0d fd b3 3c
       -0.001193882 0.019397495 0.026201177 0.02197125
0002b0 69 67 e2 3c f4 3e ba ba 98 6f ef bc ed e9 a9 3c
       0.0276372 -0.0014209435 -0.029228017 0.020741427
0002c0 84 5f 38 bd b3 3d 08 3d d1 13 e9 3c 04 4c 73 bc
       -0.045012966 0.033261966 0.028451832 -0.0148496665
0002d0 da e4 04 3d 88 a0 b0 3c 39 97 f2 3c 50 25 80 bb
       0.032444812 0.021560922 0.029613124 -0.003910698
0002e0 38 b8 33 bc 54 70 e2 3c 13 42 40 bc 8b 07 d6 bb
       -0.010969214 0.027641453 -0.011734503 -0.006531661
0002f0 36 cf 9c bc 29 85 9b 3c 3e df 26 bd 4c 7e 06 3d
       -0.019141775 0.018984394 -0.040740244 0.03283529
000300 36 0f 2c 3b b0 0d f8 bc ee af 07 ba 22 1d ba 3c
       0.0026254184 -0.030279964 -0.0005176057 0.02271897
000310 8d 83 18 3d 23 ac 64 ba cc 1f 1d 3d 78 5a b6 bb
       0.03723483 -0.000872316 0.038360402 -0.005564984
000320 c6 a8 14 bb db f8 ae 37 2c 61 01 3d cf c1 e2 3c
       -0.0022683605 2.0858299e-05 0.03158681 0.027680306
000330 54 5d be bd 07 9d f2 3c ba b4 c7 3c 9d e1 87 3c
       -0.09295145 0.029615892 0.02437817 0.016587073
000340 48 60 63 39 46 d8 5f 3c ba 23 7a bc ae f2 02 3d
       0.00021684275 0.013662403 -0.015267307 0.03196972
000350 56 de b6 3c 37 ec 55 bc 2a 28 10 bb 75 51 97 3c
       0.022322815 -0.013056806 -0.0021996596 0.018471459
000360 7e dd ed 3c 9a 65 bc 3c 82 91 ac 3c 50 9e a3 3c
       0.02903628 0.022997666 0.021065477 0.01997295
000370 5b 99 a9 bc 86 8c 62 3c 96 8b f7 bc cf 10 95 3c
       -0.020703008 0.013827449 -0.030217927 0.018196492
000380 47 ac 9f bb 94 08 7f 3a 41 72 c8 bc 86 a9 2a 3d
       -0.004872832 0.0009728756 -0.024468543 0.041665576
000390 8e c8 c7 3c 7c e4 a1 3b ec 9a ed bc 9d 66 8a be
       0.024387624 0.0049405675 -0.029004537 -0.27031413
0003a0 74 dd df 3c ee fc 17 bd 65 2f 8f bd f6 94 db 3c
       0.027327277 -0.037106447 -0.06991462 0.026804429
0003b0 f7 64 9e 3c 35 f1 29 3b df a2 1a bc 84 5c c1 3c
       0.019335253 0.0025931124 -0.009438246 0.023603685
0003c0 9f fb 8f 3c f8 df 5e 3d a3 b1 92 bb b3 06 bd 3c
       0.017576037 0.054412812 -0.0044767424 0.023074483
0003d0 7b 91 9a ba f7 2b cf 3b fe d0 fa bc 7a 83 78 3c
       -0.0011792624 0.0063223797 -0.030617233 0.015168065
0003e0 83 36 02 3d 97 7c e6 3a 7b 5b e2 3c 6e 9c 02 3d
       0.031790268 0.0017584738 0.027631512 0.031887464
0003f0 89 7f 0e bb e2 4c b4 3c ea 2c 95 bb 67 6c d2 3c
       -0.0021743497 0.022009317 -0.0045524733 0.025686456
