Model_Files/helpdesk/TimestampPredictor_parameters_laplacianOnWeighted_0.001.pt (torch, 277519 bytes, 7 tensors)

layer1.weight f4 [4, 1]
0.00840837 -0.019074567 -0.6238574 -19.22828
00000000: 43c3 093c 4442 9cbc 1eb5 1fbf 84d3 99c1

layer1.bias f4 [9]
-7.3914013 5.163512 10.619323 -2.0045965 -22.143671 8.882941 -0.087215245 0.35711807
8.404611
00000000: 5c86 ecc0 7e3b a540 bfe8 2941 4f4b 00c0
00000010: 3d26 b1c1 8720 0e41 e89d b2bd 2ed8 b63e
00000020: 4979 0641

layer2.1.weight f4 [256, 9]
0.060414366 -1.2742697 -0.19897017 -1.3640876 0.25457266 -0.3179447 -1.3454525 0.04436214
-0.07387984 0.029473122 0.010340315 -0.09583798 -0.10758742 -0.12762643 -0.0035645196 -0.17725693
0.06868826 -0.025431195 0.38746503 -1.193067 -2.4579263 -1.6530508 2.77766 -3.455279
-2.3167903 1.2149858 0.04922663 0.111846894 -0.26905355 -0.02699016 -1.2122828 -0.34288344
-0.18128435 -1.1714494 0.04773368 0.00024487538 -0.136907 0.5938862 -0.74040306 0.80479264
2.5793412 -0.9611554 0.54036915 0.7308127 -0.14918019 0.0052618147 -6.449782 -0.31870556
-5.5580926 -5.1780744 -0.15372095 -6.4309115 0.013787902 -0.02238158 0.24110243 -0.9146605
-0.16105913 -1.2641566 -0.51704425 -0.39464483 -1.5807513 0.014601427 -0.009755764 0.16608071
-0.23247626 -0.10538951 -0.16466771 -0.014336327 -0.27849048 0.23909009 0.07187751 -0.03092906
0.08235758 -0.024009243 -0.11781116 -0.39319474 -0.016214576 0.020624293 -0.6208134 0.019473387
-0.03369523 0.04916458 6.420006 -0.46752396 2.7909749 18.995464 -0.5921247 2.75276
0.08727443 0.07532493 0.031213665 -0.023257766 -0.12030399 -0.6091376 0.013030443 -0.10011233
-0.81196016 0.006728838 -0.0986039 0.0026597488 -0.7053017 -0.2460571 -1.9109956 -1.1544843
-0.2632652 -0.8490637 0.050019436 -0.18425632 0.35284585 -0.12108324 -0.1387479 0.7449281
-0.42401758 0.05378374 -2.0973303 0.24993777 0.10078071 -0.06270526 0.039092 -0.8451386
-0.7989021 -0.8155306 -0.31139955 -0.3555628 0.05065814 -0.45727745 0.15045871 -0.968521
-0.3918951 -1.2979131 -1.0446159 -0.16106296 -1.3633399 0.15359658 -0.1131429 0.12578292
-0.34357658 -0.1414253 -0.45168415 0.035238877 -0.29292408 -0.409954 -0.018989427 -0.003507268
0.0032613147 -0.11082024 -0.4484492 -1.4126687 -0.74339384 -0.83866215 -1.1331283 0.43327576
-0.13892962 0.008397316 -0.14844482 -0.25767487 -0.41749066 -0.14510804 -0.4361385 -0.4222016
0.14795041 0.010327837 0.02408211 -0.012788494 -0.097838 -0.33590385 -0.28812483 -0.20731255
-0.44900462 0.0446307 -0.023893343 0.15820509 0.8524358 -0.33134276 0.13943194 3.5015323
-0.38338688 0.20720813 0.019817965 0.08406599 0.09006439 -0.006829886 -0.1170765 -0.40820786
-0.04758985 -0.046954174 -0.34931195 0.005676547 -0.07012869 0.1369098 -0.24491517 -0.11204149
-0.44104832 -1.6891319 -0.24458876 -0.2175796 0.17842925 0.00172538 0.03690291 0.018360252
0.17812984 -0.6577969 -1.2115029 -0.6520964 -0.4359401 0.086162835 -0.10467025 0.08636087
0.2840684 -0.24734496 -0.90570384 0.57968277 -0.48229122 -1.5918071 0.060907964 0.090105355
0.07725256 -0.5884674 -0.5307318 -1.23568 -0.33045307 -0.4140313 -2.0830193 0.15864849
-0.22877611 0.016828042 -0.0027361787 -0.0138245225 -1.1212069 -1.3591294 -0.11009963 -2.623721
0.33822063 0.060771454 0.05737207 -0.5292953 -0.1804876 -0.08883668 -0.15983659 0.12294503
-0.13313375 0.0338267 0.0045548067 0.0007930362 -5.8677106 -0.31184685 -5.2010217 -4.429746
0.028003275 -5.984866 -0.023132177 0.06963253 0.08692648 4.1637635 -0.63273734 2.5696182
00000000: 0e75 773d 451b a3bf d6be 4bbe 6c9a aebf
00000010: 5957 823e a6c9 a2be ca37 acbf 13b5 353d
00000020: 504e 97bd 9e71 f13c 6d6a 293c b446 c4bd
00000030: cb56 dcbd 81b0 02be b79a 69bb d782 35be
00000040: 6eac 8c3d 1555 d0bc d161 c63e 6bb6 98bf
00000050: aa4e 1dc0 2b97 d3bf 2ec5 3140 4b23 5dc0
00000060: 4b46 14c0 a884 9b3f dda1 493d fc0f e53d
00000070: 63c1 89be 781a ddbc 152c 9bbf 6b8e afbe
00000080: 9ba2 39be 0ef2 95bf 6484 433d 9e62 8039
00000090: 5931 0cbe ed08 183f 0e8b 3dbf e406 4e3f
000000a0: ed13 2540 480e 76bf a255 0a3f 8b16 3b3f
000000b0: b1c2 18be 4d6b ac3b 9d64 cec0 602d a3be
000000c0: e5db b1c0 c9b2 a5c0 0669 1dbe 07ca cdc0
000000d0: a7e6 613c 9359 b7bc 8ee3 763e 3127 6abf
000000e0: afec 24be e2cf a1bf 035d 04bf e30e cabe
000000f0: 0f56 cabf d33a 6f3c a4d6 1fbc 1011 2a3e
00000100: 420e 6ebe 75d6 d7bd a79e 28be eae2 6abc
00000110: 4e96 8ebe 08d4 743e 8434 933d f15e fdbc
00000120: 17ab a83d 08af c4bc fa46 f1bd d250 c9be
00000130: 6ed4 84bc 47f4 a83c a1ed 1ebf a786 9f3c
00000140: 0204 0abd cc60 493d b070 cd40 4d5f efbe
00000150: 559f 3240 b6f6 9741 7c95 17bf 382d 3040
00000160: f0bc b23d f543 9a3d cdb3 ff3c 1287 bebc
00000170: f061 f6bd 71f0 1bbf a47d 553c b107 cdbd
00000180: 9fdc 4fbf 967d dc3b d7f0 c9bd 2e4f 2e3b
00000190: a78e 34bf 64f6 7bbe 819b f4bf 24c6 93bf
000001a0: b2ca 86be 3d5c 59bf 2ee1 4c3d b0ad 3cbe
000001b0: 36a8 b43e 7dfa f7bd ee13 0ebe 9cb3 3e3f
000001c0: d518 d9be 574c 5c3d a93a 06c0 b0ef 7f3e
000001d0: 1e66 ce3d 9e6b 80bd ef1e 203d 015b 58bf
000001e0: d984 4cbf 9dc6 50bf c36f 9fbe 540c b6be
000001f0: e97e 4f3d 4520 eabe d911 1a3e fef0 77bf
00000200: 79a6 c8be 0422 a6bf f9b5 85bf b0ed 24be
00000210: ec81 aebf 6c48 1d3e 77b7 e7bd 3dcd 003e
00000220: 45e9 afbe cbd1 10be 2543 e7be a456 103d
00000230: 25fa 95be 7ee5 d1be b78f 9bbc 31da 65bb
00000240: c8bb 553b b9f5 e2bd 229b e5be 54d2 b4bf
00000250: 0f4f 3ebf 90b2 56bf 590a 91bf 52d6 dd3e
00000260: 9143 0ebe e594 093c eb01 18be f6ed 83be
00000270: 56c1 d5be 3497 14be 8c4d dfbe cf2a d8be
00000280: 5080 173e 1736 293c d847 c53c d586 51bc
00000290: 4a5f c8bd 97fb abbe 1985 93be be49 54be
000002a0: efe3 e5be aece 363d f9bb c3bc 8400 223e
000002b0: 3c39 5a3f c2a5 a9be 3fc7 0e3e 1b19 6040
000002c0: 494b c4be 5e2e 543e 4959 a23c ca2a ac3d
000002d0: ae73 b83d 3dcd dfbb cec5 efbd 9f00 d1be
000002e0: 93ed 42bd 0553 40bd 04d9 b2be 5402 ba3b
000002f0: a19f 8fbd 1532 0c3e 0bcb 7abe 0276 e5bd
00000300: 16d1 e1be 7935 d8bf 7a75 7abe 30cd 5ebe
00000310: 28b6 363e 2526 e23a 8127 173d 3d68 963c
00000320: ab67 363e 6165 28bf 8712 9bbf caef 26bf
00000330: 8a33 dfbe 2476 b03d 5b5d d6bd f8dd b03d
00000340: 6a71 913e ff47 7dbe 35dc 67bf 1766 143f
00000350: e0ee f6be 56c0 cbbf a17a 793d 2889 b83d
00000360: 9736 9e3d cda5 16bf 0ade 07bf c32a 9ebf
00000370: 2531 a9be e9fb d3be 3050 05c0 c074 223e
00000380: 4944 6abe f6da 893c 7651 33bb 4080 62bc
00000390: b583 8fbf f4f7 adbf ea7b e1bd 0beb 27c0
000003a0: 412b ad3e 7deb 783d fafe 6a3d e67f 07bf
000003b0: bed1 38be 01f0 b5bd 34ac 23be 9bca fb3d
000003c0: 3754 08be de8d 0a3d 7d40 953b c2e3 4f3a
000003d0: 49c4 bbc0 64aa 9fbe c56e a6c0 7bc0 8dc0
000003e0: 2067 e53c 0684 bfc0 b17f bdbc 809b 8e3d
000003f0: 8306 b23d 8d3d 8540 13fb 21bf a074 2440

layer2.1.bias f4 [256]
-3.5823596 47.38221 -13.718454 -9.625893 -11.73553 -44.343555 -16.5372 8.296528
31.095434 -29.729927 34.72987 -18.626472 -19.062502 -14.729931 -19.742992 24.570908
-12.29206 2.4743156 34.765575 -18.521349 53.856487 24.528078 -15.497681 -12.616365
-12.503647 -18.952784 58.387608 -38.23018 -21.083042 58.387424 -18.862043 40.310493
55.673233 -3.1835425 -15.278819 35.14973 -22.623152 58.315304 -16.34326 -6.7935553
-11.177746 56.8602 35.682537 60.09104 15.957998 -22.039413 -26.094706 -16.327227
-19.6247 26.594995 -17.751207 -11.337105 29.130669 -14.091592 -28.804644 -9.985374
49.626816 -36.80671 -23.30729 37.429153 -13.371139 59.3125 50.7735 -33.57241
-13.562194 -14.130611 25.500357 48.545456 49.585396 9.633961 -12.120991 -13.850198
35.351875 -5.371858 56.55553 -29.208519 55.25045 30.572035 46.141273 -7.9094787
24.17951 -7.9660535 -10.741575 -21.743845 -21.91741 34.422108 -13.105311 0.9367885
9.228333 -16.811186 -12.519857 -12.972271 -4.4777527 -16.15441 -25.43543 -13.907611
-24.1938 -13.32046 6.222271 -10.667879 -3.3670678 -3.577284 -4.429184 0.5833006
-22.206236 -11.83988 -40.36553 -20.769493 -11.769353 44.62207 -32.27978 36.490948
-11.255507 -23.817465 -22.136835 -15.894969 -37.58689 -26.149382 -18.665543 57.98459
-10.300326 5.746095 23.50559 -22.730444 -10.080853 -10.62713 -10.213077 42.721516
-10.947241 15.45003 23.626287 45.201733 36.396885 -23.57159 -16.212389 32.47357
-11.85195 -7.23437 -17.325865 50.683067 29.385725 -20.527218 -16.830097 -17.091322
-18.146063 51.163147 -10.614933 -20.023481 -9.726179 -3.9760349 -17.885965 -7.8218455
-10.619125 -8.697753 -15.911677 33.048973 -8.376019 -0.90696263 -11.878418 -24.12968
-25.170773 43.39886 -5.2357297 -12.728665 -14.547822 -10.061325 -20.48525 -18.581427
-5.2293262 -7.233916 42.55882 -34.385696 39.585552 -17.63076 -5.4785666 -15.759278
-17.387554 47.77016 51.719055 -34.531178 -30.57288 -23.580616 -16.503342 59.712437
-14.567794 57.476753 -5.41409 48.207466 -28.288366 -31.263287 -17.946491 58.971893
-16.025555 16.929268 -12.6495285 -18.5738 -18.78366 -10.708315 41.44652 -8.983291
-16.699665 -28.286037 48.957508 55.3908 49.61277 16.183561 23.782364 -10.295412
-20.753345 -4.4624443 -15.436134 -20.461782 59.077286 -22.671633 -30.438257 -22.31306
-6.812643 -15.244533 48.53488 -9.902755 49.01515 3.7183757 -13.190779 52.303116
18.062777 -22.702948 47.32503 49.002934 -8.966904 1.8405848 51.449203 -17.547647
-13.408121 -12.882085 -19.79989 -18.253325 54.74739 41.18803 -22.241516 8.882215
58.189816 53.750443 -18.053297 -14.120012 27.509806 -11.920367 -27.287163 8.5970335
-14.700065 36.39529 -19.163965 42.114 36.374676 -6.9146934 -8.551704 51.342033
00000000: 6145 65c0 6287 3d42 ca7e 5bc1 a803 1ac1
00000010: bbc4 3bc1 cd5f 31c2 304c 84c1 94be 0441
00000020: 73c3 f841 e4d6 edc1 63eb 0a42 0403 95c1
00000030: 0180 98c1 ccad 6bc1 a6f1 9dc1 3891 c441
00000040: 47ac 44c1 305b 1e40 f30f 0b42 b92b 94c1
00000050: 0b6d 5742 8139 c441 80f6 77c1 a2dc 49c1
00000060: f00e 48c1 4d9f 97c1 e98c 6942 b4eb 18c2
00000070: 12aa a8c1 b98c 6942 77e5 96c1 f23d 2142
00000080: 64b1 5e42 29bf 4bc0 0b76 74c1 5399 0c42
00000090: 37fc b4c1 df42 6942 ffbe 82c1 ce64 d9c0
000000a0: 0cd8 32c1 d870 6342 ebba 0e42 3a5d 7042
000000b0: f653 7f41 b850 b0c1 f5c1 d0c1 299e 82c1
000000c0: 63ff 9cc1 8dc2 d441 7902 8ec1 c864 35c1
000000d0: 9c0b e941 2977 61c1 e96f e6c1 18c4 1fc1
000000e0: dc81 4642 123a 13c2 5475 bac1 74b7 1542
000000f0: 2ff0 55c1 0040 6d42 1018 4b42 264a 06c2
00000100: bffe 58c1 fc16 62c1 bb00 cc41 8c2e 4242
00000110: 7257 4642 b424 1a41 94ef 41c1 699a 5dc1
00000120: 5268 0d42 43e6 abc0 dd38 6242 0cab e9c1
00000130: 7600 5d42 8793 f441 aa90 3842 731a fdc0
00000140: a36f c141 e9e9 fec0 7edd 2bc1 65f3 adc1
00000150: db56 afc1 3db0 0942 5baf 51c1 5fd1 6f3f
00000160: 41a7 1341 4f7d 86c1 5651 48c1 6c8e 4fc1
00000170: c049 8fc0 3b3c 81c1 c37b cbc1 9385 5ec1
00000180: e78c c1c1 9b20 55c1 d81c c740 a2af 2ac1
00000190: 0a7e 57c0 39f2 64c0 e0bb 8dc0 3053 153f
000001a0: 5fa6 b1c1 2670 3dc1 4d76 21c2 ec27 a6c1
000001b0: 454f 3cc1 007d 3242 7f1e 01c2 bbf6 1142
000001c0: 8f16 34c1 2b8a bec1 3d18 b1c1 cb51 7ec1
000001d0: fa58 16c2 ef31 d1c1 0853 95c1 38f0 6742
000001e0: 23ce 24c1 03e0 b740 730b bc41 f3d7 b5c1
000001f0: 2d4b 21c1 b908 2ac1 c368 23c1 d5e2 2a42
00000200: e627 2fc1 5333 7741 a302 bd41 93ce 3442
00000210: 6996 1142 9e92 bcc1 f9b2 81c1 f0e4 0142
00000220: 96a1 3dc1 f67f e7c0 5f9b 8ac1 76bb 4a42
00000230: f715 eb41 be37 a4c1 0aa4 86c1 07bb 88c1
00000240: 232b 91c1 10a7 4c42 c4d6 29c1 1730 a0c1
00000250: 6e9e 1bc1 5b77 7ec0 7516 8fc1 8f4c fac0
00000260: f0e7 29c1 ff29 0bc1 3b96 7ec1 2632 0442
00000270: 2c04 06c1 b42e 68bf 000e 3ec1 9609 c1c1
00000280: be5d c9c1 6f98 2d42 198b a7c0 9da8 4bc1
00000290: e1c3 68c1 30fb 20c1 cbe1 a3c1 c3a6 94c1
000002a0: a456 a7c0 3d7c e7c0 3b3c 2a42 f48a 09c2
000002b0: 9b57 1e42 cc0b 8dc1 6b50 afc0 0126 7cc1
000002c0: b619 8bc1 a514 3f42 50e0 4e42 ed1f 0ac2
000002d0: 4295 f4c1 1aa5 bcc1 d806 84c1 89d9 6e42
000002e0: af15 69c1 32e8 6542 3a40 adc0 72d4 4042
000002f0: 934e e2c1 361b fac1 6a92 8fc1 38e3 6b42
00000300: 5634 80c1 246f 8741 7864 4ac1 2497 94c1
00000310: f044 96c1 4255 2bc1 3dc9 2542 8fbb 0fc1
00000320: ea98 85c1 ce49 e2c1 7dd4 4342 2e90 5d42
00000330: 7a73 4642 ef77 8141 4842 be41 02ba 24c1
00000340: da06 a6c1 58cc 8ec0 68fa 76c1 bbb1 a3c1
00000350: 244f 6c42 815f b5c1 8d81 f3c1 2681 b2c1
00000360: 2c01 dac0 9be9 73c1 b823 4242 af71 1ec1
00000370: 830f 4442 def9 6d40 6e0d 53c1 6436 5142
00000380: 9180 9041 a39f b5c1 d54c 3d42 0103 4442
00000390: 7078 0fc1 4898 eb3f fccb 4d42 9561 8cc1
000003a0: aa87 56c1 051d 4ec1 2d66 9ec1 cf06 92c1
000003b0: 54fd 5a42 8bc0 2442 a0ee b1c1 8d1d 0e41
000003c0: 5fc2 6842 7400 5742 276d 90c1 92eb 61c1
000003d0: 1514 dc41 d3b9 3ec1 1c4c dac1 738d 0941
000003e0: 7733 6bc1 c794 1142 cd4f 99c1 bc74 2842
000003f0: ab7f 1142 2b45 ddc0 c8d3 08c1 3e5e 4d42

layer2.3.weight f4 [256, 256]
0.004174157 -0.035920884 -0.029666934 -0.07883192 0.0045640613 0.042910155 -0.05497866 0.006253636
-0.10406448 -0.008823294 -0.07564402 -0.01097255 -0.0036886348 -0.012651645 -0.016113032 -0.06737411
0.031873554 -0.07176136 -0.09490287 -0.027014853 -0.02498006 -0.05849206 0.023465605 -0.035648283
-0.059045985 0.03473321 -0.085277304 -0.039499924 -0.07196408 -0.03701279 -0.06247569 -0.038750786
-0.10553901 -0.035071697 -0.019406648 -0.053698465 0.03388842 -0.0586527 0.030213661 0.03330872
-0.03723017 -0.10706102 -0.038559873 -0.053264804 0.0135127 -0.09890962 -0.014262279 0.030227859
-0.05787892 -0.024284318 0.0051320284 -0.0011759483 -0.04409605 -0.03257708 0.018943438 0.041742988
-0.056062955 0.025011782 -0.06832474 -0.068905175 -0.06723956 -0.031854372 -0.046146303 -0.024290567
-0.01267819 0.017714975 -0.016501395 -0.03517794 -0.034144983 -0.03612881 -0.05249315 -0.011137313
-0.113053165 -0.04951891 -0.027518315 -0.053619713 -0.06093344 -0.047449928 -0.04560635 -0.06138084
-0.105838664 0.053357143 -0.062997185 -0.00046564284 -0.06104216 -0.101439975 -0.049071077 0.044151038
-0.044851042 -0.00050804456 0.04244902 -0.012781857 -0.03874816 -0.044634677 -0.023298774 -0.04632681
0.034014873 -0.035349578 0.010593576 0.028679896 -0.06482668 -0.037571967 -0.07029038 -0.017612673
-0.07001022 -0.00025644465 -0.08028546 0.0033775805 0.0028248865 -0.108777754 -0.098573476 0.012435696
-0.0920483 -0.015911063 -0.024523122 -0.08689587 -0.07074007 -0.020659946 0.02488069 -0.065549955
0.04187721 -0.02820863 0.0032651604 0.034462266 0.04095317 -0.003808039 0.0076041804 -0.02876999
0.03422883 -0.006153026 0.01206208 -0.028100004 -0.06327213 -0.029236484 0.017413815 -0.044743933
-0.050738472 -0.0365335 -0.015545895 -0.06182062 -0.083738685 -0.07815527 0.025002116 0.043409254
-0.016858742 0.022366125 -0.027433533 -0.029845865 -0.013213028 -0.015711479 -0.040516213 0.03142179
0.04770283 -0.058289267 -0.11763229 -0.0015285433 -0.04050102 0.021003822 -0.032892752 0.015065282
0.03636549 -0.083997376 0.040055018 -0.09934868 -0.025400572 -0.0007257193 0.015716273 0.017953053
0.038141865 0.011230316 -0.040122483 0.017889803 -0.03841468 -0.059056193 -0.048653442 0.04324318
0.017354546 -0.020762766 0.010987544 -0.0194616 0.047145754 -0.075547904 -0.08808016 -0.042050682
-0.04916259 -0.07623249 0.009439737 -0.08405985 0.0074326885 0.019310074 0.030016067 -0.04361496
-0.0414914 0.038738273 -0.08398045 -0.054191507 0.022205979 0.00916813 -0.053292997 0.018418724
0.005208845 -0.010289404 -0.064977616 -0.08425647 -0.13176566 -0.06078779 0.019466642 0.010090799
-0.05083052 -0.011283726 -0.054752246 -0.03778484 -0.09826196 0.01192517 -0.047767296 0.016928826
0.008673921 -0.051221404 -0.021745976 -0.046214268 -0.07196102 -0.05106887 -0.0002806192 -0.0012455131
-0.10168436 -0.021583283 0.0018787772 -0.08032645 -0.06990373 -0.03183083 -0.05161603 0.0070344503
0.01416489 -0.015935147 -0.054145772 -0.042175494 -0.021959351 -0.010364688 -0.07113336 -0.01528815
0.0151882665 -0.08480445 -0.06820476 0.03775917 -0.07093226 -0.06010083 -0.081869 -0.04341428
-0.06359751 -0.07281009 -0.0884281 0.010278292 -0.077747576 0.047558032 0.040514864 -0.09139539
00000000: 5ec7 883b c721 13bd 1208 f3bc a172 a1bd
00000010: 1f8e 953b 8fc2 2f3d 4e31 61bd 4deb cc3b
00000020: c21f d5bd 948f 10bc 41eb 9abd 36c6 33bc
00000030: 06bd 71bb d848 4fbc 7aff 83bc 70fb 89bd
00000040: d88d 023d 9ff7 92bd 705c c2bd 414e ddbc
00000050: fca2 ccbc 5f95 6fbd f13a c03c ef03 12bd
00000060: 34da 71bd 6944 0e3d dea5 aebd acca 21bd
00000070: e761 93bd b99a 17bd 82e6 7fbd 25b9 1ebd
00000080: d624 d8bd 57a7 0fbd b1fa 9ebc ecf2 5bbd
00000090: 95ce 0a3d d03d 70bd a482 f73c b96e 083d
000000a0: aa7e 18bd cf42 dbbd f5f0 1dbd 322c 5abd
000000b0: 5f64 5d3c 2091 cabd 55ac 69bc 6aa0 f73c
000000c0: 7212 6dbd e8ef c6bc 932a a83b 4722 9aba
000000d0: 0f9e 34bd 8b6f 05bd 452f 9b3c b2fa 2a3d
000000e0: 45a2 65bd 82e5 cc3c d7ed 8bbd 281e 8dbd
000000f0: e5b4 89bd bb79 02bd e803 3dbd 03fd c6bc
00000100: 2fb8 4fbc ff1e 913c ef2d 87bc be16 10bd
00000110: 9cdb 0bbd cefb 13bd 0f03 57bd 4779 36bc
00000120: 6b88 e7bd 57d4 4abd 176e e1bc 58a0 5bbd
00000130: 5895 79bd db5a 42bd b9cd 3abd 7a6a 7bbd
00000140: f1c1 d8bd 058d 5a3d ab04 81bd 8621 f4b9
00000150: 5807 7abd c3bf cfbd c1fe 48bd b8d7 343d
00000160: bab5 37bd 4b2e 05ba 06df 2d3d fe6a 51bc
00000170: 64b6 1ebd dad2 36bd 12dd bebc 2ec1 3dbd
00000180: 2e53 0b3d b8ca 10bd ae90 2d3c 1af2 ea3c
00000190: dac3 84bd 10e5 19bd 67f4 8fbd 7448 90bc
000001a0: 8561 8fbd 6b73 86b9 b46c a4bd 665a 5d3b
000001b0: bb21 393b dfc6 debd e4e0 c9bd 17bf 4b3c
000001c0: d283 bcbd eb57 82bc b7e4 c8bc 76f6 b1bd
000001d0: 2be0 90bd 0c3f a9bc 97d2 cb3c 0e3f 86bd
000001e0: 7087 2b3d c915 e7bc 4dfc 553b 4e28 0d3d
000001f0: 83be 273d 4b90 79bb 7d2c f93b 0baf ebbc
00000200: 8833 0c3d 539f c9bb 08a0 453c fb31 e6bc
00000210: d294 81bd 5a81 efbc 6ba7 8e3c 6a45 37bd
00000220: 25d3 4fbd 27a4 15bd 36b4 7ebc 9e37 7dbd
00000230: 307f abbd df0f a0bd 3dd1 cc3c e7cd 313d
00000240: 581b 8abc 2a39 b73c 4abc e0bc 517f f4bc
00000250: 757b 58bc 5cb5 80bc 54f4 25bd 23b4 003d
00000260: 0b64 433d bac0 6ebd 33e9 f0bd 6759 c8ba
00000270: 66e4 25bd 3510 ac3c 8dba 06bd 5fd4 763c
00000280: fbf3 143d d106 acbd bb10 243d 5277 cbbd
00000290: dc14 d0bc 333e 3eba 6abf 803c 4812 933c
000002a0: a53a 1c3d 5cff 373c 7957 24bd a38d 923c
000002b0: b658 1dbd e8e4 71bd d548 47bd c31f 313d
000002c0: 1f2b 8e3c ad16 aabc 1a05 343c ef6d 9fbc
000002d0: e81b 413d dcb8 9abd 5f63 b4bd 563d 2cbd
000002e0: b65e 49bd c81f 9cbd 20a9 1a3c 9227 acbd
000002f0: e98d f33b 2930 9e3c 41e4 f53c 9aa5 32bd
00000300: e3f2 29bd 06ac 1e3d f1fd abbd eaf7 5dbd
00000310: 50e9 b53c ed35 163c c249 5abd dde2 963c
00000320: f5ae aa3b e394 28bc fc12 85bd a88e acbd
00000330: 94ed 06be 9efc 78bd 8278 9f3c e153 253c
00000340: aa33 50bd 61df 38bc e443 60bd 47c4 1abd
00000350: 913d c9bd ca61 433c a4a7 43bd 52ae 8a3c
00000360: 101d 0e3c 89cd 51bd 9e24 b2bc 2c4b 3dbd
00000370: 4d60 93bd 972d 51bd 1220 93b9 7c40 a3ba
00000380: e43f d0bd 6dcf b0bc 4d41 f63a 3282 a4bd
00000390: b029 8fbd 0b61 02bd 556b 53bd 3f81 e63b
000003a0: db13 683c 6d8a 82bc f5c7 5dbd 36c0 2cbd
000003b0: 19e4 b3bc a7d0 29bc 5eae 91bd 267b 7abc
000003c0: 35d8 783c f5ad adbd f0ae 8bbd 5ca9 1a3d
000003d0: ef44 91bd 4a2c 76bd efaa a7bd 2cd3 31bd
000003e0: 693f 82bd 751d 95bd cb19 b5bd 4866 283c
000003f0: 1f3a 9fbd 36cc 423d eaf2 253d 822d bbbd

layer2.3.bias f4 [256]
-0.12278969 0.064526245 30.663551 -0.11728052 0.31830454 39.55215 -0.09378513 23.561085
-0.1348597 -0.052157972 -0.024063732 39.644825 -0.1638831 -0.052224442 25.807127 37.59274
27.055857 -0.24388371 -0.25195926 -0.2353745 0.1643488 0.058074504 20.311161 -0.14479232
23.585554 0.10812051 -0.09176753 -0.14421797 1.7967745 37.797047 -0.06941048 40.34441
-0.20884283 32.237335 -0.11614032 -0.40911543 -0.16154146 -0.15707256 -0.06471783 -0.027668154
-0.3098774 -0.10407565 -0.12056296 -0.33055693 -0.25922084 12.520919 13.948346 -0.054131452
0.14111598 23.233948 30.530596 17.699154 -0.21945707 42.220253 -0.14270425 -0.11417489
-0.24179398 -0.003800236 -0.028953582 0.47240812 39.905544 -0.4481156 28.912899 36.70004
-0.13645431 39.849407 -0.100361094 31.44971 -0.13995285 39.971817 -0.100599974 -0.17676899
-0.10681636 0.046785098 38.722885 0.14057423 -0.14388977 14.591352 -0.17025913 -0.057995632
-0.305761 0.019462937 0.20810924 -0.064822845 17.322552 41.004536 -0.13806137 0.028386362
4.6743584 -0.09018402 -0.37720007 -0.05174394 -0.120623045 5.611299 -0.11136028 -0.00963954
4.4392858 -0.0513623 18.347658 -0.1423725 -0.060076308 -0.24593621 37.81206 -0.08571255
33.370895 -0.15031394 0.06004071 39.83613 0.051217355 -0.8643084 0.054010913 -0.10778334
-0.0197387 9.410837 -0.13772509 34.847942 0.8470241 -0.1756056 0.08920621 -0.1244231
19.662786 -0.12263465 38.455288 40.793404 16.195269 -0.09159286 -0.25537735 -0.2689885
2.9351157e-05 0.029418787 -0.18343413 -0.30465794 5.514916 -0.04346709 39.6267 -0.016823908
-0.22526179 39.701702 -0.1974511 -0.22153239 29.0131 -0.24424736 28.646416 37.881546
4.5976768 -0.04752395 -0.12038565 -0.10154721 0.009985091 -0.26676372 -0.09339974 30.871433
-0.5068856 41.09557 -0.076859094 -0.13872644 -0.06816651 0.25600535 12.13159 -0.31424
-0.10103773 26.850893 -0.10777047 12.018711 27.388174 -0.1240074 -0.10015483 40.589443
-0.08403326 -0.20393912 12.96497 -0.019724745 38.811245 -0.03647701 0.0783281 41.30155
-0.18969989 40.177345 29.324377 0.21523343 24.51465 -0.21845523 0.039347004 -0.10771823
19.078436 0.48210213 -0.09810964 0.06322158 39.485268 40.00306 -0.11017314 35.457527
18.745174 0.036488328 7.840796 -0.04567665 -0.17306122 35.096058 30.501247 -0.5362178
31.331709 -0.116514 3.2479198 40.622665 -0.15423296 -0.057571765 29.81252 -0.30316237
35.52994 0.072723255 -0.027971573 0.08317603 -0.13858737 -0.14108516 -0.011761128 -0.15815023
41.173077 -0.02781319 22.490557 0.44300288 -0.49133626 -0.26666015 -0.434448 0.05594297
0.24711911 33.22252 27.300003 0.29584563 -0.13687822 -0.2785927 -0.24604549 -0.03134401
24.061445 -0.023713015 36.661816 0.056510154 -0.04726281 -0.11727355 -0.056636505 -0.08480957
-0.101330295 18.361307 -0.034270246 37.988132 -0.6811746 17.32465 -0.45192826 -0.114456825
36.04977 -0.1323062 -0.020001573 17.297068 -0.02826376 40.136864 -0.09449874 0.09907797
00000000: 2979 fbbd 5626 843d f44e f541 c530 f0bd
00000010: d0f8 a23e 6735 1e42 6b12 c0bd 1a7d bc41
00000020: a918 0abe 99a3 55bd 4e21 c5bc 4d94 1e42
00000030: f9d0 27be 4ce9 55bd ff74 ce41 f75e 1642
00000040: 6572 d841 a7bc 79be ce00 81be 0306 71be
00000050: 0d4b 283e 88df 6d3d 427d a241 7044 14be
00000060: 37af bc41 496e dd3d 9df0 bbbd e0ad 13be
00000070: b5fc e53f 2d30 1742 1527 8ebd ad60 2142
00000080: e5da 55be 08f3 0042 fada edbd 9477 d1be
00000090: 206b 25be a1d7 20be c88a 84bd 53a8 e2bc
000000a0: 40a8 9ebe 9d25 d5bd b7e9 f6bd c23e a9be
000000b0: 98b8 84be af55 4841 6d2c 5f41 f1b8 5dbd
000000c0: b580 103e 20df b941 a93e f441 de97 8d41
000000d0: 5bb9 60be 8ae1 2842 1021 12be 86d4 e9bd
000000e0: d798 77be 610d 79bb 1030 edbc 7adf f13e
000000f0: 479f 1f42 686f e5be 9e4d e741 d7cc 1242
00000100: aeba 0bbe cb65 1f42 1e8a cdbd 0299 fb41
00000110: cd4f 0fbe 24e3 1f42 5c07 cebd ee02 35be
00000120: 89c2 dabd bba1 3f3d 3ce4 1a42 b1f2 0f3e
00000130: d757 13be 2e76 6941 6958 2ebe d48c 6dbd
00000140: b58c 9cbe bd70 9f3c 971a 553e d7c1 84bd
00000150: 9694 8a41 a504 2442 f65f 0dbe 848a e83c
00000160: 5894 9540 66b2 b8bd 5e20 c1be 74f1 53bd
00000170: 3709 f7bd c38f b340 dc10 e4bd 29ef 1dbc
00000180: a10e 8e40 4661 52bd 01c8 9241 19ca 11be
00000190: 9312 76bd b4d6 7bbe 8d3f 1742 108a afbd
000001a0: cc7b 0542 e6eb 19be 3fed 753d 3258 1f42
000001b0: 4ac9 513d 5143 5dbf 8c3a 5d3d 83bd dcbd
000001c0: 0eb3 a1bc ca92 1641 ce07 0dbe 4b64 0b42
000001d0: 92d6 583f f4d1 33be bfb1 b63d 8ad1 febd
000001e0: 634d 9d41 e027 fbbd 37d2 1942 722c 2342
000001f0: e98f 8141 0a95 bbbd d2c0 82be dcb8 89be
00000200: 2137 f637 abff f03c 28d6 3bbe 20fc 9bbe
00000210: 317a b040 8c0a 32bd be81 1e42 4bd2 89bc
00000220: 07ab 66be 8bce 1e42 9f30 4abe 63d9 62be
00000230: d41a e841 fb1b 7abe dc2b e541 b486 1742
00000240: 2b20 9340 79a8 42bd c08c f6bd fcf7 cfbd
00000250: 8298 233c 4195 88be 5d48 bfbd b2f8 f641
00000260: 41c3 01bf dd61 2442 4d68 9dbd 4e0e 0ebe
00000270: e29a 8bbd 2213 833e fe1a 4241 11e4 a0be
00000280: dfec cebd a1ce d641 c4b6 dcbd a44c 4041
00000290: fb1a db41 97f7 fdbd fa1d cdbd 975b 2242
000002a0: a119 acbd 6bd5 50be 8470 4f41 ca95 a1bc
000002b0: b73e 1b42 eb68 15bd 7c6a a03d ca34 2542
000002c0: b040 42be 9ab5 2042 5398 ea41 2766 5c3e
000002d0: 011e c441 bab2 5fbe 532a 213d 609b dcbd
000002e0: a3a0 9841 17d6 f63e b5ed c8bd 517a 813d
000002f0: eaf0 1d42 2203 2042 75a2 e1bd 82d4 0d42
00000300: 1ef6 9541 c974 153d cde7 fa40 7017 3bbd
00000310: f636 31be 5d62 0c42 8e02 f441 9245 09bf
00000320: 57a7 fa41 e49e eebd ebdd 4f40 9c7d 2242
00000330: 3fef 1dbe 5fd0 6bbd 0a80 ee41 1938 9bbe
00000340: a91e 0e42 eeef 943d a424 e5bc 3258 aa3d
00000350: d9e9 0dbe a178 10be bfb1 40bc 22f2 21be
00000360: 3bb1 2442 7dd8 e3bc a9ec b341 46d1 e23e
00000370: 6d90 fbbe ae87 88be f86f debe 7524 653d
00000380: cb0c 7d3e dce3 0442 6866 da41 1479 973e
00000390: ce29 0cbe b4a3 8ebe 59f3 7bbe 9462 00bd
000003a0: d77d c041 cc41 c2bc b3a5 1242 3177 673d
000003b0: a696 41bd 1d2d f0bd aefb 67bd a4b0 adbd
000003c0: 4286 cfbd f5e3 9241 f55e 0cbd d9f3 1742
000003d0: 7561 2ebf e298 8a41 2463 e7be 5768 eabd
000003e0: f732 1042 477b 07be 57da a3bc 6560 8a41
000003f0: 6789 e7bc 268c 2042 8e88 c1bd 64e9 ca3d

layer2.6.weight f4 [1, 256]
0.012711839 0.0037941034 1.1930091 0.025582219 -0.0051681255 0.065104954 -0.0024160664 0.0800111
0.020408219 -0.006044131 -0.0032397658 0.06299412 -0.028340954 0.047004674 0.07245986 2.3081853
0.06974674 -0.023389466 0.00416931 -0.0001988162 -0.013966195 -0.0054619466 0.06977656 -0.028454516
1.7323952 -0.023789633 -0.013436379 -0.0039208974 0.2582836 0.09231045 -0.027716447 0.09118936
-0.011668128 0.03385184 0.0051797456 -0.03469414 -0.027338676 0.025892423 -0.024306811 -0.004350355
-0.005342724 -0.014881618 -0.008174648 0.0032102836 0.01764932 0.11882546 0.057848323 -0.0128749125
-0.012593183 1.1959629 0.03687959 0.10264327 0.0010178089 0.058596347 -0.029323218 0.00090616563
0.030361757 -0.017082835 0.0036405663 -0.024380963 0.085718416 -0.006133119 1.6991849 0.067382075
-0.007979762 0.06611796 0.00029586302 0.03401747 -0.02568312 0.171848 0.009593283 -0.02177676
-0.029215273 -0.093714386 1.1611235 -0.013898752 0.0076690977 0.08219236 0.020424392 -0.025296267
0.025027517 -0.0070357537 -0.0024288169 0.022565788 0.10258993 0.06373281 0.017978631 0.027664084
0.016819665 -0.014018724 0.019031482 0.02730633 0.0027659384 0.069557115 -0.0076521104 0.022954566
0.09420764 0.030648744 0.09252613 0.0006098737 -0.020778898 -0.0058849244 0.09454299 -0.0006168381
0.05800053 -0.021373702 0.0045898715 0.03217553 0.02748407 -0.010496379 -0.014297811 0.030240895
-0.017282292 0.0671041 -0.006124303 0.110460944 -0.028314192 -0.024499249 -0.0006650758 0.02937537
0.03871323 0.0059645604 0.09065249 0.10962282 0.11209164 -0.030741436 -0.017239414 -0.034088086
-0.018944418 -0.010909557 -0.020225426 0.0007260431 0.16555299 0.023487337 0.05551893 0.01824192
0.025322095 0.025277123 0.026115367 -0.011535337 0.063308574 0.008233353 0.04243278 0.086878285
0.12438421 0.003430804 -0.0012200294 0.028387044 -0.002755618 0.026641881 0.020140417 0.08052114
0.0038321142 0.04627858 -0.017965782 -0.024361052 0.03110692 -0.02539188 0.07816162 0.030505486
0.002049934 0.07600907 -0.0041880817 0.09368658 0.07206599 0.0087746335 0.004743481 0.042150747
-0.03128465 -0.029078837 0.12997922 -0.018371504 0.029746259 -0.010033545 -0.010787895 0.0843264
0.0289022 0.064571574 0.54438317 0.11642888 0.08791014 0.052053288 -0.016439116 -0.028780311
1.2006177 0.016119044 0.015942559 0.004436181 0.046923667 0.078220144 0.0042718933 0.91302824
0.0561708 0.007816714 0.11313513 0.024425864 0.018148672 0.5075099 0.06743101 -0.02832173
0.82645535 0.004563428 0.12264391 0.04236956 0.0314939 0.027824687 0.032559402 -0.0035886774
0.05965936 0.008244964 0.016278956 -0.0076022064 -0.02715991 0.0041169394 0.027329467 0.0049368953
0.031073878 0.0011095097 1.6534183 0.007532519 -0.013203272 -0.04324395 -0.011480241 0.029790018
0.016273519 0.07511054 0.07192587 -0.029478593 0.009613708 -0.027516339 0.027482068 -0.023232553
0.03571264 0.025704125 0.079292074 0.019152451 0.049988683 0.01814555 -0.012953159 0.0056567118
0.00038916265 0.059939716 0.01565891 0.05106072 0.0029718091 0.03689435 -0.030657565 -0.018711928
0.053219426 0.026027877 0.020992475 1.1983796 -0.024479944 0.049856696 -0.027607964 -0.0004946458
00000000: 5145 503c 7ea6 783b 86b4 983f cd91 d13c
00000010: 6159 a9bb bf55 853d de56 1ebb dcdc a33d
00000020: 232f a73c d80d c6bb 4052 54bb 1003 813d
00000030: 4a2b e8bc f987 403d d665 943d 4fb9 1340
00000040: 61d7 8e3d 449b bfbc b59e 883b 5179 50b9
00000050: 78d2 64bc 21fa b2bb 03e7 8e3d 7219 e9bc
00000060: 20bf dd3f 7ae2 c2bc 4224 5cbc df7a 80bb
00000070: bf3d 843e 430d bd3d 9a0d e3bc 7dc1 ba3d
00000080: ad2b 3fbc 3aa8 0a3d dbba a93b 711b 0ebd
00000090: 5cf5 dfbc 591c d43c 141f c7bc 6c8d 8ebb
000000a0: 0412 afbb 08d2 73bc f5ee 05bc 9f63 523b
000000b0: 4f95 903c c35a f33d 5df2 6c3d 4cf1 52bc
000000c0: a353 4ebc 5015 993f 0e0f 173d a236 d23d
000000d0: 0068 853a b902 703d 3f37 f0bc bf8b 6d3a
000000e0: 38b9 f83c 4df1 8bbc 9196 6e3b 96ba c7bc
000000f0: 238d af3d 55f8 c8bb e47e d93f 9dff 893d
00000100: 8cbd 02bc da68 873d 101e 9b39 e755 0b3d
00000110: 6865 d2bc ecf8 2f3e 252d 1d3c 2d65 b2bc
00000120: de54 efbc 54ed bfbd b29f 943f 97b7 63bc
00000130: 0e4d fb3b 7854 a83d 0e51 a73c 1e3a cfbc
00000140: 8206 cd3c 2e8c e6bb c92c 1fbb e3db b83c
00000150: ab1a d23d 5986 823d ec47 933c ca9f e23c
00000160: 65c9 893c caae 65bc e9e7 9b3c 86b1 df3c
00000170: bf44 353b f673 8e3d 8ebe fabb 370b bc3c
00000180: efef c03d 1313 fb3c 577e bd3d eedf 1f3a
00000190: 8238 aabc 53d6 c0bb c19f c13d 4eb3 21ba
000001a0: f791 6d3d e717 afbc a266 963b 7dca 033d
000001b0: 4626 e13c 01f9 2bbc 5e41 6abc c1bb f73c
000001c0: 9893 8dbc e06d 893d 61ae c8bb 5939 e23d
000001d0: 2af3 e7bc a6b2 c8bc 7b58 2eba 9ea4 f03c
000001e0: c491 1e3d 5c72 c33b 03a8 b93d ee81 e03d
000001f0: 4d90 e53d 77d5 fbbc ac39 8dbc f39f 0bbd
00000200: 5331 9bbc 00be 32bc cbaf a5bc ed53 3e3a
00000210: b986 293e 8468 c03c d167 633d 1470 953c
00000220: 4870 cf3c f811 cf3c e5ef d53c b6fe 3cbc
00000230: eda7 813d 2fe5 063c ffcd 2d3d 3eed b13d
00000240: 26bd fe3d 57d7 603b 65e9 9fba f28b e83c
00000250: 9997 34bb 1340 da3c 84fd a43c 44e8 a43d
00000260: 3524 7b3b 9c8e 3d3d fa2c 93bc d490 c7bc
00000270: f1d3 fe3c a202 d0bc 3313 a03d a4e6 f93c
00000280: 2f58 063b a5aa 9b3d 2d3c 89bb c0de bf3d
00000290: 5597 933d 7bc3 0f3c 346f 9b3b 43a6 2c3d
000002a0: 5524 00bd be36 eebc 4619 053e d67f 96bc
000002b0: 6dae f33c bd63 24bc b6bf 30bc 52b3 ac3d
000002c0: 4ec4 ec3c 1a3e 843d b25c 0b3f 4472 ee3d
000002d0: 3b0a b43d d435 553d 53ab 86bc b0c4 ebbc
000002e0: d7ad 993f 160c 843c f899 823c 625d 913b
000002f0: 0833 403d e231 a03d 3dfb 8b3b 38bc 693f
00000300: 5a13 663d ad11 003c 64b3 e73d c018 c83c
00000310: 86ac 943c 2bec 013f 4519 8a3d f902 e8bc
00000320: 9492 533f cf88 953b bb2c fb3d b48b 2d3d
00000330: bfff 003d 99f0 e33c 025d 053d 0430 6bbb
00000340: 605d 743d e315 073c 725b 853c ee1b f9bb
00000350: 767e debc 64e7 863b 0ce2 df3c aec5 a13b
00000360: a58e fe3c f86c 913a 36a3 d33f 59d3 f63b
00000370: 8952 58bc 9120 31bd 9f17 3cbc 320a f43c
00000380: 0b50 853c 8ed3 993d df4d 933d 177d f1bc
00000390: d082 1d3c f269 e1bc 1322 e13c 3252 bebc
000003a0: 6b47 123d 7591 d23c e263 a23d 9ae5 9c3c
000003b0: efc0 4c3d faa5 943c 7d39 54bc f05b b93b
000003c0: 8708 cc39 5983 753d 1d47 803c 0c25 513d
000003d0: afc2 423b 881e 173d 9325 fbbc c249 99bc
000003e0: 9dfc 593d 6a38 d53c 69f8 ab3c 8164 993f
000003f0: 2a8a c8bc 8936 4c3d 192a e2bc 1eab 01ba
