Model_Files/helpdesk/TimestampPredictor_parameters_laplacianOnBinary_0.001.pt (torch, 277516 bytes, 7 tensors)

layer1.weight f4 [4, 1]
0	0x3bd6bc69	0.006553222
1	0xbcb714fa	-0.02234887
2	0xbf5cbbcc	-0.86224055
3	0xc03dea85	-2.967439

layer1.bias f4 [9]
0	0xbfb70c23	-1.4300579
1	0xc019e54b	-2.40462
2	0x40046cb6	2.0691352
3	0xc0453124	-3.0811243
4	0xc09fe4c9	-4.996678
5	0x3fdeb631	1.739935
6	0xc039f5b4	-2.9056215
7	0x3f8e32c7	1.1109246
8	0x3f4e57cc	0.8060272

layer2.1.weight f4 [256, 9]
0	0x3e872aa4	0.2639972
1	0xbe1357de	-0.14388987
2	0x3e8d66f6	0.27617615
3	0xbe0590fb	-0.13043587
4	0xbf1cea8d	-0.61295396
5	0xbecd5b5c	-0.40108764
6	0x3c03aa5d	0.008036223
7	0x3e26ce98	0.16289747
8	0xbe03b513	-0.12862043
9	0x3bed70ec	0.0072461274
10	0xbb7ecec0	-0.0038880557
11	0xbdf865d5	-0.12128798
12	0xbdd85e7d	-0.10564897
13	0xbb27b85a	-0.002559206
14	0xbe47c11f	-0.19507264
15	0xbe11db73	-0.1424387
16	0xbce82d1f	-0.028341828
17	0xbe05dd84	-0.13072783
18	0x3e6df655	0.232385
19	0x3e15504d	0.14581414
20	0xbc807963	-0.015682882
21	0x3ed29687	0.41130468
22	0xbe33be2b	-0.17553012
23	0xbf71dc17	-0.94476455
24	0xbeaa6a14	-0.33284056
25	0x3d2b1693	0.041769575
26	0xb9a30ef0	-0.00031100912
27	0x3e7d6b44	0.2474795
28	0x3edf2fc5	0.43591133
29	0xbdab15ed	-0.083537914
30	0x3a697264	0.000890529
31	0xbe056622	-0.13027242
32	0xbf170ca0	-0.5900364
33	0xbdad213e	-0.08453606
34	0x3b82c819	0.0039911387
35	0x3e13db92	0.14439228
36	0x3f39015e	0.7226771
37	0xbd768c92	-0.060192652
38	0xbcb9e9f0	-0.022694558
39	0x3e72bb0b	0.23704164
40	0x3f2ddff9	0.6791988
41	0xbe8fa87f	-0.2805824
42	0xbe9e02a5	-0.30861393
43	0xbb1aa677	-0.0023597756
44	0xbe18fb2a	-0.14939561
45	0x3e36db06	0.17856988
46	0xbe734da9	-0.23760094
47	0xbe7fae19	-0.24968757
48	0xbea78771	-0.3272052
49	0xbe6dd333	-0.23225097
50	0xbe888ba8	-0.2666905
51	0xbecd500a	-0.40100127
52	0x3ea068b9	0.31329897
53	0x3c780886	0.015138751
54	0x3e01de1e	0.12682387
55	0xbe8cae8c	-0.2747692
56	0xbdb981dc	-0.09057972
57	0xbe7b4a5c	-0.24540085
58	0xbce549f1	-0.02798936
59	0xbdcec2fd	-0.10095785
60	0x3d1b7ee0	0.037962794
61	0x3c1bdd41	0.0095132
62	0xbe49ef3e	-0.1972017
63	0x3e585796	0.21127161
64	0x3ea4e710	0.32207537
65	0xbc4c376b	-0.012464385
66	0xbea75b42	-0.32686812
67	0x3fa177a7	1.261464
68	0xbf421310	-0.7581034
69	0xbe5ba805	-0.21450813
70	0x3d85d35b	0.065344535
71	0x3edc28e7	0.42999956
72	0x3e1776fb	0.14791481
73	0xbf02ed8d	-0.51143724
74	0xbdea1f90	-0.11431801
75	0x3dcf7f7d	0.10131738
76	0x3ddc7b73	0.107657336
77	0xbf3599f1	-0.7093802
78	0xbdaa35b4	-0.08311024
79	0xbd1c2d78	-0.0381293
80	0xbe004b6c	-0.12528771
81	0x3d7b220e	0.061311774
82	0x3d71ae08	0.05900386
83	0xbe433d69	-0.19066395
84	0xbeed87cf	-0.46392676
85	0xbd887725	-0.0666335
86	0xbce83d55	-0.028349558
87	0xbc33ce90	-0.010974541
88	0x3d37f2a8	0.04490915
89	0xbe453e5e	-0.19262072
90	0x3c3cb5e8	0.011517979
91	0x3ddc7481	0.10764409
92	0xbe20a6f7	-0.15688692
93	0xbec9a3b3	-0.39382705
94	0x3e7ec554	0.24879962
95	0x3ea80f4e	0.32824177
96	0xbea752be	-0.32680315
97	0x3cc395cd	0.023875142
98	0xbe2f4f2d	-0.17120047
99	0x3da53529	0.0806678
100	0xbd8b45a4	-0.06800392
101	0xbc6b1c1e	-0.014349965
102	0xbe3a9cae	-0.18223831
103	0xbe218fcd	-0.15777512
104	0xbdcff049	-0.10153253
105	0xbdf61c3a	-0.120171025
106	0x3d4428ec	0.04789059
107	0xbcc533d0	-0.024072558
108	0x3e4a9098	0.1978172
109	0xbee18516	-0.4404685
110	0xbd1ced9f	-0.03831255
111	0xbe81bb87	-0.25338385
112	0xbf184b75	-0.5949014
113	0xbe5694cb	-0.20955198
114	0xbe0fed9b	-0.14055483
115	0x3c1ae321	0.009453566
116	0xbc1640f1	-0.009170757
117	0x3e2adcf5	0.16685851
118	0xbe2b28c8	-0.16714776
119	0xbd1505f8	-0.036382645
120	0xbd8fb54a	-0.07017
121	0x3d22ef2b	0.03977887
122	0xbd731e6c	-0.059355184
123	0xbe049c4a	-0.12950245
124	0xbd0319d4	-0.032007053
125	0x3cf1f7a0	0.029537022
126	0x3e0d7195	0.1381286
127	0x3e9209d4	0.28523123
128	0xbdbef36b	-0.09323772
129	0xbe7732f9	-0.24140538
130	0x3f5bf23a	0.85916483
131	0xbf08f7ae	-0.5350293
132	0x3d4cde65	0.05001678
133	0x3d1994a3	0.037495267
134	0x3ebcb253	0.368548
135	0x3daa1dd8	0.083064735
136	0xbecdcad7	-0.40193817
137	0xbd302527	-0.04300418
138	0x3eb25496	0.3483016
139	0x3f49e733	0.78868407
140	0xbf01bac3	-0.506756
141	0xbec11c26	-0.37716788
142	0x3d077a03	0.033075344
143	0xbe0857fe	-0.13314816
144	0x3e6eb6f1	0.23311974
145	0xbe4623d9	-0.19349612
146	0xbe693243	-0.2277308
147	0xbe2c96e3	-0.16854434
148	0xbebe8277	-0.37208912
149	0xbd99d789	-0.07511813
150	0xbd72d5c6	-0.0592859
151	0xbc755f75	-0.014976372
152	0xbe330c17	-0.1748508
153	0x3e2faa1c	0.17154735
154	0xbd90b0eb	-0.070649944
155	0xbde5266f	-0.11188971
156	0x3d933b0f	0.07188999
157	0xbddbb396	-0.10727613
158	0x3cb13035	0.021629432
159	0xbdb0a81e	-0.08625816
160	0x3df53cf4	0.119745165
161	0x3bde3d3e	0.006782203
162	0x3d3c31a3	0.045945775
163	0xbe592737	-0.21206366
164	0xbdccbda8	-0.099971116
165	0xbe149f4e	-0.14513895
166	0xbe94aaf5	-0.2903668
167	0xbcefd375	-0.029275635
168	0xbe54ee07	-0.20793925
169	0x3c371749	0.011174985
170	0xbd15c899	-0.036568258
171	0x3da810d3	0.08206334
172	0xbae98df0	-0.001781879
173	0xbe2fc035	-0.17163165
174	0xbe7af101	-0.24505998
175	0xbe8ae205	-0.27125564
176	0xbe44485a	-0.19168225
177	0xbdff69fc	-0.12471387
178	0xbdaf50a5	-0.085603036
179	0x3d05b7a1	0.032645825
180	0x3e68b45d	0.22725053
181	0xbe007045	-0.12542827
182	0xbe24087e	-0.16018865
183	0x3d1b81f8	0.037965745
184	0xbea6a289	-0.3254588
185	0x3da9027c	0.08252427
186	0x3d3e5b75	0.04647394
187	0x3e0e1ddc	0.13878578
188	0x3dd6c592	0.10486902
189	0xbda62d18	-0.0811407
190	0x3d99b45e	0.075051054
191	0x3d06d4d6	0.03291782
192	0xbd8fa110	-0.07013142
193	0xbf8a1739	-1.0788337
194	0xbf1ad18e	-0.60476005
195	0xbc519f63	-0.012794348
196	0x3db7af09	0.08968932
197	0xbd317171	-0.043321077
198	0x3e52b1aa	0.20575586
199	0xbec4210d	-0.38306466
200	0xbe27d252	-0.16388825
201	0xbe95bef0	-0.29247236
202	0x3e1be216	0.15222964
203	0xbe897bbe	-0.2685222
204	0xbea2552c	-0.31705606
205	0xbc2661df	-0.01015517
206	0xbd7ba0ee	-0.06143277
207	0x3e0c0947	0.13675414
208	0xbf20975d	-0.6273096
209	0xbd8e10b4	-0.069367796
210	0xbe9f553d	-0.3111972
211	0xbe48e2e9	-0.1961781
212	0xbe65a023	-0.22424369
213	0xbe6a37c4	-0.22872835
214	0xbb8e2d2e	-0.004338882
215	0xbb138070	-0.0022506975
216	0x3e242a47	0.16031753
217	0xbe314c58	-0.17314279
218	0xbeaa67ec	-0.3328241
219	0xbe8e5837	-0.27801678
220	0x3ef7f462	0.48428637
221	0xbdd89e35	-0.105770506
222	0xbef8454f	-0.48490378
223	0xbc782aec	-0.015146952
224	0xbcef0c13	-0.029180562
225	0x3e432f76	0.19061074
226	0xbbe1f6c7	-0.006895873
227	0xbdd64997	-0.10463255
228	0x3eb7ccca	0.3589843
229	0x3f407b4f	0.75188154
230	0xbe8bb484	-0.2728616
231	0x3bb438d4	0.0054999385
232	0xbb4c8863	-0.0031209223
233	0x3dd3d529	0.103433914
234	0xbe0d35e2	-0.13790086
235	0x3d7290fd	0.059220303
236	0x3dbcfc3d	0.09227798
237	0xbd1875b4	-0.037221625
238	0xbf89127b	-1.0708765
239	0x3c317cef	0.010833009
240	0x3d97cb19	0.07411785
241	0xbe1f6976	-0.15567574
242	0xbe11776f	-0.14205717
243	0x3e22bf54	0.15893298
244	0x3e698b53	0.22807054
245	0x3c617c00	0.013762474
246	0x3ecdfb3c	0.4023074
247	0x3f75fc41	0.96088034
248	0xbf5d0406	-0.86334264
249	0xbed703eb	-0.41995177
250	0x3d99b761	0.0750568
251	0x3e024d19	0.12724723
252	0x3b99ce8b	0.0046938113
253	0xbed65f9d	-0.41869822
254	0xbcf4b8c1	-0.029873254
255	0xbef6b80c	-0.48187292

layer2.1.bias f4 [256]
0	0x40a9fdea	5.3122454
1	0x3ee71b98	0.4513824
2	0xc0290692	-2.641026
3	0xbfdff90f	-1.7497882
4	0xc00ddf10	-2.2167397
5	0x40a23ef8	5.0701866
6	0xbff4c59c	-1.9122806
7	0xc00bc03e	-2.1836085
8	0xc0128800	-2.2895508
9	0xc023b55d	-2.5579445
10	0xc032bf68	-2.7929325
11	0x407c8625	3.9456875
12	0xc05b5a63	-3.4273918
13	0xbfb61575	-1.4225298
14	0xbff1e451	-1.8897802
15	0xc018011f	-2.3750684
16	0xc03819f4	-2.876584
17	0x40b1d20b	5.55689
18	0xbec6ea5c	-0.38850677
19	0x3f2cba4a	0.67471755
20	0x40937009	4.607426
21	0x408941b6	4.2892714
22	0xc02df2f0	-2.7179527
23	0xc0319e3e	-2.7752833
24	0xc03ed328	-2.981638
25	0xc0333ccd	-2.800586
26	0x409ca525	4.8951592
27	0xbffe258a	-1.9855206
28	0xc059877c	-3.3988943
29	0xbfdc0ffb	-1.7192377
30	0xbfc29c4a	-1.5203946
31	0x407f1e38	3.9862194
32	0x409cb1ca	4.896703
33	0x40abf069	5.373097
34	0xc0411357	-3.0168054
35	0xbfa80d6d	-1.3129097
36	0xc0272564	-2.6116571
37	0x40c852f8	6.260128
38	0x3fc45362	1.5337946
39	0x3e9770b1	0.29578164
40	0x4086669c	4.2000256
41	0xbf8a5d66	-1.0809753
42	0xc016fbae	-2.3591113
43	0x40bfaaab	5.9895835
44	0xc01f587f	-2.4897764
45	0xc011d1d4	-2.278432
46	0xc01dd97d	-2.4663994
47	0xc02e746c	-2.7258558
48	0x40b05499	5.510327
49	0xbf7465ab	-0.95467633
50	0x40aca756	5.3954268
51	0xbe5a16ba	-0.21297732
52	0xc03d827e	-2.9610896
53	0xbe756e23	-0.23967795
54	0x40c211c5	6.064669
55	0xc03bef09	-2.9364645
56	0x408b6cf3	4.3570495
57	0xc032c0df	-2.793022
58	0x408badfe	4.3649893
59	0xc066fd1f	-3.6091993
60	0xc00d6300	-2.2091675
61	0x4011978f	2.2748754
62	0xc053d55a	-3.309897
63	0xbe8069b8	-0.25080657
64	0xc039e3ff	-2.9045408
65	0xc069c5ff	-3.6527097
66	0xc013581b	-2.3022525
67	0xc012fbfe	-2.2966304
68	0xc0615621	-3.520882
69	0xbfa2d6d1	-1.2721807
70	0xbffc2b4e	-1.9700716
71	0xc039fd04	-2.9060678
72	0xc04ae12c	-3.1699934
73	0xc01a0182	-2.406342
74	0x40c6596c	6.1984158
75	0xc03cfa65	-2.9527829
76	0xc01e077f	-2.4692075
77	0xc036210a	-2.8457665
78	0x40a71f38	5.222561
79	0xc0594ae8	-3.395197
80	0xc018bed3	-2.386647
81	0xc00a7529	-2.163401
82	0xc04b10bc	-3.1728964
83	0xc0062cb8	-2.0964794
84	0xc022b1ed	-2.5421097
85	0x4076581c	3.8491278
86	0xc01abb07	-2.4176652
87	0xc02fb126	-2.7451873
88	0x40af49f8	5.4777794
89	0xc04b05b9	-3.1722243
90	0xc03133c2	-2.768784
91	0x4007a8fe	2.1196895
92	0x408c2e0a	4.38062
93	0x40ae8d58	5.454754
94	0xbfb9f4e6	-1.4527862
95	0xc00c6e68	-2.1942387
96	0xc01d42a5	-2.4571927
97	0xc02944f1	-2.6448328
98	0xc01f9ff4	-2.4941378
99	0xc015c801	-2.3403323
100	0xbe95c108	-0.29248834
101	0xbfcb6776	-1.5890949
102	0x3f5c0dfb	0.8595883
103	0xc0585d63	-3.3806999
104	0xbff6ffe0	-1.9296837
105	0x40425938	3.0366955
106	0xc0272f18	-2.6122494
107	0xc013f0ad	-2.3115647
108	0xc05a072a	-3.4066873
109	0x40ca8878	6.329159
110	0xc0135a67	-2.3023927
111	0xc0268332	-2.6017575
112	0x3f9183d0	1.1368351
113	0xbfa35995	-1.2761713
114	0xc045a4a5	-3.088174
115	0xc03b5afa	-2.9274278
116	0xc0825b0d	-4.0736146
117	0xc056f9e5	-3.3590024
118	0xc015bc4e	-2.3396182
119	0x401a700f	2.4130895
120	0x406c419f	3.6915052
121	0x405b5a61	3.4273913
122	0x40a2fecf	5.0936046
123	0x4042360a	3.0345483
124	0xc02b8931	-2.6802485
125	0xc03454b9	-2.817671
126	0x40bbe5c5	5.871798
127	0xc040c100	-3.0117798
128	0xbfe888bf	-1.8166732
129	0x40810520	4.0318756
130	0xbdca1405	-0.098671
131	0xc02f4398	-2.7385006
132	0xc037300d	-2.8623078
133	0x409bce4b	4.8689322
134	0xc01049a3	-2.2544944
135	0xbedc6366	-0.43044585
136	0x3fe7f698	1.812213
137	0xc001b412	-2.0266156
138	0xbf7f29ec	-0.9967334
139	0x3fc4cd29	1.537511
140	0x40cdb749	6.4286237
141	0xc052cb9a	-3.2936769
142	0x40897aaa	4.2962236
143	0xbfecea3f	-1.8508986
144	0xc05e81d1	-3.4766734
145	0xc04f5191	-3.2393534
146	0xc058ab58	-3.385458
147	0xbfc13771	-1.5095044
148	0x402a14b9	2.6575148
149	0xbfe6a671	-1.8019544
150	0xc022cfa4	-2.5439234
151	0xc031e61e	-2.7796702
152	0xc034d36d	-2.8254044
153	0xbf33c1a1	-0.7021733
154	0xc07a48f3	-3.9107025
155	0xbf48881b	-0.7833268
156	0x40a8d82a	5.276387
157	0xc07dfbc2	-3.968491
158	0x40b98c2b	5.7983603
159	0xc04e0af5	-3.2194188
160	0x3f1babe5	0.60809165
161	0x40c2ecba	6.0913973
162	0x409e16e7	4.9402957
163	0xc01fdbe9	-2.4977973
164	0x409b60d2	4.855569
165	0x4089e02b	4.3086143
166	0xbf0de859	-0.5543266
167	0xc022a281	-2.5411685
168	0xc051f2ab	-3.2804363
169	0x3fa65765	1.2995421
170	0xc015ff59	-2.3437102
171	0xc038abb1	-2.8854792
172	0xbee4308f	-0.44568297
173	0xc051872f	-3.273876
174	0xc080b8c5	-4.022555
175	0x408394c8	4.111912
176	0xbfd6114e	-1.6724031
177	0xbfda9961	-1.7078058
178	0x40a6a13d	5.2071824
179	0xbf2bd51a	-0.6712204
180	0x40884d54	4.2594395
181	0xc06074d2	-3.5071301
182	0xc00b73ca	-2.1789422
183	0x409dac72	4.9273005
184	0x40aeaef7	5.458858
185	0xbf46f52d	-0.7771786
186	0x40a4cd5a	5.1500673
187	0xc0185133	-2.379956
188	0xc03cdd6c	-2.9510145
189	0x40c8049b	6.250562
190	0xbffb9085	-1.9653479
191	0x408a199c	4.315626
192	0x40a8c4e0	5.2740326
193	0x3fc4a0b3	1.5361542
194	0x40410429	3.015879
195	0xbfb48def	-1.4105815
196	0xc041233e	-3.017776
197	0x4011b972	2.2769437
198	0xc001d13b	-2.0283954
199	0xbfb2e2cd	-1.3975464
200	0xc00b6e85	-2.1786206
201	0x40c2d7de	6.088851
202	0xbfd25c65	-1.6434447
203	0x40a2143c	5.06497
204	0x3cb6c9b3	0.022312975
205	0x40827ff7	4.0781207
206	0xbfb878ab	-1.4411825
207	0xc05ffaf4	-3.499692
208	0xc05615e3	-3.3450859
209	0xbf0e70cc	-0.55640864
210	0xbfca7519	-1.5816985
211	0xbffb8340	-1.9649429
212	0x3cdb3905	0.026760587
213	0x40bc29db	5.8801093
214	0x3f3d948a	0.7405478
215	0xc014231b	-2.3146427
216	0x40a9eb62	5.3099833
217	0x409fdce0	4.9957123
218	0xbf728360	-0.9473171
219	0x40b23888	5.569401
220	0x40a59b5c	5.175215
221	0x403f29de	2.9869304
222	0x408843a1	4.2582555
223	0xbf4d9b7d	-0.8031538
224	0x40bc4c71	5.884331
225	0x40ba6f6f	5.8261027
226	0x4082d160	4.0880585
227	0xbfd0a420	-1.6300087
228	0x4084cff3	4.1503844
229	0xc010d24e	-2.262836
230	0xc0194ac1	-2.3951876
231	0xc01940c0	-2.394577
232	0xbe442330	-0.19154048
233	0xbf9ca245	-1.2237021
234	0xbfc98a7e	-1.574539
235	0xbfcfcfd7	-1.6235303
236	0xbfde9906	-1.7390449
237	0xc0483915	-3.128484
238	0x4092acf2	4.5836115
239	0xc0576556	-3.36556
240	0xc03e1ec5	-2.970628
241	0xc03806f7	-2.875425
242	0x40a1650a	5.043584
243	0xc067c49d	-3.6213753
244	0xbff5829e	-1.9180486
245	0xc02182de	-2.5236125
246	0xc01d75fd	-2.4603264
247	0x3fbc7ed5	1.4726206
248	0x40357f65	2.8359005
249	0xc02109ed	-2.5162308
250	0xc088dd11	-4.2769856
251	0xc01055f0	-2.2552452
252	0x40160c6d	2.3445084
253	0xc05d796c	-3.460536
254	0x3fc3e62f	1.5304621
255	0x407537b0	3.831524

layer2.3.weight f4 [256, 256]
0	0xbd7c4c93	-0.061596464
1	0xbd02b8bf	-0.03191447
2	0xbd8689a9	-0.06569225
3	0x3d10e062	0.035370238
4	0xbda7b2df	-0.08188414
5	0x3d8a0dc4	0.06740907
6	0xbdaca4be	-0.084298596
7	0x3c4153fb	0.011799808
8	0xbb5f716f	-0.0034094711
9	0xbd86531a	-0.06558819
10	0xbd43eb01	-0.04783154
11	0xbcf4092b	-0.029789528
12	0xbd6af18a	-0.057359256
13	0xbde28025	-0.11059598
14	0xbd070c99	-0.032971
15	0xbdf5e414	-0.12006393
16	0xbd8d3cda	-0.06896372
17	0x3b9240fd	0.0044633136
18	0x3cbb9bc4	0.022901423
19	0xbda01688	-0.078167975
20	0xbd22dcdb	-0.039761405
21	0xbd2ef378	-0.04271266
22	0xbd1edd15	-0.03878506
23	0xbd02e347	-0.03195503
24	0xbd950d29	-0.07277901
25	0xbddf0c92	-0.108910695
26	0x3ba22e45	0.0049493634
27	0xbd01aeeb	-0.031660955
28	0xbd8d9444	-0.06913045
29	0x3ceae415	0.028673211
30	0xbdf46d64	-0.11934927
31	0x3d09bb50	0.0336259
32	0xbda69793	-0.08134379
33	0xbd81c1d5	-0.06335799
34	0xbca6e7a6	-0.02037413
35	0xbd9cd5f7	-0.07657998
36	0xbd0f09bd	-0.034921397
37	0x3c9331b2	0.017968033
38	0xbd0061fd	-0.03134345
39	0xbb81ff87	-0.003967229
40	0x3c59f9cd	0.013304186
41	0x3cff986e	0.031200614
42	0xbda500b5	-0.080567755
43	0x3b84058d	0.004028982
44	0xbd05333b	-0.03251956
45	0xbd1e1354	-0.03859265
46	0x3c916801	0.017749788
47	0xbd77e358	-0.060519546
48	0xbde141a3	-0.10998847
49	0xbddf2a2f	-0.10896718
50	0xbd9aefb3	-0.0756525
51	0xbcc3611d	-0.023850018
52	0xbd0ad13e	-0.033890955
53	0xbe212e72	-0.15740374
54	0x3cda21ff	0.026627539
55	0xbdcc0039	-0.0996098
56	0xbe3917a7	-0.18075429
57	0xbd6882e7	-0.056765463
58	0x3aec72ea	0.0018039618
59	0xbc48059e	-0.0122083705
60	0xbda3bfd2	-0.07995571
61	0x3ce12ba4	0.02748663
62	0xbd7591fa	-0.059953667
63	0xbddb3a29	-0.107044525
64	0xbd7c3e9a	-0.06158314
65	0x3cf09c75	0.02937148
66	0xba6115ab	-0.00085862976
67	0xbc8b8145	-0.017029414
68	0xbd4ff9a1	-0.050775174
69	0xbdbd7834	-0.092514426
70	0xbd181f95	-0.037139494
71	0xbcf97098	-0.030449197
72	0xbdc9d153	-0.098543786
73	0xbd06017a	-0.032716252
74	0x3ce85444	0.028360493
75	0xbd23d690	-0.039999545
76	0xbd83a5cd	-0.06428108
77	0x3c9f81f5	0.019471148
78	0x3d0da8fc	0.034584984
79	0xb8bef895	-9.106208e-05
80	0x3c621eb5	0.013801266
81	0xbdf09822	-0.11747767
82	0xbd1c3f2b	-0.03814618
83	0xbc7dfe09	-0.015502461
84	0xbda0c21a	-0.07849522
85	0xbcd38d28	-0.025824144
86	0x3be7a0b4	0.007068718
87	0x3d4aaedf	0.049483176
88	0xbd9e2f17	-0.077238254
89	0xbce20d70	-0.027594298
90	0x3d23b68a	0.039969005
91	0xbd499941	-0.04921842
92	0xbd9fd2a0	-0.078038454
93	0xbd8fda9b	-0.070241176
94	0xbc5c9780	-0.013463855
95	0xbc3858a5	-0.011251603
96	0xbcb971dd	-0.022637302
97	0xbd494d6c	-0.0491461
98	0xbdbd8f7a	-0.092558816
99	0x3cef0b93	0.029180324
100	0xbdbc6410	-0.09198773
101	0xbcf3b106	-0.029747497
102	0x3d7528e6	0.059853457
103	0xbbfa576a	-0.007639815
104	0xbc1f873a	-0.00973683
105	0xbc6fae93	-0.014629024
106	0xbcfb6aec	-0.030690633
107	0x3c3f08b2	0.011659788
108	0xbd4fd4fb	-0.050740223
109	0xbd1e6e6c	-0.038679525
110	0x3cdcc786	0.026950609
111	0xbb8988f9	-0.0041972366
112	0xbd8147a2	-0.06312491
113	0xbb362845	-0.0027794999
114	0xbd65e856	-0.056129776
115	0xbd824118	-0.06360072
116	0x3d65dc18	0.0561181
117	0xbba4e6e1	-0.0050324057
118	0xbd91b01a	-0.07113667
119	0xbd58224c	-0.052767083
120	0xbd17790e	-0.03698068
121	0xbd88763d	-0.06663177
122	0xbccc44c8	-0.024935141
123	0xbd4192b8	-0.047259063
124	0xbd3312d5	-0.04371913
125	0xbc3c09e1	-0.011476965
126	0xbd7c1803	-0.061546337
127	0x3b3879db	0.0028148803
128	0xbdd08b3c	-0.10182807
129	0x3c015c67	0.007895566
130	0xbd25db3b	-0.040492278
131	0xbbf43343	-0.0074524
132	0xbdb9cd76	-0.09072392
133	0xbc20e732	-0.009820746
134	0xbd0b3211	-0.033983294
135	0x3c860d78	0.016363844
136	0xbd39f7ee	-0.04540246
137	0xbd6a3c57	-0.05718645
138	0xbd8a65dc	-0.067577094
139	0x3cbecaee	0.023290124
140	0x3cc5551a	0.024088431
141	0x3c616cbf	0.013758837
142	0xbd0669b0	-0.032815635
143	0xbd3869a3	-0.045022618
144	0xbdb5de3c	-0.088802785
145	0xbd830aa9	-0.06398518
146	0x3d618509	0.055058513
147	0xbd94d1b8	-0.07266563
148	0xba4d4b67	-0.0007831365
149	0x3bb17701	0.0054157977
150	0x3cb72c5a	0.022360016
151	0x3c681079	0.014164084
152	0xbd93d56e	-0.07218443
153	0xbc3ee05d	-0.011650172
154	0xbb339064	-0.0027399296
155	0xbdecac9f	-0.11556362
156	0xbcbee82c	-0.023304068
157	0xbddeb4c2	-0.108743206
158	0x3c2508d6	0.010072907
159	0xbd1bd9ea	-0.038049616
160	0xbd24e18e	-0.04025417
161	0x3d9479b1	0.07249773
162	0xbce41d97	-0.02784614
163	0xbcff8e98	-0.031195924
164	0xbcc18380	-0.023622274
165	0xbc798980	-0.015230536
166	0x3bed3f35	0.007240201
167	0xbdaa06fa	-0.08302112
168	0xbcfa2173	-0.030533528
169	0x3c87e5ad	0.01658901
170	0xbcd62565	-0.026140878
171	0xbd6088bf	-0.05481791
172	0xbd960316	-0.07324807
173	0xbdc7ade6	-0.09749965
174	0x3c518326	0.012787616
175	0xbc8309ed	-0.015995944
176	0xbd0a7a2b	-0.033807915
177	0xbd9e8324	-0.07739857
178	0xbd88398f	-0.066516034
179	0xbd0659d8	-0.032800525
180	0xbd60962c	-0.054830715
181	0x3d02a116	0.031891905
182	0xbbdf7582	-0.006819428
183	0xbc23643c	-0.009972628
184	0xbd7287df	-0.059211608
185	0x3d0e8290	0.034792483
186	0x3cb79a70	0.022412509
187	0x3d118041	0.035522703
188	0xbd17f972	-0.037103124
189	0x3ca55152	0.020180378
190	0xbcfdd5b6	-0.030985694
191	0x3d3c2ab1	0.04593915
192	0xbd1a1a20	-0.03762257
193	0xbcc09945	-0.023510585
194	0xbd24ae75	-0.040205438
195	0xbd901bce	-0.07036553
196	0x3bba0f73	0.005678111
197	0xbd935943	-0.0719476
198	0xbc1d4e02	-0.009601118
199	0xbcdfc76d	-0.027316773
200	0xbc3c5027	-0.011493719
201	0xbd1b1b83	-0.037868034
202	0xbd20b2fa	-0.039233185
203	0x3d3ca3f6	0.046054803
204	0xbcffe3b1	-0.031236501
205	0x3c32041d	0.0108652385
206	0xbd669572	-0.056294866
207	0xbcb497c0	-0.022045016
208	0xbdca1eab	-0.09869131
209	0xbc8aa372	-0.01692364
210	0xbcd63c7f	-0.026151894
211	0xbd91f9b0	-0.07127702
212	0x3c28fcc9	0.010314175
213	0xbd10b218	-0.035326093
214	0xbd6cf759	-0.057853077
215	0xbd5574ec	-0.05211346
216	0x3d387d23	0.045041215
217	0x3c9fee60	0.019522846
218	0xbd497d0c	-0.04919152
219	0xbd6dcadb	-0.058054786
220	0xbd585256	-0.052812897
221	0xbc767455	-0.015042384
222	0x3d347041	0.044052366
223	0xbd07b455	-0.033130962
224	0xbcb8883e	-0.022525903
225	0xbca0f02c	-0.019645773
226	0xbd40d48b	-0.047077697
227	0xbdcfe4af	-0.1015104
228	0xbdd0f0bb	-0.10202166
229	0x3c22114f	0.009891822
230	0xbd238a95	-0.039927084
231	0x3ad32d93	0.0016111605
232	0xbd89ddc0	-0.067317486
233	0xbcffa911	-0.031208547
234	0xbd9e8583	-0.07740309
235	0xbc398c27	-0.011324919
236	0x3b8be969	0.004269768
237	0xbdb36b3c	-0.08760688
238	0xbc91f156	-0.017815273
239	0xbd8b03d9	-0.06787843
240	0xbd7c199e	-0.061547868
241	0x3d6a026e	0.057131223
242	0xbdc97704	-0.098371536
243	0xbd81d2d1	-0.06339038
244	0xbd570337	-0.0524933
245	0xbdad4acf	-0.08461534
246	0xbdb30d7a	-0.08742805
247	0xbcfa83b8	-0.030580387
248	0xbdcf17c9	-0.101119585
249	0x3bb5fce8	0.0055538304
250	0xbdd1a35c	-0.102362365
251	0xbd83cbf5	-0.06435386
252	0xbcfb3af0	-0.030667752
253	0xbc232cf5	-0.009959449
254	0x3ca43839	0.02004634
255	0xbc0fc916	-0.00877597

layer2.3.bias f4 [256]
0	0xbde7f2eb	-0.1132563
1	0xbe04e61c	-0.12978405
2	0x40664b2f	3.5983388
3	0xbd3c2f5f	-0.045943614
4	0x3bb2ea9b	0.005460096
5	0xbec43c0a	-0.38327056
6	0x405ed804	3.4819345
7	0x40618287	3.5235918
8	0x400f53c1	2.239487
9	0xbe133508	-0.14375699
10	0xbdea8a24	-0.114521295
11	0xbd89f040	-0.06735277
12	0x4081d840	4.0576477
13	0xbe8d2fec	-0.27575624
14	0xbe083d80	-0.1330471
15	0xbe5959f8	-0.21225727
16	0x3b6ebe7c	0.0036429456
17	0x4046c11c	3.1055365
18	0xbe03835d	-0.1284308
19	0xbd4cddb0	-0.050016105
20	0x407dd144	3.9658976
21	0xbdcaff47	-0.099119715
22	0x403325af	2.799175
23	0x407683da	3.8517976
24	0xbe168825	-0.14700373
25	0x3fdcfb65	1.726422
26	0xbeab378a	-0.3344081
27	0xbca880a1	-0.020569148
28	0xbd7e31d5	-0.062059242
29	0xbba409c6	-0.005006048
30	0xbdfdbdb5	-0.12389699
31	0xbdfa43a4	-0.12219933
32	0xbe827d65	-0.25486293
33	0xbedb55cd	-0.42838898
34	0x3e9f69ec	0.311355
35	0xbc71eeff	-0.014766454
36	0x3ffaa5d7	1.958186
37	0xbd8b4ae1	-0.068013914
38	0x407f9b22	3.9938436
39	0xbec35b14	-0.38155425
40	0x4016a9bd	2.35411
41	0xbd3f3e51	-0.04669029
42	0x3d575a6c	0.052576467
43	0xbc929488	-0.01789309
44	0xbe6a2f52	-0.22869614
45	0x3bd67670	0.0065448806
46	0x40780c4f	3.8757513
47	0x3d67e92f	0.056618866
48	0x3fde802a	1.7382863
49	0x40675eda	3.6151643
50	0xbe0d3ba4	-0.13792282
51	0xbe10368f	-0.14083312
52	0xbd0e88e9	-0.034798536
53	0xbc392ab9	-0.01130169
54	0x40501a88	3.2516193
55	0x3f2d9aaa	0.67814124
56	0x3ebd72b1	0.37001565
57	0xbef23ba9	-0.47311142
58	0x4078d6e3	3.8881156
59	0x407c7182	3.944428
60	0x400369aa	2.0533242
61	0xbe908ffe	-0.28234857
62	0x406f2a96	3.7369742
63	0xbd33a7d1	-0.043861214
64	0xbd39b929	-0.045342598
65	0x3f8080dd	1.0039326
66	0x4041f92e	3.0308337
67	0x406e9841	3.7280428
68	0xbf4d2bb0	-0.80144787
69	0x406cb12e	3.6983142
70	0xbe323b55	-0.17405446
71	0xbbf55bf8	-0.00748777
72	0xbb623c49	-0.0034520796
73	0xbeb8ab14	-0.36068022
74	0xbbceaa1c	-0.0063068997
75	0x4062d4f8	3.5442486
76	0x40564353	3.3478591
77	0xbce6061b	-0.028079083
78	0x40185cce	2.3806643
79	0xbe0c4a16	-0.13700137
80	0xbd25ae36	-0.040449344
81	0xbe309e7a	-0.17247954
82	0x3fb07771	1.3786451
83	0xbe359514	-0.1773265
84	0xbdcb6806	-0.0993195
85	0xbe8fc747	-0.28081724
86	0xbe19d538	-0.15022743
87	0x3e8d5187	0.27601263
88	0x3e9e9272	0.30971104
89	0x3fc6b4fb	1.5523981
90	0xbcfabe3c	-0.030608289
91	0xbdcc0dd4	-0.09963575
92	0x3ea93327	0.3304684
93	0x406ff6d8	3.7494411
94	0x3d653a8d	0.05596404
95	0x403f1af4	2.98602
96	0xbde3b590	-0.11118615
97	0x407e223a	3.970839
98	0xbcf4631d	-0.029832417
99	0xbd89716a	-0.06711085
100	0x4004ad09	2.0730612
101	0x3f81ec5f	1.015026
102	0xbcbb4a11	-0.022862466
103	0x4021747f	2.5227354
104	0x3f19301b	0.5983903
105	0x406c04f4	3.6878023
106	0xbc1bcfae	-0.009509964
107	0x3f202ded	0.6257008
108	0x3fe4f0dd	1.7886006
109	0xbd4bd510	-0.04976374
110	0x4066b864	3.6050043
111	0x4020c6f8	2.512144
112	0xbce72516	-0.028215926
113	0xbe24efa7	-0.16107045
114	0x3f725a04	0.946686
115	0xbd9c12c7	-0.07620769
116	0x3f418365	0.7559112
117	0xbe5c6666	-0.21523437
118	0xbde59305	-0.112096824
119	0xbd72845b	-0.059208255
120	0x4080b1cc	4.0217037
121	0x4020b148	2.5108204
122	0xbe07dc91	-0.13267733
123	0xbd9d293c	-0.076738805
124	0xbe64a53e	-0.2232866
125	0xbe2d32be	-0.16913888
126	0x3c152651	0.009103374
127	0x3eb4ed46	0.35337275
128	0x407440e6	3.816461
129	0xbd6bb119	-0.05754194
130	0x3ec2b916	0.38031834
131	0xbdc22add	-0.09480832
132	0xbe1e81f5	-0.15479262
133	0x402c5035	2.6923954
134	0x3d8b3104	0.06796458
135	0x3c33a62a	0.01096491
136	0xbebb67fa	-0.36602765
137	0x40792f16	3.893499
138	0x406ac6fb	3.6683948
139	0xbdbae757	-0.09126156
140	0xbe213c0e	-0.15745565
141	0xbc6aa1a7	-0.0143207675
142	0xbdca8cf3	-0.09890165
143	0x3cd37358	0.025811836
144	0xbe32827d	-0.1743259
145	0x40768bb0	3.8522758
146	0x4082aaa6	4.083331
147	0xbdaf6a7a	-0.08565231
148	0xbdaae630	-0.08344686
149	0xbda3d916	-0.0800039
150	0x407e3395	3.9718983
151	0x40792b86	3.8932815
152	0x40602621	3.5023272
153	0xbd6b8ce4	-0.05750741
154	0x4082a224	4.0822926
155	0xbec8085f	-0.39068887
156	0x406d2658	3.7054653
157	0xbe05dd2a	-0.13072649
158	0xbd646904	-0.055764213
159	0x40082b2c	2.127635
160	0x3e9a203a	0.30102712
161	0xbdb56463	-0.08857038
162	0x406e09f3	3.7193573
163	0xbe2ab72a	-0.16671434
164	0xbebc6b23	-0.3680049
165	0xbd91440f	-0.07093059
166	0x3e99859b	0.29984745
167	0x4068a21d	3.6348946
168	0xbb8ba235	-0.00426128
169	0xbc4b7a88	-0.01241935
170	0xbdf6e430	-0.12055242
171	0x3f233d07	0.63764995
172	0xbe1dee69	-0.15422978
173	0x3d7bce4d	0.06147604
174	0xbf01efd5	-0.5075658
175	0x3fc682ec	1.5508704
176	0xbe08d40a	-0.13362136
177	0xbdab21cc	-0.083560556
178	0xbe195919	-0.14975394
179	0x408226d8	4.0672417
180	0x402f970f	2.743595
181	0x3f4cd35b	0.8001
182	0x40756421	3.8342364
183	0xbf092599	-0.53572994
184	0xbb9b487d	-0.004738866
185	0x3dcbdef3	0.099546336
186	0x3d6c97a2	0.057761796
187	0xbd95b9b4	-0.07310811
188	0xbeceaaf2	-0.40364796
189	0x3ea1937f	0.31557843
190	0x3f2f5bbc	0.6849935
191	0xbdf078f9	-0.11741824
192	0xbd0dfe78	-0.03466651
193	0x3fa3d5bd	1.2799603
194	0xbda348be	-0.07972859
195	0xbe9a044e	-0.3008141
196	0x406e41d5	3.722768
197	0xbd29d753	-0.041465115
198	0x406fb4e7	3.7454164
199	0xbdee9f82	-0.116515175
200	0x4071db9e	3.7790294
201	0x404c1f12	3.1893964
202	0xbd850d73	-0.06496706
203	0xbef26f00	-0.4735031
204	0x40285015	2.6298878
205	0xbe4b45f4	-0.19850904
206	0x3cd64cd7	0.026159687
207	0xbd8a1c7f	-0.067437164
208	0x3e431c73	0.19053821
209	0xbc79250e	-0.015206588
210	0xbcea2f10	-0.028586894
211	0x40643560	3.5657578
212	0xbe0d7a33	-0.13816147
213	0x3f0c71f7	0.54861397
214	0x3d25b04f	0.040451344
215	0x3dc680d5	0.096925415
216	0x4042be14	3.0428514
217	0xbe456adc	-0.19279045
218	0xbdf76a33	-0.12080803
219	0x4083e571	4.121758
220	0xbea7f6e1	-0.3280554
221	0x40813b56	4.038493
222	0x3d45f07f	0.048325058
223	0x3f21519a	0.6301514
224	0xbc7e0880	-0.015504956
225	0xbde09089	-0.10965068
226	0x3f0a2319	0.53959805
227	0xbea618c4	-0.3244077
228	0xbda35192	-0.07974543
229	0x3e4db68e	0.2008917
230	0xbed41341	-0.4142094
231	0xbd5ab6cf	-0.053396996
232	0x4043c7bf	3.0590665
233	0xbe0d6a32	-0.13810042
234	0x3e032ccf	0.12810062
235	0xbd1a19bb	-0.037622195
236	0xbd1b5628	-0.037923962
237	0xbd053279	-0.032518838
238	0x40786f47	3.8817918
239	0xbd82d83f	-0.06388902
240	0xbdd571c4	-0.1042209
241	0x3ff14683	1.8849643
242	0xbdc17405	-0.09445957
243	0xbcadc8f2	-0.021213982
244	0x407032ee	3.7531085
245	0xbe018632	-0.12648848
246	0xb901525d	-0.00012333081
247	0xbe7d5ca8	-0.24742377
248	0xbe984128	-0.2973721
249	0x40808e20	4.0173492
250	0x3f06e43f	0.52692026
251	0x4073bdfe	3.8084712
252	0xbeca9f8a	-0.39574844
253	0x407cc36f	3.9494283
254	0x4081adfc	4.0524883
255	0xbde8d601	-0.11368943

layer2.6.weight f4 [1, 256]
0	0xbb277b9a	-0.002555585
1	0xbab2c9b9	-0.001364044
2	0x3dadf249	0.08493478
3	0xb9dac80a	-0.0004172924
4	0x3b9e1f7e	0.0048255315
5	0x3c0c0108	0.008545168
6	0x3d43f0d8	0.04783711
7	0x3de09f8a	0.1096793
8	0x3d18483f	0.037178274
9	0xbc802bb2	-0.015645836
10	0xbbef9bb5	-0.007312263
11	0x3cd92470	0.026506633
12	0x3d83fcab	0.06444677
13	0xbc8f39a4	-0.01748354
14	0xbc199199	-0.009373092
15	0x3bc9446d	0.00614219
16	0x3c8c913f	0.017159102
17	0x3d8399df	0.06425833
18	0xbc38528a	-0.011250148
19	0xbcc01017	-0.023445172
20	0x3d8ade11	0.06780637
21	0x3c978e74	0.018500544
22	0x3db50334	0.088385016
23	0x3d971d5a	0.07378645
24	0x395facc5	0.00021331299
25	0x3d1cb531	0.038258735
26	0x3aa24fd7	0.0012383413
27	0xbcdb2a02	-0.02675343
28	0x3b42738e	0.0029670927
29	0x3a834d8d	0.0010017619
30	0x3aef051d	0.0018235777
31	0x3c26199b	0.010137941
32	0x3cdac67a	0.02670597
33	0xbcd86375	-0.026414612
34	0xbb8f2ccf	-0.0043693553
35	0xbc6da087	-0.014503605
36	0x3d76de66	0.06027069
37	0xbca418bd	-0.020031327
38	0x3d338944	0.04383208
39	0xbbad96d8	-0.005297523
40	0x3dc42591	0.09577478
41	0xbcb75e52	-0.022383843
42	0x3af1bc8a	0.001844303
43	0xbcc9b4ba	-0.02462231
44	0x3a845808	0.0010097036
45	0x3ba4bcfe	0.0050274124
46	0x3d5ce11d	0.053925622
47	0xbb582dbe	-0.003298625
48	0x3d969aea	0.07353766
49	0x3d6cf267	0.05784836
50	0xbaf8700b	-0.001895429
51	0x3ce5cbc6	0.028051268
52	0xbbd75c96	-0.0065723164
53	0xbcc5f015	-0.024162332
54	0x3d843553	0.06455483
55	0x3dd74404	0.1051102
56	0x3c927fa3	0.017883128
57	0x3c94a633	0.018145656
58	0x3d33f04b	0.043930333
59	0x3dabe43b	0.08393141
60	0x3ce92f18	0.028464839
61	0x3b8a1be0	0.0042147487
62	0x3dd491c5	0.10379366
63	0x3a93dd76	0.001128121
64	0x3cc169bd	0.02360999
65	0x3d674dd1	0.056470696
66	0x3d41bc46	0.047298692
67	0x3dc683ae	0.09693085
68	0xbc192890	-0.00934805
69	0x3d80e19b	0.06293031
70	0xbbcbc87d	-0.0062189684
71	0x3c2b0a57	0.010439477
72	0xbc0b9e84	-0.00852168
73	0x3b8414f7	0.0040308195
74	0x3c6d9b83	0.014502409
75	0x3d6e84ab	0.05823199
76	0x3bf18a8f	0.007371254
77	0x3a3d1da5	0.0007214195
78	0x3d9584a3	0.07300689
79	0xbcc7d47e	-0.024393316
80	0x3cdc3acd	0.026883507
81	0xbba3c36f	-0.0049976627
82	0x3d52d929	0.05147663
83	0xbc21d6a8	-0.009877838
84	0x3c97c508	0.018526569
85	0x3badd340	0.005304724
86	0xb7b7c46f	-2.1906772e-05
87	0x3db37885	0.08763222
88	0xbaa8fdcd	-0.0012893021
89	0x3d9763de	0.07392095
90	0x3c838ed5	0.016059319
91	0x3c83c2cb	0.016084095
92	0xbcfd2851	-0.030903013
93	0x3d910181	0.07080365
94	0xbb841255	-0.0040305057
95	0x3c2dd924	0.010610852
96	0xbc39e068	-0.0113450065
97	0x3d28c5c5	0.041204233
98	0xbd0780c6	-0.033081792
99	0x3c907193	0.017632281
100	0x3d88591a	0.0665762
101	0x3c492235	0.012276222
102	0xbbc76e89	-0.006086175
103	0x3bee8dfa	0.0072801085
104	0x3d7119f4	0.05886264
105	0x3dcc6865	0.09980849
106	0xbc46d090	-0.012134686
107	0x3c007a71	0.007841692
108	0x3d86fe83	0.06591513
109	0xb9c7fdf0	-0.00038145436
110	0x3d901c18	0.070366085
111	0x3d06e5b3	0.032933902
112	0x3b8b8388	0.004257623
113	0x3cd4688e	0.025928762
114	0x3d00f744	0.03148581
115	0xbcdc3685	-0.026881466
116	0x3d44ebf6	0.048076592
117	0xbd544794	-0.051826075
118	0x3c7cbd1e	0.015425948
119	0x3c793283	0.015209797
120	0x3cff4013	0.031158483
121	0x3d442052	0.047882386
122	0x3b0f925b	0.0021907303
123	0xbc4ef8f5	-0.012632598
124	0xbcbf4bc5	-0.02335156
125	0xbcf30843	-0.029667025
126	0x3ceb860a	0.028750438
127	0x3d829b15	0.06377236
128	0x3d25d96d	0.040490557
129	0x3c18f7e0	0.009336442
130	0x3cb56609	0.02214338
131	0xbc218592	-0.009858506
132	0x3c91d453	0.01780144
133	0x3d48a5f5	0.048986394
134	0xbc53094c	-0.0128806345
135	0xbc3a52d8	-0.011372291
136	0x3cf98922	0.030460898
137	0x3d2f46cf	0.042792138
138	0x3db211bb	0.08694788
139	0x3cb337d0	0.0218772
140	0x3a146f9d	0.00056623836
141	0xbb92b03e	-0.004476576
142	0xbbe8cd36	-0.007104541
143	0xbd0322ea	-0.03201572
144	0xbca3adfa	-0.01998042
145	0x3d84e7a1	0.06489492
146	0x3db6e6c1	0.089307316
147	0xbbf84f1b	-0.0075777895
148	0x3c7f9da0	0.015601546
149	0x3b729093	0.0037012442
150	0x3da01a61	0.078175314
151	0x3d535f8c	0.051604792
152	0x3d999760	0.074995756
153	0xbab0d5a2	-0.0013491402
154	0x3ce4e0a1	0.027939143
155	0xbc51858d	-0.012788189
156	0x3d5e6376	0.054294072
157	0x3bc366e9	0.0059631956
158	0xbc016f81	-0.00790012
159	0x3d6810ac	0.056656525
160	0x3d93f5cf	0.07224619
161	0xbb79930b	-0.003808203
162	0x3d77d29a	0.06050358
163	0x3ce8d4ce	0.028421786
164	0xbc89be6e	-0.016814437
165	0xbad1e9e5	-0.001601514
166	0x3c10de67	0.008842087
167	0x3d13ab48	0.03605202
168	0xbcafad62	-0.02144498
169	0xbbebb4c2	-0.007193179
170	0x3cef8285	0.029237041
171	0x3cad6bc0	0.021169543
172	0xbc93f4c3	-0.018061047
173	0xbb040e4c	-0.0020150123
174	0xbcd097a5	-0.025462935
175	0x3d315fc7	0.04330423
176	0x3c59541d	0.013264683
177	0x3c7ffc71	0.015624152
178	0x3cae19fc	0.021252625
179	0x3d673771	0.056449357
180	0x3d862cfc	0.06551549
181	0x3d03b60f	0.032156046
182	0x3d3fea4e	0.04685431
183	0x3cec6264	0.02885551
184	0x3c850b1b	0.016240647
185	0x3cb4887e	0.02203774
186	0x3c991cc1	0.018690469
187	0x3aa724b7	0.0012752031
188	0xbce41091	-0.02783993
189	0xbb8ea1f2	-0.0043528015
190	0xbb79117b	-0.0038004804
191	0xbbe762c6	-0.0070613353
192	0xbc9a27c5	-0.018817792
193	0x3d47540b	0.048664134
194	0xbc23273b	-0.009958084
195	0x3b74b8c5	0.0037341577
196	0x3d174320	0.03692925
197	0xbc6c37d7	-0.01441761
198	0x3cac6311	0.021043332
199	0xbc1876c5	-0.009305661
200	0x3cd5e1fd	0.026108736
201	0x3e0ba1fc	0.13636011
202	0x3b1adde5	0.0023630795
203	0xbbebc1a8	-0.0071947165
204	0x3d53917b	0.051652413
205	0xbc8fd53e	-0.017557736
206	0xbc6f9e9f	-0.014625221
207	0x3c8f1e9e	0.017470654
208	0xbbaaeb59	-0.005216044
209	0x3b234bf6	0.0024917102
210	0xbafa209e	-0.0019083207
211	0x3d607310	0.054797232
212	0xbbafed7a	-0.0053688856
213	0x3d6c3124	0.05766405
214	0xba4071bb	-0.0007341166
215	0xbb5f5e52	-0.003408332
216	0x3d26efdb	0.040756088
217	0xbba43530	-0.0050112233
218	0xbcbe4b14	-0.02322916
219	0x3d78fe12	0.060789175
220	0x3a960e22	0.0011448304
221	0x3d1d8e62	0.038465865
222	0xbb7f80be	-0.0038986648
223	0xbcec4f5e	-0.028846439
224	0xbb80f58b	-0.003935521
225	0x3ba29171	0.0049611856
226	0x3c8177d2	0.015804205
227	0xbbd67bf6	-0.006545539
228	0xbd085a7b	-0.033289414
229	0x3c591b90	0.0132512
230	0xbb545015	-0.0032396365
231	0x3ceae65d	0.028674299
232	0x3d08a20b	0.03335766
233	0xbc7fc3a4	-0.015610609
234	0x3c2ad5fd	0.010426995
235	0xbc21929e	-0.009861616
236	0x3cd4abe4	0.02596087
237	0x3c407dca	0.01174874
238	0x3cb93856	0.02260987
239	0xbba9d1a8	-0.0051824637
240	0xbb86fc7b	-0.0041194535
241	0x3d17e1bb	0.037080508
242	0x3cd695a5	0.026194403
243	0x3c4a7de6	0.012359118
244	0x3de2f9da	0.11082812
245	0xbb78d8d7	-0.0037971043
246	0xbc09288a	-0.008371482
247	0x3a927e58	0.0011176569
248	0xb9d69237	-0.000409262
249	0x3b79c1c3	0.0038109876
250	0x3b317cc5	0.0027082425
251	0x3d6982d2	0.057009526
252	0xba6c4f9d	-0.0009014549
253	0x3d82951b	0.06376096
254	0x3d46e583	0.048558723
255	0x3aaff04b	0.0013423053
