Model_Files/bpi/EventPredictor_parameters_laplacianOnWeighted_0.0001.pt (torch, 280591 bytes, 8 tensors)

layer1.weight f4 [4, 1]
-0.4207006 0.9222754 0.4313841 1.0498052
00000000: 1266 d7be 3e1a 6c3f 60de dc3e 0460 863f

layer1.bias f4 [6]
-0.30372438 -0.74428433 0.9325852 0.47029543 -0.5526653 0.20675132
00000000: c381 9bbe 6b89 3ebf e7bd 6e3f 90ca f03e
00000010: 797b 0dbf 9eb6 533e

layer2.1.weight f4 [256, 6]
-0.17992064 0.33923545 -0.08737008 0.08479626 0.13717249 0.21412174 0.21554102 -0.336522
0.119969524 0.12983811 -0.040461574 0.038292933 -0.14552933 0.1786842 -0.04063934 -0.0008240576
-0.06272938 0.050349478 -0.32231238 0.26791084 -0.04494577 0.017380776 -0.069243476 -0.00064408244
-0.119754545 -0.1102599 -0.040937044 0.31469414 0.0026196993 -0.03216394 -0.39037722 0.16744407
-0.44542807 -0.0984485 0.4205827 0.1460751 0.09413605 -0.1625828 0.08585404 -0.02864319
-0.06915819 -0.14972503 0.15057766 -0.34977356 0.092454076 0.004407084 0.12743573 0.01675108
-0.28140458 -0.22969586 -0.4228322 0.19584925 0.0004907373 0.08715817 -0.30495155 0.0351895
-0.04966805 0.0052485964 0.13037215 0.087127455 -0.12283639 -0.77786183 0.15584297 2.4319873
0.0016977096 -0.014074348 -0.2785816 0.07318284 -0.08415908 0.019326353 0.026417485 0.10791603
0.1852511 -0.19832243 0.10911966 -0.23085727 -0.042137876 -0.14644636 -0.17697372 0.24156237
-0.049481098 -0.014639074 -0.010580346 0.09721211 -0.06724173 0.122203656 -0.021485686 0.025912395
-0.030052926 0.095944785 -0.19777729 0.024747435 -0.04812709 0.1165252 0.2867771 0.3460176
-0.28441107 0.7934252 -0.22466977 -0.28362134 -0.10666421 0.16385727 -0.27895507 -0.00053810957
-3.5768287 -0.20860751 3.5392294 -4.0958533 -0.23431714 0.18246411 -0.06137619 0.014726179
-0.0056708734 -0.0007412691 -0.15222616 -0.03209021 -0.017831 0.04102958 0.00042196867 0.041643035
-0.11713502 0.062273156 -0.07039394 -0.033847615 -0.0035629084 -0.07940935 0.15317781 -0.13177246
0.07990052 -0.021391917 -0.006259468 -0.07042269 0.102459215 1.037601 1.9942964 0.5887464
-0.9433248 1.7621063 0.20442173 -0.21783406 -0.030121142 0.3164477 -0.4606161 -0.16329989
-0.05150919 0.254817 -0.05562362 -0.030093517 -0.070363075 -0.071279615 0.063764505 0.85612935
-0.17069975 0.05397414 -0.16198388 -0.044637516 -0.07706948 -0.004069643 -0.8773419 -0.0707686
1.1790985 -2.4211798 -0.4595896 0.0041640503 -3.1400456 0.40815732 4.423437 -2.5327919
-0.014830342 -0.19018647 -0.08376925 0.1369504 0.14302553 -0.03745402 -0.04758635 0.20346665
-0.23547947 0.0782401 0.11694414 0.09472146 0.20876433 -0.006302818 0.10048388 -0.034614097
-0.033714492 -0.0388323 -0.019338008 -0.0028968144 -0.042963497 0.028485458 0.25006634 0.12702595
-0.1977387 0.17375769 -0.031727046 0.00019353443 0.005051161 0.11862441 -0.08807291 0.111959286
-0.07209812 -0.0065793297 0.017739752 0.17333443 0.32132307 -0.23587178 0.046208248 0.032000266
-0.0044970466 0.020046549 0.16368447 -0.21555233 0.056111295 0.018924974 0.0058839624 -0.09435102
-0.3786375 -0.30709705 0.177172 0.0075475397 0.091558784 -0.05563172 -0.1576354 -0.0057343203
0.17499779 -0.117856406 -0.31560335 0.25573418 -0.04020928 -0.015116887 0.05994671 -0.006060239
-0.29389507 0.025066823 -0.41082698 0.6168374 -0.08806862 -0.071482435 -0.025197307 0.14496586
0.21151704 -0.31972227 0.24288264 0.09024257 -0.3429018 0.09405178 0.13489139 -0.08584897
0.019185282 -0.044597514 0.008555039 0.016703952 0.097415216 -0.23438609 0.16530848 0.1659586
00000000: 1e3d 38be 45b0 ad3e 16ef b2bd a9a9 ad3d
00000010: f276 0c3e bb42 5b3e c9b6 5c3e 9d4c acbe
00000020: 95b2 f53d 48f4 043e 09bb 25bd 0dd9 1c3d
00000030: a405 15be fef8 363e 7075 26bd 9205 58ba
00000040: 4378 80bd 413b 4e3d 2106 a5be 9c2b 893e
00000050: 0e19 38bd 2162 8e3c 86cf 8dbd a4d7 28ba
00000060: df41 f5bd f1cf e1bd 9aad 27bd 971f a13e
00000070: 43af 2b3b 56be 03bd 86df c7be 7576 2b3e
00000080: 260f e4be 5e9f c9bd 9e56 d73e b694 153e
00000090: 67ca c03d 1b7c 26be 3ed4 af3d 20a5 eabc
000000a0: cfa2 8dbd 8551 19be 0831 1a3e 8515 b3be
000000b0: 9058 bd3d 4d69 903b 837e 023e 9039 893c
000000c0: 4314 90be 6435 6bbe 767d d8be b58c 483e
000000d0: d3a4 003a fc7f b23d 9c22 9cbe dd22 103d
000000e0: ba70 4bbd 6bfc ab3b 4780 053e e16f b23d
000000f0: a591 fbbd f421 47bf 4d95 1f3e aea5 1b40
00000100: ae85 de3a 1898 66bc 3fa2 8ebe e3e0 953d
00000110: 995b acbd 4d52 9e3c 7b69 d83c 1403 dd3d
00000120: 77b2 3d3e 0915 4bbe 217a df3d d965 6cbe
00000130: c498 2cbd 09f6 15be 9938 35be 205c 773e
00000140: b1ac 4abd bad8 6fbc 3059 2dbc 2517 c73d
00000150: 08b6 89bd e945 fa3d c002 b0bc 3b46 d43c
00000160: 8e31 f6bc b37e c43d 2186 4abe 22bb ca3c
00000170: e920 45bd c4a4 ee3d 73d4 923e 3829 b13e
00000180: 549e 91be ea1d 4b3f d50f 66be d136 91be
00000190: c472 dabd 33ca 273e 33d3 8ebe ec0f 0dba
000001a0: c3ea 64c0 359d 55be bc82 6240 3b11 83c0
000001b0: d5f0 6fbe dfd7 3a3e 9a65 7bbd 1246 713c
000001c0: bcd2 b9bb ba51 42ba 2de1 1bbe 0671 03bd
000001d0: 5112 92bc a20e 283d ad3b dd39 e391 2a3d
000001e0: 7ce4 efbd 2312 7f3d b32a 90bd cca3 0abd
000001f0: af7f 69bb 5fa1 a2bd a5da 1c3e 5cef 06be
00000200: e2a2 a33d 1a3e afbc 391c cdbb c539 90bd
00000210: 23d6 d13d 1cd0 843f 1b45 ff3f 16b8 163f
00000220: bc7d 71bf b38c e13f ee53 513e e40f 5fbe
00000230: 9dc0 f6bc 6f05 a23e e0d5 ebbe 1638 27be
00000240: 4dfb 52bd 6077 823e 98d5 63bd ae86 f6bc
00000250: 841a 90bd 0cfb 91bd f796 823d 4b2b 5b3f
00000260: eacb 2ebe fd13 5d3d 1adf 25be d4d5 36bd
00000270: 9bd6 9dbd a45a 85bb 7b99 60bf 21ef 90bd
00000280: b3ec 963f 9cf4 1ac0 544f ebbe 9672 883b
00000290: 82f6 48c0 fff9 d03e cc8c 8d40 4319 22c0
000002a0: f6fa 72bc 3ec0 42be 368f abbd ba3c 0c3e
000002b0: 4975 123e 6369 19bd e8e9 42bd 9059 503e
000002c0: 8821 71be 583c a03d 6980 ef3d 53fd c13d
000002d0: 51c6 553e df87 cebb 7eca cd3d 83c7 0dbd
000002e0: 3518 0abd 9e0e 1fbd be6a 9ebc 7bd8 3dbb
000002f0: 7efa 2fbd 565a e93c b208 803e 1713 023e
00000300: 047c 4abe 89ed 313e 38f4 01bd 81ef 4a39
00000310: 3684 a53b 5bf1 f23d 925f b4bd e94a e53d
00000320: 2ea8 93bd 6b97 d7bb f552 913c 957e 313e
00000330: 7584 a43e 5f88 71be dc44 3d3d b612 033d
00000340: f65b 93bb a938 a43c e79c 273e c0b9 5cbe
00000350: f5d4 653d 8c08 9b3c 41ce c03b 1c3b c1bd
00000360: c6dc c1be d33b 9dbe 946c 353e 5a51 f73b
00000370: 2c83 bb3d 16de 63bd 2d6b 21be f7e6 bbbb
00000380: 9f32 333e b35e f1bd c396 a1be 97ef 823e
00000390: 7cb2 24bd d2ac 77bc ae8a 753d f894 c6bb
000003a0: 6a79 96be f058 cd3c ea57 d2be 0ee9 1d3f
000003b0: 525d b4bd 6265 92bd 956a cebc ee71 143e
000003c0: ec97 583e a3b2 a3be 3ab6 783e 19d1 b83d
000003d0: d390 afbe 389e c03d f820 0a3e 96d1 afbd
000003e0: 742a 9d3c e2ab 36bd 6f2a 0c3c bad6 883c
000003f0: a181 c73d e802 70be a046 293e 0df1 293e

layer2.1.bias f4 [256]
-0.30134737 0.42347884 0.42562816 0.42983812 0.3177472 -0.77920794 0.13148457 -0.14177004
1.292223 0.12017384 4.177403 -0.11261463 -0.14398171 -0.46038565 0.18254176 -0.15420648
-0.022835815 0.14470716 -0.02823436 0.2528297 -0.39573207 0.44145435 0.08181698 0.48709145
0.0029234677 1.4970998 -0.6709156 0.9350535 -0.58860564 -0.3901497 -0.11413106 -0.05514517
0.10647807 -0.2608721 0.33692068 0.5213435 0.16462536 -0.8335954 0.5994832 -0.34934855
1.0900929 0.02972557 0.5419433 0.057302535 0.5102538 -1.7762989 0.2045604 0.09797027
-0.13265294 -0.12366731 0.6914113 -0.25440866 0.010408479 1.1630938 -0.8494715 -0.52118886
-0.076027825 0.18344279 -0.41234145 -0.07412342 -0.13965838 -0.08218774 -0.060787577 -0.16717449
1.45921 -0.2184278 1.1626836 1.0197958 -0.3591101 -0.2530747 -0.14308614 -0.6284266
-0.33435425 0.18862934 -0.29381767 -0.15855315 -0.37477726 -0.08149389 -0.07204617 -0.26756686
1.169558 -0.1616037 -0.24657258 0.22813454 -0.014453189 -1.1131148 0.83311373 -0.080279075
0.43614918 0.03933573 0.37333095 0.6768769 -0.024286464 0.2761828 1.0391566 0.46142012
0.14083837 0.8384815 0.3785995 0.27211937 0.26151186 -0.33988115 0.39981204 0.42971215
0.9478693 -0.09658677 0.56106865 1.0023462 0.021929476 2.3553345 0.19481237 0.5375012
-0.0653124 -0.2729933 0.30248982 0.37554604 0.06686901 0.22563682 1.1037564 0.15967439
-0.4126403 -0.052803192 0.5053654 -0.03632972 0.12924236 -0.12750627 -2.1428041 0.12811238
0.21719934 -0.40467036 -1.2806386 2.3493457 1.1878042 0.4711446 -0.07485691 -0.29441506
-0.042963296 0.5548041 0.009285409 -0.06559981 -0.62704855 -0.12628989 -0.16782919 0.4276499
-1.1703385 0.16697489 -1.304222 -0.4987345 0.13433628 -0.6368146 0.10627114 -0.050767135
-0.5266644 -0.23765811 0.2198545 0.04051394 0.71613485 0.53923535 -0.34194943 0.78287524
0.07878773 -0.16080476 -0.31221366 0.4545738 0.1023785 0.18295276 0.3784256 0.11610649
0.20702294 1.0938753 1.0055072 0.16525891 0.61547077 0.022996861 -0.24037255 -0.026517538
-0.21453387 -0.52252454 -0.096780464 0.088708736 -0.7853965 -0.51146305 -0.6183195 0.24032737
-0.2570248 -0.007995292 0.47667322 0.47703028 -0.18994896 -0.976386 -0.2528983 0.5404479
-0.9434108 0.15040092 0.10041282 -0.18516454 0.23494515 -0.6046727 -0.14337103 0.019135578
0.0085342685 0.1758166 0.04256998 0.5533945 -0.6138691 0.17998308 -0.040929347 -0.055562686
0.2830691 0.12780304 -0.55303276 0.38752776 -0.36063817 0.6011156 0.21279882 0.42066398
-0.48257935 0.33346227 -0.3775941 -0.48341832 -0.44660228 0.035940904 -0.07936399 0.3254372
0.16047762 -0.013861116 -0.3473537 1.0695184 0.54631597 -0.071455024 1.0122364 1.0931118
-0.022245675 1.1134441 0.7878839 0.3093542 -0.13495679 -0.10038261 0.2872029 -0.2617119
-0.20859167 -0.116003945 -0.47531945 0.24553384 -0.116743095 0.36145675 -0.3675924 0.006902927
-0.39006454 0.31143168 0.75714105 -0.15551509 -0.33016625 -0.017762758 0.00948874 -0.12079169
00000000: 344a 9abe 38d2 d83e efeb d93e be13 dc3e
00000010: c3af a23e 2c7a 47bf e4a3 063e 2a2c 11be
00000020: 9067 a53f b41d f63d 49ad 8540 80a2 e6bd
00000030: f16f 13be abb7 ebbe 3aec 3a3e 4ee8 1dbe
00000040: 2d12 bbbc 1d2e 143e bf4b e7bc e572 813e
00000050: 659d cabe 4e06 e23e a98f a73d 0d64 f93e
00000060: a697 3f3b f7a0 bf3f 20c1 2bbf ab5f 6f3f
00000070: dcae 16bf b4c1 c7be 8cbd e9bd e7df 61bd
00000080: 2d11 da3d 0791 85be de80 ac3e c576 053f
00000090: 8d93 283e 8266 55bf bb77 193f d0dd b2be
000000a0: 2a88 8b3f 0a83 f33c ccbc 0a3f 10b6 6a3d
000000b0: fe9f 023f c35d e3bf 4878 513e a3a4 c83d
000000c0: 2cd6 07be 4945 fdbd 5500 313f da41 82be
000000d0: 5388 2a3c 42e0 943f f776 59bf a26c 05bf
000000e0: 7ab4 9bbd 6dd8 3b3e 6b1e d3be 05ce 97bd
000000f0: 9b02 0fbe 0c52 a8bd 65fc 78bd ca2f 2bbe
00000100: 65c7 ba3f 8aab 5fbe d1d2 943f ab88 823f
00000110: 47dd b7be 0293 81be 2c85 12be 91e0 20bf
00000120: 7b30 abbe 0d28 413e 456f 96be c25b 22be
00000130: cee2 bfbe 45e6 a6bd f18c 93bd 86fe 88be
00000140: 14b4 953f 717b 25be 867d 7cbe 1a9c 693e
00000150: 12cd 6cbc 8c7a 8ebf f146 553f 5b69 a4bd
00000160: f24e df3e 811e 213d 3c25 bf3e ce47 2d3f
00000170: 68f4 c6bc d567 8d3e 1503 853f 423f ec3e
00000180: ef37 103e b9a6 563f cbd7 c13e 3b53 8b3e
00000190: e2e4 853e e704 aebe 2ab4 cc3e 3b03 dc3e
000001a0: 90a7 723f 49cf c5bd 32a2 0f3f e14c 803f
000001b0: 72a5 b33c cdbd 1640 e57c 473e ae99 093f
000001c0: 82c2 85bd c7c5 8bbe f2df 9a3e 9247 c03e
000001d0: 9ff2 883d 570d 673e e447 8d3f af81 233e
000001e0: 9745 d3be 2948 58bd a05f 013f 79ce 14bd
000001f0: 1c58 043e 0191 02be b423 09c0 e42f 033e
00000200: 8169 5e3e f430 cfbe f7eb a3bf ae5b 1640
00000210: f809 983f dd39 f13e 944e 99bd 92bd 96be
00000220: 48fa 2fbd a407 0e3f d421 183c 3159 86bd
00000230: 4186 20bf 2352 01be 6adb 2bbe edf4 da3e
00000240: a7cd 95bf 77fb 2a3e bff0 a6bf 215a ffbe
00000250: 738f 093e 4806 23bf afa4 d93d 33f1 4fbd
00000260: 7ad3 06bf a65c 73be 8a21 613e f2f1 253d
00000270: 9d54 373f 540b 0a3f ff13 afbe 836a 483f
00000280: 765b a13d 01aa 24be 78da 9fbe e6bd e83e
00000290: d2ab d13d f857 3b3e 00c1 c13e 3dc9 ed3d
000002a0: d2fd 533e 1b04 8c3f 76b4 803f a239 293e
000002b0: 7e8f 1d3f ea63 bc3c 3924 76be 4f3b d9bc
000002c0: c4ae 5bbe 2bc4 05bf d634 c6bd edac b53d
000002d0: bf0f 49bf 3eef 02bf 304a 1ebf 6118 763e
000002e0: c198 83be affe 02bc 830e f43e 503d f43e
000002f0: fb81 42be 6ff4 79bf e37b 81be cb5a 0a3f
00000300: 5f83 71bf b302 1a3e 3da5 cd3d c69b 3dbe
00000310: 7695 703e d4cb 1abf dbcf 12be 37c2 9c3c
00000320: 51d3 0b3c 4409 343e dc5d 2e3d 43ab 0d3f
00000330: 8626 1dbf 7c4d 383e 88a5 27bd b395 63bd
00000340: 6fee 903e cdde 023e 8e93 0dbf 0a6a c63e
00000350: 91a5 b8be b6e2 193f efe7 593e 4561 d73e
00000360: a414 f7be 91bb aa3e 0454 c1be 9b82 f7be
00000370: 0ea9 e4be c536 133d 9689 a2bd b49f a63e
00000380: 3f54 243e bc19 63bc 58d8 b1be fbe5 883f
00000390: 5ddb 0b3f 0357 92bd f690 813f 16eb 8b3f
000003a0: 903c b6bc 5685 8e3f c2b2 493f ac63 9e3e
000003b0: 1d32 0abe 6695 cdbd 420c 933e 1aff 85be
000003c0: 0e99 55be 7a93 edbd 125d f3be 396d 7b3e
000003d0: 0117 efbd dc10 b93e 1235 bcbe f331 e23b
000003e0: 8ab6 c7be f973 9f3e ffd3 413f 593f 1fbe
000003f0: 8d0b a9be 3483 91bc a976 1b3c a261 f7bd

layer2.3.weight f4 [256, 256]
0.45508555 -0.012630254 -0.19939862 0.0015757375 0.059125062 -0.06177764 -0.16196148 -0.09038779
-0.47927585 0.28011343 -0.96155673 0.20887747 -0.34678063 0.038946062 0.077427596 0.050110124
0.055078 -0.08418283 0.054589022 -0.044473693 0.20720369 0.040605273 -0.08916397 -0.048356093
-0.17556605 0.80988395 -0.18194635 -0.42945784 -0.18661147 0.29948923 -0.11451214 0.09722139
0.17480469 0.039259717 -0.0024532457 0.0070226127 0.2044374 -0.38182944 -0.035933997 -0.18107522
0.18325639 0.067310385 -0.24929975 -0.051315144 -0.21814856 -0.14247543 -0.025515122 -0.06730185
-0.34696934 -0.00972855 -0.12779479 -0.06727382 0.057970885 -0.010705303 -0.19965433 0.029021999
0.09878469 0.0013885624 0.037684046 0.07614467 -0.09063243 0.03806656 0.3017035 -0.26438525
-0.09629981 0.18335845 -0.06794595 -0.09481167 0.026730746 0.2805019 -0.26465014 -0.199699
-0.32115963 -0.14199246 0.28285053 0.19499744 -0.13622978 -0.10349069 -0.1868619 0.09203673
0.19112797 -0.033485066 -0.13932341 -0.09638081 -0.11143591 -0.19451834 0.18805926 0.00018962556
-0.27359614 0.05887533 -0.08687416 0.16696085 0.14930214 -0.064580716 0.31067163 0.32337868
0.09698172 0.10450484 -0.11803689 -0.12418759 0.22328818 -0.00085468433 0.09554312 -0.032371353
0.3288808 -0.0046938504 -0.024122626 -0.07004895 -0.29257768 0.018755613 0.018761378 -0.020838438
0.18470973 0.13260163 -0.08369177 -0.10289086 -0.053528175 -0.09131891 0.032777585 -0.15958743
0.07481795 -0.015800506 -0.13229313 -0.101106964 -0.061591428 0.23318104 0.035243876 -0.03205672
0.23089486 0.6114262 0.012217531 -0.50338256 -0.3633715 -0.1656074 -0.03742384 0.12126896
0.029687678 0.13625726 -0.019952439 -0.13633521 -0.35741666 0.33426967 -0.1385779 0.024763005
-0.15687971 0.20814003 -0.10637154 0.20013599 -0.07540099 -0.15565282 0.763054 0.26081318
-0.046322998 -0.0076019904 0.09434052 0.07538291 -0.13156247 -0.004688713 0.23995954 0.15043566
-0.098729275 0.14719708 0.04872606 0.0025421535 -0.10509283 0.1539293 0.031182252 -0.04865989
0.081413075 -0.011574425 0.20959479 -0.1538801 0.2151957 0.101667754 -0.073469564 0.104131706
-0.25941232 -0.2365952 0.17612527 0.028865948 -0.66727495 -0.03040227 0.20490028 -0.13724959
0.30202878 -0.15002619 -0.10343407 0.060487263 0.15181199 -0.23061529 -0.035638887 -0.113984056
-0.056911305 -0.1026161 -0.09272737 -0.0075157085 -0.22349074 -0.05035658 -0.024848375 0.020502942
0.014255959 0.3671018 0.048642825 -0.08924307 0.07169934 -0.07437262 -0.05580608 0.085581794
0.048048824 -0.22416711 -0.09959828 -0.06375554 0.04846035 0.15671802 0.27089223 -0.047541592
0.202392 -0.036004025 -0.012616041 0.15525801 0.074162364 0.11131027 0.08049534 -0.08394031
-0.06445899 -0.15742147 0.2343033 0.26829362 -0.08016842 0.16840386 0.14318413 0.0002845021
0.020827552 -0.12130851 0.115034 0.055104483 0.084249206 -0.007858722 0.08984827 0.098895654
-0.1458715 -0.113886125 0.12689 -0.019805878 0.107438475 -0.19390197 0.044999544 -0.053669635
0.1582149 0.1844051 -0.08466307 0.08908611 -0.07949677 -0.12474592 -0.019777391 -0.019718286
00000000: f900 e93e 20ef 4ebc 272f 4cbe fa88 ce3a
00000010: 1f2d 723d 8d0a 7dbd 3bd9 25be 3c1d b9bd
00000020: a563 f5be 076b 8f3e 9528 76bf fae3 553e
00000030: 3b8d b1be e885 1f3d 5c92 9e3d 4640 4d3d
00000040: 7899 613d 0c68 acbd bd98 5f3d 0c2a 36bd
00000050: 342d 543e b751 263d 999b b6bd 0a11 46bd
00000060: 96c7 33be 8e54 4f3f 2550 3abe e6e1 dbbe
00000070: 1417 3fbe a756 993e 5785 eabd 021c c73d
00000080: 0000 333e ccce 203d a2c6 20bb f21d e63b
00000090: 0a58 513e 267f c3be 872f 13bd c86b 39be
000000a0: 90a7 3b3e 07da 893d 6f48 7fbe d42f 52bd
000000b0: 5662 5fbe 14e5 11be 1705 d1bc 8dd5 89bd
000000c0: f7a5 b1be 7f64 1fbc a3dc 02be dbc6 89bd
000000d0: e172 6d3d 4c65 2fbc 2f72 4cbe 8bbf ed3c
000000e0: a14f ca3d 6c00 b63a 965a 1a3d bdf1 9b3d
000000f0: 7f9d b9bd aeeb 1b3d e278 9a3e 815d 87be
00000100: d638 c5bd 51c2 3b3e 3f27 8bbd 9f2c c2bd
00000110: 70fa da3c f29d 8f3e 3980 87be e57d 4cbe
00000120: 096f a4be 7966 11be c9d1 903e 69ad 473e
00000130: d27f 0bbe edf2 d3bd ba58 3fbe c17d bc3d
00000140: 0db7 433e a327 09bd ccaa 0ebe 4d63 c5bd
00000150: 8338 e4bd d12f 47be 9b92 403e 39d6 4639
00000160: cb14 8cbe 4227 713d 14eb b1bd c9f7 2a3e
00000170: a9e2 183e e542 84bd 5a10 9f3e e491 a53e
00000180: 5a9e c63d a206 d63d 53bd f1bd 1056 febd
00000190: a8a5 643e e50c 60ba 1cac c33d d397 04bd
000001a0: 1063 a83e dfce 99bb d09c c5bc d375 8fbd
000001b0: becc 95be 5fa5 993c 76b1 993c 5fb5 aabc
000001c0: 8c24 3d3e b9c8 073e 9766 abbd 71b8 d2bd
000001d0: 5c40 5bbd 6905 bbbd ca41 063d e36a 23be
000001e0: 273a 993d 1070 81bc da77 07be 2b11 cfbd
000001f0: 4b47 7cbd 03c7 6e3e e25b 103d e84d 03bd
00000200: b46f 6c3e 6d86 1c3f 0a2c 483c aedd 00bf
00000210: d40b babe fc94 29be be49 19bd dc5b f83d
00000220: 9333 f33c 0687 0b3e 4c73 a3bc 759b 0bbe
00000230: 51ff b6be 6525 ab3e 5de7 0dbe c9db ca3c
00000240: 13a5 20be a922 553e 52d9 d9bd 73f0 4c3e
00000250: d66b 9abd 7463 1fbe 8257 433f 4e89 853e
00000260: 2fbd 3dbd 1e1a f9bb 9a35 c13d 5b62 9a3d
00000270: 50b8 06be c6a3 99bb f4b7 753e ce0b 1a3e
00000280: 9332 cabd d5ba 163e fa94 473d 429a 263b
00000290: e93a d7bd a49f 1d3e ec71 ff3c 984f 47bd
000002a0: e6bb a63d a8a2 3dbc 04a0 563e bf92 1dbe
000002b0: 435c 5c3e 2f37 d03d 3677 96bd 0143 d53d
000002c0: b1d1 84be 0346 72be 2f5a 343e 4878 ec3c
000002d0: 88d2 2abf 2e0e f9bc 61d1 513e 288b 0cbe
000002e0: 84a3 9a3e 77a0 19be 3ed5 d3bd 7ec1 773d
000002f0: 9a74 1b3e 6a26 6cbe 15fa 11bd 7970 e9bd
00000300: d41b 69bd 6428 d2bd d9e7 bdbd 5546 f6bb
00000310: c2da 64be b442 4ebd d28e cbbc c9f5 a73c
00000320: d391 693c c4f4 bb3e b33d 473d 12c5 b6bd
00000330: 1bd7 923d ac50 98bd eb94 64bd 8245 af3d
00000340: d8ce 443d 108c 65be 2ffa cbbd 4492 82bd
00000350: 5c7e 463d b07a 203e 63b2 8a3e f9ba 42bd
00000360: d93f 4f3e f578 13bd 83b3 4ebc f5fb 1e3e
00000370: 70e2 973d a4f6 e33d beda a43d e6e8 abbd
00000380: 1303 84bd 1833 21be 34ed 6f3e c85d 893e
00000390: 572f a4bd 1072 2c3e dc9e 123e 3a29 9539
000003a0: 8b9e aa3c 9970 f8bd f296 eb3d 3db5 613d
000003b0: d98a ac3d dec1 00bc 5f02 b83d ce89 ca3d
000003c0: 575f 15be 213d e9bd 74ef 013e f03f a2bc
000003d0: b408 dc3d 3d8e 46be 7151 383d b1d4 5bbd
000003e0: 1603 223e b1d4 3c3e d563 adbd c772 b63d
000003f0: 34cf a2bd ca7a ffbd 3204 a2bc 3e88 a1bc

layer2.3.bias f4 [256]
-1.7886087 -1.4079214 -1.3727343 -2.0574474 -0.93961495 -1.4100671 -2.0310452 0.7682037
-2.0525296 -2.2100828 -2.1002102 -2.0347703 -1.6207899 1.8482487 -1.1021086 -1.708232
-1.2204331 0.4342468 1.3548868 -2.2193234 1.2096645 1.668286 -0.83169484 -2.06538
2.2251043 1.4555856 -1.522405 0.6350617 -1.6054484 -1.7508837 -1.290896 1.7217543
0.83527374 1.9321921 -1.8496484 1.4576325 -0.7899863 -1.3955668 -1.8873079 2.1486487
1.4175148 -1.7207706 1.792656 1.8863987 0.12221576 1.5014559 0.8282703 -0.06748776
2.25112 1.167354 1.3010068 1.7308065 0.19265221 1.5514662 2.5050926 2.3545973
1.6172358 -1.4148877 1.4167082 1.8050659 -1.3974943 2.5844095 1.2634479 2.2823393
1.4145408 1.3517728 1.3623574 1.6278374 -1.1603838 -0.9647069 -1.3084437 -0.8803736
0.9490006 -1.9647443 1.4811282 -0.24998812 -1.2031151 1.2792919 -1.6404864 1.8488868
-1.7422935 2.1101108 -1.319389 1.3498964 -1.9796296 0.5475692 1.6494783 -1.5601332
2.2968597 2.4238448 -1.5300997 0.49766856 -2.0235806 -2.5930023 -0.6075566 1.6693834
-1.7754437 -1.7805994 0.49269038 1.7081213 -1.4542527 -1.8844173 -1.9894443 1.4706485
1.3546141 1.7825768 -0.9898693 -1.5404409 1.392156 0.21301347 -2.3977852 1.4030895
1.4124151 -1.4502765 -0.6714164 -1.3370486 1.325155 1.1040775 -2.2109895 1.9176476
-1.121689 1.5268124 1.7818834 -0.77236503 -1.5427146 1.5688977 0.4140818 -1.3750036
-1.3683134 -1.276138 0.36807436 2.1221168 -1.3643142 1.6391 1.3757466 -1.5721854
1.8126283 1.4963325 -1.1250994 -1.3349307 -1.6322832 -1.8261905 1.5827811 -1.4041907
-1.0632122 -0.9632722 1.4946281 1.6140918 -1.0112592 1.4011989 2.3261397 -0.7158051
-2.2563043 -1.3563629 1.2155786 2.1566942 -1.7827209 -0.88793653 1.4975009 -1.7666799
-1.7282388 0.6608936 0.9213963 -1.6838758 1.0628523 0.09259615 -1.5351912 -1.616252
-1.198051 -1.3054518 -2.512392 -0.6088652 -0.010275068 -1.3531504 -0.48144493 -2.3059452
2.5758612 -0.7994736 -1.3681645 -2.077195 -0.75700885 -2.141041 1.0697438 1.4380091
-1.247913 -1.1414559 1.335632 1.4123473 1.350175 0.84032536 -2.518726 -1.5318524
2.1276057 1.2546656 -1.7172693 -2.1215315 -1.410395 -1.26738 -1.4079435 -1.2304052
-1.505077 2.4471054 -1.8823392 1.2983853 -1.8213271 1.5765738 2.2169874 2.3125951
-2.5341818 -1.5943646 -1.4810995 1.1796744 1.3045149 1.9810874 -0.028537609 1.515199
-1.3770205 -1.8799957 1.1445767 0.9106436 1.365573 1.6593413 2.4591305 2.1097054
2.599789 -1.598366 -1.3557019 -1.1804011 1.6492367 -1.7222025 0.3171178 1.608786
-1.4340694 1.1021166 1.2740232 2.639621 2.1239614 1.5669082 -1.577852 -1.8226254
1.1556613 -1.4082375 -1.4020305 -1.414469 -1.5001729 2.1169121 1.8046837 -1.3413957
-2.0417492 -0.1741479 -1.6467415 0.60224664 2.1684089 1.8997809 -1.2863307 -0.53773636
00000000: 21f1 e4bf c536 b4bf c2b5 afbf 38ad 03c0
00000010: 9b8a 70bf 147d b4bf a5fc 01c0 ffa8 443f
00000020: a55c 03c0 ff71 0dc0 d869 06c0 ad39 02c0
00000030: 0b76 cfbf 6a93 ec3f e511 8dbf 59a7 dabf
00000040: 2737 9cbf 9955 de3e ee6c ad3f 6509 0ec0
00000050: 49d6 9a3f 658a d53f f4e9 54bf 302f 04c0
00000060: 1c68 0e40 a150 ba3f 2bde c2bf 6793 223f
00000070: 557f cdbf f51c e0bf 153c a5bf 7262 dc3f
00000080: 80d4 553f 1252 f73f 47c1 ecbf b493 ba3f
00000090: 8b3c 4abf efa1 b2bf 4e93 f1bf 7683 0940
000000a0: 2071 b53f 3642 dcbf c075 e53f 8375 f13f
000000b0: 424c fa3d b52f c03f 8609 543f 0637 8abd
000000c0: 5a12 1040 db6b 953f 6487 a63f 118b dd3f
000000d0: 9f46 453e 7296 c63f 7053 2040 b9b1 1640
000000e0: 9501 cf3f 0a1b b5bf b256 b53f 660c e73f
000000f0: 18e1 b2bf f766 2540 a9b8 a13f d911 1240
00000100: ac0f b53f e406 ad3f ba61 ae3f fa5c d03f
00000110: 7587 94bf 08f7 76bf 157b a7bf 2a60 61bf
00000120: b4f1 723f be7c fbbf 9c95 bd3f e3fc 7fbe
00000130: adff 99bf d6bf a33f 75fb d1bf 53a8 ec3f
00000140: 7903 dfbf 0e0c 0740 bde1 a8bf 68c9 ac3f
00000150: 8164 fdbf 7f2d 0c3f 1b22 d33f 72b2 c7bf
00000160: c0ff 1240 4620 1b40 4fda c3bf 6ace fe3e
00000170: 5882 01c0 c0f3 25c0 d488 1bbf 5bae d53f
00000180: bd41 e3bf aeea e3bf ea41 fc3e b8a3 da3f
00000190: f424 babf 9634 f1bf 1ca6 febf 363e bc3f
000001a0: ff63 ad3f 7a2b e43f 1368 7dbf 2b2d c5bf
000001b0: 2b32 b23f 3420 5a3e 5075 19c0 7098 b33f
000001c0: 05ca b43f a9a2 b9bf f2e1 2bbf 6924 abbf
000001d0: ae9e a93f 6952 8d3f da80 0dc0 7a75 f53f
000001e0: 8193 8fbf 976e c33f c114 e43f b7b9 45bf
000001f0: ac77 c5bf a4d1 c83f 8802 d43e 1e00 b0bf
00000200: e524 afbf 7d58 a3bf 3e74 bc3e c3d0 0740
00000210: d9a1 aebf 07ce d13f 7718 b03f 5f3d c9bf
00000220: 3404 e83f d387 bf3f 4203 90bf 02df aabf
00000230: a8ee d0bf 9cc0 e9bf 9298 ca3f 85bc b3bf
00000240: 5617 88bf 0299 76bf f94f bf3f 8f9a ce3f
00000250: f170 81bf 7c5a b33f 79df 1440 013f 37bf
00000260: 4a67 10c0 4d9d adbf 1498 9b3f 4707 0a40
00000270: 3330 e4bf cf4f 63bf 1cae bf3f 9122 e2bf
00000280: ee36 ddbf 5330 293f a1e0 6b3f 3e89 d7bf
00000290: 8b0b 883f 0da3 bd3d 2581 c4bf 58e1 cebf
000002a0: bc59 99bf 0b19 a7bf 08cb 20c0 97de 1bbf
000002b0: c258 28bc 0834 adbf f37f f6be 9b94 13c0
000002c0: e9da 2440 4daa 4cbf 0420 afbf c3f0 04c0
000002d0: 55cb 41bf d106 09c0 5ded 883f af10 b83f
000002e0: 9dbb 9fbf 3a1b 92bf fdf5 aa3f ccc7 b43f
000002f0: 89d2 ac3f 901f 573f cf32 21c0 bd13 c4bf
00000300: b12a 0840 e298 a03f 7bcf dbbf 2cc7 07c0
00000310: d387 b4bf 8239 a2bf 7e37 b4bf eb7d 9dbf
00000320: 5da6 c0bf 609d 1c40 7ef0 f0bf 7d31 a63f
00000330: 3f21 e9bf 2ccd c93f 1fe3 0d40 8f01 1440
00000340: 0930 22c0 2414 ccbf ab94 bdbf 92ff 963f
00000350: 58fa a63f 4694 fd3f b4c7 e9bc 0af2 c13f
00000360: 3542 b0bf b3a3 f0bf 7d81 923f f01f 693f
00000370: 19cb ae3f 4c65 d43f 6562 1d40 6a05 0740
00000380: f162 2640 4297 ccbf a487 adbf 6217 97bf
00000390: 301a d33f 2271 dcbf 445d a23e b3ec cd3f
000003a0: 968f b7bf 2812 8d3f 3113 a33f 8def 2840
000003b0: fcee 0740 7390 c83f 0ef7 c9bf ca4b e9bf
000003c0: b6ec 933f 2041 b4bf bc75 b3bf 520d b5bf
000003d0: aa05 c0bf 7d7b 0740 e0ff e63f dbb2 abbf
000003e0: 05ac 02c0 d453 32be 6dc8 d2bf d62c 1a3f
000003f0: 36c7 0a40 052c f33f 7ca6 a4bf 17a9 09bf

layer2.6.weight f4 [7, 256]
0.19318135 0.079690166 0.04547428 0.22259971 0.053293023 0.116209365 0.06827048 0.031312104
0.058582135 0.09328174 -0.017533325 0.0462088 0.1565969 -0.11330469 0.18275748 0.066069834
0.08856776 0.0194797 -0.003063666 0.018758468 -0.08004629 -0.015621915 0.044884667 0.18412878
-0.088199824 -0.020452628 0.0628451 0.010898597 0.11220601 0.12771381 0.032355838 -0.09415106
-0.08189229 -0.22761457 0.16120858 -0.101517595 -0.0028559638 0.09188397 0.13483866 0.02558146
-0.14410974 -0.005968959 -0.13676836 -0.18532193 -0.036264565 -0.18628263 -0.07928034 0.085522085
-0.24424535 -0.102621906 -0.05847214 -0.2093939 0.083621114 0.009900763 -0.026089754 -0.054923784
-0.16972578 0.14322883 -0.10946675 -0.07257614 0.15347725 -0.06717822 -0.10223178 -0.10589328
-0.088217065 -0.124061875 -0.058113158 -0.063220285 0.031209795 0.069513716 0.12844716 -0.009016455
0.005502141 0.15406884 -0.0829178 -0.042962514 0.12957157 -0.023533713 0.16157128 -0.06632315
0.14836702 -0.13767032 0.09888047 -0.16153604 0.10827902 -0.079548 -0.11382811 0.17012928
-0.13869096 -0.11414909 0.20717739 -0.02440842 0.043139964 0.14095037 0.048260838 -0.063182816
0.08674097 0.15809385 0.014470563 -0.13769822 0.078316264 0.07724502 0.14788435 -0.03671386
-0.0050833006 -0.106600374 0.0976628 0.05805498 -0.16155042 -0.03183326 0.21699603 -0.0054947888
-0.021786937 0.06387299 0.0053538643 0.016896985 -0.10205107 -0.12617709 0.045121133 -0.19045557
0.07668091 -0.12954748 -0.052461185 -0.046701174 0.15467797 -0.005007788 -0.06950825 0.0083058905
0.04138473 0.016372235 0.06471969 -0.25468644 0.12718895 -0.13418227 -0.16807416 0.22175114
-0.03655445 -0.112724744 0.12143766 0.19645628 0.103036 0.09154893 -0.1312187 0.10926162
0.055274807 0.050679166 -0.102696866 -0.083170645 0.061626103 -0.105012536 -0.14555259 0.01641127
0.058704533 0.065977365 -0.052095786 -0.10668166 0.061959814 0.06451848 -0.09241265 0.11224646
0.2567399 -0.11620768 -0.046160817 0.1889623 -0.18326236 0.0025699744 0.0010156704 0.0959139
0.021962719 0.13465011 0.06268372 0.04457744 -0.0494484 0.19983532 0.032912888 0.20252357
-0.11632816 0.07072249 0.09096699 0.10125924 0.05423167 0.05403287 -0.09316713 -0.06999874
0.04926744 0.12990181 -0.11538405 -0.10713141 -0.15522023 -0.08889868 0.1417406 0.060125876
-0.13312064 -0.21529473 0.100582115 0.053893443 0.19731054 0.12824295 0.042842317 0.14850347
0.040533446 -0.14151393 0.07157351 -0.19800735 0.07974032 -0.09043761 -0.18532011 -0.07884058
0.08434786 0.19726075 0.050902314 -0.05965386 -0.14647844 -0.080994986 -0.03180028 0.02261985
0.057627004 -0.008186621 -0.014662426 -0.13997437 -0.018904474 -0.20539083 -0.13894096 -0.018126335
-0.12797931 0.072368756 0.038887266 0.036279097 -0.074510425 0.107475415 -0.028232269 -0.13928318
0.13161653 -0.15668027 -0.006954338 -0.075295344 -0.16181111 -0.113801934 0.12046136 0.06732488
-0.10124208 0.05376953 0.09988475 0.11057244 0.123186745 -0.06543807 -0.040285263 0.03927427
0.15004161 0.03567308 0.11299861 -0.09946281 -0.15254138 -0.03852405 0.22393052 0.025089037
00000000: 55d1 453e 9934 a33d 3d43 3a3d 2ef1 633e
00000010: c949 5a3d 2dff ed3d 65d1 8b3d 1f41 003d
00000020: d2f3 6f3d 7f0a bf3d 0ca2 8fbc 7045 3d3d
00000030: f05a 203e 4a0c e8bd c724 3b3e 9f4f 873d
00000040: 0463 b53d e493 9f3c c9c7 48bb 5cab 993c
00000050: 4fef a3bd 10f3 7fbc fcd8 373d 418c 3c3e
00000060: 1ca2 b4bd 458c a7bc efb4 803d 0790 323c
00000070: 44cc e53d 69c7 023e 8e87 043d 45d2 c0bd
00000080: 25b7 a7bd cb13 69be dd13 253e 75e8 cfbd
00000090: 1f2b 3bbb aa2d bc3d 2513 0a3e 3690 d13c
000000a0: 8191 13be 4297 c3bb 010d 0cbe 08c5 3dbe
000000b0: 278a 14bd e0c0 3ebe bb5d a2bd 3426 af3d
000000c0: 741b 7abe 6f2b d2bd 7c80 6fbd 5b6b 56be
000000d0: 8c41 ab3d cf36 223c 2eba d5bc c3f7 60bd
000000e0: 98cc 2dbe 94aa 123e 1a30 e0bd cda2 94bd
000000f0: 2429 1d3e bc94 89bd e55e d1bd 93de d8bd
00000100: 26ab b4bd 2714 febd 1008 6ebd a379 81bd
00000110: afab ff3c 355d 8e3d a787 033e c1b9 13bc
00000120: 4e4b b43b 39c4 1d3e cfd0 a9bd 76f9 2fbd
00000130: 69ae 043e c6c9 c0bc f172 253e 6fd4 87bd
00000140: 86ed 173e 73f9 0cbe d881 ca3d b469 25be
00000150: 64c1 dd3d 10ea a2bd b61e e9bd 5f36 2e3e
00000160: 0105 0ebe 00c7 e9bd 4f26 543e 2bf4 c7bc
00000170: 88b3 303d 4b55 103e 28ad 453d fe65 81bd
00000180: 40a5 b13d 5be3 213e f115 6d3c c300 0dbe
00000190: 4764 a03d a332 9e3d ff6e 173e 4661 16bd
000001a0: d191 a6bb 4c51 dabd 6f03 c83d 0fcb 6d3d
000001b0: 796d 25be 9863 02bd 3534 5e3e a10d b4bb
000001c0: 857a b2bc d8cf 823d 786f af3b 8c6b 8a3c
000001d0: 2700 d1bd 9134 01be f0d0 383d c906 43be
000001e0: e20a 9d3d 18a8 04be 8ae1 56bd bb49 3fbd
000001f0: e763 1e3e 5f18 a4bb 575a 8ebd 6e15 083c
00000200: 0983 293d 111f 863c c28b 843d 4366 82be
00000210: d23d 023e 1467 09be a21b 2cbe bb12 633e
00000220: 1eba 15bd 3bdc e6bd 4fb4 f83d d62b 493e
00000230: 8a04 d33d 017e bb3d 325e 06be 8ec4 df3d
00000240: d667 623d f594 4f3d bc52 d2bd 5f55 aabd
00000250: a76b 7c3d d010 d7bd bd0b 15be ed70 863c
00000260: 2a74 703d 241f 873d 6462 55bd ea7b dabd
00000270: 93c9 7d3d 4422 843d d842 bdbd 79e1 e53d
00000280: 6a73 833e 4bfe edbd 2013 3dbd 557f 413e
00000290: 21a9 3bbe 046d 283b 3e20 853a 826e c43d
000002a0: 29eb b33c b8e1 093e 5260 803d d596 363d
000002b0: 688a 4abd a1a1 4c3e aacf 063d 5762 4f3e
000002c0: 753d eebd f4d6 903d e74c ba3d 0161 cf3d
000002d0: 0722 5e3d 9251 5d3d 69ce bebd 805b 8fbd
000002e0: a8cc 493d fb04 053e 794e ecbd b667 dbbd
000002f0: 0df2 1ebe 8310 b6bd 7324 113e 8d46 763d
00000300: c750 08be 3976 5cbe fffd cd3d 5fbf 5c3d
00000310: c60b 4a3e 1f52 033e 6d7b 2f3d 4b11 183e
00000320: 6606 263d 07e9 10be 2295 923d 70c2 4abe
00000330: e54e a33d 5b37 b9bd 8ec4 3dbe 2c77 a1bd
00000340: 92be ac3d b9fe 493e f27e 503d 9b57 74bd
00000350: 72fe 15be b3e0 a5bd 0341 02bd 434d b93c
00000360: 4b0a 6c3d 2d21 06bc ac3a 70bc 7155 0fbe
00000370: 8edd 9abc f951 52be 8a46 0ebe ae7d 94bc
00000380: 020d 03be 1236 943d 4148 1f3d 6499 143d
00000390: ec98 98bd 121c dc3d 5c47 e7bc 40a0 0ebe
000003a0: 7cc6 063e cb70 20be 37e1 e3bb 7234 9abd
000003b0: d0b1 25be fd10 e9bd 72b4 f63d a0e1 893d
000003c0: 0258 cfbd 703d 5c3d 6090 cc3d ce73 e23d
000003d0: 5549 fc3d 6504 86bd 2902 25bd 0fde 203d
000003e0: 82a4 193e ef1d 123d d16b e73d 28b3 cbbd
000003f0: cf33 1cbe 65cb 1dbd 0b4e 653e 8687 cd3c

layer2.6.bias f4 [7]
-1.5799768 -0.38019115 -0.88934815 0.2935953 0.17464773 0.09025722 0.50316846
00000000: ae3c cabf 6aa8 c2be 52ac 63bf 2052 963e
00000010: dbd6 323e c7d8 b83d a6cf 003f
