Model_Files/bpi/EventPredictor_parameters_laplacianOnBinary_0.001.pt (torch, 280585 bytes, 8 tensors)

layer1.weight f4 [4, 1]
000000 44 2d 4c bf 91 a6 ab 3f dc 94 34 3d 20 16 30 c0
       -0.7975657 1.3410207 0.044087276 -2.7513504

layer1.bias f4 [6]
000000 ce f2 37 3f d2 5c 08 3f 69 50 2a 3e bd 7a b7 bc
       0.71854866 0.5326663 0.16632237 -0.022397393
000010 6a ea 6c 3e 4d db 8f be
       0.23136297 -0.28097

layer2.1.weight f4 [256, 6]
000000 2b 18 8b 3e 81 b7 21 bf fe 07 b5 3f 8d 2d 93 3f
       0.27166876 -0.6317063 1.4143064 1.1498276
000010 84 3d 17 c0 95 99 8b bf 39 4d a5 be b6 96 43 3f
       -2.3631296 -1.0906245 -0.3228548 0.7640184
000020 eb 46 b0 bf aa cd 84 bf 9f 48 4b 3e dc a4 5c 40
       -1.3771642 -1.0375264 0.19851921 3.4475622
000030 dd 9f 70 bf 06 39 f9 3e 5e 66 2d c0 a6 78 fa 3e
       -0.9399393 0.48676318 -2.709373 0.48920172
000040 f0 91 59 40 b9 cc 0f 40 14 31 ef be a0 9a 3c 3f
       3.3995323 2.2468703 -0.4671713 0.7367344
000050 a5 53 57 bf 41 8a 7a bf 61 dc ac 3f 57 34 12 40
       -0.84112006 -0.9786721 1.3504754 2.2844446
000060 58 9c 8d be fb 7a 69 bb a0 74 16 3e 51 d7 63 c0
       -0.27658343 -0.003562628 0.14692926 -3.5600169
000070 7f 1f 72 bd 33 fd 1e 40 ce 59 86 bf 13 5f 99 3e
       -0.05911207 2.484204 -1.0496156 0.29955348
000080 4f 79 38 3f bd 56 5b 3f f5 51 4b bf 88 ee e5 be
       0.720601 0.8567923 -0.7942193 -0.44908547
000090 c2 16 5b 3f a5 73 39 be 6d 8d a1 3e 1c 8d 3e 3e
       0.855816 -0.18110521 0.31553212 0.18608516
0000a0 dd df a1 c0 25 31 6a bf 83 db 46 be 0b 74 28 3f
       -5.058577 -0.9148124 -0.19419675 0.6580207
0000b0 20 e3 fd bf 80 73 36 bf 16 d8 52 bf a0 f0 d5 3f
       -1.9834938 -0.7126999 -0.8236097 1.6714058
0000c0 c8 a4 09 bf 55 f6 de 3e 34 51 d1 c0 f8 ba 03 40
       -0.5376706 0.4354731 -6.5411625 2.0582867
0000d0 a9 71 91 c0 5e ea 1e 40 c3 1d 61 bf 4a 11 ac 3e
       -4.5451245 2.4830546 -0.8793604 0.3360694
0000e0 61 d7 b0 bd 80 a0 46 be 87 e6 cb bf b8 4b 29 3f
       -0.0863483 -0.19397163 -1.5929726 0.6613116
0000f0 11 ce 01 bf 36 f2 cb bd 7e 6f 81 bf d0 5d 6a bf
       -0.5070506 -0.099583074 -1.011215 -0.91549397
000100 d8 3e 76 bf b6 8b 34 bf 8e 2d 28 bf 69 48 25 3d
       -0.9618964 -0.7052568 -0.6569451 0.04035226
000110 fc 90 75 c0 49 94 1a 3f f7 48 6b c0 3d 8c e1 3f
       -3.8369741 0.60382515 -3.6763284 1.7620922
000120 f7 8b 6c 3f c8 3b 10 3e d9 ca be c0 91 68 0d bf
       0.9240107 0.14085305 -5.9622617 -0.5523768
000130 b1 ba f9 bf 21 0e 3b bf 1c 17 02 3f 38 1e 68 3f
       -1.9510099 -0.73068434 0.5081651 0.9067111
000140 66 90 09 c0 eb a6 40 bf a7 94 ac 3e 0e be 22 3f
       -2.1494384 -0.75254697 0.33707163 0.6357125
000150 c1 41 75 3f 90 2e c6 be 80 9a a2 3d 34 af 0b bf
       0.9580346 -0.387074 0.07939625 -0.54564214
000160 48 a3 9b be b1 26 a4 bf 71 81 70 3f 10 70 2a 3d
       -0.3039801 -1.2824308 0.9394751 0.041610777
000170 6b 4f b0 be e8 ec 6d 3f 79 b4 91 bf 3f 41 06 c0
       -0.3443559 0.92939615 -1.1383201 -2.0977323
000180 1b 65 1c bf 8f 95 5e bf 6d 53 19 bf a0 5a 4d be
       -0.61091775 -0.8694696 -0.5989292 -0.20054102
000190 e1 fc 4f bf ba 88 07 3f e2 ef a6 3f c6 c1 34 bf
       -0.8124524 0.52943003 1.3041956 -0.70608175
0001a0 c4 50 5a 40 ca 95 ea bf aa 4e e8 bd 90 13 2b c0
       3.4111795 -1.8326962 -0.11343129 -2.673069
0001b0 0f dd 2b 3e 40 b1 04 3f 2a 3f 40 40 5b 74 8f 3f
       0.16783546 0.5183296 3.0038552 1.1207384
0001c0 3e 51 e0 bc e6 80 24 40 7a cb 3a 3e 89 da 3d be
       -0.02738249 2.5703673 0.18241683 -0.18540396
0001d0 6f 73 73 3f 21 fc ae bf 8c a1 75 3f d8 8a 4a 3f
       0.9509801 -1.3670694 0.95949626 0.7911811
0001e0 74 d9 79 bf ac e9 01 3f 1f cf d1 bf ca 51 bf 3f
       -0.9759743 0.5074718 -1.6391333 1.4946835
0001f0 2a 72 93 bf 40 3b 9d 3e 43 36 03 3f 3f 3f ce be
       -1.1519215 0.30709267 0.5125467 -0.40282628
000200 6e 79 50 3f e5 13 1b 3e 01 27 a2 3e fa 1a 6b 3f
       0.81435287 0.15144308 0.31670383 0.9183804
000210 1f f3 64 bf 21 38 01 3f ca 4f 02 c0 5a cc 09 3f
       -0.89433473 0.5047627 -2.03612 0.5382744
000220 42 f6 cf bf cd 44 22 3f 90 d5 39 bf 5d fd f8 3e
       -1.6247027 0.6338623 -0.72591496 0.486308
000230 d3 ce 2b c0 85 ac 8f 3f 50 53 40 c0 23 e5 a2 bf
       -2.6844985 1.1224524 -3.005085 -1.2726177
000240 14 6d d8 bf a9 09 be be 66 36 7d 3e 5c 5e 43 3f
       -1.6908288 -0.37116745 0.24727783 0.76315856
000250 08 65 1d 3f 09 65 5d 3e 10 60 08 3f 5b 2a bc 3d
       0.61482286 0.21620573 0.5327158 0.09187766
000260 f5 7a 36 3f 3b 6d 5c bd 5a dd 75 bf 1c 83 07 bf
       0.7128137 -0.053815108 -0.9604088 -0.5293443
000270 2e 0e a8 bf 3e b9 9b bf e3 18 1a bf 3c 24 c2 3f
       -1.3129327 -1.2165906 -0.60194224 1.5167308
000280 66 ce 95 3f d6 7d d3 3f a5 46 c8 bd 37 c0 46 3f
       1.1703613 1.6522777 -0.097790994 0.77637047
000290 e2 c7 9c 40 88 fe af be cb df 35 3e 27 3d 02 41
       4.8993998 -0.3437388 0.17761151 8.13993
0002a0 10 41 e6 3e e1 c7 c8 be d7 41 a6 3f 65 1d 50 bf
       0.44971514 -0.39214996 1.2988843 -0.8129485
0002b0 b1 1f ea bf 67 88 c8 bf 9a ab c4 be 01 10 b8 bf
       -1.8290921 -1.5666627 -0.38412172 -1.4379884
0002c0 33 11 43 be da 2d bb bf 18 76 f3 3d 67 81 9b be
       -0.1904953 -1.4623368 0.11887759 -0.30372164
0002d0 2d 21 55 3f f3 0f ff be f1 09 95 3e 5a b5 90 3e
       0.8325375 -0.49816856 0.29109147 0.2826336
0002e0 10 b6 29 c0 0e 84 80 c0 7a c9 93 be b3 8b ad be
       -2.6517372 -4.01612 -0.28864652 -0.33895645
0002f0 c2 53 94 3f ef ec 96 be b7 d5 0d 40 60 8a fd bf
       1.1588061 -0.2947764 2.216169 -1.9807854
000300 12 d7 63 3f d7 59 60 3f 6a 77 05 3f a3 31 a6 bf
       0.89000046 0.87637085 0.52135336 -1.2983898
000310 19 00 80 bf 0c 30 52 3c b1 b2 59 bf 29 31 25 bf
       -1.000003 0.012828838 -0.85038286 -0.6452814
000320 78 13 62 3d 1f 8b f8 3e 20 65 41 3e 27 ee 44 40
       0.055194348 0.4854364 0.18886232 3.0770357
000330 cf 1b b1 3d 3d 1e 09 3f 29 cc 75 3f 3f 05 d2 be
       0.08647882 0.53561765 0.9601465 -0.41019627
000340 fb 1c e9 3f dc 0c ba 3d 49 cf 1a 3f 66 68 52 3f
       1.8211969 0.09084484 0.6047254 0.8219055
000350 81 ec 19 3f bf a1 f1 bf 0b 98 11 bd b3 cf 27 c0
       0.601265 -1.8877486 -0.03554539 -2.622052
000360 40 11 18 bf 9c 63 eb 3e 56 61 39 be 1d 0d 45 bb
       -0.5940132 0.45974433 -0.18103537 -0.003006763
000370 fa 4e 17 40 e6 a4 0c 3f 5e c9 5d 3f 6c 2d 70 bf
       2.3641953 0.54939115 0.86635387 -0.9381931
000380 01 7d 0a 40 ed 09 52 bf 80 69 84 3f 1c 83 25 c0
       2.1638796 -0.82046396 1.0344696 -2.5861273
000390 ba b7 c4 3e 87 da b2 3e 73 fb 6e 3d d7 40 c1 be
       0.38421422 0.34932348 0.05834527 -0.3774478
0003a0 62 ea 6d be 09 31 68 c0 6e 52 39 bf 57 e7 53 be
       -0.23233941 -3.6279929 -0.723914 -0.20693718
0003b0 b2 b9 aa bf 41 1d 18 3f cf 02 d3 3c 1f 85 93 bf
       -1.333792 0.5941964 0.025758175 -1.1525
0003c0 43 81 d0 3e a1 6e 40 bf cb 9b ce bf 09 ff aa bf
       0.4072362 -0.75168806 -1.6141294 -1.335908
0003d0 2f 7b f3 bf 05 11 5d bf 41 ce 86 3f 8a 79 80 3f
       -1.9021968 -0.86354095 1.0531694 1.0037091
0003e0 6e d3 ef bd 2f 2f 39 bd d5 56 f0 3f c6 50 a3 be
       -0.11710249 -0.045211013 1.8776499 -0.31897563
0003f0 5e a9 88 be 61 c9 01 3f 99 71 9a be a5 92 27 40
       -0.26691717 0.50697905 -0.30164793 2.6183255

layer2.1.bias f4 [256]
000000 aa 11 99 c0 17 5d 95 bf 2c 98 28 3f ef cb 9e 3e
       -4.7834063 -1.1669034 0.65857196 0.31014964
000010 bd dd 88 40 88 e6 94 c0 56 2b b7 3f 9d c1 a9 3f
       4.2770677 -4.653141 1.43101 1.3262211
000020 82 7f 08 3f b9 99 74 c0 5a 53 da 3e f5 00 85 3e
       0.5331956 -3.8218825 0.42641717 0.25977293
000030 01 89 3b bf 11 1d 9b 40 1b 31 2f 40 78 a9 a6 bf
       -0.73255926 4.847298 2.7373722 -1.3020468
000040 2b 81 35 40 93 86 36 be 3f 01 7d bf 2d 39 0d 3e
       2.8360088 -0.17824773 -0.98830026 0.13791342
000050 e1 ed 40 c0 08 1e 6c 40 f5 4b 14 bf aa 9e cf bf
       -3.014519 3.689333 -0.579284 -1.6220295
000060 7d 3c 23 bf f8 55 b7 3f 21 fb 13 40 b4 74 12 be
       -0.6376417 1.432311 2.3122027 -0.14302331
000070 e5 88 0e 3f 4d 10 25 40 d5 8d 5e 3e 6b bb 95 3e
       0.55677634 2.57912 0.21733792 0.2924455
000080 f1 d7 09 40 66 8e 4f 3f 36 00 17 c0 fe 56 a3 bf
       2.153805 0.8107666 -2.3593879 -1.2760923
000090 87 2e 72 3f d4 d7 5c be 1f 52 b1 be ce 54 58 3e
       0.94602245 -0.21566707 -0.34632966 0.211261
0000a0 53 bf 87 40 9f 8e 8a bf b5 43 e2 bf 20 c0 c3 3f
       4.242105 -1.0824775 -1.7676913 1.5293007
0000b0 61 21 46 3e e3 85 28 40 14 80 96 bb d2 8e ca bf
       0.1934867 2.6331718 -0.004592905 -1.5824835
0000c0 b0 c6 77 be 69 5a 51 c0 be 52 0c c0 e4 5e 5b 3f
       -0.24196887 -3.2711432 -2.1925502 0.85691667
0000d0 39 f1 d4 3f 41 bb 8a bd e2 08 1f c0 cb 93 0e c0
       1.6636115 -0.06773997 -2.4849172 -2.2277706
0000e0 17 1a 9f 3f 54 e1 3b c0 6e 2b 6e be 76 cf 83 3f
       1.2429837 -2.935628 -0.23258755 1.0297687
0000f0 e0 45 92 40 df c5 05 bf 68 32 0b 40 3c 08 b0 c0
       4.5710297 -0.5225505 2.1749516 -5.501005
000100 69 3e 98 3e 49 04 e9 bf 93 69 4c 40 fd e0 8a c0
       0.29735115 -1.8204433 3.1939437 -4.3399644
000110 92 c9 4d bf 1c 53 20 40 a0 8a 7c c0 da 60 b2 c0
       -0.80385697 2.5050726 -3.945961 -5.5743227
000120 d3 3f 36 40 66 a1 c3 40 4e 8c d9 40 6b 82 33 c0
       2.8476455 6.113452 6.798377 -2.804835
000130 71 b6 a3 be d2 de 2d c0 b4 a4 ae 3f a1 ab 77 40
       -0.3197513 -2.7167249 1.3644013 3.8698504
000140 71 04 78 c0 e6 ee 7a c0 40 d0 8b 40 b1 25 19 c0
       -3.875271 -3.9208312 4.369171 -2.3929255
000150 89 e2 ff 3f 2c e6 6d 40 d0 2b c5 bf d6 31 b7 40
       1.9991008 3.7171736 -1.5403996 5.7248335
000160 13 0c 20 3f 5e 47 36 c0 b4 9c c7 bf ca 7e 9a 40
       0.62518424 -2.848106 -1.5594697 4.827977
000170 a7 c1 c1 3f 95 7c 6f bd bb 7e d4 3f 39 d4 ef 3f
       1.5137223 -0.05846842 1.6601175 1.873664
000180 c4 8a cc bf cf ae ef 3e ad 92 4a 3e 61 a7 51 bf
       -1.5979848 0.46813056 0.19782515 -0.81896025
000190 34 e3 6e bf 40 80 05 40 b5 c5 07 40 14 f9 e0 b9
       -0.93315434 2.0859528 2.121442 -0.00042910187
0001a0 fa 30 30 be 08 a5 9d 3f 5c 19 c7 be ba 2a 7a c0
       -0.17206183 1.2315989 -0.38886535 -3.9088578
0001b0 44 47 3d c0 c6 23 4a bf 5e d0 5c bf 7c 86 43 40
       -2.9574747 -0.78960836 -0.86255443 3.0550833
0001c0 ac 22 0c 40 cc 1a bf 3f 62 49 c3 bf 9d 47 b3 3e
       2.1896162 1.4930053 -1.525677 0.35015574
0001d0 39 a4 ff bf 48 40 dc bf c9 ef 39 c0 5e f4 c3 40
       -1.9971992 -1.7207117 -2.9052603 6.12358
0001e0 34 33 1d 3f 76 75 32 3f 25 9b 45 40 43 2d 0a c0
       0.61406255 0.6971048 3.0875943 -2.1590126
0001f0 e8 e3 55 bf 4f c4 10 40 56 ef f6 3f 38 0a 90 c0
       -0.8355088 2.2619817 1.929179 -4.5012474
000200 68 2d 98 40 2a 57 8e c0 c7 22 ad bf 6f f4 38 3e
       4.7555428 -4.44814 -1.3526238 0.18061994
000210 4e fc 04 40 43 3a c2 bf 16 ce 44 c0 2a 52 60 c0
       2.0778995 -1.517403 -3.0750785 -3.505015
000220 a4 91 c0 bd e7 ab 05 c0 b8 81 23 40 46 fe fd 3f
       -0.09402779 -2.088617 2.5547924 1.9843223
000230 f3 72 86 c0 a3 d4 73 3e da 80 87 bf 0b fe 79 40
       -4.201532 0.23811583 -1.0586197 3.9061306
000240 22 2b 66 40 0e e2 5b c0 a5 66 5b 40 38 ab 2c 40
       3.5963826 -3.4356723 3.42814 2.6979504
000250 e1 f6 78 3f fb 14 fd bf 35 31 6d c0 e4 59 2d bf
       0.9725171 -1.9772028 -3.7061284 -0.6771529
000260 a5 de a4 40 e5 11 0e c0 d5 12 49 c0 77 fe 00 bf
       5.1521783 -2.2198422 -3.1417744 -0.5038828
000270 ad ed d9 3e 5d 9c d4 be 70 df 27 40 5c 01 83 be
       0.42564145 -0.41525546 2.6230125 -0.25586975
000280 82 e2 bb 40 e9 0e 9e 3f ea 87 99 3f 69 9e 3d 40
       5.8714 1.23483 1.1994603 2.9627936
000290 fa c9 3d c0 d2 20 7b 40 2c 99 d0 3e 37 9f 71 c0
       -2.9654527 3.9238782 0.4074186 -3.7753427
0002a0 e8 f4 f9 3e e2 3f 4a c0 79 01 d8 3f bc 56 76 bf
       0.4881966 -3.160149 1.687545 -0.96226096
0002b0 0a ad 38 be 9f 2e 01 3f d0 3d fe 3f 03 83 76 c0
       -0.18034759 0.50461763 1.9862614 -3.8517463
0002c0 3e f3 90 3e 7a be 14 bf 6e a0 32 c0 e7 0e 93 bf
       0.2831058 -0.58103144 -2.7910419 -1.1488923
0002d0 f9 a7 30 40 34 3c 09 c0 48 38 f0 bf c7 3f 15 c0
       2.7602522 -2.1442995 -1.8767176 -2.3320177
0002e0 80 6f 04 c0 b5 1a 21 c0 0a 6d 4d bf 7d 2e 17 3f
       -2.0693054 -2.517255 -0.80244505 0.5905531
0002f0 35 da 9d bf b5 b9 ee be 89 39 90 40 a7 71 ff bf
       -1.2332217 -0.46626058 4.5070233 -1.9956559
000300 d3 52 e6 bd 7d 8b 94 bf d7 3f 11 40 5b fe 98 3e
       -0.11246266 -1.1605068 2.2695215 0.29881558
000310 bc d0 01 40 3b 37 af c0 b2 01 fa bf 12 a9 0b c0
       2.0283651 -5.475492 -1.9531767 -2.1821942
000320 e9 e8 30 bf 57 b8 dc 3f cb 01 39 be 63 42 24 c0
       -0.6910539 1.7243756 -0.1806709 -2.566552
000330 18 72 2e c0 d8 1c 10 c0 f8 4f 2f c0 b9 e8 a3 bf
       -2.7257137 -2.2517605 -2.739256 -1.2805396
000340 52 be 87 c0 6e 2e 2d 40 b3 61 eb bf 61 67 4c 40
       -4.2419825 2.7059588 -1.838919 3.1938097
000350 cb 3a 58 bf 0b 00 de 3f 46 b3 38 40 3e f6 3f bf
       -0.8446471 1.7343763 2.885942 -0.7498511
000360 f2 74 13 3f a7 48 38 c0 c3 47 9b 3f 3a a4 48 40
       0.5760032 -2.8794343 1.2131275 3.1350236
000370 34 e4 a7 bf c7 21 23 c0 29 88 65 3e 3f 52 3f 40
       -1.3116517 -2.5489366 0.22415222 2.989395
000380 8e b9 4d 40 8d b0 55 c0 20 cb e3 3e b4 82 17 bf
       3.2144504 -3.3389008 0.4449091 -0.5918381
000390 1f 77 d1 3f 88 db 2c c0 e7 1f 2c 40 c5 39 a7 3e
       1.6364478 -2.7008991 2.6894472 0.32661262
0003a0 99 d7 53 40 47 1c c7 3d aa 23 8c be 9f 97 75 3d
       3.310034 0.0972219 -0.2737096 0.05995905
0003b0 1b 3e 28 be 91 0a 6d bf 4b c2 a6 c0 ef 42 3a 3f
       -0.16429941 -0.9259425 -5.2112174 0.7275838
0003c0 e4 ad a4 bf 62 4b 0b 3f 50 8e 86 be 92 3e f0 3f
       -1.2865567 0.544119 -0.2628045 1.8769095
0003d0 53 c2 e5 be d6 f2 7c bf be 5c 30 3f 60 49 51 c0
       -0.4487482 -0.9880804 0.68891513 -3.2701035
0003e0 c4 c3 b6 40 1b e3 35 3f 66 15 a1 3f ba a4 18 c0
       5.711397 0.7104966 1.2584655 -2.385054
0003f0 f5 46 fa 3e 19 7e 59 bf 98 c1 a3 bf a0 72 91 3f
       0.4888226 -0.84958035 -1.2793455 1.1363106

layer2.3.weight f4 [256, 256]
000000 a1 9a d5 bf a4 36 84 3d 2b 21 f1 3f ec 1d d8 bf
       -1.6687814 0.06455734 1.8838247 -1.6884131
000010 f0 52 a7 3e df f9 c7 bf 00 03 4d c0 e4 47 88 3e
       0.32680464 -1.562313 -3.203308 0.26617348
000020 6e 7f a6 bf ac 64 a8 bf 94 e1 bc 3f 19 6c e3 be
       -1.3007638 -1.3155723 1.4756341 -0.4441841
000030 71 00 39 3f 46 e5 09 bf 15 42 8e 3e c1 79 03 bf
       0.722663 -0.5386547 0.27784792 -0.51357657
000040 40 83 28 bf 94 90 07 40 82 a5 01 c0 e6 e3 09 3e
       -0.6582527 2.1181993 -2.0257268 0.13465843
000050 b3 bc 2c bf ef 49 f8 3f 30 b5 12 c0 25 63 f1 bf
       -0.6747543 1.9397563 -2.2923088 -1.8858382
000060 b6 7d a0 bf f8 3c 8f bf 7e aa 9d bd 2e 28 ac bf
       -1.2538364 -1.1190481 -0.076985344 -1.3449762
000070 67 a1 5c bd 9e f0 f4 3f 3e e1 04 3f ea 0a ff 3f
       -0.053864863 1.913593 0.5190619 1.9925206
000080 e5 64 cd 3f 7f b5 21 40 16 29 2e bf e5 3c 9a 3d
       1.6046416 2.5267026 -0.6803144 0.07531146
000090 69 b0 21 40 76 4b a0 3f 7a 6e 45 be 37 04 91 3e
       2.5263922 1.2523029 -0.19280425 0.28323528
0000a0 22 6e 90 3f dc 04 19 3f 91 04 9e 3f 8c 8a 7c 3e
       1.128361 0.5977304 1.2345144 0.24662226
0000b0 1a c9 89 3f 10 09 b1 bf 79 78 5a 40 b0 78 a1 bf
       1.0764496 -1.3830891 3.413603 -1.2614956
0000c0 61 39 09 bf 39 6a 10 c0 b9 a7 c2 bf 2c 7e 1a bf
       -0.5360318 -2.2564833 -1.5207435 -0.60348773
0000d0 2b 63 ec 3f d9 10 ed bd 73 69 8f 3f 07 31 5f bf
       1.8467764 -0.11575479 1.1204056 -0.87184185
0000e0 bf 66 82 bf 60 2c 3a c0 29 0b 82 3f 9c a8 96 3f
       -1.0187606 -2.9089584 1.0159656 1.1770205
0000f0 b1 34 cc 3e 90 f4 c1 3f 9a 3a 3e 40 6a 08 b8 be
       0.3988395 1.515276 2.9723268 -0.3594392
000100 a2 6e 1e c0 2f ab a0 3e df 4a 02 c0 f9 01 1f 3f
       -2.4755025 0.31380603 -2.0358198 0.62112385
000110 ed e0 eb 3e cd 2a dc 3f 27 cc e2 3f d1 16 8f be
       0.46070042 1.7200562 1.7718552 -0.27947095
000120 0a 75 e2 be 9f 24 d7 bf 5c dc e2 be aa b7 3d 40
       -0.4422992 -1.6808051 -0.44308746 2.964335
000130 19 62 d7 3f 90 08 d7 3e 60 b4 d9 3f 17 48 3c c0
       1.6826812 0.4199872 1.7008171 -2.9419
000140 5a d2 88 bf c3 38 0b 40 78 bc 34 c0 59 d6 0b c0
       -1.0689194 2.1753395 -2.8240032 -2.1849577
000150 fc 8c e1 bd 76 61 e7 bf 02 b2 47 bf b5 9c 5b 3d
       -0.11013219 -1.8076618 -0.78005993 0.053616244
000160 8e 50 ec bf 70 9d f5 bf 2d e3 6b 3e 60 0f 6d 3f
       -1.8462083 -1.9188671 0.2303588 0.92601585
000170 97 0a 19 3f aa 38 36 3f 68 e2 84 bf dd c0 e8 bf
       0.59781784 0.7118021 -1.0381594 -1.8183857
000180 f7 a4 89 3f 7c f1 da bf ef 59 8d 3e 8d 8a 93 3d
       1.0753468 -1.7104945 0.27607676 0.07204161
000190 e0 0d 87 3e 57 47 37 3f bd f5 54 c0 4d 50 80 bf
       0.26377773 0.7159323 -3.3274987 -1.0024506
0001a0 05 46 d1 3f 7b ff 46 bf dc 24 07 40 e0 84 79 3f
       1.6349493 -0.7773358 2.1116247 0.97468376
0001b0 ab 9b ae bf 09 bd 0a c0 88 83 77 bf 20 fe 52 3f
       -1.3641256 -2.1677878 -0.96685076 0.82419014
0001c0 99 40 0a c0 58 5b fc 3f 59 10 70 bf f4 4c dc bf
       -2.1601927 1.9715376 -0.93774945 -1.7210984
0001d0 66 6c eb bf f2 eb cc bf d7 4e d9 bf ab 1c 00 40
       -1.8392456 -1.6009505 -1.6977185 2.0017498
0001e0 db 58 62 3f 05 b5 9b 3f e1 6c 00 40 db 04 94 be
       0.8841683 1.2164618 2.0066454 -0.28909954
0001f0 19 1d 23 bf 0d 06 1c 3e b8 10 61 3e 4a 5d 8f 3f
       -0.63716274 0.15236683 0.21979034 1.1200345
000200 0e a2 94 3f 89 f1 03 40 ee c9 0f 40 f3 dc 55 bf
       1.1611955 2.0616171 2.2466998 -0.83540267
000210 8f 00 c0 bf 4e 24 3e 3d 39 49 55 bf 3b a5 ab be
       -1.500017 0.04642134 -0.83314854 -0.33524498
000220 4f fb e5 be 4c 64 ed 3e f5 7d d8 3f ce 89 b6 be
       -0.44918296 0.46365583 1.6913439 -0.35652012
000230 81 2f 14 40 28 0a c8 3e 34 6f c5 bf e9 b3 8f be
       2.3153994 0.3907025 -1.5424562 -0.28066948
000240 f1 de e2 bf 01 87 11 40 63 4e 98 be b9 f4 09 c0
       -1.7724286 2.273865 -0.29747304 -2.1555617
000250 20 03 cd 3e 1e ae 20 be ed e0 61 3f 26 81 a5 3e
       0.40041447 -0.1569142 0.88233835 0.32325095
000260 bd 54 0e 40 ea d7 02 c0 9f b7 a0 bf 8a 8d 29 40
       2.223922 -2.0444283 -1.2556037 2.6492639
000270 f2 cd 97 3f a3 bd d1 be 2c 7b 16 3f 70 a4 85 bc
       1.1859725 -0.40964994 0.58781695 -0.016313761
000280 78 fd 8e bf b9 1a 29 40 0d 2c d7 3f 6d 97 ae bf
       -1.1171103 2.642256 1.6810318 -1.3639961
000290 be 0e e7 bf 63 f5 c8 3e 3e 97 1d 40 3b 67 96 3e
       -1.8051374 0.39249715 2.462356 0.29375634
0002a0 56 b4 30 3f 6f 8f e6 bf ad 4d 43 40 d7 dd 5d 3f
       0.6902517 -1.8012522 3.051616 0.86666626
0002b0 96 cd 68 40 3b 33 5b ba 04 72 09 bf 5f 39 01 40
       3.637548 -0.0008361821 -0.536896 2.0191267
0002c0 ac 72 67 3e 29 88 ad 3e a9 e0 0c c0 9f a3 08 40
       0.22602338 0.33892944 -2.2012122 2.1349866
0002d0 35 5a cf be 21 8d 05 c0 08 ff 46 c0 2f 8f 15 3e
       -0.4049851 -2.0867388 -3.1093159 0.14605401
0002e0 b5 fb 13 40 ea 12 39 be fd a8 2d 40 d2 da 08 40
       2.312238 -0.18073621 2.7134392 2.1383557
0002f0 8a 8f 92 3f 91 68 0f c0 67 f8 8a c0 1c 88 b0 bf
       1.1450055 -2.2407572 -4.3428226 -1.3791537
000300 8c b3 50 c0 7f 78 59 3f 05 ac 25 c0 b2 6e 12 c0
       -3.2609587 0.8494949 -2.5886242 -2.2880063
000310 0a b4 d9 bf 15 37 94 3d 4d 24 0a c0 51 b2 7a bf
       -1.7008069 0.072370686 -2.1584656 -0.9792834
000320 e9 11 e7 3f 24 1b 5d 3e f1 ad d4 3f 38 f5 25 40
       1.8052341 0.21592385 1.6615583 2.593092
000330 aa a7 c8 3f e4 34 00 40 b9 02 d2 3f 52 ce 54 3c
       1.5676167 2.0032282 1.6407081 0.012988644
000340 ef 28 a1 3e 65 78 af 3f 51 22 20 c0 6a b5 d5 bd
       0.31476542 1.3708616 -2.5020945 -0.104349926
000350 95 ea 39 40 46 eb 65 bf 39 56 9b 3f 43 7a 4e be
       2.9049428 -0.89812124 1.2135688 -0.20163827
000360 97 51 3f be fc bc 72 bf 09 ad 93 bf 8f 0e 9d be
       -0.18683468 -0.9481962 -1.1537181 -0.3067517
000370 bd d8 fb bf e0 a9 8c 3e d9 a8 fa 3e bb 78 91 3f
       -1.9675518 0.27473354 0.48956946 1.1364969
000380 22 f8 d3 3f 8d 15 12 3f bc 7e 4c bf 94 4a bb 3f
       1.6560099 0.57064134 -0.7988088 1.4632134
000390 e6 ba f3 3f 9e 0f 03 3e ca b9 12 40 ff 14 68 40
       1.9041412 0.12798926 2.2925897 3.6262815
0003a0 dc 50 a0 3f 14 9c f7 3f bc e0 42 bf a4 3e 35 3f
       1.2524676 1.9344506 -0.7612417 0.70798707
0003b0 59 5f b1 3f ce 93 4d bf 94 27 e8 be 07 55 06 40
       1.3857223 -0.8030366 -0.45342696 2.0989397
0003c0 17 a4 7b be 69 af d5 be 52 0c 56 c0 ff b4 b4 3f
       -0.24574314 -0.4173539 -3.344502 1.4117736
0003d0 f9 f2 6c 3f fd af 03 3f 9a 88 c2 bf 89 20 46 3f
       0.92558247 0.5144041 -1.5197937 0.77393395
0003e0 3f 91 4c c0 19 2f d9 bf a8 f1 ee 3e 3c 91 61 bf
       -3.196365 -1.6967498 0.46668744 -0.88112235
0003f0 ad 98 42 3f 11 23 7e be 49 f7 52 be 2f e9 69 bd
       0.76014215 -0.24818064 -0.20602144 -0.057107147

layer2.3.bias f4 [256]
000000 c6 a7 b2 c0 28 fa 8c 3d 47 69 d1 40 6a df a8 40
       -5.58298 0.06883651 6.544101 5.277272
000010 8c 93 a8 41 26 07 1f c1 1f 95 08 c1 25 c1 9a 40
       21.072044 -9.939245 -8.5364065 4.836077
000020 c7 d3 39 c1 1f 47 62 c0 69 63 79 c0 ee 69 bb c0
       -11.614203 -3.535591 -3.8966925 -5.856681
000030 92 3b 06 c1 7a ab be c0 a7 2e 2d 3f a4 50 56 c0
       -8.389544 -5.958432 0.6764931 -3.348672
000040 13 4e 87 41 5f c5 b4 40 0b 67 94 41 32 8c a9 bf
       16.913122 5.649093 18.550314 -1.3245909
000050 61 79 d7 40 a7 d9 51 c1 6f 32 52 c0 4b d3 2d 41
       6.7335668 -13.115638 -3.2843282 10.864085
000060 ea e3 c9 c0 ea f7 f8 c0 b1 eb 03 c1 4b 94 9d c1
       -6.3090715 -7.780263 -8.245042 -19.697409
000070 24 b9 0c c1 53 a8 c1 40 2f 3f 3f bf fa 5c 20 40
       -8.7952 6.0517974 -0.74705786 2.5056748
000080 4e d3 6e 40 ca 4a b1 3c 4b 60 95 c1 00 7b b2 c0
       3.731647 0.021642108 -18.672018 -5.5775146
000090 1e 96 3b 40 24 80 8c 40 ff 65 88 c1 d8 ab b3 40
       2.9310374 4.390642 -17.049803 5.614727
0000a0 07 13 67 3e 8b 33 c9 c0 e1 bf 87 40 fb 5b 58 c1
       0.22565852 -6.287542 4.2421727 -13.522456
0000b0 11 28 48 40 8b c0 f9 40 e2 ad ae c0 bb 08 70 c0
       3.1274455 7.804754 -5.458726 -3.7505329
0000c0 60 20 c0 3f 68 bc ba 40 49 22 68 c1 42 6b 86 41
       1.500988 5.835499 -14.50837 16.802372
0000d0 7a 6a 50 41 11 b0 39 c0 b8 e9 00 41 b9 d5 49 c1
       13.025995 -2.9013712 8.05706 -12.614678
0000e0 81 e0 f6 40 b1 d6 a6 c1 f8 fb eb 40 94 15 7b c0
       7.7149053 -20.85483 7.374508 -3.923192
0000f0 96 86 41 bf a9 3a aa 40 fe 66 f8 bf 48 86 69 41
       -0.75595987 5.3196607 -1.9406431 14.5952835
000100 e8 63 d3 40 47 fb 98 c0 e1 cc 10 c1 be 4c 84 3f
       6.6059456 -4.7806735 -9.050019 1.033592
000110 af 29 a4 c1 90 d2 dc c0 67 0c 5f c0 79 df 6f 41
       -20.520353 -6.9007034 -3.485132 14.992059
000120 00 df 93 41 ce 84 b0 40 4a 7a 51 40 51 02 88 41
       18.483887 5.5162115 3.273089 17.001131
000130 bc 26 e2 c0 cf 66 9c 3e 0d 69 87 c0 b3 02 9f 40
       -7.0672283 0.30547187 -4.2315736 4.9690795
000140 ac 7a 29 40 75 50 aa c1 2f cc 44 41 e6 75 82 c1
       2.6481123 -21.289286 12.2998495 -16.307568
000150 3d 6d a8 c0 a3 71 1c 41 24 a3 bf 40 0e 96 58 41
       -5.2633348 9.777743 5.9886646 13.536634
000160 3d fd 89 c1 aa 09 5a c1 49 65 fb 40 fa 77 07 41
       -17.248652 -13.627359 7.856114 8.466791
000170 3f 35 4c c1 07 4e 97 c0 08 11 32 c1 4d fd 47 c1
       -12.763 -4.728275 -11.129158 -12.499341
000180 e8 69 af 40 86 bc 66 40 a4 89 67 40 27 f3 0e 41
       5.481678 3.6052566 3.617776 8.934363
000190 ba 9c 94 c0 28 9f 17 40 ea 4b 59 41 1c aa 56 c1
       -4.6441317 2.3690891 13.581034 -13.416531
0001a0 90 e3 83 40 0d 22 93 c1 e4 9c 92 40 0f 64 81 c1
       4.1215286 -18.391626 4.5816517 -16.173857
0001b0 5c b1 26 c1 42 ae e9 3f e7 f7 53 3f 51 98 99 40
       -10.418301 1.8256304 0.82800144 4.7998433
0001c0 96 27 b9 40 c2 2d b9 c0 46 2c 9a 41 77 5e 03 41
       5.7860823 -5.7868357 19.271618 8.210563
0001d0 02 cd 3f c1 cd 8f f0 40 a1 4e a7 41 5a 91 8d 41
       -11.987551 7.517554 20.913393 17.695972
0001e0 53 eb ee bf 46 50 84 41 82 0a 83 40 eb a2 a0 40
       -1.8665565 16.539196 4.0950327 5.0198874
0001f0 5f 4c 6d 41 9f 49 da c0 77 24 30 c1 70 e6 09 c1
       14.831145 -6.821487 -11.008903 -8.618759
000200 32 00 36 40 5e bf 26 c0 b8 5a 95 40 ac f0 40 3f
       2.843762 -2.6054301 4.667324 0.75367236
000210 6b 65 19 c1 b0 c0 74 c0 c3 74 bc c0 be f6 93 40
       -9.58726 -3.8242607 -5.889253 4.62387
000220 a9 0c df bf a8 c3 77 c0 8d 5f 8e 40 0e d2 89 40
       -1.7425739 -3.871317 4.449164 4.3068914
000230 62 12 5a 40 29 3c d9 c0 d1 b6 66 40 cc c2 29 40
       3.407372 -6.788594 3.6049082 2.6525145
000240 74 c5 ad c1 5e 30 3c c1 c9 39 4e c0 69 fb 2b 41
       -21.721413 -11.761808 -3.222277 10.748879
000250 3f 3a 15 c1 94 c3 64 40 bb de 0d c0 96 f2 44 c1
       -9.32672 3.5744371 -2.2167194 -12.309225
000260 43 63 8e 40 d9 20 fb c0 88 18 c8 c0 cc c3 f9 c0
       4.449617 -7.8477597 -6.2529945 -7.805151
000270 30 62 48 c1 71 e5 26 c1 07 71 86 c0 dd ea 70 40
       -12.523972 -10.431016 -4.2012973 3.764335
000280 72 07 00 c1 f9 f4 11 41 53 f6 5c 40 e4 e6 98 40
       -8.001818 9.122308 3.4525344 4.778185
000290 78 04 a3 41 60 ea 8a c0 0a 4d 44 40 7b 1c 78 41
       20.377182 -4.34111 3.067202 15.506953
0002a0 9a 95 0b c1 ef 80 4a 41 c5 a9 74 c0 d4 35 30 41
       -8.724024 12.656478 -3.822862 11.013142
0002b0 28 84 52 41 59 81 71 c0 b4 2c c9 bf e7 a2 8e 40
       13.157265 -3.7735198 -1.5716767 4.4573855
0002c0 8d ce 6c c1 d7 54 d6 40 0c d2 99 c1 16 6c cd bd
       -14.800427 6.6978564 -19.227562 -0.100303814
0002d0 f9 5a 80 41 c0 fb a2 c1 3f 93 1e c1 62 44 6a 41
       16.04442 -20.372925 -9.910949 14.641695
0002e0 44 7b 6d c0 09 40 31 41 83 5c 17 41 f2 31 d9 c0
       -3.7106485 11.078134 9.460086 -6.787347
0002f0 aa 59 bc 3f 55 7e 0f c1 72 00 9f 40 03 e5 8d c1
       1.4714863 -8.968343 4.9688044 -17.736822
000300 26 67 17 41 25 c0 ed c0 e0 b9 a6 c1 c3 18 35 c1
       9.462683 -7.429705 -20.84076 -11.318545
000310 da 84 0a c1 36 a3 02 bf d6 85 43 c1 e6 8d e1 bf
       -8.657434 -0.5103029 -12.220175 -1.7621429
000320 62 d4 aa c1 ec a1 87 40 f1 01 3f 41 93 36 bb bf
       -21.353703 4.238516 11.937974 -1.462603
000330 ef af 82 c1 3d 23 fc c0 c6 d0 da c0 64 f5 3b 3f
       -16.335905 -7.8793015 -6.837985 0.7342131
000340 cd 14 a4 bf e6 6b d6 40 53 d8 57 c1 c1 0b 9e c1
       -1.2818848 6.700671 -13.490314 -19.75574
000350 0a 35 0d 41 72 6b 22 c1 01 6b 93 41 b9 26 08 c1
       8.825449 -10.151232 18.427248 -8.509454
000360 7b bd a7 41 89 ef 79 be fc cc e7 bf cc d2 66 3f
       20.96752 -0.24407782 -1.8109431 0.901654
000370 6f a9 10 c0 1c 34 46 40 10 b1 a6 c1 e4 bc 9d 40
       -2.2603414 3.0969305 -20.836456 4.929308
000380 20 d0 3a 41 9e 28 89 c1 e6 af aa c0 f3 0b be 40
       11.675812 -17.144833 -5.333972 5.9389586
000390 05 bf 36 40 88 41 fb c0 6d f3 0a c1 dc 7b 24 41
       2.855409 -7.8517494 -8.68443 10.280239
0003a0 b5 6d 45 c0 23 8c c0 c0 88 0f 6e c1 04 a0 79 40
       -3.084821 -6.0171065 -14.878792 3.9003916
0003b0 8f 69 30 c1 db 69 73 41 16 0b 9c 40 92 80 62 41
       -11.025771 15.213344 4.8763533 14.156389
0003c0 81 21 78 c0 79 80 d0 c0 dd 03 8f c1 4e 1b 36 41
       -3.877045 -6.5156827 -17.876886 11.381666
0003d0 d9 f3 03 c1 d2 de 37 40 0b 16 82 c0 d3 29 fc 40
       -8.247033 2.8729749 -4.065191 7.8801055
0003e0 46 c8 cf c0 21 62 80 c1 da 82 52 40 4a d7 e5 40
       -6.4931974 -16.047915 3.2892365 7.1825304
0003f0 7e 5f 60 41 65 0e b4 bf 78 10 9b c1 b5 09 0d c1
       14.0233135 -1.4066893 -19.383041 -8.81487

layer2.6.weight f4 [7, 256]
000000 a4 d1 70 3e 82 38 37 be 1e f7 15 be 2d 06 07 3e
       0.23517472 -0.1789265 -0.14645049 0.1318595
000010 76 d9 0f bf 14 8d 8c 3e 59 3d af 3e 80 7a 59 bd
       -0.56191194 0.27451384 0.34226492 -0.05309534
000020 47 d1 a1 bc 0d 21 c5 3e 38 00 2b be 77 ad 86 bd
       -0.019753112 0.38501778 -0.16699302 -0.065760545
000030 b4 56 2d 3e 72 b3 8a 3e 70 cb e1 3d 02 96 8d 3d
       0.16927606 0.2709003 0.11025131 0.06913377
000040 8f 9d 2b bf 1f 00 9f 3d 47 56 b4 be 72 e8 05 be
       -0.6703729 0.07763695 -0.35222074 -0.13076952
000050 44 e1 69 be 65 ff b0 3e 83 86 97 bd b9 c4 bb 3d
       -0.22839838 0.3456985 -0.07398703 0.09168381
000060 83 76 8d be 3f 80 be 3d 44 dd e2 bd a6 06 8e 3f
       -0.2762948 0.09301805 -0.11077359 1.1095779
000070 69 c0 83 bd 64 2c 96 be e5 b2 1a be be 38 80 be
       -0.06433184 -0.29330742 -0.15107305 -0.2504329
000080 91 ed 5b be 49 ed 25 3e 93 de 75 3f a4 31 3c 3e
       -0.21477343 0.16203798 0.96042746 0.18378311
000090 05 f3 6c be b1 af 88 be 6c 86 81 3f ec 44 20 3e
       -0.2313958 -0.26696542 1.0119147 0.15651292
0000a0 21 26 eb 3e 7a 9f ba bd bf db 9d bc 24 a4 11 be
       0.45927528 -0.09112449 -0.019269822 -0.14222771
0000b0 b0 0d 5f bc f6 8a 25 be 7d 5a 78 3e dd 1b a8 bd
       -0.013614103 -0.1616629 0.24253269 -0.082084395
0000c0 9f 62 ab be e1 f9 0c bc 15 3b 86 3e 8a cb 08 bf
       -0.3347368 -0.008604498 0.2621695 -0.53435576
0000d0 b6 eb c9 be 22 84 93 bd 47 09 ea be a0 28 9d 3d
       -0.39437646 -0.07202937 -0.45710203 0.07673764
0000e0 d7 af ce be dc dd 56 3f 5e 25 5c 3d 1e 5b 42 bd
       -0.4036853 0.8393228 0.053746574 -0.047450177
0000f0 01 80 73 be 1e ca 41 bd 01 df e0 bb c5 d6 07 bf
       -0.23779298 -0.047311895 -0.0068625216 -0.5306209
000100 60 53 fe 3b 68 92 e9 3d f1 41 cd 3c 7a 76 ae 3d
       0.007761404 0.11404878 0.025055857 0.08518691
000110 70 99 4a 3f bd 0f 99 3e e5 5d da bc 3a d5 d8 be
       0.7914038 0.2989482 -0.0266561 -0.4235018
000120 72 df 4f bf ff 32 2a be 1b 62 45 3e 23 1b 1e bf
       -0.81200325 -0.16621016 0.19275706 -0.6176016
000130 b9 c2 32 3c 6b 6a 17 3e 33 cf 14 3e 82 27 3b be
       0.010910683 0.14786689 0.14532165 -0.1827679
000140 47 fd 38 be 73 35 4c 3f 87 cc 80 be fe 6f 3e 3f
       -0.18065368 0.7976906 -0.25156042 0.74389637
000150 5b 02 1e 3e 3c 2d 39 3d a9 1c 49 be 47 b3 de be
       0.15430586 0.045209154 -0.19639839 -0.43496153
000160 de 73 84 3f 4c 18 6f 3e aa fa b3 be 0f ba 92 be
       1.034786 0.23349112 -0.3515218 -0.28657576
000170 d1 ac 94 3e 14 d5 ab be f6 8d 5b 3c b9 cf 10 3f
       0.29038098 -0.33561003 0.013400545 0.5656696
000180 2c c6 38 3d ab 37 9b 3e f4 82 71 3e 96 9b e6 be
       0.045110866 0.3031591 0.23585111 -0.45040578
000190 46 5f 8c 3e bb 2e 9f be 6e 98 b4 be 73 51 1b 3e
       0.27416438 -0.3109034 -0.35272545 0.15167789
0001a0 60 00 b9 be 6b 63 56 3f 8c a0 bb 3e 65 ef c0 3e
       -0.361331 0.8374545 0.36645925 0.37682644
0001b0 71 00 9a 3e 0f a1 d3 bd 6f 29 8b 3e 28 da de 3b
       0.30078462 -0.10333454 0.2718005 0.0068009086
0001c0 c2 af a2 3d 14 25 38 3d 09 e1 1c bf 8d 1d ac 3d
       0.079436794 0.044957235 -0.61280876 0.08404074
0001d0 78 a9 71 3d 60 2f 85 be 0e 0e 89 bf 37 c3 f6 be
       0.05899951 -0.26012707 -1.0707414 -0.48195812
0001e0 9d f9 11 3e 60 c7 aa be 3a b9 99 3e 50 a8 98 3e
       0.14255376 -0.33355236 0.3002413 0.29815912
0001f0 ce d9 c5 be 54 13 5d 3e e0 de cc 3e 08 6d 97 bd
       -0.38642734 0.21589404 0.4001379 -0.07393843
000200 60 62 dc bd e5 b7 c4 bd ae 51 92 bd 77 93 44 be
       -0.10760951 -0.096053876 -0.071444854 -0.19196878
000210 59 1c 56 3e 11 53 a4 3d 02 69 dd 3e bd 6d 61 3d
       0.20909251 0.08023656 0.43244177 0.055036295
000220 5a f1 79 3e 77 fd 03 be a9 e3 b6 be 27 a8 44 be
       0.24408475 -0.12889658 -0.35720566 -0.1920477
000230 0b 36 87 bd 1e 7f 77 3e 76 7b d2 3b 69 3b 74 bd
       -0.06602105 0.24169585 0.006423409 -0.05962697
000240 b0 02 b3 3f 98 d9 ef 3e 4c 5b 73 be 03 bb 03 bf
       1.3985195 0.46845698 -0.23765296 -0.5145723
000250 5e a5 15 3e 42 f5 5a 3e 0c 09 0a bd e5 13 28 bc
       0.14613864 0.21382621 -0.033700034 -0.0102586495
000260 de 8a 03 be b0 a5 48 3e 13 f9 d0 bd f1 22 ba 3e
       -0.12845942 0.19594455 -0.10203757 0.36354783
000270 36 85 6c 3e 17 d5 9b 3e d9 52 a4 3d d8 c4 a6 bd
       0.23097691 0.30436012 0.080236144 -0.08143014
000280 fe b9 b9 3d 8d e2 87 bd 0a c9 da be bf 27 91 be
       0.09068678 -0.06635008 -0.42731506 -0.28350636
000290 ed 02 8c bf 87 ed 00 be 87 8e 0d 3e 64 b2 36 bf
       -1.0938393 -0.1259061 0.13823901 -0.7136595
0002a0 ff 58 9a 3e a9 5e c2 be ad 90 0d 3b 6b 58 ec bd
       0.30146024 -0.37962845 0.0021601126 -0.11540302
0002b0 b2 a4 b8 be 10 a3 ed bd f5 c4 72 be 3b aa 8e bd
       -0.36063153 -0.11603367 -0.23707946 -0.06966063
0002c0 3a db ac 3e 43 73 1a 3d 91 3b 56 3f 46 1b 83 3e
       0.33761007 0.03770758 0.8368464 0.25606745
0002d0 9a 59 6e bf 11 5b 01 3f 16 10 5c be 12 4d fe be
       -0.9310547 0.5052958 -0.21490511 -0.49668175
0002e0 6a 60 8d 3e a2 78 80 bd 23 fb 66 bd 4b b4 28 bd
       0.2761262 -0.06273009 -0.056391846 -0.041187566
0002f0 cb 95 0b 3c f5 76 42 3e 2f 25 f6 3d 4d c0 34 3f
       0.0085196 0.18990691 0.12018811 0.7060593
000300 97 7d 85 3d 9e 0d 02 3e c2 60 93 3f 09 b9 85 3e
       0.06518095 0.12700507 1.1513903 0.26117733
000310 77 4c 5b 3d 94 77 34 3e 2b 59 3b 3b 6c 0c bd bc
       0.05353972 0.1762374 0.0028587084 -0.023077212
000320 f3 6b 84 3f 0d 0d 0c 3e 7e a2 43 3d 47 0b 9f 3c
       1.0345443 0.13676853 0.047762387 0.019414557
000330 8f 9b 8a 3e 78 8a 0f be 44 26 81 3d 84 a1 96 3d
       0.27071807 -0.14017665 0.06306127 0.073550254
000340 f1 8e 9d 3d 80 af 9e be fe 09 28 3e 85 ee 46 3f
       0.076932795 -0.3099327 0.16410062 0.777077
000350 7b 69 f3 be 6b fa cd 3e a8 94 09 bf 74 91 f0 bc
       -0.47541413 0.40230116 -0.53742456 -0.029366232
000360 5a fa 38 bf c3 da c5 3e 44 dc 18 be b0 22 72 bd
       -0.72257006 0.38643464 -0.14927775 -0.05911511
000370 f6 9f 05 be 73 c9 5e be 96 d2 89 3f 39 8b ce 3d
       -0.13049302 -0.21756534 1.0767391 0.10085148
000380 6e 06 35 bf 58 59 99 3e d5 f7 63 3e 4d 86 5a bd
       -0.70712936 0.29950976 0.22262509 -0.053350735
000390 bd 38 0c be cd 9f c2 bd b4 a7 23 3e 99 c9 c6 be
       -0.13693519 -0.09503136 0.15981942 -0.38825682
0003a0 60 62 09 be fc be 9f 3d 8c 47 81 3e c5 6e d4 be
       -0.13416433 0.07800099 0.25249898 -0.4149076
0003b0 e3 b3 d9 3e e2 6c d4 be 38 f4 ab 3e c2 fa 21 bf
       0.42520055 -0.4148932 0.33584762 -0.6327325
0003c0 25 0b 69 3e a6 c5 8a bd 44 ec 0b 3f a1 b1 97 be
       0.22758158 -0.0677598 0.5465739 -0.29627708
0003d0 9c cc 0d 3e 3e 6c fb bd 41 21 c7 bd da 19 1a 3e
       0.13847584 -0.12276505 -0.097231396 0.15048924
0003e0 72 c6 42 3e c1 78 8c 3e 91 d0 31 be 1c 11 97 be
       0.19021013 0.27435878 -0.17364718 -0.2950524
0003f0 ef 0e 8f be e9 cb ad 3e 83 70 3e 3f 65 83 f8 3c
       -0.2794108 0.33944634 0.7439043 0.030336091

layer2.6.bias f4 [7]
000000 68 90 7d c0 6b cd 99 c0 ca ef b6 3e 10 ee 05 c0
       -3.9619389 -4.8063254 0.3572982 -2.0926552
000010 26 bb 7c bd 14 7e fe bf e2 89 14 bf
       -0.061701916 -1.9882226 -0.5802289
