Model_Files/bpi/EventPredictor_parameters_feedforward_1e-05.pt (torch, 298370 bytes, 6 tensors)

layer2.0.weight f4 [256, 24]
00000000: 76a2 8e3d 0f51 bcbd a8f4 6f3d c854 893d
00000010: 9b56 e7bd a591 003d 1601 5dbd 478d 49be
00000020: af54 80bd 435f 97bd ef9f d1bc f364 b3bd
00000030: 18dd 91bd f409 ad3c b18b c23c c49f 28bb
00000040: 89d1 3e3e b06d 1dbd 93ad 233e 9106 1a3c
00000050: 38c7 f43d 5f6a ce3d 2c0b dcbc 489c 37bd
00000060: 9c2a 3e3e 38ce 543d e5df 03be 9def 1c3e
00000070: 3106 123e 632c e9bc 5a00 2dbc e66b 00be
00000080: cb4a c5bc 923e e0bb 4bfd 9a3d c552 8f3d
00000090: 0ecb be3d c727 37bb c2b0 a5bd db76 ae3c
000000a0: e169 08bd f25e 893d 4a88 503e 1413 e23c
000000b0: f518 fbbc bba4 f6bd 87de 4c3e 8b8f 43bd
000000c0: da9b 203e 55e2 37bb e13b fb3d 6b4c 473e
000000d0: d8b3 4e3d 103f 04bd 9090 c33c 7a7c 02be
000000e0: 5ff8 23be f963 f63d 5fac 10be f5af 1cbe
000000f0: 9ddf e1bd 0c49 343e e289 183e 4566 f0bd
00000100: 32c5 463d 719b 013e b9fd abbb 5e22 6b3d
00000110: 386e 233e 0029 d03d 0056 eb3d c9a4 9b3c
00000120: f81a 3c3e 711c cbbd dea5 cfbd df74 bdbc
00000130: b322 123d 9bde 0b3e b27f f53d ccd0 3f3e
00000140: 2f5e 01be 1d7e 70ba 4bbb 013e 5955 0e3c
00000150: c016 8dbb 8054 323e ff2f dabd 26f8 573d
00000160: e1bd 2fbe 9a78 54be c446 02be f4e3 4c3d
00000170: f6d6 b23b b562 323e 3316 063e 13f7 ec3d
00000180: 34f5 2ebe 581f 21be 0808 91bd 7a81 f8bd
00000190: cfd9 f83d c1c1 c3bd daca 6cbd ae21 b73d
000001a0: db0c e13d c1db 88bd c87e abbc 6a79 413e
000001b0: c445 1abc 24f7 d9bd 6750 483e a56a 14be
000001c0: fd97 94bd dbf9 8b3d c7f8 b1bd c21f 9cbd
000001d0: 01e1 ddbc 873a 1ebc 7cf1 04be 7be8 4a3e
000001e0: 840e f33d 226b 1bbd 0268 a6bd dcf4 40be
000001f0: 4280 393d bd6a 0fbe e814 8f3c c47e 493e
00000200: 3e75 1cbe c52d 32be 837c 32bd f606 cc3d
00000210: 167a 453e 05c3 603c 51f4 a5bd d75c 28be
00000220: cf76 1a3d 7a3b 34be 06c7 2e3d 2089 233e
00000230: be60 633d 793d 953d 76b8 debd 66ed 0d3e
00000240: 6944 033e eff8 2f3e ad4d f5bd 27ed 813d
00000250: 406f 76bd 67bb 9ebd a065 283e 5cd9 a23d
00000260: 649c 2dbd 65e5 1ebd 62b4 223e d1c6 253e
00000270: 35e4 99bd d63e 153e 62c4 0f3e 469c 2e3d
00000280: 2d8b 383e 263c 8b3d c178 9cbd 2de3 57bd
00000290: 25db 12be 3c42 acbd ae6b 19be 9eaa f43d
000002a0: 3d71 5d3d 8b4c b9bd e38f 0cbe 5ab6 1abe
000002b0: ed01 a5bd 3686 d6bd b043 2d3e 6d3a c13b
000002c0: 2781 313e 3b23 303e dd33 523d a00e 803d
000002d0: 9f18 3cbe c765 233e 315b 10be 1ce3 613d
000002e0: 46b5 23be d783 a53d d69f 173c c28c c33d
000002f0: 01dc 25be abac e3bd c376 98bd f240 30bd
00000300: 2c81 0bbd b7b5 d73d 2291 eebd 589a 3dbe
00000310: c488 3c3e fd4a 9c3d 7fa8 00be 5193 38be
00000320: 0fbf 3d3d f0ac e8b9 9f65 06be 0a3a d93d
00000330: a184 153d 2a47 c73b f708 e4bd fdb4 d2bd
00000340: aa65 383e 8b4c 093e f5c1 983d e5f3 5e3d
00000350: 9436 12bd 471d af3d 892c 25be f009 1c3e
00000360: 1a5c b03d 10f4 32be ea95 58bc fe57 2ebe
00000370: be3b 3c3d 06a0 fabd cb04 bd3d 8d47 29be
00000380: 7501 ab3d 9d7b 9f3d 1ef0 013e ee83 8b3d
00000390: 8f8f 153d ec2b bf3d 8e9e 28be 0ccb 3b3c
000003a0: d9e5 453e 9123 0abe 1de1 0c3e 4091 c3bc
000003b0: 6d5f 433e 6e27 223d 0045 1ebe 0ad8 313d
000003c0: 0c4a 3e3e 0113 e4bd 5240 cd3d 49c7 5fbd
000003d0: cd91 ab3c cfd2 db3d f633 49be 8eab a93d
000003e0: 5069 e5bd 78fd 17be edf6 433e d4c6 f33d
000003f0: 9455 643d d151 1d3e 83d5 c1bd 5f44 0cbe
0.06964581 -0.09195148 0.05858293 0.06705624 -0.112958156 0.031388897 -0.053956114 -0.196828
-0.06266152 -0.073912166 -0.025588958 -0.08759489 -0.071222484 0.02112291 0.02374825 -0.0025729993
0.18634619 -0.038434684 0.15984182 0.00940098 0.119520605 0.100788824 -0.026860796 -0.044826776
0.18570942 0.051954478 -0.12878378 0.1532578 0.14260174 -0.028463548 -0.010559166 -0.1254116
-0.024083516 -0.0068433965 0.07567843 0.06998209 0.09316073 -0.0027947293 -0.080903545 0.02129691
-0.0333041 0.067075625 0.2036449 0.027596988 -0.030651549 -0.120431386 0.20006762 -0.047744315
0.15684453 -0.0028058488 0.1226728 0.19462745 0.05046448 -0.032286704 0.023872644 -0.12742797
-0.16012715 0.12030787 -0.14128254 -0.15301497 -0.11028979 0.1760599 0.14896348 -0.11738256
0.048527904 0.12656952 -0.005248752 0.057405822 0.15960014 0.1016407 0.114910126 0.018999474
0.18369663 -0.09917534 -0.101390585 -0.023127018 0.035677623 0.13659136 0.119872466 0.18731993
-0.12633584 -0.0009174066 0.12669103 0.008687341 -0.0043056905 0.17415047 -0.10653686 0.052726887
-0.17162277 -0.20749131 -0.12722307 0.05002208 0.0054577542 0.17420466 0.13094406 0.11570563
-0.17085725 -0.15734613 -0.0708161 -0.12134071 0.12150919 -0.0955844 -0.05781064 0.08941971
0.1098878 -0.0668254 -0.020934477 0.18893972 -0.0094160475 -0.106428415 0.19561921 -0.14493807
-0.07255552 0.068347655 -0.08690029 -0.07623245 -0.02708483 -0.009657509 -0.12982744 0.19815247
0.11868003 -0.037943967 -0.08125307 -0.18843406 0.04528833 -0.14005561 0.017466024 0.19677263
-0.152791 -0.17400272 -0.043575775 0.09962265 0.19284853 0.013718371 -0.0810324 -0.16441666
0.03771096 -0.17600814 0.042670272 0.15970278 0.055512182 0.072871156 -0.10875027 0.13860092
0.12819065 0.17184804 -0.11977706 0.06344061 -0.06016469 -0.07750588 0.16445017 0.07951614
-0.042385474 -0.038792986 0.15889123 0.16189124 -0.0751423 0.14574751 0.14039758 0.042629503
0.18021841 0.06798582 -0.076402195 -0.052706886 -0.1434141 -0.08411071 -0.14982483 0.11946605
0.05406307 -0.090478025 -0.13726763 -0.15108624 -0.08057008 -0.104748175 0.16920352 0.0058968575
0.17334424 0.1720094 0.051318992 0.062527895 -0.18368767 0.15956794 -0.14097287 0.05514823
-0.15987119 0.08081787 0.009254416 0.09548332 -0.16197206 -0.11116918 -0.07444527 -0.043030687
-0.034058735 0.10532706 -0.11648776 -0.18515909 0.18411547 0.076314904 -0.12564276 -0.18024947
0.046324786 -0.00044379337 -0.13124703 0.10606773 0.036503438 0.0060814815 -0.111345224 -0.10288427
0.18007532 0.13408105 0.07458869 0.054431815 -0.03569658 0.08550506 -0.1613027 0.15238166
0.08611317 -0.17475915 -0.013219336 -0.17025754 0.045955412 -0.12237553 0.0922943 -0.165312
0.08349887 0.07787249 0.12689254 0.06812273 0.03651386 0.09334549 -0.16466734 0.011461984
0.19325961 -0.1349013 0.13757749 -0.023872972 0.19079371 0.039588384 -0.15456009 0.04341892
0.18582934 -0.11136437 0.10022034 -0.054633413 0.020943547 0.10733568 -0.19648728 0.082846746
-0.112017274 -0.14842784 0.19137163 0.11903158 0.055745676 0.15363242 -0.09464552 -0.13697957

layer2.0.bias f4 [256]
00000000: 4513 24be 6145 0a3e 99da 8dbd 2f21 2d3d
00000010: 523c 74bd c35c 9ebc 4628 28be 2282 04be
00000020: dbed 8cbd 0e1f dd3c 8cf1 fd3d efab 883d
00000030: 6b9d 333d e99e 2bbe 6ba6 13be 2f76 debd
00000040: 3c45 53bd 9c5b 6ebd 09ee e33c 8a1a e4bd
00000050: 2300 33be 74d2 3dbe 2f88 0fbe f5c6 9bbd
00000060: ff09 26be cb81 0ebd a1e8 89bb 77e1 2f3e
00000070: 8d02 813d 0020 c4bd e8d2 7bbd 2ee8 b7bd
00000080: 81ac fabd 8e0d 0a3e 588b 3e3e af5a 643d
00000090: 76df 373e f71a 7ebc 562b 253e 3a38 60be
000000a0: f52f a6bd 097d 22be 8862 2cbe 1f9c 4dbc
000000b0: 239b f0bd 05dc 2ebe 9532 8b3d bac9 763c
000000c0: 48e4 05bd e68b 1c3d 5b69 f7bd b136 2a3d
000000d0: 4aad f93d 44db 8dbc 68ca 633d 776a c6bd
000000e0: aeff 313e 52c2 c43d 0435 d53d 4549 403e
000000f0: 5331 9cbd 16a8 b23d d91e 41bd 6655 2bbe
00000100: 650f ebbd a0ad cdbc 537b c03c fe6e ec3d
00000110: 4994 293d dfa4 8e3d 9189 eabc e771 ccbd
00000120: 38c7 1e3e 9ef9 323e e285 01be 6e98 27be
00000130: c59c 0dbc d55e 53bd e851 233e 3d96 33be
00000140: 6000 433e 86c6 0abe 2c33 8cbd 2b94 103e
00000150: 6f0c 81bd 7444 febd ea7a 1bbe d4c3 b5bd
00000160: 6c80 a73d b375 ff3d 1d24 42be 84ce f9bd
00000170: 1123 7abc 8e88 0fbe 035b 2ebe 40c5 e03d
00000180: be84 423e fd96 d03d fc94 2fbe 4e6a 35be
00000190: a18e 2cbd be25 a53d d46d eebd ab07 393d
000001a0: e8b8 583e 0c8e 8a3d 3dcb c6bd 75eb eabd
000001b0: 0856 c4bc 8f6f 6c3d 4844 293e 1ca9 523e
000001c0: 7b01 46be d1e2 73bd 679f e83d 4574 abbd
000001d0: f6f3 993d 045f b53b a0c5 f63d b735 233e
000001e0: 12b7 36be af0f 49be a1b7 663d e256 8abc
000001f0: 70de 1ebe b2b6 fcbd 9168 abbc df2a 1abe
00000200: 983e 263e e564 55be f71f 033b 25ef e8bd
00000210: 9333 1cbe 27fc 8d3d 71eb 31bc 32d1 f73d
00000220: b651 05be 2735 4abd e841 1fbe 046c 013e
00000230: 8f4f 8bbd 2f9e 0bbd 3693 11be 94c0 13bd
00000240: 50f5 1c3e 9f9a 323c 8dcc 20be 51f3 3c3e
00000250: 995c 49be 7757 03be c8db 9b3d 7f7d 493e
00000260: 556f 8fbd 297f b6bd cf6a 073e de1d 87bd
00000270: 4be8 a43d 0978 943a 0c55 b9bd e06e 1fbe
00000280: 6883 6ebd 76bf d1bc bf4f 033e 1b28 a93d
00000290: 52be 35be ca81 18be 706b 273e 27ce 203e
000002a0: d6f0 1bbd 95ad 48bd 4d39 05be 5075 18be
000002b0: 160b 05bc bd26 1dbc ece7 d6bd 8812 42bc
000002c0: 1a60 f9bd 9551 343b b352 72bd 6c1b 2b3e
000002d0: 0ea9 04be a593 8cbd 6265 4fbd 5fe9 693d
000002e0: 199d c2bc 6cef 443d 14ff 073d cafc 3bbe
000002f0: e35e 223e e39d 70bc 5f05 ec3d 611a 9ebd
00000300: 7f9a f4bd a9f4 69bd a686 f33d 14fc 7ebd
00000310: 24ed 1c3e a7cf 40be 0634 4f3e 88c4 17be
00000320: d3bc 89bd e55e 203d 0d4f 503e 2175 dfbc
00000330: 249d fc3d 97ae 95bc 2bea 20be 56d4 213e
00000340: 4653 55be 4bba 343d 6bde d93b a6aa 6abd
00000350: d7fe 093e 7c0a 193e 3773 95ba c6f8 0c3e
00000360: 5aac 1dbe a54b 8f3d d764 633d 314a 1fbe
00000370: 0547 1c3e bd4d 99bd cf30 b3bd 6470 b7bd
00000380: 320b 64be 8f6b 2ebe 06eb 8fbd c736 4fbe
00000390: 7aff 2c3e 632a 35be f089 223e 40f5 d53d
000003a0: 85b1 a7bc aaa4 b33d c8fa fe3d f3dc c0bd
000003b0: 3647 34be 92eb 963d 5280 d33d 4160 623d
000003c0: 35ab c93d bdcf 173c 4510 46be 89bd 823d
000003d0: 6b0d afbd 0657 1cbe 49d4 22be 83fc 263e
000003e0: 3ae7 c63d 1a42 2abe c762 c63d 223a 523d
000003f0: e038 093e 7518 5b3d 377c 56be 08a0 2a3d
-0.16022976 0.13503028 -0.0692646 0.042267974 -0.05962784 -0.019331342 -0.16421613 -0.12940267
-0.06881305 0.026992347 0.12399587 0.06673419 0.043851297 -0.16759838 -0.14418952 -0.108623855
-0.0515797 -0.058192834 0.027823465 -0.111378744 -0.17480521 -0.18537313 -0.14016794 -0.076063074
-0.1621475 -0.03479175 -0.0042086397 0.17175852 0.06299315 -0.09576416 -0.061480433 -0.08979832
-0.12239934 0.13481733 0.18607843 0.055750545 0.17956337 -0.015509359 0.16129813 -0.21896449
-0.08114616 -0.1586801 -0.16834462 -0.012549429 -0.1174834 -0.17076118 0.06796757 0.015062744
-0.03268841 0.038219355 -0.12080642 0.041556064 0.121912554 -0.017316468 0.05561295 -0.09688275
0.1738269 0.09607376 0.104105026 0.1877795 -0.07626595 0.08723466 -0.04714856 -0.16731796
-0.11477546 -0.025107205 0.023496306 0.115446076 0.04140118 0.069650404 -0.02863005 -0.09982663
0.15505683 0.17478034 -0.12648728 -0.16366741 -0.008643334 -0.05160411 0.15949214 -0.1753778
0.19043112 -0.13552293 -0.06845698 0.14119022 -0.063012 -0.124154 -0.15183607 -0.08875242
0.081787914 0.12473621 -0.18959089 -0.12197593 -0.01526715 -0.14016935 -0.17026906 0.109751225
0.1899595 0.10185049 -0.17146677 -0.17716333 -0.04212821 0.080638394 -0.11642042 0.04517333
0.21164286 0.067653745 -0.097067334 -0.11470691 -0.023966804 0.057723578 0.16529953 0.20572323
-0.19336502 -0.05954248 0.113585286 -0.08371786 0.07517235 0.0055350084 0.12049413 0.1593846
-0.17843273 -0.19634889 0.056327466 -0.016887132 -0.1551454 -0.12339534 -0.020923885 -0.15055417
0.16234815 -0.2083927 0.0020008066 -0.11373738 -0.15254049 0.0693286 -0.010859356 0.12100448
-0.13019451 -0.049367096 -0.15552485 0.12638861 -0.06802284 -0.034086403 -0.14216313 -0.03607233
0.15327954 0.010901122 -0.1570303 0.18452193 -0.1966423 -0.12826334 0.07610279 0.19676779
-0.07003657 -0.089109726 0.13224338 -0.065974936 0.08052119 0.0011327277 -0.090494245 -0.15569639
-0.058230788 -0.025603991 0.1282339 0.08259603 -0.17748383 -0.1489326 0.16349578 0.15703641
-0.038071476 -0.048993666 -0.1301014 -0.14888501 -0.008120319 -0.009591755 -0.10493454 -0.0118452385
-0.12176533 0.0027514447 -0.0591609 0.1670968 -0.12955114 -0.068640985 -0.050633796 0.057107326
-0.02375655 0.048079893 0.033202246 -0.1835815 0.15856509 -0.014686081 0.11524462 -0.07719875
-0.1194353 -0.05711809 0.118909165 -0.06225212 0.15324837 -0.18829213 0.20234689 -0.14821064
-0.067254685 0.039153 0.20342655 -0.027277531 0.1233466 -0.018271727 -0.15714328 0.15803656
-0.20832548 0.044122975 0.0066488287 -0.05729165 0.1347612 0.14945406 -0.0011402135 0.13766775
-0.15397778 0.0699685 0.05551609 -0.15555646 0.15261467 -0.074855305 -0.08749544 -0.08956984
-0.22269896 -0.17033218 -0.07027249 -0.2023574 0.16894332 -0.1769195 0.15872931 0.10447168
-0.02047039 0.087716416 0.124501765 -0.09417143 -0.1760529 0.0736915 0.103272095 0.055267576
0.09847108 0.009265837 -0.19342144 0.06383807 -0.08547481 -0.15267572 -0.15901293 0.16307263
0.09712072 -0.16626778 0.09686809 0.05132497 0.13400602 0.05349012 -0.20945822 0.041656524

layer2.2.weight f4 [256, 256]
00000000: d2c7 26bd 072c 81bd 03ba 8cb9 36c1 68bc
00000010: 090c 78bd a7c9 18bd 23df 68bd 2c3e 3bbd
00000020: 4e72 aa3b 4519 e8bc a504 04b9 866f 4b3d
00000030: da78 40bd 1d96 e03b a241 80bd 41ad 513d
00000040: 5940 9bbc 47e4 fcbc d328 303d 6f55 19bd
00000050: ff85 f8bc fec5 86bd 32d6 833d 0b39 c53c
00000060: 933c 203d a10f 593d e80d 173d 9705 903c
00000070: ab6a 97bc 7ec2 f1ba 1045 3e3c f27f 123d
00000080: 3d80 b1bc 5541 0d3d f90b e0bc 5abd 0ebd
00000090: 3c5c 97bc 9842 58bd 332b 433b 4a20 d03c
000000a0: e89d 08bb 54ed 6a3d dcac 6cbb 8ddb 183d
000000b0: 925b 8c3d e63d 903d 2f45 8c3b cd7f 1dbd
000000c0: b8e5 773c 3b4a 173d 7fde 193d 6214 423d
000000d0: 6011 daba 3c94 69ba 27d7 2c3d 9cab 7b3d
000000e0: ddd3 febc bfa7 6ebc 3170 033d 9355 33bd
000000f0: fa73 f2bb 1165 0c3d a8da 933d 360f d43b
00000100: b21d dbbc 440f cb3b ed57 46bd 4f10 c3bc
00000110: 70ae 3fbd f968 ffbc 4239 ebbb 6632 463d
00000120: 3d0b 2abd c9f0 d9bc 3643 fcbc 6474 61bd
00000130: 6339 a7bb d1ab 863d b5b1 67bc 0dd2 fd3c
00000140: c4be 5dbd 0c34 0fba 4b40 ffbb 9115 ae3c
00000150: 5492 b0bc bd66 973c 81b5 7bbd fd1e 3a3b
00000160: 1bab 4bbd 38f6 2e3c ac49 71bd 0666 253d
00000170: 1a32 93ba 6386 d73c 7e5b 0abd 107a 993c
00000180: 8702 bebc 053d 4f3c 2132 0f3c b1d0 df37
00000190: e1c4 903d d1ad 23bd 0e16 7bbd e937 c8bc
000001a0: 6c1c 13bd d154 1cbd 95f7 43bd b424 8abb
000001b0: c229 9dbd 9995 8fbb af0c 303d f100 c9bc
000001c0: f8fc 1bbb 2e52 bd3c ed80 ba3c 1f51 40bd
000001d0: d43a 863d f414 32bc ef4e 28bd 364c 0d3c
000001e0: 9559 3fbd b87a 15bd fd87 2d3c 1c0c 193d
000001f0: fc90 9cbc 740c 7fbd 8d81 c1bc 7acf f73c
00000200: 5da2 b23b 5896 373d f84b 523d a02f 33bd
00000210: 801d 03bd 86d9 083c 5dbf 86bc 6614 473d
00000220: 1cc7 69bd 3a08 163d f904 e4bb d802 c9bc
00000230: 11fa 19bd 4dbd aabb 79cf adbc 45a7 af3b
00000240: 844a 26bd 3380 913c fe15 63bd 5ed3 853d
00000250: 9abd b0bc 8272 62bd 0de0 743d 809e 473d
00000260: a00a 4e3d c37c 71bd 00bf 023c ceeb ffbc
00000270: aced a03c 60b9 313d b6be 8b3c 83de 24bd
00000280: ec65 6fbc ec62 7f3c 611d 25bc f5b1 3a3b
00000290: 6f37 123d 4457 dcbc a845 dc3c ee4f 923d
000002a0: f175 443c efe1 4ebd 9cd0 233d b67e 3d3c
000002b0: 958a 443d f4ce 583d 27c7 94bc 3141 e93c
000002c0: e318 873d 7834 91bd 6a4a 063d fa10 51bd
000002d0: 91de d73c eb3d a53b e6d8 123d 38eb c53b
000002e0: 0296 73bc f44e 3bbd ea7b 0bbd e907 7bbd
000002f0: d3a8 353d 15ab 9b3c 7b88 dabb 8acd 693d
00000300: 3454 523c 4653 8bbc dfa9 48bd ee12 d4bc
00000310: c2ea 803d b732 013d 2095 dcb8 15a7 ecbc
00000320: 8bb7 f83c 9601 7d3d d370 9ebd d6b0 5f3c
00000330: 190a 493d ebb4 fb3b 7d24 dd3c a6f3 76bd
00000340: fe62 37bd f018 30bd e3e0 fb3b ce9c 023c
00000350: 1035 11bd 49ee 20bc 43aa 30bd 5b10 69bc
00000360: 3c26 c9bc 6cea ff3c 7978 86bb 2a2c cfbc
00000370: 3e31 edbc 9688 d93c 2018 543d dd72 a6ba
00000380: 800a 033d fafe 88bb 3e9a 4dbc f4a6 cc3c
00000390: d895 11bd 08f5 6cbd 31a1 28bd a687 33bd
000003a0: c384 56bc 7223 893d 5d13 153d 119e a3bc
000003b0: 4ea6 353d 8f2e 41bd 98cf 373d f9bf 383d
000003c0: 0871 01bd 6213 eb3c dbbe 88bd c061 fc3b
000003d0: cf1b 633d 8425 24bd baee 18bc 84ca 573d
000003e0: 3d7f 5abc 877a 8a3d 25b2 6e3c 3adc 97bc
000003f0: a9d0 843d fde0 8b3c 6983 d1bc e09c 40bb
-0.040717907 -0.06307226 -0.0002684147 -0.014206221 -0.060558353 -0.037301686 -0.056853425 -0.04571359
0.0052016145 -0.028332362 -0.00012590231 0.049666904 -0.046990253 0.0068538324 -0.062625185 0.05119062
-0.018951582 -0.03087057 0.043007683 -0.03743499 -0.030337332 -0.06580733 0.06437339 0.024075052
0.039120268 0.05299342 0.036878496 0.01758079 -0.01848348 -0.0018444804 0.0116131455 0.03576655
-0.021667594 0.034486134 -0.027349459 -0.03484855 -0.018476598 -0.052797884 0.0029780387 0.025406022
-0.0020846073 0.05735524 -0.0036113774 0.037318755 0.06853403 0.07043056 0.0042807083 -0.03845196
0.015130453 0.036936026 0.037565704 0.04738272 -0.0016637258 -0.0008910333 0.042197373 0.061442956
-0.031106884 -0.014566361 0.032089416 -0.04378278 -0.0073990794 0.034276072 0.0721944 0.00647154
-0.026747558 0.006196888 -0.048423696 -0.023811487 -0.046797216 -0.031177985 -0.0071784565 0.048387907
-0.041514624 -0.026604073 -0.030793767 -0.05504264 -0.0051032766 0.0657574 -0.01414149 0.03098395
-0.054137006 -0.00054627727 -0.0077896467 0.021250518 -0.02155415 0.018481607 -0.061452392 0.0028399818
-0.049723726 0.01067882 -0.05890815 0.0403805 -0.0011230141 0.026309198 -0.03377866 0.018734962
-0.023194565 0.0126488255 0.008739979 2.6680851e-05 0.07068802 -0.039960686 -0.06130033 -0.024440723
-0.035915777 -0.038166825 -0.047843534 -0.004215801 -0.0767398 -0.004381847 0.042980846 -0.024536582
-0.0023801904 0.023110475 0.022766555 -0.046952363 0.06554189 -0.010869253 -0.041090902 0.008624127
-0.04671629 -0.036493987 0.010591504 0.037365064 -0.019112103 -0.062267736 -0.023621345 0.0302503
0.005451484 0.044821113 0.05134198 -0.04374659 -0.032010555 0.008352643 -0.016448671 0.048603438
-0.05707465 0.03662894 -0.0069586006 -0.024537489 -0.037591998 -0.0052105547 -0.021217095 0.0053605163
-0.040598407 0.017761325 -0.055440895 0.06534456 -0.021574784 -0.055284984 0.059783984 0.04873514
0.0503031 -0.058956873 0.007980108 -0.03124037 0.01964458 0.043389678 0.017058711 -0.040251266
-0.014611702 0.01558755 -0.010077805 0.0028487418 0.035697397 -0.02689708 0.026888683 0.07144152
0.01199101 -0.050508436 0.039993867 0.011565855 0.047983725 0.05293174 -0.01816137 0.028473468
0.06596544 -0.07090086 0.03278581 -0.05104158 0.026351245 0.0050427816 0.03585138 0.006040003
-0.014867308 -0.045729592 -0.03405372 -0.06128684 0.044350456 0.019002477 -0.006669102 0.057080783
0.012837458 -0.017007481 -0.048990127 -0.025887933 0.062947765 0.031542506 -0.00010518194 -0.028888265
0.030360958 0.06176909 -0.07736363 0.013653001 0.049081896 0.007681479 0.026994938 -0.060290955
-0.04477214 -0.042992532 0.0076867207 0.007971955 -0.035450995 -0.009822437 -0.043131124 -0.014225091
-0.024554364 0.03123971 -0.004103717 -0.025289614 -0.028954145 0.026554387 0.05178082 -0.0012699027
0.031992435 -0.004180786 -0.012548981 0.024981953 -0.035543293 -0.057850868 -0.04116935 -0.043830536
-0.013093176 0.06696214 0.03639542 -0.019972833 0.044348054 -0.047163542 0.04487571 0.045104954
-0.031601936 0.028695766 -0.06677028 0.0077020824 0.055446442 -0.04007484 -0.009334261 0.05268337
-0.013336 0.067616515 0.01456884 -0.01853763 0.06485111 0.017075056 -0.025575357 -0.002939038

layer2.2.bias f4 [256]
00000000: 5b08 2d3d 0e2c 00bd 00b1 9fbc 4c39 293d
00000010: 126a 78bd 4f7c 0ebd 6628 36bc dc5e b5bc
00000020: 6ea3 84bd 435c d9bc dda1 023d a665 b13c
00000030: 5fba 2e3d 73ff 5fbd aef1 433d 7133 32bd
00000040: 57ed 8a3c 050c 333d 12b6 febc 95df efbc
00000050: 6471 fdbc db56 eebb bd60 39bd 5e59 74ba
00000060: 98c2 923b 3179 8dbc 398c 983d 5f85 303d
00000070: 0527 733d 0ee9 ef3c 0af1 323c cbce 253d
00000080: 78a2 39bc 2d8e 8abd 2cc2 373d dd1f 5fbd
00000090: 7cf5 c9bc 4341 c43c 2c76 6a3b 23a6 753c
000000a0: 1dc3 42bd d24f 7ebd ca0f 04bc 50ab 0cbd
000000b0: 8530 b7bc 10a3 26bd d789 b8bc 7fff b43b
000000c0: 46a3 ec3b 96d4 8c3d bbf7 eabc c8c5 4f3d
000000d0: da42 78bc 91d4 35bc 2807 483c 2a9b 0bbd
000000e0: f636 f0bc 2f86 51bc 97cf 12bd 5101 a7bc
000000f0: 6758 d4bc 5d16 7bbd 8249 1d3d 1ca9 753d
00000100: 488e 4dbc 43f1 04bd f510 f9bc 6eed 83bd
00000110: b1e0 cabc 2ec1 a53c c28d f9bc 0ee2 adb9
00000120: 5e86 e4bc 3e96 5e3d 0fb7 3237 d8ad 89bd
00000130: 451b fbbc 661f 03bd bb53 103b d7a2 e73c
00000140: 3b8a 9e3d c380 52bc 210d 67bc 0112 32bd
00000150: 180e af3c f3ff 073d 93f5 51bd 36ab f13c
00000160: 5d9e e43c 3463 563d 1b91 15bc 5c1e 663b
00000170: 9eaf 5bbd 251a 6ebd 47d0 20bd 4116 5b3d
00000180: 05a7 40bd 2f2a 5d3d 51dc 61bb 2df4 263d
00000190: ded5 2abd c4f7 763d a201 3d3d b680 233d
000001a0: d2b2 b4bc f27f 883b 3ad8 79bd fde4 94bd
000001b0: b17b 9bbd ebee 303c ddf2 423d 3ce7 39bc
000001c0: cbd2 27bc 039d 1d3d 5bea 60bd 64ef d1bc
000001d0: 1af6 863c 6123 5abd 8c29 2e3c 88a8 2cbc
000001e0: 9202 1b3c eaf5 44bd 9fb0 823c 9e92 a3bc
000001f0: c1b2 443d 70d0 7cbd 7921 4dbd 41ec 393d
00000200: 6d7a 763c a1af 913c b449 25bd 49e0 bfbc
00000210: 412b dd3c 35a9 d5bb e7d2 60bd 63de bebc
00000220: 7ddf 91bd 7275 583d b528 d43b 8798 09bd
00000230: 75dd 7739 f4ec 4cbd 2760 a53b 57e7 b9bc
00000240: ccc6 0f3d a6ee a03a 1ce2 cabb 710d 1abd
00000250: 6c9e 09bd 0bb6 093d aab3 083d 74da 2e3d
00000260: aafd 53bd df16 4abd 654d a9bb 2799 0a3d
00000270: 48d7 67bd fd46 50bd 530e 733d e34a 26bd
00000280: 5566 413d bd1c 103d c01e b0bc 5515 13bd
00000290: 1890 a4bc 8e24 fe3c 99da 18bd 4910 34bc
000002a0: b92c 3abd 101e b5bc e612 8abc c8c0 15bd
000002b0: 3dde c33c 5562 6ebd fdcb c43c c3d2 7c3d
000002c0: a3fa 003d af75 87bd 8256 a1bc 0bd2 7a3d
000002d0: 9502 1a3d a353 95bd 2820 40bd 7942 71bd
000002e0: 5612 093d ce42 2d3d 5130 d43c 0705 a3bd
000002f0: eeee 03bc cf6d 9d3d d078 4dbd 2225 903d
00000300: c3a1 383d aeff 1dbd 1368 2c3c b409 083d
00000310: cea0 9bbd 8295 95bd 5f8d 0dbd 01f2 873c
00000320: 3ac7 9d39 380e 2cbc 3c8e 9f3c a7e8 2a3d
00000330: b9d5 8e3b 0409 90bc 7a54 133c 5035 65bc
00000340: 21d0 03bc de3f 94bd b5ad a9bc 9ac0 5bbd
00000350: 3254 1e3d 3e2a 463d 7a28 aebc 521e 233d
00000360: 57d8 753d 3b96 dfba 1ba3 4dbd f24c 0cbd
00000370: 0ef4 293d f8fd 453d 5165 8a3c 10a9 3f3d
00000380: d832 54bd 6d69 33bd b5c5 4c3d 6446 033d
00000390: b961 1bbd 2162 d03c 835e 97bd adfd 013d
000003a0: bfd0 463c a558 99bc f25c 3dbd a817 a13d
000003b0: 8e46 383a 090a 8d3c 3372 023d 5476 ec3c
000003c0: bb7c b23c c71c 26bd 1c2e 24bd 599b 2b3d
000003d0: eded f6bb a038 423d 139e 62bc 732f 7c3d
000003e0: c2b0 a23d adee f9bc a98e 9d3c e107 103c
000003f0: f6a6 36bc 6066 aebc 8762 713c 3f9e 843d
0.042244297 -0.031292014 -0.01949358 0.04131441 -0.06064803 -0.03478652 -0.01111803 -0.022139959
-0.06476484 -0.026533252 0.031892646 0.021654915 0.042658206 -0.054686975 0.047837906 -0.04350609
0.016958876 0.043712635 -0.031092677 -0.029281417 -0.030937858 -0.0072735376 -0.045258272 -0.0009321178
0.004478764 -0.017269703 0.0744862 0.043095943 0.059363384 0.029285934 0.010921726 0.040480416
-0.0113302395 -0.06765399 0.04486291 -0.054473747 -0.024653189 0.0239569 0.0035776002 0.014993223
-0.047549356 -0.06208784 -0.008060405 -0.034343064 -0.022362003 -0.040682852 -0.022526665 0.0055236216
0.007221612 0.06876485 -0.02868258 0.05072573 -0.015152657 -0.011098043 0.012208737 -0.034083523
-0.029323082 -0.0127883395 -0.035842504 -0.02038637 -0.02592106 -0.061300624 0.03840018 0.05997573
-0.0125461295 -0.032456648 -0.030403594 -0.064417705 -0.024765344 0.020233717 -0.030463103 -0.00033165555
-0.027896103 0.0543425 1.0652248e-05 -0.06722611 -0.030652652 -0.032012366 0.0022022563 0.02827589
0.07741209 -0.012848082 -0.014102251 -0.0434742 0.021369025 0.033203077 -0.05125959 0.029500585
0.027907545 0.0523407 -0.009128834 0.003511331 -0.05363428 -0.058130402 -0.03926113 0.05348802
-0.047034282 0.053995308 -0.0034463594 0.040760208 -0.041707866 0.06029488 0.046144135 0.03991767
-0.022057924 0.004165643 -0.060997225 -0.072702385 -0.07591952 0.01079915 0.047594894 -0.0113466345
-0.010243128 0.038479816 -0.054911 -0.025626846 0.016474772 -0.053256396 0.010630023 -0.010538228
0.009461062 -0.048086084 0.01595336 -0.019967373 0.048022036 -0.06172222 -0.05008075 0.045391325
0.015043837 0.017783942 -0.040353492 -0.023422377 0.026998164 -0.006520415 -0.054888632 -0.023299402
-0.07122705 0.05284638 0.006474579 -0.033592727 0.00023638255 -0.050030664 0.0050468626 -0.02269332
0.035101697 0.0012278154 -0.006191505 -0.037610475 -0.03359835 0.033620875 0.033374466 0.042688802
-0.051755585 -0.049338218 -0.005166697 0.033837464 -0.056601793 -0.05084895 0.059339833 -0.04059876
0.047216732 0.035183657 -0.021499038 -0.035909016 -0.02008824 0.03102329 -0.037317846 -0.010990211
-0.045452807 -0.022109061 -0.016854715 -0.036560804 0.023909682 -0.058199245 0.02402305 0.061724436
0.031489026 -0.06614243 -0.01969457 0.06123547 0.03760012 -0.07291343 -0.046905667 -0.058901284
0.033464752 0.042300038 0.025901945 -0.07959943 -0.008052571 0.0768696 -0.050164044 0.070383325
0.045076143 -0.038573913 0.01052286 0.03321238 -0.075990304 -0.07303907 -0.03455865 0.016594889
0.0003009381 -0.010501437 0.019477002 0.04172578 0.004358974 -0.017582424 0.008992309 -0.0139897615
-0.008045227 -0.07238744 -0.020712713 -0.053650476 0.038654514 0.04838013 -0.021259535 0.039823838
0.06002077 -0.0017058322 -0.050204378 -0.03425307 0.041492514 0.048337907 0.016894015 0.04679209
-0.0518063 -0.043801714 0.049993236 0.03204955 -0.037934992 0.025437417 -0.073910736 0.031736065
0.01213473 -0.018719027 -0.046231218 0.0786584 0.00070295564 0.0172167 0.03184719 0.028865017
0.021787992 -0.040554788 -0.040083036 0.041896198 -0.007535687 0.047417283 -0.013831633 0.06156869
0.0794387 -0.030509317 0.019233065 0.008790941 -0.011148205 -0.02128905 0.014732963 0.064754955

layer2.5.weight f4 [7, 256]
00000000: 0d7b f23a 2c9b 483d 00a3 f03d 9a5a 9abd
00000010: 29ab 8cbc 9f49 2abc 26aa 67bd a4ad 17bc
00000020: 4a5f 58bc effb b9bd b3a9 6a3d 48d3 07bb
00000030: 76cb db3d 3a6a 8c3d 7ffe a73d eed2 67bb
00000040: 7e27 dcba 643c 283d e4ea debb 2c53 0abe
00000050: 2506 363d 130b c83c d5a8 423d 311a 733d
00000060: 6f14 34bd 99b1 163d 5912 edbc 1ff4 0cbd
00000070: dc67 523c 8d3d 8abd 8799 4ebd 44d0 f4bb
00000080: dacd 903d 69d7 38bd e6fc 30bc 91a2 86bd
00000090: aa67 3fbd 9cf5 3d3d 6cc3 58bd 4b60 7dbc
000000a0: 8e2c d23c d65b 1d3a a90e 683d 2ed8 993c
000000b0: bb12 213d a823 3d3d 9045 07bd 06a8 503d
000000c0: 2e5f 48bc 4c91 553d f33d d43c 2441 8c3c
000000d0: cbcb de3c 7f4e 903b cc1a 6f3d f1c4 d23b
000000e0: 0e1d b43d 0eab 9c3d 7a23 28bd a695 8fbd
000000f0: 7963 54bc 7653 933d 1962 02be e2ae 81bd
00000100: a064 c4bd 16e2 37bd 77c2 873d 834c e53c
00000110: 876f 94bc 852a 92ba 67bb 623c 6bb5 d0bd
00000120: eba8 5d3d 79c3 a93d d800 d53d 4418 a93c
00000130: 0d28 9aba 0902 20bc 3bd2 61bc 68e6 8abb
00000140: 4442 cfbc 9ccb b6bd b6ad 523d 5913 f3bc
00000150: 72e5 863c 8568 bbbd 9ce3 ebbc 57d2 753d
00000160: 735a b53c bbc1 f83c 532c 8aba 40f4 0ebd
00000170: 716d 62bc efaa 85bd 6429 d83a 8c95 873c
00000180: 4bd5 333c cb11 4a39 e0b9 0bbe 63b7 c5bc
00000190: 081b 8cbc 73bf 073d 4c90 36bd b220 e33c
000001a0: d29b cd3d c6f2 b2bc 8bc2 4fbc c458 2f3e
000001b0: e7a5 54bc efd6 dbbb 34ac 663a 835c 8fbd
000001c0: 7bd1 3a3d 6278 2d3d 8b63 c5bd a055 883d
000001d0: 27d2 2abe 026c 34bd 48c9 903b d508 863d
000001e0: b632 f0bc c964 9e3c 46f1 96bd 787c a33d
000001f0: fcc4 bc3d 4d47 863d 2d0c 0c3d eb36 08bd
00000200: 9a50 e93c 088d 08be dcdf 84bb 6796 353c
00000210: e518 943c bc11 003d 1fe5 01bd b292 2d3d
00000220: 99da 5f3b bf78 27be 8f37 e7bc 11e0 043d
00000230: 6a7a 8d3d b3d3 753d 68e7 b9bd d5af 2bbc
00000240: faf7 c5bd 57f7 513d d412 0b3d 98cb 583c
00000250: 3558 0abe 645f f43c 2113 a4bd dc06 47bd
00000260: ac7d 7abc a7b4 023e 4059 aebd bca2 803b
00000270: 458b c73c 907e 103d 019b 743c 281c 8fbc
00000280: ff08 d73d 5701 253a 0374 abbc 8e2b 7b3c
00000290: 1989 3a3c 8f2e d03d 179d cf3d ff14 18bd
000002a0: b5bd da3a 638a c83d c9bc 213a e244 50bd
000002b0: 4ad9 b03d 2581 813d 8d6a 0cbd 7355 36be
000002c0: 45c0 5f3c cf67 283b d531 12bc 8209 cabc
000002d0: d2b1 d8bc 600d a53c 91cd afbd 7bd0 1f3d
000002e0: 9a39 913a 2de3 7e3c 74d8 bebd 051e de3c
000002f0: 9824 6b3c ece6 11bd 2721 a43b a9ca f0bd
00000300: 61c2 2fbe fe81 1e3e ded5 cbbd e816 1bbe
00000310: 4197 003c a613 e73c 0064 a7bd b317 33b9
00000320: 87f5 10be ef0a d5bd 6ca1 913c 77a9 6f3d
00000330: 5bea b13c 5a48 0f3c e9ff 42bd dc0b 6cbd
00000340: 72c8 b0bc 8a8b 62bd 8888 c1bd d485 67bd
00000350: d265 ea3c d427 74bd d3d1 4ebe 5b4f 26bd
00000360: 13c7 36bd f729 a4ba 44bd 30bd d46e a5bc
00000370: 5e15 a0bd d984 c0bb 5921 bfbd 6376 d6bd
00000380: c6e8 12bd c93e 483d e24f fcbd 1688 d8bd
00000390: fd0d 213d c277 1a3d 8ae2 bc3d 7cb5 19be
000003a0: 9f0a 1abe 284e e8bc 862f a93d ec07 97bc
000003b0: a6a4 843c 60d0 a4bb 6b02 afbd 7e7a 1c3d
000003c0: 9148 873d 3277 0b3e 6c8a d4bc ae09 f0bd
000003d0: 0e15 bd3b a668 cc3c 4bcc 8bbd e792 1fbd
000003e0: ebb3 9a3c 0d42 b53d 3c02 19bd ac3f b3bc
000003f0: 3263 c9bc b5f3 24bd 5ef5 95bd d639 8ebd
0.0018499807 0.04897611 0.1174984 -0.07536812 -0.01717146 -0.010393529 -0.05655875 -0.009257708
-0.013206312 -0.09081256 0.057290744 -0.0020725299 0.107321665 0.068561986 0.08202838 -0.0035373527
-0.0016796438 0.041073218 -0.0068029035 -0.1350829 0.044439454 0.024419343 0.047524292 0.05935115
-0.0439648 0.036790464 -0.028939413 -0.0344125 0.012842145 -0.06750021 -0.050439384 -0.0074711163
0.07070513 -0.045127306 -0.010802483 -0.06573976 -0.04672972 0.04637681 -0.052920744 -0.015464853
0.025656011 0.00060027593 0.056654606 0.01877984 0.039324503 0.046176583 -0.033025324 0.05094149
-0.012229724 0.05214052 0.025908446 0.017120905 0.027196785 0.0044038887 0.058375165 0.0064321687
0.08794604 0.076498136 -0.041049458 -0.07010965 -0.012963169 0.07193653 -0.12732734 -0.063321844
-0.09589505 -0.044893347 0.06628888 0.027990585 -0.018119587 -0.0011151588 0.0138386255 -0.10190853
0.05411617 0.082892366 0.104005516 0.020641454 -0.0011761204 -0.00976611 -0.013783033 -0.0042388923
-0.025300153 -0.08925554 0.051435195 -0.029672312 0.01646683 -0.09150795 -0.028795056 0.06001505
0.022137856 0.030365815 -0.0010541774 -0.034900904 -0.013820038 -0.065267436 0.0016491828 0.016550802
0.010976146 0.0001927085 -0.13645124 -0.024135297 -0.017102733 0.033141565 -0.044571206 0.027725551
0.10039486 -0.021844279 -0.01268066 0.17123705 -0.012979007 -0.0067089717 0.0008799464 -0.07000067
0.045609932 0.042351134 -0.09638127 0.06656957 -0.1668173 -0.044048317 0.004418526 0.06544653
-0.029321056 0.019335167 -0.07370238 0.07982725 0.09217259 0.06556568 0.0341913 -0.0332555
0.028480817 -0.13335049 -0.0040550064 0.011083222 0.018078277 0.031266913 -0.031712648 0.042376228
0.0034157394 -0.16354655 -0.028224735 0.03244025 0.06908114 0.060016345 -0.0907734 -0.010478933
-0.096664384 0.051261272 0.033953503 0.013232134 -0.13510211 0.029830642 -0.08011461 -0.048590526
-0.015288752 0.12764226 -0.08513117 0.0039256494 0.024358401 0.03527695 0.014929534 -0.01746948
0.10499763 0.000629445 -0.020929342 0.015330208 0.011385226 0.1016513 0.101373844 -0.0371294
0.0016688617 0.0979202 0.0006169794 -0.05084694 0.086351946 0.063234605 -0.034281302 -0.17806034
0.0136566805 0.002569664 -0.008923014 -0.024662737 -0.026451979 0.02014798 -0.085841306 0.03901718
0.0011079789 0.015557093 -0.09318629 0.027113924 0.014351986 -0.035620615 0.005008835 -0.11757404
-0.17163993 0.15479276 -0.09952901 -0.15145457 0.007848562 0.028207611 -0.0817337 -0.00017079599
-0.14156161 -0.10402476 0.017777167 0.058511224 0.021718195 0.008745277 -0.047607336 -0.057628497
-0.021579955 -0.055308856 -0.094498694 -0.056524113 0.028613005 -0.059608296 -0.20197229 -0.040603023
-0.044623446 -0.0012524714 -0.043149248 -0.020194449 -0.078165755 -0.0058752117 -0.093325324 -0.10471799
-0.03586652 0.048888 -0.12319924 -0.10572831 0.03931998 0.037711866 0.092228964 -0.15010637
-0.15043114 -0.02835758 0.082610175 -0.018436395 0.016191792 -0.005029723 -0.08545383 0.038202755
0.06605638 0.13619688 -0.025944911 -0.11720596 0.005770332 0.024952244 -0.06826075 -0.038958456
0.01888462 0.08850489 -0.037355646 -0.021880947 -0.024583433 -0.04027148 -0.07322191 -0.06944625

layer2.5.bias f4 [7]
00000000: d695 31bc 5897 29be 3891 b0bc 554c e93b
00000010: db30 203d a0dc 44bd 42ce ce3d
-0.010838946 -0.1656164 -0.02155362 0.007119695 0.039109092 -0.048061967 0.10097934
