Model_Files/bpi/EventPredictor_parameters_weighted_0.0001.pt (torch, 280583 bytes, 8 tensors)

layer1.weight f4 [4, 1]
0.010228559 -0.03391959 -0.006563023 -3.3192108
00000000: b095 273c 45ef 0abd a10e d7bb f36d 54c0

layer1.bias f4 [6]
-0.1803925 -0.4556919 3.4270499 0.8995487 1.2748076 0.2946061
00000000: d0b8 38be 7350 e9be c954 5b40 d348 663f
00000010: e52c a33f 9cd6 963e

layer2.1.weight f4 [256, 6]
-0.40850082 1.4574949 1.125631 0.101339795 -0.26708746 0.70937943 -0.38657567 -0.59544945
0.17797105 0.6640363 -0.2377622 -0.356397 -0.18289392 -0.010700932 0.23451935 0.022741245
-0.03224045 0.021227272 -0.30678782 0.006867944 0.13933806 -0.032812234 0.3661821 -0.40150288
-0.07364021 -1.0200275 1.025665 0.65355885 -0.25968418 -0.38004878 -0.11162499 0.07209256
0.25958505 0.014990485 -0.06780222 -0.11891503 -0.018555537 0.039839704 -0.023622256 -0.1433878
0.20252955 0.043195087 0.19377722 -0.07444024 -0.10669805 0.060508892 0.1073509 -0.030221023
-0.0041683977 -0.042684074 0.40459654 0.42895865 1.4331931 -0.5894813 0.43745205 -0.34363484
0.34883735 0.14546537 -0.064881496 -0.11246361 -0.15427986 -0.21817021 0.10052806 0.21889973
0.017026572 -0.13041238 0.22932386 -0.09641095 -0.0041272044 0.05720413 0.5544876 0.85313606
0.04557229 -0.12371432 0.12290872 0.10135398 0.0074064503 -0.0057975394 0.028441554 0.062279623
1.3472954 -0.0077002076 0.02914842 0.61646605 0.0022213073 0.06458165 -0.3239825 -0.055551194
0.07198373 -0.002762153 0.17678046 0.12576619 -0.12158413 0.050213765 -0.03542422 0.008521431
0.027628383 -0.12699336 -0.03899347 0.07937157 -0.23928446 -2.3832457e-05 -0.10062397 1.1128837
0.78286195 0.11285494 -0.12325372 -0.10068488 -0.39947075 0.7909491 -0.15873285 0.042370193
0.2879353 -0.02245593 0.12763143 -0.42943102 -0.13513035 0.19442554 -0.010651049 -0.08435426
-0.05330198 -0.008546164 0.25181144 0.09727275 -0.027129209 0.00043371093 -0.4066054 0.8184565
-0.78022903 -0.8679327 0.25171775 0.12723967 -0.14899977 -0.004373257 0.607896 0.3512615
2.3205376 -0.50771695 -0.27097908 -0.05345699 0.39070117 0.12719768 -0.017028019 -0.10651413
-0.21041156 0.17529033 0.105899386 -0.18878742 0.039181344 0.19024804 0.18169548 0.14047678
-0.083208986 -0.10739894 0.1589538 0.11496109 -0.24842498 -0.31183252 0.10136457 0.61067927
-0.27984095 -0.24138018 -0.42700717 0.13686189 0.17695497 -0.20449136 0.08035377 0.23138018
0.035274234 0.0116147585 0.5496215 0.33978057 -0.38198847 0.6171737 0.003956992 0.80395967
-0.68795925 -0.7992118 -0.8533659 0.6403234 0.08351324 -0.044694185 0.87061787 0.16292515
-0.13420698 0.60088503 0.2027395 -0.35525113 -0.12505317 0.19023113 0.01574591 -0.12791738
-0.1277197 0.16205567 -0.6547631 -0.32416853 0.1357143 -0.37408277 -0.33928642 1.214534
-1.0399518 -0.13625512 0.19287968 0.51660365 -0.35971615 0.01365557 0.25360888 -0.116630554
0.010788863 0.009178947 0.07911463 -0.43782836 0.29266372 0.03872595 0.008170565 -0.081720226
0.043966677 -0.36287713 0.44096646 0.2868865 -0.2025731 0.6438048 0.13772708 0.15056343
-0.29155073 -0.034097876 -0.24096747 0.3610671 0.07455334 0.09180625 0.4905951 -0.26311496
-0.07613451 0.26744536 -0.16541111 0.09462015 0.13984098 0.15681355 -0.5858536 -0.6146853
-0.2229385 0.017089559 0.74027574 0.029614966 -0.21602035 -0.0054132883 0.20234461 0.72849154
-0.20908213 -0.60080534 0.12878937 0.10152227 -0.015294415 0.23716247 -0.52741104 -0.053206347
00000000: 0527 d1be 318f ba3f ad14 903f 3d8b cf3d
00000010: b0bf 88be e499 353f 3fed c5be 606f 18bf
00000020: 0b3e 363e 48fe 293f ef77 73be ab79 b6be
00000030: 8b48 3bbe f652 2fbc d725 703e d94b ba3c
00000040: 900e 04bd d1e4 ad3c 4b13 9dbe 7d0c e13b
00000050: a3ae 0e3e 1f66 06bd 387c bb3e c991 cdbe
00000060: aed0 96bd 4390 82bf fe48 833f a24f 273f
00000070: 53f5 84be c195 c2be a59b e4bd 44a5 933d
00000080: 55e8 843e a79a 753c e4db 8abd b989 f3bd
00000090: c801 98bc f52e 233d 7683 c1bc 40d4 12be
000000a0: e863 4f3e 55ed 303d 896d 463e 2074 98bd
000000b0: 8284 dabd 2cd8 773d cada db3d 1492 f7bc
000000c0: 0e97 88bb 7fd5 2ebd 4727 cf3e 78a0 db3e
000000d0: df72 b73f 3fe8 16bf b7f9 df3e e8f0 afbe
000000e0: cf9a b23e e0f4 143e 97e0 84bd 5253 e6bd
000000f0: 8afb 1dbe 0368 5fbe a8e1 cd3d 4027 603e
00000100: 4f7b 8b3c d38a 05be e0d3 6a3e 1b73 c5bd
00000110: 803d 87bb e14e 6a3d e6f2 0d3f 2067 5a3f
00000120: 02aa 3a3d ef5d fdbd 91b7 fb3d ad92 cf3d
00000130: cfb1 f23b 49f9 bdbb 43fe e83c eb18 7f3d
00000140: 2d74 ac3f 0652 fcbb abc8 ee3c b8d0 1d3f
00000150: 5a93 113b 6243 843d 09e1 a5be a689 63bd
00000160: 356c 933d 3d05 35bb f005 353e dac8 003e
00000170: 1a01 f9bd f3ac 4d3d fd18 11bd 799d 0b3c
00000180: eb54 e23c 8c0a 02be 9eb7 1fbd 908d a23d
00000190: fc06 75be d0eb c7b7 f113 cebd f972 8e3f
000001a0: a469 483f 7e20 e73d 726c fcbd e033 cebd
000001b0: 6e87 ccbe a47b 4a3f dd8a 22be 5e8c 2d3d
000001c0: 416c 933e 80f5 b7bc d0b1 023e 62de dbbe
000001d0: 9c5f 0abe 7d17 473e bd81 2ebc edc1 acbd
000001e0: 2d53 5abd 3605 0cbc 6eed 803e f036 c73d
000001f0: 133e debc b263 e339 952e d0be 5d86 513f
00000200: 17bd 47bf d630 5ebf 26e1 803e 1e4b 023e
00000210: 6593 18be 8a4d 8fbb 129f 1b3f 8cd8 b33e
00000220: b083 1440 bdf9 01bf c5bd 8abe b7f5 5abd
00000230: fc09 c83e 1c40 023e 587e 8bbc 1524 dabd
00000240: 2176 57be 4f7f 333e c7e1 d83d 7d51 41be
00000250: 9e7c 203d 62d0 423e 610e 3a3e 25d9 0f3e
00000260: 7969 aabd faf3 dbbd c9c4 223e b870 eb3d
00000270: 1e63 7ebe 83a8 9fbe 3a98 cf3d 7a55 1c3f
00000280: 5047 8fbe 5e2c 77be afa0 dabe 8625 0c3e
00000290: af33 353e 2f66 51be 8490 a43d edee 6c3e
000002a0: b77b 103d d44b 3e3c ffb3 0c3f b8f7 ad3e
000002b0: fe93 c3be 18ff 1d3f a8a9 813b 4dd0 4d3f
000002c0: 191e 30bf 2599 4cbf 3076 5abf 3cec 233f
000002d0: fd08 ab3d 4011 37bd d0e0 5e3f dad5 263e
000002e0: 8e6d 09be 9ad3 193f f29a 4f3e 7ae3 b5be
000002f0: f00d 00be f3cb 423e 91fd 803c c6fc 02be
00000300: f4c8 02be ecf1 253e 8e9e 27bf 6bf9 a5be
00000310: b1f8 0a3e c787 bfbe f3b6 adbe da75 9b3f
00000320: 241d 85bf 7686 0bbe 4082 453e 2340 043f
00000330: b72c b8be 9dbb 5f3c 06d9 813e 00dc eebd
00000340: c5c3 303c 4b63 163c da06 a23d 0a2b e0be
00000350: 05d8 953e 1a9f 1e3d d5dd 053c ef5c a7bd
00000360: 6716 343d 08cb b9be 5bc6 e13e cae2 923e
00000370: 536f 4fbe 64d0 243f 5408 0d3e 4d2d 1a3e
00000380: 2346 95be 37aa 0bbd 2dc0 76be c9dd b83e
00000390: 6caf 983d ea04 bc3d 482f fb3e 01b7 86be
000003a0: 69ec 9bbd 99ee 883e 8861 29be 36c8 c13d
000003b0: 7932 0f3e bb93 203e 80fa 15bf 045c 1dbf
000003c0: fd49 64be 67ff 8b3c b682 3d3f 169b f23c
000003d0: 7034 5dbe f461 b1bb 6d33 4f3e 6c7e 3a3f
000003e0: a019 56be 61ce 19bf 5ce1 033e e8ea cf3d
000003f0: 6d95 7abc b8da 723e 6904 07bf e6ee 59bd

layer2.1.bias f4 [256]
0.37184128 0.3334247 0.02495703 -0.20143424 1.0986315 0.5917166 -0.6966299 -0.38781947
-0.5173693 0.86808705 0.7930245 0.0638322 0.049255107 -0.9917992 -0.29035687 -0.2711798
0.61025596 0.30257747 -0.66917235 0.42377958 0.28712082 -1.3046058 0.66070783 0.13310324
-0.47906697 -0.47869626 1.0075276 -0.41740882 -0.012375185 -0.2711781 -0.26693222 0.4402827
-0.29451922 0.2580924 -1.0609138 0.562179 0.47130775 -0.21739933 -0.32298315 -0.13689765
0.4706663 -1.0423734 0.077698745 -0.82979804 -0.1789228 0.52429366 0.2955055 -0.12563546
-0.39226568 0.0077074645 -0.46567172 0.129393 -0.69207054 -0.31598812 0.5247488 0.2874783
0.828668 0.9667351 0.3022476 0.26795983 -2.1704323 0.081473015 0.097346 0.5955718
-0.12698069 0.07129449 0.0015179678 -0.3147213 -0.40876842 -0.31145963 0.77213687 0.50053096
0.55711937 -0.75472146 -0.52919817 0.39137304 0.65739685 -0.47191906 0.32846186 -0.73001266
0.5677852 0.406403 -0.6528389 -0.19689241 -0.24335617 -0.710801 0.9787169 0.04807378
-1.45504 0.7124921 -0.39493495 -0.281533 0.03543754 0.79703283 -0.29186624 -0.23006593
-0.10108078 0.43734893 0.37221456 0.15778776 0.46214822 0.38696104 -0.3471489 0.60543126
-0.82398 0.0106907375 0.33005625 -0.58229965 1.3820993 -0.34080705 -0.66483486 -0.6134896
0.21645026 0.25422922 -0.25904757 0.5513638 0.39870322 -0.19416757 -0.1505932 -0.34834626
0.15244116 -0.48705053 0.14244752 0.45863152 0.45468813 -0.039955363 0.2018449 0.37787747
0.510879 0.022454116 -0.89327747 -0.2893099 0.74602437 -0.7817568 0.56847155 0.09229966
-0.5387121 0.43947327 -0.5070577 -0.024444142 0.6840594 -0.41172263 0.28734243 0.46499833
0.45069736 -0.14865826 -0.7778994 -1.7484779 0.8531262 0.6106428 0.33690685 0.5646721
0.30698615 -0.25613347 -1.196168 -0.8050407 0.19509928 0.30913028 -0.7461982 0.45553985
0.21897705 0.26956254 0.06579674 1.1938493 0.012641656 0.557108 -0.06894374 -0.21464665
-0.14857797 0.16385171 -0.3583919 0.42590028 -0.5405745 0.35819772 -0.31420836 -0.5505348
0.4770295 -0.2308908 -0.4864147 -0.24666905 -0.9725369 -0.6034181 -0.36858582 0.6807123
-0.41299972 -0.08599443 -0.8627326 -0.8930813 1.9396114 -1.8755667 0.43557447 0.31577936
-0.3036466 -0.4472404 -0.86072296 0.48388243 -0.11618099 0.6486098 -0.2113242 0.5590628
0.93678284 0.2625501 -0.13448249 -0.0019888924 -0.0037169885 -0.3186138 -0.36026192 0.19812718
0.5384147 0.06256862 0.08539258 0.56261814 0.49933198 0.4108291 0.7315928 -0.004378386
-0.5591109 -1.4399322 -0.23686484 0.6905301 0.694681 -0.56930643 0.07223814 0.9803423
-0.4392187 -0.5316731 0.26197055 0.12734036 -0.5384888 -0.17913723 0.11462982 0.081999086
0.023080898 0.39134175 -0.9714449 0.42490944 0.025244813 0.6807845 0.34676033 0.30063447
-0.9220506 -0.07345564 0.060279723 -0.07984605 0.1290084 -1.4568835 -0.16961853 -0.61770284
-0.23179838 -0.81415683 0.5018824 -2.8421817 0.07170433 -0.44269574 0.09750345 -0.3654621
00000000: fb61 be3e a4b6 aa3e af72 cc3c c744 4ebe
00000010: f59f 8c3f bd7a 173f 5656 32bf 4690 c6be
00000020: 5072 04bf f43a 5e3f a703 4b3f 75ba 823d
00000030: b9bf 493d 8de6 7dbf a8a9 94be 14d8 8abe
00000040: bc39 1c3f 6feb 9a3e e14e 2bbf a3f9 d83e
00000050: 8001 933e 53fd a6bf 2624 293f 374c 083e
00000060: 4448 f5be ad17 f5be aaf6 803f 9cb6 d5be
00000070: 4ac1 4abc dbd7 8abe 57ab 88be bc6c e13e
00000080: 39cb 96be b024 843e 06cc 87bf f7ea 0f3f
00000090: 404f f13e ee9d 5ebe 0c5e a5be e62e 0cbe
000000a0: 2cfb f03e 7e6c 85bf 8520 9f3d a56d 54bf
000000b0: 8a37 37be 1c38 063f 7f4c 973e 95a6 00be
000000c0: 0cd7 c8be e68e fc3b 866c eebe 997f 043e
000000d0: 892b 31bf 32c9 a1be f055 063f 5b30 933e
000000e0: 9623 543f f47b 773f 33c0 9a3e 0832 893e
000000f0: 5de8 0ac0 53db a63d 575d c73d 6577 183f
00000100: 3a07 02be d802 923d 8cf6 c63a 2623 a1be
00000110: 184a d1be a377 9fbe c3aa 453f cc22 003f
00000120: 609f 0e3f 6d35 41bf 8879 07bf 0c62 c83e
00000130: 294b 283f 609f f1be 272c a83e 1ce2 3abf
00000140: 5f5a 113f 0e14 d03e 7320 27bf 2a9e 49be
00000150: 5c32 79be 0ef7 35bf 318d 7a3f 03e9 443d
00000160: c03e babf e265 363f ea34 cabe 1825 90be
00000170: f426 113d 580a 4c3f 7e6f 95be 6796 6bbe
00000180: 7103 cfbd 33ec df3e e892 be3e 1d93 213e
00000190: b19e ec3e c21f c63e 80bd b1be 8bfd 1a3f
000001a0: 5af0 52bf 3428 2f3c 22fd a83e 9711 15bf
000001b0: a1e8 b03f 437e aebe 9e32 2abf a80d 1dbf
000001c0: 23a5 5d3e 552a 823e e2a1 84be 2e26 0d3f
000001d0: d422 cc3e ddd3 46be 1b35 1abe 715a b2be
000001e0: 8919 1c3e b05e f9be c3dd 113e c0d1 ea3e
000001f0: e2cc e83e 3ca8 23bd 6eb0 4e3e 2879 c13e
00000200: f7c8 023f b2f1 b73c d5ad 64bf 6d20 94be
00000210: 74fb 3e3f 3721 48bf 5a87 113f 9b07 bd3d
00000220: 09e9 09bf a402 e13e 89ce 01bf 153f c8bc
00000230: 841e 2f3f 4fcd d2be 8c1e 933e 4314 ee3e
00000240: cec1 e63e df39 18be 6a24 47bf 20ce dfbf
00000250: 7b66 5a3f 1653 1c3f 0e7f ac3e 5a8e 103f
00000260: 4a2d 9d3e ed23 83be 081c 99bf 2617 4ebf
00000270: 1bc8 473e 5346 9e3e d806 3fbf 853c e93e
00000280: 853b 603e 1a04 8a3e 71c0 863d 0ed0 983f
00000290: f31e 4f3c a19e 0e3f 6032 8dbd 55cc 5bbe
000002a0: d324 18be bec8 273e 257f b7be 9a0f da3e
000002b0: 1763 0abf b165 b73e ebdf a0be d9ef 0cbf
000002c0: 363d f43e a36e 6cbe 590b f9be d096 7cbe
000002d0: 2ef8 78bf 9c79 1abf 48b7 bcbe 2943 2e3f
000002e0: b374 d3be d91d b0bd 0bdc 5cbf faa0 64bf
000002f0: 3045 f83f 9212 f0bf 9e03 df3e d5ad a13e
00000300: 9177 9bbe b2fc e4be 5758 5cbf 70bf f73e
00000310: 4df0 edbd 4b0b 263f 5f65 58be bd1e 0f3f
00000320: 00d1 6f3f f76c 863e c7b5 09be 1458 02bb
00000330: b898 73bb 5921 a3be 4074 b8be dae1 4a3e
00000340: 8cd5 093f fa23 803d 4ee2 ae3d be07 103f
00000350: 71a8 ff3e 3158 d23e aa49 3b3f 9078 8fbb
00000360: e421 0fbf b34f b8bf b28c 72be 95c6 303f
00000370: 9dd6 313f 11be 11bf 97f1 933d b7f7 7a3f
00000380: 46e1 e0be ba1b 08bf 0121 863e 8365 023e
00000390: 67da 09bf c06f 37be 0ac3 ea3d 23ef a73d
000003a0: 2714 bd3c f25d c83e 9db0 78bf bb8d d93e
000003b0: 36ce ce3c e547 2e3f 928a b13e c3ec 993e
000003c0: 820b 6cbf e96f 96bd dfe7 763d 5386 a3bd
000003d0: c71a 043e 297b babf 7bb0 2dbe c621 1ebf
000003e0: 8e5c 6dbe 956c 50bf 5d7b 003f 4ee6 35c0
000003f0: b8d9 923d 04a9 e2be e4af c73d d91d bbbe

layer2.3.weight f4 [256, 256]
-0.13264887 -0.033530027 -0.108380385 -0.025779251 0.28676662 0.10272733 0.12997569 0.29573584
-0.21382764 0.02098039 0.18051665 -0.18818125 -0.016387075 -0.23516518 -0.21701892 -0.045579396
0.07316539 -0.41613233 -0.34016106 -0.18196528 0.15854928 -0.3901424 0.4101346 -0.22696461
-0.06187503 -0.038324367 -0.0021932027 0.1353269 -0.070181005 -0.22134209 -0.06648854 0.18164876
0.3408037 -0.047669742 0.03862248 0.027326489 0.25690413 -0.07450856 -0.19885316 -0.020179845
-0.14294916 0.048277203 0.33792537 0.13874196 0.17443603 0.0029477903 -0.108891845 0.45811513
-0.07180924 0.090201415 -0.012658227 -0.029598478 -0.14076592 -0.06010915 0.015414974 0.063435405
0.09750588 -0.057001304 0.2127817 -0.1383754 0.044407967 0.08017296 0.033156514 0.01997615
-0.0002874468 0.08835217 -0.2392257 -0.023463763 -0.010093213 0.07973898 0.23948205 0.1884879
0.16407172 -0.022314733 -0.054842357 0.14302346 0.16504721 -0.122876815 0.33225563 -0.33749062
-0.03297159 0.06028723 0.13257502 0.13306594 0.49786806 0.064984426 0.30921248 0.11437229
0.06603745 -0.28681517 -0.040851638 0.04638422 -0.067074105 -0.121465735 -0.19967337 -0.07400058
-0.21062829 0.20682043 -0.02891366 -0.08299227 -0.76203406 -0.08342951 -0.16453515 0.049686424
0.16085775 -0.2141243 -0.22896613 -0.092529364 -0.77576137 -0.14463061 0.30728194 0.23510058
-0.100520685 -0.3304331 -0.45294464 -0.09418297 0.11576906 -0.33562192 0.11579586 0.078965455
0.28913134 0.20881556 -0.122763254 -0.17821205 0.20755324 -0.07004009 -0.04619281 -0.02794204
0.27711818 0.22770762 0.012228344 -0.26350358 -0.11349163 -0.08606795 -0.023069292 -0.23469177
-0.04573793 -0.0558283 0.17804624 0.017318392 0.06874259 0.09486352 -0.21130499 0.05126195
-0.02572523 -0.43673635 -0.27150902 -0.3322037 0.04878237 -0.1693742 -0.2451306 0.12658368
0.008545886 -0.014780906 0.061705194 -0.048561204 0.11074218 -0.08054093 -0.016477523 -0.122910455
0.19101088 -0.6165801 -0.07728001 -0.6548994 -0.03170318 -0.22765666 0.11649392 -0.16669102
-0.1721464 0.15627167 -0.0027446528 0.12568039 0.107599914 0.08218428 0.009464333 -0.17766029
-0.09530289 0.1416292 0.44647166 -0.053330284 -0.0778564 0.1698828 0.053263657 -0.08986771
-0.013504338 0.3024428 -0.030278796 0.06370261 -0.19226435 -0.3586502 0.1318716 -0.15724039
-0.115470655 0.0036216096 0.1300398 0.40524533 0.21845727 -0.096314 0.0036732762 -0.116415545
0.15815687 -0.033156052 0.104587466 0.0023971598 -0.06980352 0.055410523 0.13059908 0.21108417
0.13131191 0.07434574 -0.071899965 0.09082653 -0.04450493 -0.23232633 -0.3411025 0.2587131
-0.022240218 0.13128494 -0.39553934 0.18870518 -0.08048879 -0.34958845 0.31590608 0.17812946
0.06487148 -0.009623231 -0.029297203 -0.08068181 0.14834274 -0.30950224 -0.039754234 0.11644831
-0.19888124 0.25547534 -0.1108441 -0.17872855 0.14097781 0.28462505 -0.16292821 0.06850661
0.060005464 0.015762972 0.02869002 -0.25922927 0.071553454 -0.034100115 -0.026375748 -0.12963782
-0.08988917 -0.1245633 0.038598455 -0.3344639 0.23753515 -0.2686267 0.057081047 -0.045941215
00000000: 1bd5 07be c856 09bd 89f6 ddbd 022f d3bc
00000010: 13d3 923e b562 d23d 5918 053e b06a 973e
00000020: a2f5 5abe 11df ab3c 5bd9 383e 96b2 40be
00000030: 303e 86bc 24cf 70be 353a 5ebe 76b1 3abd
00000040: bcd7 953d 4c0f d5be 9729 aebe 1b55 3abe
00000050: be5a 223e bfc0 c7be 2afd d13e 6969 68be
00000060: ac70 7dbd 03fa 1cbd d6bb 0fbb 2393 0a3e
00000070: 0fbb 8fbd 80a7 62be 252b 88bd 2202 3a3e
00000080: d37d ae3e 5941 43bd 9b32 1e3d cddb df3c
00000090: f088 833e f297 98bd 2aa0 4bbe 3450 a5bc
000000a0: 4461 12be 51be 453d 8e04 ad3e 5f12 0e3e
000000b0: 5c9f 323e b72f 413b b002 dfbd 118e ea3e
000000c0: b910 93bd 85bb b83d 7464 4fbc 8278 f2bc
000000d0: f124 10be 0335 76bd 168f 7c3c 6cea 813d
000000e0: 2ab1 c73d 337a 69bd 72e3 593e 48b2 0dbe
000000f0: 21e5 353d b931 a43d 20cf 073d 06a5 a33c
00000100: 75b4 96b9 fcf1 b43d 95f7 74be 1437 c0bc
00000110: 015e 25bc 314e a33d c83a 753e f902 413e
00000120: 6b02 283e 63cd b6bc 61a2 60bd be74 123e
00000130: 2302 293e d7a6 fbbd 691d aa3e 92cb acbe
00000140: 380d 07bd beef 763d bfc1 073e 7042 083e
00000150: 90e8 fe3e 8e16 853d 1951 9e3e 053c ea3d
00000160: a53e 873d 70d9 92be 0c54 27bd 61fd 3d3d
00000170: 265e 89bd 07c3 f8bd 2d77 4cbe 9e8d 97bd
00000180: f1ae 57be bcc8 533e 57dc ecbc daf7 a9bd
00000190: aa14 43bf 17dd aabd e77b 28be fe83 4b3d
000001a0: e5b7 243e 6743 5bbe 1976 6abe 0980 bdbd
000001b0: 4c98 46bf 0c1a 14be 0f54 9d3e 35be 703e
000001c0: cadd cdbd 872e a9be 5ce8 e7be 00e3 c0bd
000001d0: 5418 ed3d a3d6 abbe 6126 ed3d a4b8 a13d
000001e0: 0609 943e bfd3 553e 4d6b fbbd 387d 36be
000001f0: d688 543e 2e71 8fbd ac34 3dbd b4e6 e4bc
00000200: 6fe2 8d3e 302c 693e 6459 483c f1e9 86be
00000210: 4d6e e8bd 6544 b0bd d0fb bcbc 0a53 70be
00000220: b257 3bbd 37ac 64bd c151 363e 4ddf 8d3c
00000230: eac8 8c3d ce47 c23d 5660 58be 0df8 513d
00000240: b8bd d2bc e89b dfbe 3b03 8bbe 9a16 aabe
00000250: 06d0 473d 6e70 2dbe 8403 7bbe 279f 013e
00000260: 0b04 0c3c 9d2b 72bc 96be 7c3d 1de8 46bd
00000270: cccc e23d a5f2 a4bd dffb 86bc 7ab8 fbbd
00000280: 5b98 433e 32d8 1dbf fb44 9ebd 7da7 27bf
00000290: 32db 01bd d41e 69be 5d94 ee3d 0db1 2abe
000002a0: 2547 30be ae05 203e a2df 33bb 5cb2 003e
000002b0: 585d dc3d 3b50 a83d 4a10 1b3c 94ec 35be
000002c0: 292e c3bd 3f07 113e ef97 e43e db70 5abd
000002d0: 2d73 9fbd c2f5 2d3e fe2a 5a3d 900c b8bd
000002e0: 4d41 5dbc c8d9 9a3e 3d0b f8bc 8476 823d
000002f0: f2e0 44be 00a1 b7be 5909 073e a003 21be
00000300: e17b ecbd 8758 6d3b 2729 053e 517c cf3e
00000310: 43b3 5f3e 4640 c5bd 59bb 703b 466b eebd
00000320: e0f3 213e a4ce 07bd f431 d63d ab19 1d3b
00000330: 26f5 8ebd 25f6 623d c4bb 053e 7326 583e
00000340: a176 063e 9442 983d 4a40 93bd 4203 ba3d
00000350: cd4a 36bd f4e6 6dbe fda4 aebe 0b76 843e
00000360: 1e31 b6bc 8f6f 063e 2284 cabe ee3b 413e
00000370: 4fd7 a4bd 42fd b2be 71be a13e 9267 363e
00000380: 57db 843d c2aa 1dbc b000 f0bc 813c a5bd
00000390: 29e7 173e 1477 9ebe 56d5 22bd 747c ee3d
000003a0: 86a7 4bbe aacd 823e 3b02 e3bd 9e04 37be
000003b0: 7d5c 103e 60ba 913e a7d6 26be 324d 8c3d
000003c0: 4ac8 753d 5921 813c 5507 eb3c b3b9 84be
000003d0: 9e8a 923d 90ac 0bbd f411 d8bc c7bf 04be
000003e0: d017 b8bd 0b1b ffbd 6a19 1e3d da3e abbe
000003f0: 6a3c 733e 7089 89be d1cd 693d db2c 3cbd

layer2.3.bias f4 [256]
-0.22163603 -0.15780276 0.5964012 0.62492377 -0.14336133 -0.47320276 0.06376934 0.09662029
0.7532309 0.65270114 -0.20810889 0.28607684 -0.56825536 -0.06716295 0.0111109065 0.46155846
0.33789507 0.073589824 -0.13337742 0.35504442 -0.23521914 0.09057318 0.7214646 0.6088374
-0.26088133 0.088987805 -0.21923694 -0.03655887 0.39174008 0.96379334 0.12432565 -0.4330116
-0.28792816 0.41258523 0.35094994 -0.61813235 0.10556347 0.2706119 -0.25638157 -0.23507617
0.26697597 -0.2588952 -0.34402227 0.0813186 -0.18024763 -0.056840066 -0.11998395 0.19321689
0.8369185 0.51662284 0.28998727 -0.28480977 0.35118204 -0.0118722115 0.09200584 -0.9253597
-0.6594894 -0.018267993 0.44960055 -0.7216188 0.3456837 0.013502503 -0.67362934 0.61087745
-0.19592297 -0.5955347 -0.47107926 -0.44748753 -0.5020433 0.19105528 0.88953906 0.22976267
-0.60217017 -0.17199853 -0.14130881 -0.19966988 0.47923276 -0.20607449 0.6218868 0.32475457
0.022464965 0.095377035 0.7847069 0.39029396 0.18879983 0.53958917 0.31871748 0.1737545
-0.093470685 -0.20234065 -0.14013326 -0.5413907 0.070562184 -0.38561177 0.6637443 -0.1732512
-0.4699231 0.082752585 -0.18026724 -0.3510808 -0.18879695 0.05162108 -0.7898691 0.013849147
-0.14610602 0.034105364 -0.36183193 0.55991703 0.07005788 -0.093274154 0.7086833 -0.055246912
0.1715996 -0.026843185 -0.29111195 0.26663807 0.42472607 0.35613674 -0.27660826 -0.092449024
-0.6564995 0.40514863 0.27533278 0.20115022 -0.101019196 -0.37234026 -0.22644359 -0.75567377
-0.112991385 0.45027247 0.8023321 -0.10365658 0.044420067 -0.56589335 -0.6015829 -0.49886832
-0.6438477 -0.34442195 0.18207358 0.23049764 -0.17829596 0.06796361 0.115410075 0.5970259
-0.13681786 -0.28850564 -0.17792484 -0.17084298 0.29161456 -0.50609773 -0.5401845 0.61462855
-0.15991546 -0.40542802 -0.13754553 0.20653635 -0.12797241 -0.53561336 -0.3801908 -0.21040948
0.06497782 0.1668498 0.109516256 0.13130563 -0.28792703 -0.07043036 0.29653043 0.76015157
-0.4611018 -0.04673152 -0.2696447 0.5531402 -0.66095066 -0.3682884 0.6061653 0.05883828
-0.5568196 -0.013408846 -0.6185868 -0.17631394 -0.31210053 1.086847 -0.2554704 -0.13266157
-0.8994093 0.32759666 -0.42570674 0.30574653 -0.31598657 -0.40077063 0.019154811 -0.09530152
-0.4183717 -0.5588865 0.35922045 -0.8336749 0.24888232 -0.10805543 -0.47708738 -0.74662966
-0.13039464 0.497017 -0.46524858 -0.28332195 0.12450805 0.122429036 0.044288304 0.34247798
-0.080274135 -0.51069534 -0.0013996242 0.22299099 -0.25868365 0.10567844 -0.21851481 -0.7167727
0.028219897 0.22863913 -0.59536886 -0.091507114 -0.45802525 -0.02846309 -0.07566561 0.25868464
0.5997362 0.80475014 0.23106939 0.45205238 0.06079764 -0.1351748 0.2897096 -0.37026218
0.49859416 0.6577436 -0.17835239 -0.19620566 -0.8279143 -0.24301267 0.39736456 0.7531891
-0.7783355 -0.12898363 -0.0672402 0.36080536 0.54165924 0.17982645 -0.31462505 -0.20332372
0.59437335 0.009645471 0.011174488 0.07283946 -0.12459417 0.008994365 -0.5008771 0.40267733
00000000: 8ef4 62be 0c97 21be c0ad 183f 01fb 1f3f
00000010: 50cd 12be a247 f2be 8099 823d dce0 c53d
00000020: bed3 403f 6c17 273f 7f1a 55be aa78 923e
00000030: 2f79 11bf bb8c 89bd 850a 363c 6451 ec3e
00000040: 9500 ad3e 43b6 963d 1794 08be 62c8 b53e
00000050: 49dd 70be 6e7e b93d e7b1 383f c5dc 1b3f
00000060: 3d92 85be 3d3f b63d a67f 60be c1be 15bd
00000070: 2892 c83e 29bb 763f 729e fe3d b2b3 ddbe
00000080: 526b 93be 5f3e d33e b6af b33e ec3d 1ebf
00000090: a931 d83d a58d 8a3e 7244 83be cfb7 70be
000000a0: 13b1 883e e98d 84be b023 b0be 5e8a a63d
000000b0: d692 38be 21d1 68bd 25ba f5bd a6da 453e
000000c0: 4a40 563f 6541 043f 3679 943e 96d2 91be
000000d0: 22ce b33e aa83 42bc 8f6d bc3d 60e4 6cbf
000000e0: 4cd4 28bf c2a6 95bc 0b32 e63e 02bc 38bf
000000f0: 74fd b03e 9a39 5d3c f972 2cbf 7762 1c3f
00000100: 08a0 48be f674 18bf 4d31 f1be 161d e5be
00000110: e985 00bf ffa3 433e d5b8 633f e846 6b3e
00000120: d327 1abf 6220 30be 42b3 10be 4376 4cbe
00000130: ff5d f53e 3105 53be f933 1f3f 3b46 a63e
00000140: 7208 b83c 0955 c33d 8de2 483f 9cd4 c73e
00000150: be54 413e 8422 0a3f f02e a33e b3ec 313e
00000160: 8f6d bfbd 6332 4fbe 187f 0fbe 9598 0abf
00000170: e882 903d e86e c5be 25eb 293f c368 31be
00000180: c399 f0be 307a a93d fa97 38be ddc0 b3be
00000190: fd53 41be a070 533d dd34 4abf 88e7 623c
000001a0: d19c 15be 11b2 0b3d 0942 b9be b956 0f3f
000001b0: 817a 8f3d 8506 bfbd 456c 353f 964a 62bd
000001c0: ceb7 2f3e 3de6 dbbc a00c 95be c984 883e
000001d0: b275 d93e 8e57 b63e 999f 8dbe ea55 bdbd
000001e0: 5a10 28bf a46f cf3e 6bf8 8c3e 53fa 4d3e
000001f0: 27e3 cebd 62a3 bebe d4e0 67be d673 41bf
00000200: 0768 e7bd 1d8a e63e a365 4d3f e749 d4bd
00000210: d1f1 353d 63de 10bf 5601 1abf ab6b ffbe
00000220: 34d3 24bf 1358 b0be 7f71 3a3e 9307 6c3e
00000230: 3793 36be 8130 8b3d 1e5c ec3d b0d6 183f
00000240: fb19 0cbe 03b7 93be ee31 36be 76f1 2ebe
00000250: 814e 953e 9f8f 01bf 8849 0abf 4c58 1d3f
00000260: e1c0 23be 4394 cfbe bcd8 0cbe 447e 533e
00000270: 330b 03be f51d 09bf 5ea8 c2be 9575 57be
00000280: 1713 853d adda 2a3e 0f4a e03d fc74 063e
00000290: 2c6b 93be cb3d 90bd d6d2 973e 4b99 423f
000002a0: 8915 ecbe 8d69 3fbd df0e 8abe 999a 0d3f
000002b0: 1034 29bf 4c90 bcbe a62d 1b3f 6900 713d
000002c0: bb8b 0ebf c7b0 5bbc b45b 1ebf a48b 34be
000002d0: a4cb 9fbe cd1d 8b3f 04cd 82be 6fd8 07be
000002e0: b03f 66bf c0ba a73e 3cf6 d9be cf8a 9c3e
000002f0: fec8 a1be cf31 cdbe 8dea 9c3c 712d c3bd
00000300: d134 d6be 3013 0fbf beeb b73e b86b 55bf
00000310: 02db 7e3e 2a4c ddbd cc44 f4be 1f23 3fbf
00000320: 2c86 05be 0379 fe3e 1035 eebe 930f 91be
00000330: 14fe fe3d 13bc fa3d a767 353d 4659 af3e
00000340: c466 a4bd eebc 02bf 9873 b7ba c057 643e
00000350: 2f72 84be f06d d83d 59c2 5fbe 6a7e 37bf
00000360: 6a2d e73c 6020 6a3e 186a 18bf 1568 bbbd
00000370: 4982 eabe 6d2b e9bc 92f6 9abd 5072 843e
00000380: 5088 193f 1b04 4e3f 749d 6c3e 6973 e73e
00000390: f206 793d 436b 0abe d154 943e 0193 bdbe
000003a0: bc47 ff3e e261 283f 02a2 36be 23ea 48be
000003b0: 31f2 53bf 50d8 78be 5e73 cb3e 00d1 403f
000003c0: ff40 47bf 4914 04be 3bb5 89bd 7bbb b83e
000003d0: 2eaa 0a3f 6d24 383e 8916 a1be 1834 50be
000003e0: da28 183f 0a08 1e3c 3315 373c db2c 953d
000003f0: 3a2b ffbd 1a5d 133c 7b39 00bf b92b ce3e

layer2.6.weight f4 [7, 256]
0.010354801 0.0568565 -0.04013021 0.09910876 0.0060553947 -0.02528034 -0.10000579 0.076475106
-0.004138596 -0.087947495 -0.0194974 -0.011726589 -0.012345081 -0.052270073 -0.025198255 0.0014507414
-0.024783766 0.17416334 0.03988875 -0.02263272 0.006422789 0.14116406 0.035471395 0.00509261
-0.049469948 -0.096586674 -0.101188 -0.15624228 -0.080889724 -0.038399495 0.026805114 -0.1614904
0.1252771 -0.09839491 0.076454364 -0.048985727 0.031060264 0.04503284 0.07560377 0.031318896
-0.060981344 -0.05596142 0.08853803 -0.21491247 0.022327337 -0.0036415746 0.07210927 0.01603516
-0.04627603 -0.07426361 0.07041389 0.007588833 0.028721241 -0.13754563 0.04773275 0.07094967
-0.09594944 0.07624908 -0.16636749 0.030320264 -0.0039720247 -0.14328451 0.052085556 0.012175939
0.09641252 -0.19555493 -0.109855466 0.02379698 0.0037403696 -0.12360441 -0.088337265 0.014482628
0.026174063 -0.056344874 -0.103248976 0.12483437 -0.14409168 -0.014275611 0.082943484 0.041798104
0.058149867 0.09679619 -0.04099804 -0.15739378 0.062089305 -0.09787059 -0.028515648 -0.09693998
-0.11181392 -0.08867522 -0.01572935 -0.02715034 -0.21214569 -0.038560882 -0.123456314 -0.07099784
0.0792847 0.16333891 0.24701999 -0.07806427 -0.09747727 0.08175664 0.082938194 0.112479605
-0.09632246 -0.021736998 -0.0004128671 0.10979627 -0.0069268816 0.022202885 0.044617258 -0.13225047
0.21570684 0.17174095 0.035799254 -0.0050863903 0.14284404 -0.024916695 -0.036181986 0.06463654
-0.16243327 -0.021736478 -0.15308456 -0.13185659 -0.09296209 0.07062797 -0.06425354 0.013328975
-0.18389213 0.095736936 -0.07680481 0.0646689 0.12024554 -0.018181274 0.14063105 -0.04277198
0.0046946956 -0.040428206 0.040213633 0.039049607 -0.091041334 -0.0003935433 0.10525336 0.06328419
0.04739148 -0.059783194 0.012117393 0.024478495 -0.027895605 -0.03887372 -0.020572249 0.045950767
0.09676589 0.11691851 0.026672171 0.19651857 -0.00082658377 -0.024629708 0.07926523 -0.09167206
0.03277516 0.14970839 -0.14698079 0.06197382 -0.114957824 0.08028497 -0.10405199 0.04086819
-0.006384715 0.08875816 -0.040834967 0.009183751 -0.055793047 0.08835548 -0.08124586 0.1812085
0.0060783327 0.10463635 -0.04491234 0.045023907 -0.024164714 -0.1370096 -0.03787603 0.06194475
0.036933687 0.16011333 -0.07449598 -0.0063764593 -0.10053121 -0.09222781 -0.055436015 -0.039653953
-0.12606783 0.09036716 -0.022849027 0.072471164 0.007252127 -0.057050776 0.030845124 -0.12894882
0.027202137 0.016413124 0.024207907 0.07370697 -0.029502157 0.12060768 0.14700294 0.095519714
-0.106223345 0.03661831 -0.005026906 0.10558076 0.017904837 -0.017407661 -0.04640559 -0.045863632
0.06745079 0.0718853 0.050242975 -0.006228467 -0.019959748 -0.16247551 -0.0072188606 -0.009600182
-0.02668984 -0.07347633 -0.0742568 -0.09533681 0.082047515 0.09026205 0.04002091 -0.19102374
-0.087244555 0.00822022 0.0013300478 0.026606005 -0.03931725 0.08158985 -0.030744301 -0.00121676
0.102818474 0.24384645 -0.08967008 -0.11650281 0.028547673 0.11942899 0.048894156 -0.09304639
0.08423023 0.14990881 -0.020204829 0.09643371 -0.12412038 0.08012492 -0.06932845 -0.12663846
00000000: 2fa7 293c 5de2 683d 935f 24bd 89f9 ca3d
00000010: 556c c63b b718 cfbc d6cf ccbd fb9e 9c3d
00000020: 0f9d 87bb d11d b4bd 03b9 9fbc e120 40bc
00000030: 0643 4abc 2519 56bd 926c cebc ce26 be3a
00000040: 5307 cbbc e057 323e 6362 233d 4168 b9bc
00000050: 4276 d23b 508d 103e 744a 113d e9df a63b
00000060: 00a1 4abd 3ccf c5bd a73b cfbd fafd 1fbe
00000070: 83a9 a5bd ca48 1dbd 6696 db3c bd5d 25be
00000080: a448 003e 4583 c9bd 1b94 9c3d 42a5 48bd
00000090: 1872 fe3c 5b74 383d 26d6 9a3d 3e48 003d
000000a0: 93c7 79bd cd37 65bd 6d53 b53d 0412 5cbe
000000b0: d2e7 b63c 7ca7 6ebb 06ae 933d 2b5c 833c
000000c0: ef8b 3dbd 8517 98bd 2835 903d bfab f83b
000000d0: cf48 eb3c c3d8 0cbe 6b83 433d 104e 913d
000000e0: 2481 c4bd 7a28 9c3d 3d5c 2abe 3462 f83c
000000f0: c227 82bb 2db9 12be aa57 553d 977d 473c
00000100: ed73 c53d 8d3f 48be e7fb e0bd e2f1 c23c
00000110: fd20 753b 4f24 fdbd 2bea b4bd 8b48 6d3c
00000120: fd6a d63c e2c9 66bd 3374 d3bd 2aa9 ff3d
00000130: c58c 13be 41e4 69bc 46de a93d 7d34 2b3d
00000140: 8e2e 6e3d 153d c63d 90ed 27bd d62b 21be
00000150: 5b51 7e3d 6070 c8bd a699 e9bc 7888 c6bd
00000160: b2fe e4bd 5b9b b5bd d6da 80bc 646a debc
00000170: b83c 59be 04f2 1dbd aad6 fcbd 5167 91bd
00000180: 0460 a23d 5142 273e cff2 7c3e 29e0 9fbd
00000190: 2aa2 c7bd 0670 a73d 80db a93d b55b e63d
000001a0: b644 c5bd ca11 b2bc 1676 d8b9 dedc e03d
000001b0: e5fa e2bb d3e2 b53c 96c0 363d ab6c 07be
000001c0: 41e2 5c3e dcdc 2f3e 3da2 123d bcab a6bb
000001d0: b545 123e 191e ccbc 9033 14bd 2a60 843d
000001e0: e854 26be b310 b2bc 33c2 1cbe 6a05 07be
000001f0: e962 bebd 66a5 903d 5c97 83bd c661 5a3c
00000200: 384e 3cbe ba11 c43d d74b 9dbd 2171 843d
00000210: 4b43 f63d e5f0 94bc 9601 103e ac31 2fbd
00000220: f6d5 993b 0c98 25bd 0db7 243d 7bf2 1f3d
00000230: e173 babd 7d54 ceb9 138f d73d 249b 813d
00000240: 921d 423d 39df 74bd 0888 463c 2087 c83c
00000250: 5385 e4bc 0d3a 1fbd 2287 a8bc df36 3c3d
00000260: 322d c63d f972 ef3d 997f da3c 2a3c 493e
00000270: 19af 58ba 3ec4 c9bc cf55 a23d 90be bbbd
00000280: 3f3f 063d 284d 193e 2282 16be 43d8 7d3d
00000290: 026f ebbd 726c a43d 3619 d5bd 6765 273d
000002a0: df36 d1bb d7c6 b53d 9142 27bd 7277 163c
000002b0: 4087 64bd b8f3 b43d 3b64 a6bd b98e 393e
000002c0: c02c c73b 954b d63d 00f6 37bd fd6a 383d
000002d0: 14f5 c5bc 3f4c 0cbe e523 1bbd c7b9 7d3d
000002e0: c747 173d c0f4 233e 5991 98bd 9ef1 d0bb
000002f0: 4fe3 cdbd efe1 bcbd e010 63bd 2f6c 22bd
00000300: ed17 01be 6b12 b93d e22d bbbc c36b 943d
00000310: 40a3 ed3b 13ae 69bd eaae fc3c 290b 04be
00000320: 04d7 de3c d174 863c a94f c63c aef3 963d
00000330: 82ae f1bc 2901 f73d f087 163e d79f c33d
00000340: a08b d9bd 15fd 153d beb8 a4bb ba3a d83d
00000350: 2aad 923c 839a 8ebc ca13 3ebd 81db 3bbd
00000360: a423 8a3d 9a38 933d 94cb 4d3d 2b18 ccbb
00000370: a082 a3bc fb5f 26be 318c ecbb 154a 1dbc
00000380: a7a4 dabc c27a 96bd f313 98bd f23f c3bd
00000390: 8708 a83d 4fdb b83d f7ec 233d ba9b 43be
000003a0: 46ad b2bd 1aae 063c 0055 ae3a d6f4 d93c
000003b0: 200b 21bd 9418 a73d 79db fbbc b17b 9fba
000003c0: 7e92 d23d e2b2 793e f2a4 b7bd 0699 eebd
000003d0: cfdc e93c 3097 f43d 3d45 483d 1b8f bebd
000003e0: e680 ac3d b281 193e 9984 a5bc 097f c53d
000003f0: d332 febd 8918 a43d 13fc 8dbd 83ad 01be

layer2.6.bias f4 [7]
-1.7974657 -1.5966779 -0.14112951 -0.115031004 -0.33772686 -0.20613496 1.0729553
00000000: 5b13 e6bf f15f ccbf 4184 10be 6095 ebbd
00000010: 89ea acbe 0b15 53be 9956 893f
