Model_Files/bpi/EventPredictor_parameters_binary_0.0001.pt (torch, 280585 bytes, 8 tensors)

layer1.weight f4 [4, 1]
00000000: 4066 3ebe fc02 bc3e 83d8 b13b 2cc5 eabe
-0.18593693 0.36721027 0.0054274215 -0.45853555

layer1.bias f4 [6]
00000000: a911 44be ff42 2bbf c675 babf 5c8e a1be
00000010: 0b94 563f f415 30bf
-0.19147362 -0.668991 -1.4567192 -0.31553924 0.83819646 -0.687835

layer2.1.weight f4 [256, 6]
00000000: ee95 98bb dd35 2f3a 9d55 39c0 2fff 323e
00000010: 877e d63f 5037 99bf 7e62 d53d 5dfe 3d3e
00000020: 4991 493d 530f 4ebd d3b0 8cbe e4eb 023d
00000030: e1ce 9d3e a3af b23e 10fc 0ebf 5d50 843e
00000040: ee85 a0bc 1193 bb3d 5751 d23e ea8d a1be
00000050: ab26 0dbf 6298 4d3e e146 4a3e 6ae3 d93d
00000060: c7c4 9ebe b3c5 86be b0ac d9be bc2b 85be
00000070: 61a4 263e 6552 b23d d923 1c3f ef9a 61bd
00000080: dae7 c0bd 6ccf 263e 0570 dabd c3c5 f23d
00000090: 79df d23e 633c 8abe 45b9 8a3e 38ff 143e
000000a0: 4c48 afbd 76a1 d63d 804f 03bd 3ffe 9dbd
000000b0: ec82 7d3e a8e7 f8be 3fd3 ff3d 43e3 453d
000000c0: c57f ab3e 8ae7 b53e 6439 5abe a167 2fbf
000000d0: d475 c83f 6a4e 9cbf 55ec 133e 82e5 62be
000000e0: 429e 233e 56ba 97bc 8a83 dd3c 9ac6 7e3e
000000f0: 8ce3 2ebe f935 09be 77a2 283e 8f9a 0fbe
00000100: b882 c23e 2b66 89bd 2efc 563e 6518 473e
00000110: bb17 24bd 0f39 b0be 9932 383f 7f01 993e
00000120: 2379 fa3d 054e 54be 862f e03e 6137 363a
00000130: 96d1 2dbe 3502 1cbc c601 80bd 42be 593e
00000140: fdac 61be 84d2 fcbd a3b7 6cbd d532 d13b
00000150: 7a3a a6be 8e53 f83d b036 58be f348 403d
00000160: 2e69 c5bc 71c2 85bd c4b9 2b3e c671 8d3e
00000170: dda5 91be 5957 b33d 8c91 73bd 900d 01bc
00000180: 1780 0fbf 8fa2 463b a279 823e 86a6 1dbd
00000190: 0546 de3c 626e 84bc ef54 ab3e 0ffc 69be
000001a0: a92d 05bf a0fb c63e 131f e03d 9710 083e
000001b0: f321 1dbc 04c3 bdbb 682a 1540 fc39 15be
000001c0: 1611 89bf 48ff 9bbe c951 553c 9e54 df3a
000001d0: d51f 4ebd 9745 083e 8b3b 97bf 9d26 083d
000001e0: 579f 573c 33ba 9f3d 2c97 a23d 9546 3abf
000001f0: edf3 5f3f a420 7ebc 5618 d3bc 1a24 34bd
00000200: 4bc4 f9bd 0838 823d a99b 753f e270 afbd
00000210: fa97 ccbe e493 1a3e 00d1 35be 50d9 073d
00000220: d880 043d 4aae 03be 89ff a7be 5908 25be
00000230: 08ad bc3e 6903 4ebe 0852 823d 60f6 1abe
00000240: 398d cabe 25c8 8cbe b8e1 b33e 6433 a1be
00000250: 54a1 063e 63ae 9d3b b4de 45bd cfe3 c33c
00000260: 6982 70be eea1 273e 2c83 cb3e aaf6 acbe
00000270: 06d5 393b c6b7 a9bb 500d a63f 86e9 8d3e
00000280: 831f f5bf f74a 843e 7c62 ed3a ec05 0b3c
00000290: 7bfd abbf 927b 38be 8332 3b40 8777 0abe
000002a0: b714 86be e3ce 26be 4eb9 cb3e 586d 96bb
000002b0: 69d5 cc3c 1848 0abe 3bfa 053f af42 22bc
000002c0: d636 8cbd c2b1 183e 05e5 9dbc 8abc 6d3e
000002d0: 2c64 d73e d47a 083d 212d c63d bb63 933b
000002e0: e4c2 76bd edb9 463e 06d1 f0bd 65f5 61be
000002f0: 9e89 413e 9fd3 c33e 9191 cfbe aac7 c1bd
00000300: 18b4 fabe 8dda 833d df4f d9be e8ae b7bd
00000310: d966 e33d 23f4 01bd 7fff 123d 1269 e3bd
00000320: 7e5d 77be 18ec e1bd 30d5 4a3f f51d a1bd
00000330: 478d a73e 51f4 94be d622 c13e 3520 70bd
00000340: 28a1 443d 7981 2e3e 71b0 a93e 9abe 9d3d
00000350: 2f3a c1be 994c 00be 4b02 173e 108f febd
00000360: ab03 20be 6ae3 663e 9d08 3d3e 280a 53be
00000370: b55f ccbd 1189 afbd c44e 853e 6b42 78be
00000380: b070 b23e 036f 223d 7c75 27bd 872f 35bd
00000390: 5114 e5be b6db 203e c5d8 873d 665f ff3d
000003a0: 75d1 9d3c ce9a babe 1106 6dbe 4380 2cbe
000003b0: 9e88 7a3e 2b26 013e 7eda 63bb 9a07 c3bc
000003c0: fc41 8e3e 6e4f 453d 0ebd f9be b41b a63e
000003d0: 5903 9fbe 0d23 e53d e0a6 f53e cc16 653e
000003e0: 58f5 20bd 103b 123e 0722 43be acce 353f
000003f0: 2e76 303f 1747 b33d 1857 2bbe 14f8 813e
-0.004656545 0.00066837465 -2.8958504 0.17480157 1.6757363 -1.1970005 0.104191765 0.18554063
0.04921082 -0.050307583 -0.27478656 0.031963244 0.308219 0.34899625 -0.55853367 0.25842562
-0.019595113 0.0915891 0.41077682 -0.31553584 -0.5513713 0.2007766 0.197536 0.10639079
-0.31009504 -0.26322708 -0.42514563 -0.2600993 0.16273643 0.08707122 0.609922 -0.055079397
-0.09419222 0.16290063 -0.10665897 0.11854126 0.4118612 -0.26999196 0.27094474 0.14550483
-0.085587114 0.10480015 -0.03205824 -0.07714509 0.24756974 -0.4861424 0.12491464 0.048312437
0.33495918 0.35528213 -0.21310955 -0.685175 1.5660958 -1.221143 0.14445622 -0.22157863
0.1597834 -0.01852147 0.027040262 0.24880448 -0.1707899 -0.13399495 0.16468225 -0.14023803
0.37990355 -0.0670894 0.20994636 0.194429 -0.040061694 -0.34418532 0.71952206 0.29883954
0.12230136 -0.20732887 0.43786258 0.0006951001 -0.16974482 -0.009522011 -0.06250338 0.21263984
-0.22038646 -0.1234484 -0.057792317 0.0063842335 -0.3246649 0.12125312 -0.21114612 0.04694457
-0.024098005 -0.065312274 0.16770083 0.27625865 -0.28446856 0.087568946 -0.059464976 -0.007876769
-0.56054825 0.0030309295 0.25483423 -0.038488887 0.027132997 -0.016165916 0.33463237 -0.22850059
-0.52022797 0.3886385 0.10943427 0.13287579 -0.009590614 -0.00579107 2.3307133 -0.145729
-1.0708339 -0.30468202 0.013019987 0.0017038768 -0.050323326 0.13307796 -1.1815046 0.03323995
0.013160548 0.077991866 0.0793899 -0.7276395 0.87481576 -0.015510712 -0.02576844 -0.04397974
-0.12195643 0.06358343 0.95940644 -0.085664526 -0.399597 0.15095478 -0.17755508 0.03316623
0.032349437 -0.12859455 -0.32812145 -0.16116466 0.36850762 -0.20118488 0.063633025 -0.15133047
-0.3956087 -0.27496448 0.35133147 -0.3148452 0.1314748 0.0048120483 -0.04830809 0.023912339
-0.23487248 0.16370365 0.39748514 -0.3378194 0.0028355732 -0.005179378 1.2972813 0.27717227
-1.9150242 0.25838444 0.0018111016 0.008485299 -1.3436731 -0.18015888 2.924958 -0.13522159
-0.2618768 -0.16289859 0.39789814 -0.0045906715 0.025004106 -0.13504064 0.52334946 -0.009903594
-0.068463966 0.14911559 -0.019274244 0.23216453 0.42068613 0.033320263 0.096765764 0.004497973
-0.060244456 0.19406863 -0.11758618 -0.22066267 0.18900153 0.38247392 -0.40540746 -0.09461911
-0.48965526 0.0643817 -0.4244375 -0.089689076 0.11103601 -0.031726968 0.03588819 -0.11104025
-0.24156758 -0.110313594 0.7923155 -0.07867042 0.32724974 -0.2909265 0.3772189 -0.058624465
0.048005253 0.17041577 0.33142427 0.0770237 -0.37739703 -0.1252922 0.14746968 -0.12429631
-0.15626399 0.22547689 0.18460317 -0.20609343 -0.09979192 -0.08571065 0.26036656 -0.24244086
0.348516 0.03965665 -0.040883526 -0.04423478 -0.44742063 0.15708813 0.066331424 0.12469368
0.019264916 -0.36446232 -0.23146845 -0.16845803 0.24466178 0.12612216 -0.0034767683 -0.023807336
0.27784717 0.048171453 -0.4877705 0.3244301 -0.31057242 0.11188326 0.47978878 0.22371978
-0.039296478 0.14280343 -0.19055949 0.7101848 0.6893033 0.08753794 -0.16732442 0.2538458

layer2.1.bias f4 [256]
00000000: 9cfa 65bf df90 89bd 0cb2 ca3e fe42 d53e
00000010: 9108 a83d cdad 01bd c7cd e53d f7b9 633f
00000020: f599 3a3e af42 5bbe 72c2 253e 988b ce3e
00000030: d123 86be a8b0 843f 73d8 28bf e033 7a3e
00000040: d12a 6d3e e7c0 0e3e 0386 98be c3e0 cbbe
00000050: 63ee 743f 47bd ed3d a75b 303e 3903 013e
00000060: ca83 edbc 2577 ba3e 9afb 8b3e 8251 13bd
00000070: 3543 22be 2b7a febe b5bf babe a450 2abf
00000080: bacf 973e e9b2 203f 1d13 85be 4f87 be3e
00000090: 378b 423f b55b 75be ff27 333e 3ee1 cf3e
000000a0: f0de bebe ce95 37be 4132 15be 7255 023f
000000b0: e9a7 64be 6095 a23e cfed 0a3f e9cf 19bd
000000c0: d5c6 9d3e 9a86 33bd aee0 69bd 72fd a3be
000000d0: 4c13 ae3e f40e d8be 8f1e 173d dc21 b83e
000000e0: 54c0 19bd bfce 6c3d cd30 623e f4b6 963d
000000f0: 9033 7dbd ee3a a73e fa8e bd3e d3cc 213f
00000100: 58a9 80bd ea27 0ebf 52aa 6b3c bcf1 efbe
00000110: 40c4 b33e 5018 343e 0983 2dbe 1f97 ae3d
00000120: f22b 613e be59 ce3e c6b1 a4be baf8 adbe
00000130: 0e6a e5bc e41a b3be ba63 b13e b2f6 6c3e
00000140: 1e6e c8bd 2037 4cbd 8795 2abf fe82 46bf
00000150: 3c0c 8fbe 2028 06be cbb8 f7bd 7f74 63be
00000160: 81d3 663f cc96 323e 8a53 323c 96e4 a63d
00000170: 8315 51bf c851 63bd d971 48be a6f7 97bd
00000180: 335d 503e 7f04 7c3e ba68 a8be c172 883e
00000190: 8d27 22be 27a1 f03e 9789 76bd c27d 87be
000001a0: 077f 27be 07d1 923e 214b 383f 4c54 183f
000001b0: bd85 e33e f687 d73e 3f04 5fbe ba5d 19be
000001c0: f67b 813e f9ee 26be 90f4 903e 8b5e c5be
000001d0: 7dc4 843c 08fc 4d3e aaa1 11bc 0e92 6ebf
000001e0: e39b 493f df87 79be 5015 87be c5e9 84be
000001f0: 9110 babe 2c9f 4cbf 1f34 62be 2b3d 2b3f
00000200: 6be4 c7bd da1c 43be 2622 59bd e0a8 0dbe
00000210: d876 b43e 5b60 2f3e d83c 35bd ef72 ca3e
00000220: 15be dbbe faf6 c83e d711 ef3d 146a fe3e
00000230: 0122 67be b45d 53be e55a 26be 932c babe
00000240: c217 86be 6f07 74be 1c1d 9e3d 8d5d 11bf
00000250: aa76 a23e 0862 2e3e 7905 4c3d aecd a9be
00000260: fe2c 30be 6c5a f9bd b4e0 f3be 97c8 5f3f
00000270: c66c 03bf d43a c6be 7790 8bbe e165 c93c
00000280: 9321 b1be ada5 01bf 2ad2 d2bc 2538 6e3e
00000290: eb80 8abe fc24 24bf 09f6 12bf e57a 63be
000002a0: 62a4 78bd e464 223f 39bf 7ebf 02e2 87be
000002b0: 7fe9 3f3f 57d7 cb3f 3bcc 883e 1d02 cd3d
000002c0: 1106 ccbd b720 86be 1381 1dbf c47c 253f
000002d0: a724 a1be 6970 d0bc 57af 57be fa01 413f
000002e0: 56ce 5e3e e69a 06bf 8fb0 863e 8ed2 d53d
000002f0: e891 9cbd 8194 56bb da69 14bd cee5 f23e
00000300: f8af ad3e 777c 0bbf ad8f 713e 957b ba3e
00000310: b4b8 613e 51e3 53be f512 99bb b511 303e
00000320: a5e4 b93e 0cad ec3d 47e4 f73d c98a d1be
00000330: f16c 80be f861 293e 4b9a 933e dece 913e
00000340: 6817 323e 65b9 bfbe 4a82 8b3d 1da1 f9bd
00000350: c27e 0f3e e7bc 6cbe e18b f23d b24d 0d3d
00000360: 8e39 98be 3e9a ad3e 4220 49be 91d0 0bbf
00000370: 01cd 163e 805d e63a 32af a7be 66c6 38bd
00000380: b44c f93e 1b17 d03e e726 bfbe 0af4 713d
00000390: dfa4 e9bc e9ac f73e c150 0fbe ccc4 3139
000003a0: 22a3 c5bd efc2 893f 17e9 08bf c117 98bd
000003b0: 9e85 a73e a4ba 18bf 9c8d a3be e812 b5be
000003c0: 382a b4be fc80 9abd 77d1 a23d 9c16 b6bd
000003d0: 8f36 01be 3d28 1b3e 1a01 1dbf 3687 6abe
000003e0: 2c5c d83e 18ce c73b 5e1d 8a3e 94ab 3cbf
000003f0: cf7a fd3e 45ae 18bd 6132 28be 088a 8d3e
-0.89835525 -0.06717085 0.39588964 0.41652673 0.08204759 -0.03165989 0.112208895 0.88955635
0.18222792 -0.21412157 0.16187456 0.40340877 -0.261992 1.0366411 -0.65955275 0.24433851
0.23160864 0.13940774 -0.29789743 -0.39819917 0.9567625 0.116083674 0.17222463 0.12598886
-0.028993506 0.36419025 0.27340394 -0.035966404 -0.1584595 -0.49702582 -0.36474386 -0.665293
0.2965067 0.62772995 -0.25991145 0.37212607 0.75993675 -0.23960765 0.17495726 0.40601534
-0.37279463 -0.1792824 -0.14569952 0.5091163 -0.22329678 0.3175459 0.5426912 -0.037551794
0.3081576 -0.043829538 -0.057099037 -0.320293 0.33999097 -0.42198908 0.036894377 0.35963333
-0.037536934 0.057814356 0.22088929 0.07359114 -0.061816752 0.32662147 0.37023145 0.6320316
-0.062823 -0.55529654 0.014383869 -0.46864116 0.35110664 0.175874 -0.16944517 0.08524918
0.2198942 0.40302843 -0.3216688 -0.33978826 -0.028004672 -0.34981453 0.34646398 0.23140982
-0.09786628 -0.04985726 -0.6663441 -0.7754363 -0.27939022 -0.13101244 -0.12095793 -0.22212408
0.9016648 0.17440337 0.010884175 0.08149068 -0.8167345 -0.055497915 -0.1957468 -0.07420282
0.20348053 0.2461109 -0.328924 0.2665005 -0.158354 0.4699795 -0.06018981 -0.26463133
-0.16357051 0.286751 0.7198964 0.59503627 0.44437972 0.42095917 -0.21778964 -0.1497716
0.25289887 -0.16302098 0.28311586 -0.38548693 0.016206974 0.20115674 -0.008888641 -0.9319161
0.7875349 -0.24368237 -0.26383448 -0.25959602 -0.36340764 -0.79930377 -0.22090195 0.6689021
-0.09760364 -0.19053975 -0.053011082 -0.13833952 0.3524692 0.171266 -0.04424748 0.39540812
-0.4291846 0.39250928 0.116733246 0.49690306 -0.22571565 -0.20641214 -0.16245611 -0.36362132
-0.2619 -0.2383096 0.07720396 -0.5678337 0.31731158 0.17029583 0.049809907 -0.33164734
-0.17204663 -0.1217545 -0.47632372 0.8741545 -0.5133785 -0.38716757 -0.27258655 0.024584712
-0.34595928 -0.50643426 -0.02573498 0.23263605 -0.27051482 -0.64118934 -0.5740667 -0.2221485
-0.060703643 0.63435197 -0.9951053 -0.26539618 0.7496566 1.5925092 0.26718315 0.10010169
-0.099620946 -0.26196834 -0.61525077 0.646435 -0.31473276 -0.025444226 -0.2106298 0.7539364
0.21758398 -0.52580106 0.2630658 0.10440551 -0.07645017 -0.0032742324 -0.03623376 0.47440952
0.33923316 -0.54486793 0.23589964 0.3642241 0.22043115 -0.20692183 -0.0046714493 0.17194255
0.36307254 0.115564436 0.12104087 -0.40926197 -0.25083116 0.16541278 0.28828654 0.2847814
0.17391741 -0.37446132 0.0681196 -0.12188933 0.14013198 -0.23118936 0.11843086 0.034497924
-0.2973141 0.3390674 -0.19641212 -0.5461512 0.1472664 0.0017575473 -0.3275085 -0.045111082
0.48691332 0.40642628 -0.37334368 0.059070624 -0.028521 0.48374107 -0.13995649 0.00016953348
-0.09650256 1.0762614 -0.53480667 -0.07426406 0.3271913 -0.5965979 -0.31943977 -0.35365987
-0.3518846 -0.07544133 0.079501085 -0.08891031 -0.12618469 0.15152068 -0.61329806 -0.22903141
0.42257822 0.0060975663 0.2697553 -0.7369931 0.49507758 -0.03727557 -0.16425468 0.27644372

layer2.3.weight f4 [256, 256]
00000000: ceca f43c 811d ae3d 2ac5 c73d af26 663d
00000010: e558 79be 9266 c03c 7bc0 e93d 98d4 1bbe
00000020: 694d 57be fcc8 1c3d 0af2 ea3c cd76 ef3d
00000030: 237c b3bd 298b 9a3e 6ae0 25be 3aee 353e
00000040: e88c b6bd 64e6 e33d 31fc ccbe bd8b 16bd
00000050: f77b 773e c3fb 333d 5d04 26be 8b10 143e
00000060: fac9 b9be da94 4e3d 5f8d f63d b0d7 b83d
00000070: 1dc6 60be b87b 39bd aafe 933d ae98 a9bc
00000080: e29f 16bd f90b c2bd e43d 26be c373 e93d
00000090: cba5 e1bc 2244 083e 465c 183e b198 a9bd
000000a0: adff 9c3d afa6 3f3e 98bc b03d b6dd 683e
000000b0: d329 8d3d ff1d 843d b611 973d dc0a 5d3d
000000c0: 8c73 54be 1963 fa3d defc 033c 0b33 abbe
000000d0: 2da8 0cbd 35ec df3d 508d 3c3e d79f d2bd
000000e0: 0188 a0bd 2543 653d fdac 943d 4d6b 6a3d
000000f0: 9cc1 ddbd 8085 bb3c 003f 233b 560a 7c3d
00000100: 0c27 febd 205b a2be 82f0 373c cd0f 1abe
00000110: da52 f93d 68d8 5c3e bad8 99be 9dc6 19bd
00000120: 24d8 2f3e e36d 84bd f190 9ebc c3f5 82be
00000130: f7e9 2a3e 57b9 22bd 52ae 87be e2dc 5abc
00000140: 999e 3c3e 0683 323e 9e20 3cbe 7505 f63d
00000150: 2342 d4bd 9e38 ccbd 1e10 b73d dbcd 503e
00000160: e3ee 443e 87d0 c73c 3758 1dbd 1912 053e
00000170: 7612 41be d510 d8bd 6270 643d afd6 88bd
00000180: ce6f fdbd 1e51 45b9 402e fd3d 377a 2bbd
00000190: f837 cdbd e05f 4f3c 2be2 46be 3be0 403d
000001a0: 4d07 033d e3ab 6fbd d67b e43d d823 b13d
000001b0: d185 55bd aadf 483e 2a1d 25be cc9f 023d
000001c0: 49bf 593e 51c7 b8bd b9dd 8a3d 6841 2bbe
000001d0: 7db8 c63d f000 a13d a686 8dbe 7b12 d3bd
000001e0: 0e54 d53e c8d7 00bd 59ea b5bd 85cc ef3c
000001f0: b026 8abc 51eb 70be 9d25 683d 5d67 013e
00000200: be6b 62be a599 cabd 04ca 91be 73e8 ba39
00000210: 80a9 b63d 6634 293d aff6 11bd 8eb4 283e
00000220: ade4 2abe e35d 44bd 9b15 013c 9f44 843c
00000230: 317d a8bd 680a e93d f61b 2a3e 7c6c e5bd
00000240: c410 45bd 94ea 4b3d dcf4 c0bd 236c 103d
00000250: 3a22 973d 4528 a1bc 1da4 743e f9e5 483c
00000260: 6983 d2bd a575 13be 3836 19be 5c23 ed3e
00000270: 5411 ffbc 6ebe 10be 2476 ecbd bdcc 9f3c
00000280: 4cf5 5bbe 4fb3 2abe bf76 dc3d 0443 243c
00000290: a16c 3abe a026 0dbe 9b19 ddbe db01 c73d
000002a0: eeb4 86bd 194b 743d 52c9 fa3c c1c7 983d
000002b0: 361b cdbd 3beb e8bd 9218 d13d 1261 84be
000002c0: 7ef4 d4bc 4fc2 e3bd cd1e 08be 072c 3c3d
000002d0: 5875 76be 4446 553e 5d67 53be a8a9 2d3e
000002e0: 6ab2 6bbe a78e db3d 9787 3bbd c4f5 b0bd
000002f0: 04a3 b23d e4f1 e53d 067b a2bd 4a27 b13e
00000300: f102 9b3d 7df1 3fbe 7214 27bd 5eaf 053e
00000310: 5514 c2be f4b9 6bbe 49d4 3abe 0835 5cbc
00000320: 4b04 263e 6624 95be 36fb 11be 282a 1c3e
00000330: 29d8 4e3c 03e2 82bd 2da6 6abd 0ac2 5f3d
00000340: 4b88 f3bd 5272 c6bd 5c48 82bd 4e3f 40be
00000350: 4c2b 833d 9e74 1c3e 966b a73c 2b42 44bd
00000360: be0b 15be dcb7 d0bd be36 3e3e 86d2 02be
00000370: 9c1e 843d 3ae7 8dbe 1687 9abe 7f13 433d
00000380: 3c77 093e 299c e03d 0143 e6bd 655d 37bd
00000390: ee6a 03bd 651a 183e 19ca 17bd a1a3 1bbd
000003a0: 66cc 083e e3b2 94be 14d2 4a3d c548 41bb
000003b0: b599 9bbd 52fc c43a e08c 813e 066c 313e
000003c0: 52b6 97bd 539c 2b3c 9165 bbbe aae3 fcbb
000003d0: f86c 7abd 9ecd 363e 8f8e d6bd fe32 d1bd
000003e0: 7ebb 923b 9a05 04bd 56ae 24be 6778 f2bd
000003f0: 136e 13bd b890 163e 876d 87be e9ab 153e
0.029881861 0.08501721 0.09754403 0.056189235 -0.24350317 0.02348641 0.11413666 -0.15217817
-0.21025623 0.03827761 0.028679866 0.11692581 -0.087639116 0.30184296 -0.16198888 0.17766657
-0.089135945 0.11127928 -0.40036157 -0.03675436 0.24168383 0.04394127 -0.16212602 0.14459436
-0.36286908 0.050434925 0.12038683 0.09025514 -0.21950574 -0.045284003 0.07226308 -0.020702686
-0.03677357 -0.0947494 -0.16234547 0.11399033 -0.027544877 0.1330724 0.1487895 -0.08281077
0.07665954 0.18715928 0.086297214 0.22740826 0.06892743 0.06451034 0.07376425 0.053965434
-0.20747203 0.12225933 0.008055894 -0.3343738 -0.034340072 0.10933725 0.18413281 -0.10284393
-0.07838441 0.055972237 0.072595574 0.057231236 -0.10827944 0.022890806 0.0024909377 0.061533295
-0.12409791 -0.31710148 0.011226775 -0.1504509 0.12174006 0.21566927 -0.30048162 -0.037542928
0.17172295 -0.06466272 -0.019356223 -0.25578126 0.16690813 -0.039727535 -0.26500183 -0.013358327
0.18419875 0.17432794 -0.18371817 0.120127596 -0.10364177 -0.09971736 0.08938621 0.20391028
0.19231753 0.024391426 -0.038414206 0.12995185 -0.18854699 -0.105500855 0.05577124 -0.06681573
-0.12374841 -0.00018817603 0.12362337 -0.0418646 -0.10020441 0.012657136 -0.19422214 0.047088843
0.031989384 -0.058513533 0.11156432 0.08649415 -0.05212957 0.19616571 -0.16124406 0.031890675
0.21264376 -0.090223916 0.067805715 -0.16724169 0.09703157 0.07861507 -0.2764179 -0.10306259
0.4166569 -0.031455785 -0.08882589 0.029272327 -0.01686415 -0.23527266 0.056676496 0.12637086
-0.22111413 -0.098925866 -0.28474438 0.00035649873 0.08919048 0.041309737 -0.035635646 0.16475126
-0.16688795 -0.0479411 0.007878686 0.016146002 -0.08227003 0.11378938 0.16612229 -0.112023324
-0.048111692 0.049784258 -0.09421703 0.035259377 0.07379575 -0.019672522 0.23890729 0.012261861
-0.10278971 -0.14400347 -0.14962089 0.4631604 -0.031136192 -0.14135143 -0.11545971 0.019506807
-0.21480292 -0.16669963 0.107648365 0.010025743 -0.18205501 -0.13784266 -0.43183598 0.09717151
-0.06577478 0.05964193 0.030613575 0.07459975 -0.10014956 -0.11372992 0.102097645 -0.2585531
-0.02599549 -0.11121046 -0.13293 0.045940425 -0.240682 0.20827585 -0.20644899 0.1695925
-0.23017278 0.10720568 -0.045783605 -0.08640626 0.08722499 0.112277776 -0.07933621 0.34600288
0.075689204 -0.18744464 -0.040790983 0.13055179 -0.37906137 -0.23020154 -0.18245043 -0.013440378
0.16212575 -0.29129332 -0.14255986 0.15250456 0.012624779 -0.063907646 -0.057287384 0.05462841
-0.1189123 -0.096897736 -0.06361458 -0.18774149 0.064047426 0.15278861 0.020437043 -0.047914665
-0.1455526 -0.101913184 0.1857557 -0.12775621 0.06451151 -0.27715474 -0.30181187 0.047626015
0.1342439 0.10967285 -0.11243249 -0.044766802 -0.032084398 0.14853819 -0.03705797 -0.037997846
0.13359222 -0.2904273 0.049516752 -0.0029492837 -0.07597677 0.0015028811 0.25302792 0.17326364
-0.07407822 0.010474282 -0.36600927 -0.0077175694 -0.061139077 0.17851874 -0.1047641 -0.10214804
0.004477917 -0.032231905 -0.16082129 -0.11839371 -0.035993647 0.14703643 -0.2645075 0.1461636

layer2.3.bias f4 [256]
00000000: b11c 263f 4a3f 28bf fdac a83f 48bb b43f
00000010: 16f8 5e3f 7685 48be c61d cf3f c3cb 393f
00000020: 46f4 a2bf e581 a4bf c2ca 6bbf b28c 7fbd
00000030: ef79 8fbf 5e95 a03f 0c1c eb3f 3162 7ebf
00000040: f914 263f b8b5 a2bf 519d 71bf e09c 4abf
00000050: bf69 93bf e2d5 713f 8ad9 a43f 2b36 b3bf
00000060: 132e b3bf 9fb8 bebf 7d0c 933f 4c01 a33f
00000070: 5a10 583e 54b0 97bf 3194 b73f f718 85bf
00000080: 5332 9bbf 35c3 c33f 8fb5 3b3f 5c59 a1bf
00000090: e18b 16bf 625a 54bf c738 bcbf 6511 8ebe
000000a0: 916b 713f a665 223f 9938 0ebf b14d 8abf
000000b0: 09c4 b13f c428 a7bf 24cd 67bf 2ebd ba3f
000000c0: 0867 c3bf 54ea 60bf 5e53 a8bf eb4a 86bf
000000d0: 03b9 9fbf 00eb b13f 1eb3 7f3f 4dbf 6fbf
000000e0: 1b71 90bf d2e4 a33f f5e7 bc3f 75ad a9bf
000000f0: 6de4 84bf e2c8 5fbf d9b3 5fbf 0505 c13f
00000100: 121f bcbf 6594 be3f 9248 be3f 8863 91bf
00000110: d067 ad3f dd0b 0fbf 0c42 ccbf a7bf 053f
00000120: 28ef 87bf 0762 92bf dedd 993f d3e0 a3bf
00000130: e1f1 8d3f 51d2 78bf 4eaf a93f 4140 9fbf
00000140: a228 bdbf 22de 883f 3ab3 b0bf 126c babf
00000150: 60b4 6fbe 50ea 3dbe 2e09 a9bf d57e b7bf
00000160: b854 bb3f 66c5 a73f a0ea 81bf 1c00 babf
00000170: 5e1b cc3f ba4f ac3f 3096 95bf 3db8 bc3f
00000180: cf2b a2be ef88 013f bc4b 95bf 9376 c33f
00000190: aef2 843f 0db5 ae3f fbba dbbf 7c2b 6bbf
000001a0: ade9 903f 06c9 a33f 8e9d 323f b5f7 8a3f
000001b0: c917 a1bf a2a4 a1bf 2a1a 1cbf 1b85 c7bf
000001c0: 6f3c b7bf cca5 813e 496b 9e3f 8956 9e3f
000001d0: 7fd5 8f3f e1bf c03e 952e 24bf 5c07 9b3f
000001e0: 93d5 8b3f 3d6f abbf f7dc b6bf 1b2c a2bf
000001f0: 0f35 893f 61ae 64bf 41ef fcbf 9e84 e73f
00000200: a088 b53f d6ef a9bf de80 17bf 9213 a1bf
00000210: 836e 933f e156 a53f 658b 62bf c514 e83f
00000220: 5571 da3f 4975 a93f fa90 753f b770 893f
00000230: fcb8 8dbf 5695 9d3f 1822 37bf 6b71 8cbf
00000240: 54d8 d1bd 6b94 5abf 9071 513e b864 b8bf
00000250: 691a a43f 57f0 82bf 097d d03f 0f5c c7bf
00000260: 2b51 9d3f 1efc 9d3f 030e 18bf 9ca6 a0bf
00000270: 9e8d a73f 1770 bd3f 0e3b 9d3f a467 abbf
00000280: 7630 d1bd e0e9 b33f facd dcbf 4af7 aebf
00000290: 5f4c c1bc ccde 193f 9faf 7abf 4f74 cc3f
000002a0: 39cf 6e3f 2d66 163f 03c8 da3f 03cc d33f
000002b0: 7ae3 333f 3c76 3ebf 23f7 9e3f 87cb 8cbf
000002c0: e3f0 83bf d8ad c7bf 0f6b 8e3f b087 dd3e
000002d0: 61cc a33f 8a8b e1bf 8148 1c3f 2d19 a53f
000002e0: df6a 39bf e7c9 6dbf 1d22 b43f 7675 b93f
000002f0: 50be 81bf b7f0 a4bf 16a3 b7bf e114 8abf
00000300: 2417 bf3f d2ec 9d3f c38e abbe 0e4f bebf
00000310: 839a 97bf 0acb a53d d9ee 8cbf ff02 8e3f
00000320: 1a2d a83f 2c87 9b3f 1549 f53e cf6f b8bf
00000330: 4cd5 6dbf b867 7f3f 425e 9e3f b68b 8c3f
00000340: c050 b53f 8e07 a73f e8f0 82bf e92e 89bf
00000350: a374 bfbf c5a7 8f3f de67 8dbf 8d2f 69bf
00000360: 8501 10bf a14a 84be 979c c3bf 98c7 60bf
00000370: a03a ad3f b0bf bf3f 8562 7ebf 6004 8ebf
00000380: 73e6 91bf fc24 a63f 6fe8 abbe 34e5 cd3e
00000390: 56cb 3d3f 0932 a2bf 0829 a23f 1efb d5bf
000003a0: b51b 58bf b454 7fbf 794f b73f 8dea a3bf
000003b0: 4057 9ebf 3af9 b23f bb46 30be e49c b9bf
000003c0: 7572 70bf 6956 94bf fe68 6c3f 8424 c53f
000003d0: 40fb 843e b630 8f3e ef08 86bf ceee 9c3e
000003e0: 15c1 a83f a547 92bf dafc ae3f e173 38bf
000003f0: c4f3 343f 9712 9f3f 7641 72bf 37e5 babf
0.6488753 -0.6572157 1.3177792 1.4119654 0.870973 -0.19582161 1.6180961 0.7257654
-1.2730796 -1.2852141 -0.9210626 -0.062390037 -1.1209086 1.2545583 1.8367934 -0.9936858
0.6487575 -1.2711706 -0.9438067 -0.7914562 -1.1516646 0.94466984 1.2878888 -1.4000906
-1.3998436 -1.4900092 1.1488186 1.2734771 0.21099988 -1.1850686 1.43421 -1.0398244
-1.2124733 1.5293947 0.7332391 -1.2605395 -0.5880719 -0.82950413 -1.4704827 -0.27747646
0.9430476 0.63436353 -0.5555511 -1.080496 1.388795 -1.3059316 -0.90547395 1.4588983
-1.5265818 -0.87857556 -1.3150442 -1.0491613 -1.2478336 1.3899841 0.99882686 -0.93651277
-1.1284517 1.2804205 1.4758288 -1.325606 -1.038221 -0.874159 -0.873838 1.5079657
-1.4696982 1.4889036 1.4865897 -1.13585 1.3547306 -0.55877477 -1.5957656 0.52245563
-1.061986 -1.1436166 1.2020833 -1.2802986 1.108944 -0.9719592 1.3256624 -1.2441484
-1.4778025 1.069279 -1.3804696 -1.456423 -0.23408651 -0.18546414 -1.3205926 -1.4335581
1.4635229 1.3107116 -1.0149727 -1.4531283 1.5945852 1.3461831 -1.1686459 1.4743725
-0.31674048 0.5059957 -1.1663737 1.5270561 1.038656 1.3649002 -1.7166437 -0.91863227
1.1321312 1.2795722 0.6977166 1.0856844 -1.2585384 -1.2628367 -0.60977423 -1.5587496
-1.4315318 0.25321805 1.2376491 1.2370158 1.1237029 0.37646392 -0.6413358 1.2111621
1.0924553 -1.3393322 -1.4286183 -1.266971 1.0719317 -0.8932858 -1.9760514 1.8087347
1.418232 -1.3276317 -0.5918101 -1.2584097 1.15181 1.2917138 -0.8849395 1.8131338
1.7065836 1.3238918 0.9592434 1.0737523 -1.1072078 1.2311199 -0.715364 -1.0972112
-0.102463394 -0.8538272 0.20453477 -1.4405737 1.282056 -1.0229596 1.6288158 -1.5574969
1.2290395 1.2342565 -0.5939638 -1.2550845 1.3090093 1.4799832 1.2283647 -1.3391004
-0.10214321 1.4055748 -1.7250359 -1.3669217 -0.023595987 0.60105586 -0.97924227 1.5972995
0.93284947 0.5874966 1.7092289 1.6546634 0.70268977 -0.7439916 1.241917 -1.0999612
-1.0307888 -1.5599928 1.1126422 0.43267584 1.2796746 -1.7620709 0.6104813 1.2898308
-0.724287 -0.92886204 1.407291 1.4488971 -1.0136204 -1.288596 -1.4346645 -1.0787622
1.4928937 1.2337897 -0.33507356 -1.4867876 -1.1844028 0.08095367 -1.101039 1.1094664
1.3138764 1.2150626 0.4790732 -1.4409121 -0.9290359 0.9976764 1.2372515 1.0980136
1.4165268 1.304918 -1.0229769 -1.0717441 -1.495747 1.1223074 -1.1047323 -0.9108818
-0.5625232 -0.25838187 -1.5282162 -0.87804556 1.3533516 1.4980373 -0.9936908 -1.1095085
-1.1398453 1.2980037 -0.3357577 0.4021393 0.7413839 -1.267152 1.2668772 -1.671726
-0.8441728 -0.9973862 1.4321128 -1.2805954 -1.2370377 1.3982308 -0.17214482 -1.4501004
-0.9392465 -1.158887 0.92347705 1.5401769 0.2597294 0.2796685 -1.0471476 0.30650944
1.3183924 -1.1428114 1.3670914 -0.7205182 0.70684457 1.2427548 -0.94631135 -1.4601201

layer2.6.weight f4 [7, 256]
00000000: 6719 4ebe 4106 493d a317 83bd f64a ab3d
00000010: d0e6 07bd 9418 2d3c eee4 7bbd ab98 12bd
00000020: f9e5 313e 492b b93d e93b c33c e52a 13bd
00000030: 3a65 b7b9 41d4 86bd 18ee 11be 889b 543d
00000040: a147 163d d224 713d 7ccf 823b decb 1e3d
00000050: 4a8a a23d af2c a9bd da72 24be 4cbf 263e
00000060: ad8b bf3d f9ed 6b3d 5774 1aba e036 61bd
00000070: 4bbf 323c 1eb1 003e 4405 c8bd e5cd e93c
00000080: a65e 263e 39d0 16bd 716e 413d d09f 9b3d
00000090: 8cfe 2e3d 0345 673d 2f1f 0a3e 50ad 383c
000000a0: 7ab2 1d3b c3a2 7bbb e0f0 733d 2436 a83d
000000b0: a4b7 dabd 13be a93c 9c1d b13d 3257 dabd
000000c0: ff31 b33d 7169 793c 61b2 c23d f07d 5f3d
000000d0: 593d 863d 235e 71bc 798f 1dbe 8374 493a
000000e0: d905 1a3d afa8 a6bc dd1e febd 6fdd 023e
000000f0: e1f5 2a3e 23db b93c 368f 2f3d aab0 3bbd
00000100: e221 6d3d 6129 1ebc 3145 083c 3fb6 54bd
00000110: c39c 9fbd 93d9 1d3d 5131 ed3d 708d 91bc
00000120: f440 773d 367e fdbc 3cd7 acbd bebb 443e
00000130: 6525 33be e56f a93d f1ad 0bbd 6180 f33c
00000140: 7270 4b3d 1769 11bc 6d14 043e 38d7 1d3e
00000150: d073 783d 1648 11bc e5ce 733d 6dda c43d
00000160: c46a 8abd 7da0 14bd 1eba 113d 2741 523e
00000170: 50e7 05be 8a3d 0bbe 2bbb 323d 4bd6 8bbd
00000180: 64bd e83d 81d3 f93c e45b 153d 6aa3 473c
00000190: b762 07bd 5820 f7bc c247 113e ec35 62bd
000001a0: b4da e3bd c5af 34bd ce62 563a c15a e1bd
000001b0: f9c5 c13d f5a0 543e 1c69 e43c 4422 813d
000001c0: 0fef 033e a2e6 213d 8662 fdbd 4b2c 75bd
000001d0: 31ae 01be f694 f4bd 2905 893d 62ba a5bd
000001e0: 72d9 863c 4abd be3d 628e 6e3d 92ee 083e
000001f0: 1c21 6ebd d11e 693d d1b0 d53d db88 cfbd
00000200: 90d4 17bd bef3 5d3e 391e 0a3c d1f8 9d3d
00000210: 99dd bf3b 2ee3 fcbd b98c 3b3d 4720 fcbd
00000220: e8d4 e2bd b2d8 e9bd 94ba 44bd 9740 edbc
00000230: 3112 46bb 68cd 25bd e91a 273e 6e32 893d
00000240: 9511 bb3c 7baa 8c3b ba82 a33c 145a 063e
00000250: 9034 03be e0d6 4f3b 05b0 07be fa57 d53d
00000260: 5ba1 c9bd 747f acbd 9f4d c83b b9b8 ff3d
00000270: 393f 4ebd 3c02 fa3c 2908 a8bd 2b93 2abd
00000280: fdfa d4bd 0d47 8bbd 21fc 4a3e 1fbb 1e3d
00000290: 2707 86bd 69ce a4bd 865b 8c3d 8150 b7bd
000002a0: 59c9 8ebd 05c1 e13c a353 b2bd 24e2 34be
000002b0: 2cbb 00bd c59d 8dbc 1706 acbd ea43 883d
000002c0: cbac cc3d a5a6 a03d fc48 b9bd 3559 e7bd
000002d0: 878d 2bbb 25db 153e ee16 0bbe 7234 55be
000002e0: 67a6 c53d 4566 e23d ad09 e4bd 31c7 a8bd
000002f0: 4dfb 373d 24a6 3f3d bde3 4d3c 2fed f93d
00000300: ee7e b1bd a09a 52bd 7abf 81bd b958 853d
00000310: 5b46 473e 76bb c6bd 757e 983d eebf 40bd
00000320: 2b76 66bd 4d20 81bd 7407 ccbd b841 c33c
00000330: 2867 bf3d 13d6 e9bd 1fc2 d0bd 01b5 f3bd
00000340: d883 97bd f90d 98bd 8421 8c3d e5d1 dc3c
00000350: 7ec9 ae3d 9178 4ebe 8b96 a43d cc3a 3dbd
00000360: 8c17 813d 5e49 aebd 08d2 053e 49ce 6dbc
00000370: 60d1 5bbd c9ea 99bd f2b8 2a3e a52e 083e
00000380: 23cd d2bc 9191 c13d d13e a8bc d0f0 5abd
00000390: e759 06bd 320e d53d 6f6b b4bd 294c 9d3d
000003a0: 234c 0a3e aa92 44bd 367d 4dbc a5bd af3d
000003b0: 5eed 803d 98b1 c1bd 09e7 f1bc 87cb 383d
000003c0: e798 8d3d 73bd b53d 7be6 2cbc dd08 82bd
000003d0: b883 debc e1d5 d6bc 3463 c9bb 9474 da3b
000003e0: 201e 0fbd 09bf 723d 3a08 bc3b bb03 7e3d
000003f0: b6bd f73c 5572 29be 1e86 c1bc 4733 a33d
-0.20126878 0.04907823 -0.06400993 0.08363907 -0.033179104 0.010564942 -0.06149762 -0.035790127
0.17372884 0.09041459 0.023832278 -0.03592958 -0.000349799 -0.06583453 -0.14250982 0.05190614
0.036689404 0.058873005 0.003992019 0.03876864 0.07936533 -0.08260476 -0.16059437 0.16283911
0.09352813 0.057599995 -0.000589197 -0.054983974 0.010909866 0.12567565 -0.09766629 0.028540561
0.16247043 -0.03681967 0.047224466 0.07598841 0.042723224 0.0564623 0.13488458 0.01127179
0.002406268 -0.0038396574 0.05955589 0.082134515 -0.10679558 0.020720517 0.08648226 -0.106611624
0.087497704 0.015222893 0.09506679 0.054563463 0.0655467 -0.014731917 -0.15386762 0.0007684903
0.037603233 -0.020344106 -0.124082305 0.12779783 0.16695358 0.0226875 0.042861186 -0.045822777
0.05789364 -0.00965342 0.008317278 -0.051931616 -0.07793572 0.038537573 0.11581672 -0.017767638
0.06036468 -0.030943971 -0.0843949 0.19212243 -0.17494734 0.08273295 -0.03410143 0.029724302
0.049667783 -0.008875153 0.12898417 0.1541413 0.060657322 -0.008867284 0.059523482 0.09611974
-0.06758645 -0.036285866 0.035577886 0.20532666 -0.1307652 -0.13597694 0.04363553 -0.068279825
0.113642484 0.03049636 0.036464587 0.012184957 -0.033053126 -0.03016679 0.1418753 -0.055227205
-0.11125699 -0.04411294 0.0008178175 -0.11003638 0.094615884 0.20764525 0.027882151 0.06305364
0.12884162 0.03952659 -0.123723075 -0.059856694 -0.12664105 -0.119424745 0.06690437 -0.0809219
0.016461108 0.09313448 0.058241256 0.13372257 -0.058137044 0.056914154 0.10434116 -0.10133525
-0.03706795 0.21675012 0.008430057 0.077134736 0.005855274 -0.123480186 0.0457885 -0.12310844
-0.11075765 -0.114182845 -0.048029497 -0.028961463 -0.0030223245 -0.040479094 0.16318859 0.06699072
0.022835532 0.004292784 0.019959796 0.131203 -0.1281302 0.003171377 -0.1325074 0.10417171
-0.09845229 -0.08422747 0.006112769 0.12486405 -0.050353263 0.030518644 -0.082046814 -0.041644257
-0.10399435 -0.06800661 0.19822742 0.03875267 -0.06544333 -0.08047182 0.06853394 -0.08950902
-0.06971998 0.02755786 -0.08707359 -0.17664391 -0.0314285 -0.017287144 -0.08399599 0.066535786
0.09993895 0.07844285 -0.09047124 -0.11296312 -0.0026176886 0.14634378 -0.13582966 -0.20820788
0.09650879 0.110546626 -0.11134658 -0.08241118 0.044917393 0.046789303 0.012566504 0.12203442
-0.08666788 -0.051416993 -0.063353494 0.06511063 0.19460432 -0.09703724 0.07445995 -0.04705804
-0.056265038 -0.06304989 -0.09962359 0.023835048 0.09345847 -0.114177845 -0.10193276 -0.11899758
-0.07398194 -0.0742454 0.0684233 0.026955554 0.08534525 -0.2016318 0.08036526 -0.04619865
0.06303319 -0.085100874 0.13068402 -0.014514514 -0.053666472 -0.07515485 0.16672114 0.13299043
-0.025732582 0.09451593 -0.020537766 -0.053452313 -0.03280058 0.10403098 -0.08809554 0.07680542
0.13505606 -0.047991432 -0.01254206 0.08581094 0.06295274 -0.094577014 -0.029529111 0.045115974
0.069139294 0.08874025 -0.010552998 -0.06349347 -0.027162418 -0.026225032 -0.006145859 0.006666729
-0.03494084 0.059264217 0.0057382854 0.062015276 0.030241828 -0.1654752 -0.023623522 0.07968765

layer2.6.bias f4 [7]
00000000: 4cfe a6bf e43b 18bf 62db 613d 5676 1fbf
00000010: e157 6a3e ca59 0bbf ac45 133f
-1.3046355 -0.59466386 0.05514086 -0.6228994 0.22885086 -0.5443388 0.57528186
