Model_Files/bpi/TimestampPredictor_parameters_laplacianOnBinary_0.0001.pt (torch, 274383 bytes, 7 tensors)

layer1.weight f4 [4, 1]
-0.0031493749 -0.0025705886 -0.3060516 -40.851208
00000000: be65 4ebb 5277 28bb ccb2 9cbe a367 23c2

layer1.bias f4 [6]
18.010553 2.3990457 -12.268207 -21.161747 19.154793 -8.456233
00000000: 9d15 9041 f789 1940 934a 44c1 424b a9c1
00000010: 043d 9941 bb4c 07c1

layer2.1.weight f4 [256, 6]
-0.0014438719 0.009493017 -0.010829583 1.3732592 -0.0030179732 0.017187223 0.01238339 -0.13649532
-0.009706884 -0.015523708 -0.019095046 -0.06540527 0.0024816177 -0.033710513 -0.032736134 0.097178526
-0.009396484 0.018890604 -0.0049454286 -0.09751969 0.0145643875 0.06820795 0.0045384 -0.020562189
-0.0047571156 -0.19774438 0.2444073 -0.24671502 0.26358598 -0.12998518 -0.042522762 -0.08112111
-0.01229893 0.020472996 -0.008830973 0.008775646 -0.018483909 -0.12747803 -0.01250825 -0.03777096
-0.014661898 -0.04298794 -0.030431721 -0.6627801 -0.057703722 -0.1879097 -0.13972504 -0.4387122
0.0040403283 -0.008509855 -0.0017160007 0.053395733 0.009509764 0.057416033 -0.061545875 -0.08857983
0.0050345757 -0.03570018 0.2970462 0.24793085 -0.09931739 -0.12221197 0.0049680835 -0.21275198
0.106201574 0.9306794 -0.014464458 -0.12274576 0.029580692 0.17587414 0.06305104 -0.03783546
-0.14174722 -0.097469784 0.18976276 -0.3876293 0.20626861 -0.5173533 -0.16931215 -0.5312286
0.067192 0.046093 -0.03354334 0.11031025 -0.25026792 -0.5684165 -0.045769054 -0.14682308
-0.12201319 -0.20160441 -0.014911554 -0.08772716 -0.01125797 0.100860745 -0.008819768 0.033524007
0.0041350764 -0.034986697 0.09573063 0.06780285 0.053350456 0.023512842 -0.037304014 0.04689082
0.0153879 0.027777396 0.0069972067 -0.011205387 0.10071685 0.006352525 0.060952786 -0.06253737
0.038192745 0.022795517 -0.02215881 -0.05979252 0.060218632 0.030151885 0.0377099 0.011284897
-0.02123335 -0.022139966 0.0050392314 0.021480585 0.0018766422 0.009528889 0.00020045319 -0.04175086
0.032903932 0.012805484 -0.028592147 0.051157847 -0.108729504 -0.14698829 -0.22442423 0.4579435
-0.18828152 0.7181171 0.012496973 -0.15850429 -0.0059364135 -0.10624323 0.18107216 0.10420986
0.019348444 -0.04639164 0.07577307 0.06362864 0.046954773 -0.0048169475 0.008446388 -0.049963403
-0.0057173907 2.4132686 0.011126037 0.05196784 -0.055570938 -0.11349887 -0.13311993 -0.29573116
-0.25610298 -0.19285038 0.008105085 -1.096732 0.18883505 0.30204847 0.14242257 -0.16498867
-0.29993472 -0.34016186 -0.0040510083 0.5351642 -0.29119337 0.0063232766 -0.028319718 -0.4354346
-0.031975254 -0.3396396 0.1959163 -0.014042154 -0.013001353 -0.050673813 0.010917216 0.0137774255
0.029310063 -0.0058766594 -0.18895057 -0.23319733 -0.07031711 -0.28947347 0.36389765 0.111552455
0.36518207 -0.4600658 0.012813335 -0.7297535 -0.0017569197 0.43515342 -0.051261086 -0.25194836
-0.0038858694 0.07673964 0.05287536 -0.011503232 -0.017271284 -0.17402554 0.095535666 0.030899215
0.0075904443 -0.044414196 -0.016489008 -0.04626161 -0.016643647 -0.13239235 0.06397064 1.7615942
-0.01727766 -0.069361635 0.1876163 0.096192144 0.050252363 0.09311692 -0.017991504 -0.057242583
0.028880721 0.42053717 0.053876203 0.009120313 -0.25340384 -0.41640756 0.050655212 0.45784485
-0.048978273 -0.06547026 -0.006810459 -0.04602454 0.03586912 -0.09242008 0.06942463 0.27782166
-0.00531847 -0.05648374 0.028626727 -0.3539639 0.36871973 0.2585129 -0.04148533 -0.22271775
0.036789745 -0.027942352 0.06370142 -0.038304463 -0.12078861 -0.09510892 0.38322222 0.25669563
00000000: 4d40 bdba 9988 1b3c 906e 31bc f5c6 af3f
00000010: 30c9 45bb 38cc 8c3c b4e3 4a3c 6ec5 0bbe
00000020: 9f09 1fbc 2757 7ebc 376d 9cbc 33f3 85bd
00000030: a3a2 223b 0914 0abd 5316 06bd 8905 c73d
00000040: b6f3 19bc 78c0 9a3c 430d a2bb 67b8 c7bd
00000050: 789f 6e3c 9cb0 8b3d dcb6 943b 0972 a8bc
00000060: 94e1 9bbb 817d 4abe e845 7a3e dda2 7cbe
00000070: bef4 863e d61a 05be 592c 2ebd d322 a6bd
00000080: 7481 49bc fcb6 a73c c9af 10bc bac7 0f3c
00000090: 916b 97bc 9a89 02be 67ef 4cbc b9b5 1abd
000000a0: 7538 70bc 1f14 30bd f24b f9bc f5ab 29bf
000000b0: bd5a 6cbd 676b 40be 1514 0fbe e39e e0be
000000c0: bb64 843b eb6c 0bbc 6eeb e0ba 7cb5 5a3d
000000d0: d7ce 1b3c 132d 6b3d 8717 7cbd 5869 b5bd
000000e0: 15f9 a43b 5a3a 12bd 7116 983e 96e1 7d3e
000000f0: ea66 cbbd 454a fabd 4ecb a23b a8db 59be
00000100: 3680 d93d 0141 6e3f 56fc 6cbc 2162 fbbd
00000110: 3553 f23c 5a18 343e e720 813d 5bf9 1abd
00000120: 2f26 11be 3d9e c7bd 2b51 423e 5977 c6be
00000130: 1438 533e 4471 04bf 2a60 2dbe 99fe 07bf
00000140: f69b 893d 03cc 3c3d be64 09bd 57ea e13d
00000150: 1e23 80be be83 11bf 5578 3bbd ca58 16be
00000160: 0de2 f9bd 6371 4ebe 974f 74bc 4caa b3bd
00000170: 5973 38bc 1490 ce3d ca80 10bc 7850 093d
00000180: 897f 873b 364e 0fbd 6c0e c43d 38dc 8a3d
00000190: 0286 5a3d 019e c03c 18cc 18bd 9710 403d
000001a0: 881d 7c3c 6c8d e33c d348 e53b cd96 37bc
000001b0: a344 ce3d d828 d03b a1a9 793d 9813 80bd
000001c0: ff6f 1c3d aabd ba3c 6586 b5bc 00e9 74bd
000001d0: d0a7 763d 1601 f73c b275 1a3d 4ae4 383c
000001e0: 90f1 adbc e05e b5bc 2320 a53b 0df8 af3c
000001f0: aaf9 f53a 0f1f 1c3c be30 5239 f302 2bbd
00000200: 46c6 063d 18ce 513c 143a eabc e48a 513d
00000210: 93ad debd 1984 16be 77cf 65be 9277 ea3e
00000220: dfcc 40be 86d6 373f 1bc0 4c3c f34e 22be
00000230: 3f86 c2bb 0d96 d9bd fb6a 393e fb6b d53d
00000240: a180 9e3c 2905 3ebd e92e 9b3d bb4f 823d
00000250: a653 403d 7cd7 9dbb b862 0a3c 6da6 4cbd
00000260: f358 bbbb fe72 1a40 fb49 363c 3bdc 543d
00000270: 5a9e 63bd 1872 e8bd 9750 08be 136a 97be
00000280: ee1f 83be 927a 45be 31cb 043c b761 8cbf
00000290: fa5d 413e 19a6 9a3e 39d7 113e caf2 28be
000002a0: 0b91 99be b229 aebe 52be 84bb 8500 093f
000002b0: 4c17 95be 7d33 cf3b c1fe e7bc 49f1 debe
000002c0: 7cf8 02bd 3ee5 adbe 489e 483e 1011 66bc
000002d0: a003 55bc 588f 4fbd 1fde 323c b6ba 613c
000002e0: a81b f03c fe90 c0bb 427c 41be 48cb 6ebe
000002f0: 6b02 90bd de35 94be cb50 ba3e 9d75 e43d
00000300: 25f9 ba3e bf8d ebbe 06ef 513c 20d1 3abf
00000310: 7148 e6ba 6ecc de3e 25f7 51bd 60ff 80be
00000320: 12aa 7ebb ac29 9d3d d593 583d 0d78 3cbc
00000330: 827c 8dbc c033 32be 34a8 c33d 5a20 fd3c
00000340: 43b9 f83b a9eb 35bd f513 87bc d07c 3dbd
00000350: 4258 88bc dc91 07be 0a03 833d eb7b e13f
00000360: e189 8dbc 790d 8ebd 7d1e 403e 6300 c53d
00000370: 6cd5 4d3d 15b4 be3d eb62 93bc 3377 6abd
00000380: 4397 ec3c a650 d73e 4bad 5c3d 5e6d 153c
00000390: 26be 81be 5f33 d5be d77b 4f3d a46a ea3e
000003a0: 719d 48bd 4615 86bd 452a dfbb 3a84 3cbd
000003b0: 80eb 123d bd46 bdbd 802e 8e3d a43e 8e3e
000003c0: 8f46 aebb 7f5b 67bd 9982 ea3c c23a b5be
000003d0: d5c8 bc3e ce5b 843e 85ec 29bd 1f10 64be
000003e0: d8b0 163d 5ce7 e4bc e475 823d 24e5 1cbd
000003f0: 0560 f7bd 77c8 c2bd b435 c43e 9c6d 833e

layer2.1.bias f4 [256]
-15.092766 37.57711 28.648232 -2.81912 41.727142 24.238533 36.91745 32.68177
32.595375 34.552055 -24.028896 30.482979 -15.398681 14.1476 40.022728 27.720936
34.711784 37.399475 40.241924 12.412447 9.776095 -0.58590716 -22.607327 43.44665
29.233942 -21.096127 39.90771 -8.536319 -16.587955 -19.727459 9.336308 43.75115
-29.492338 -7.157037 -1.1835951 -23.661718 30.970097 -10.530453 -6.5886974 -1.2903771
45.582306 -3.8644788 -10.503579 37.246273 44.587017 -19.813372 13.971119 -13.263294
40.135143 -14.617971 42.837254 0.09946417 40.495567 36.105637 42.96068 -21.127062
-19.490103 -19.864004 42.73462 47.283455 31.625668 54.301422 -15.716079 32.903267
18.455471 48.721233 -1.6008362 47.941044 45.948395 -8.888986 -17.180073 -4.9290895
34.80058 -10.71014 37.65159 9.872589 27.547451 8.862958 39.35292 0.7090938
-5.0463467 -2.8584566 -4.079332 -13.588028 -9.404094 33.981796 40.27935 -2.6542156
30.038084 -27.233877 31.44989 46.8101 1.0081813 0.59140503 18.948805 -6.161781
42.164852 19.5148 45.6063 44.087513 36.158695 -28.414602 38.695374 -24.176594
54.32146 -7.475858 29.853117 45.509983 1.1126927 45.942993 -26.18936 -1.1851468
-9.972924 -8.315741 -27.201315 46.060352 10.422888 -10.227236 33.906155 6.002638
42.17085 12.668627 42.348156 -4.3263063 54.58447 35.28792 -9.620023 -1.6708723
42.45252 45.999752 19.675606 38.37095 44.053257 43.73302 -12.132013 36.39501
-23.105965 -7.8869123 41.15638 37.01864 -24.847973 -18.772898 24.301329 -17.300045
50.99079 -21.765684 -21.151394 -5.3113465 50.824047 44.95488 -4.503875 4.93017
-8.648144 -9.620292 40.44504 22.113245 -10.640155 -22.888126 43.17809 50.117695
-17.09596 48.26183 29.918758 32.1936 46.835194 -10.070472 -2.4691813 41.27285
-19.400856 41.44577 40.18466 -1.2684116 -16.591337 -22.103006 42.775295 40.197655
15.814538 21.34744 44.732437 45.629795 -15.609379 -19.143133 24.7506 40.397526
-8.207299 49.015102 -23.938286 31.988064 37.38322 -5.3964276 43.369747 31.881195
44.474785 -24.890688 40.720974 -17.269913 -1.4120384 45.23162 -1.571745 12.055967
47.720776 -19.48392 35.200752 39.24139 27.873384 51.108997 -15.172266 13.721513
-17.090944 -20.892788 44.72888 37.55094 50.55493 39.46112 48.292797 22.280434
-25.732191 22.180704 34.88644 51.103065 11.487455 40.410015 5.4065757 39.673187
-21.12668 45.614716 41.989887 32.083862 43.625515 -3.9371536 46.070107 39.02431
-20.987093 -14.81159 48.330303 -23.032303 -5.4886093 44.44239 -16.3013 5.574797
-2.7353776 -3.6437 22.614199 42.05742 34.02756 49.119514 -10.30664 -13.703818
-2.1347523 -5.991054 -6.55034 31.726639 -15.34272 -20.615847 -7.5517 38.01017
00000000: f87b 71c1 f64e 1642 942f e541 766c 34c0
00000010: 98e8 2642 84e8 c141 78ab 1342 22ba 0242
00000020: aa61 0242 4e35 0a42 2e3b c0c1 24dd f341
00000030: ff60 76c1 925c 6241 4617 2042 7ac4 dd41
00000040: ded8 0a42 1099 1542 bbf7 2042 6299 4641
00000050: e36a 1c41 03fe 15bf cedb b4c1 5fc9 2d42
00000060: 1ddf e941 dec4 a8c1 7fa1 1f42 c394 08c1
00000070: 22b4 84c1 d6d1 9dc1 8461 1541 2d01 2f42
00000080: 4ff0 ebc1 7206 e5c0 0b80 97bf 334b bdc1
00000090: c2c2 f741 bc7c 28c1 9cd6 d2c0 142b a5bf
000000a0: 4854 3642 9f53 77c0 a90e 28c1 2ffc 1442
000000b0: 1b59 3242 c981 9ec1 b489 5f41 7436 54c1
000000c0: 638a 2042 36e3 69c1 5959 2b42 dfb3 cb3d
000000d0: 76fb 2142 2c6c 1042 bcd7 2b42 3904 a9c1
000000e0: bbeb 9bc1 7be9 9ec1 40f0 2a42 4222 3d42
000000f0: 5e01 fd41 a834 5942 0f75 7bc1 f29c 0342
00000100: cea4 9341 8be2 4242 33e8 ccbf a1c3 3f42
00000110: 28cb 3742 4939 0ec1 ca70 89c1 1abb 9dc0
00000120: cb33 0b42 bc5c 2bc1 3a9b 1642 20f6 1d41
00000130: 2e61 dc41 adce 0d41 6469 1d42 2c87 353f
00000140: ac7b a1c0 f4f0 36c0 e389 82c0 9068 59c1
00000150: 2b77 16c1 5ced 0742 0e1e 2142 abde 29c0
00000160: ff4d f041 fbde d9c1 6099 fb41 8b3d 3b42
00000170: 160c 813f 5266 173f 2797 9741 4f2d c5c0
00000180: cfa8 2842 4f1e 9c41 da6c 3642 9d59 3042
00000190: 81a2 1042 1b51 e3c1 10c8 1a42 aa69 c1c1
000001a0: 2d49 5942 3b3a efc0 2fd3 ee41 390a 3642
000001b0: b76c 8e3f a0c5 3742 cf83 d1c1 e4b2 97bf
000001c0: 1991 1fc1 460d 05c1 4b9c d9c1 cd3d 3842
000001d0: 26c4 2641 c2a2 23c1 e79f 0742 9c15 c040
000001e0: f3ae 2842 b2b2 4a41 8364 2942 1a71 8ac0
000001f0: 7f56 5a42 d526 0d42 9deb 19c1 25df d5bf
00000200: 61cf 2942 bfff 3742 a467 9d41 da7b 1942
00000210: 8936 3042 9dee 2e42 ba1c 42c1 7e94 1142
00000220: 04d9 b8c1 9661 fcc0 22a0 2442 1613 1442
00000230: a6c8 c6c1 e52e 96c1 1f69 c241 7e66 8ac1
00000240: 92f6 4b42 1f20 aec1 0e36 a9c1 8df6 a9c0
00000250: d34b 4b42 ccd1 3342 be1f 90c0 f4c3 9d40
00000260: cc5e 0ac1 b7ec 19c1 b9c7 2142 ede7 b041
00000270: 133e 2ac1 e21a b7c1 5db6 2c42 8578 4842
00000280: 87c4 88c1 1d0c 4142 9e59 ef41 3fc6 0042
00000290: 3d57 3b42 a720 21c1 1107 1ec0 6617 2542
000002a0: f434 9bc1 78c8 2542 18bd 2042 505b a2bf
000002b0: 0fbb 84c1 f5d2 b0c1 e719 2b42 66ca 2042
000002c0: 5908 7d41 8fc7 aa41 04ee 3242 e984 3642
000002d0: 04c0 79c1 2325 99c1 3b01 c641 1197 2142
000002e0: 1951 03c1 770f 4442 9c81 bfc1 8ee7 ff41
000002f0: 6b88 1542 89af acc0 9f7a 2d42 b00c ff41
00000300: 2ee6 3142 2120 c7c1 47e2 2242 c828 8ac1
00000310: adbd b4bf 2eed 3442 f12e c9bf 3ee5 4041
00000320: 13e2 3e42 11df 9bc1 92cd 0c42 2ff7 1c42
00000330: b1fc de41 9d6f 4c42 9ac1 72c1 518b 5b41
00000340: 41ba 88c1 6e24 a7c1 60ea 3242 2a34 1642
00000350: 4038 4a42 30d8 1d42 d32b 4142 543e b241
00000360: 87db cdc1 1572 b141 b78b 0b42 8a69 4c42
00000370: 9ecc 3741 dba3 2142 ab02 ad40 58b1 1e42
00000380: 7103 a9c1 7875 3642 a5f5 2742 e055 0042
00000390: 8780 2e42 53fa 7bc0 ca47 3842 e518 1c42
000003a0: 91e5 a7c1 46fc 6cc1 3b52 4142 2842 b8c1
000003b0: b0a2 afc0 02c5 3142 1069 82c1 bd64 b240
000003c0: 6d10 2fc0 6132 69c0 e1e9 b441 cc3a 2842
000003d0: 391c 0842 627a 4442 ffe7 24c1 d742 5bc1
000003e0: c89f 08c0 b7b6 bfc0 639c d1c0 28d0 fd41
000003f0: c87b 75c1 41ed a4c1 87a7 f1c0 6a0a 1842

layer2.3.weight f4 [256, 256]
-0.055485807 -0.01558156 -0.03152957 -0.07262286 -0.04692093 -0.015626026 0.03341966 -0.03410281
-0.011334058 0.047618918 -0.0030196675 0.045720033 -0.039452683 0.0273046 0.0104406 -0.013749131
-0.0073035657 0.031558882 0.017835045 -0.023009526 0.021137603 -0.045910176 -0.0092433775 0.04124972
0.008610493 0.003163603 -0.031490065 0.034163263 -0.046317562 0.045438487 -0.04359282 0.02093934
-0.027407918 0.045907248 -0.017933646 -0.066121385 -0.018352915 0.028421434 -0.0753088 0.005645348
-0.0030734586 0.035419486 -0.049398728 0.052877758 -0.045929674 -0.0072833532 -0.03959614 -0.017390113
-0.0027549395 -0.005665637 0.008784851 -0.063349925 -0.008438088 -0.021877958 0.04814963 0.022269761
-0.03180401 -0.06930566 -0.03296577 0.010338899 -0.023411404 -0.007041796 -0.033574544 -0.022839075
-0.01856135 -0.00204032 0.046710927 -0.034359984 -0.07179054 -0.032456223 -0.041083053 0.022191666
0.022648375 -0.046355385 -0.008496894 0.040584568 0.016728058 0.0043175668 0.04284671 -0.036240287
-0.01132833 -0.03370387 -0.061519016 -0.0028126552 0.025095293 0.036342327 0.04126164 0.03197057
-0.031347137 0.015779499 -0.06242622 0.0049520396 -0.019682527 -0.027412089 0.008151443 -0.016312497
-0.0076527246 -0.044626836 -0.026255257 0.04686576 -0.026712611 0.04118508 -0.022141423 -0.015137693
0.00896439 0.034608096 -0.04744572 0.015623966 0.032204147 0.005817193 0.033287164 0.025833737
-0.056309022 0.04774803 -0.013687211 -0.046634298 -0.027019605 0.010358499 -0.022310391 -0.04536395
-0.0271341 0.041803334 0.015851932 0.04174987 -0.0040152604 -0.0054367133 -0.06077022 -0.02654541
-0.070037246 -0.032945804 0.03960708 0.030966444 0.040844105 -0.014013575 0.041835573 -0.004715163
0.017910432 0.032989968 0.027822161 -0.027451178 -0.07628728 -0.023595976 -0.050317947 -0.07435496
0.040157117 -0.019358488 -0.02194203 -0.0031567172 -0.043212973 0.025631465 0.027288927 -0.054324366
-0.041150056 -0.024249347 -0.06427567 -0.06400733 -0.020354133 -0.014392356 -0.009217798 0.0027962867
-0.05244819 0.021990033 -0.03420572 -0.014882274 0.0040002796 0.009570391 -0.038636193 -0.047467
-0.020233974 -0.06351209 0.040837534 -0.02665711 0.048254788 -0.0029150078 -0.046645835 -0.05888902
0.04562955 0.030054856 -0.017483845 -0.04277764 -0.03365156 -0.06115187 0.021371 -0.050168417
-0.057531014 0.013949708 -0.040021777 -0.061975315 -0.069220185 0.02423846 -0.008394395 0.02181225
0.03362386 -0.0644241 -0.047165416 -0.024161594 -0.03968378 -0.06366322 0.018245067 0.002978255
0.022648782 -0.022056134 -0.009960351 -0.004914863 -0.06732737 -0.030300094 -0.048604697 -0.023613738
-0.054478556 0.018267518 0.029102711 -0.04409143 -0.06771005 -0.021291655 -0.040006883 -0.06798902
-0.0045847474 0.0019529185 0.046651024 0.022955466 -0.04286058 -0.0015401401 0.028323464 0.03929116
0.002509594 0.0321241 -0.03775367 -0.013579685 -0.022015674 0.008277018 -0.039464664 -0.067955986
0.010571704 0.03451589 -0.06501777 -0.043120604 0.016110647 0.014985959 -0.01818 0.046397626
0.044148948 0.047827583 0.0354897 0.011960936 -0.068596475 0.033357266 -0.04018011 0.010307958
-0.02231478 -0.043874443 0.012771763 -0.007799972 0.031481665 0.057028357 0.0292067 -0.074160576
00000000: 1645 63bd cd49 7fbc 2725 01bd 4bbb 94bd
00000010: 2930 40bd 2702 80bc 0ee3 083d 63af 0bbd
00000020: 7cb2 39bc 0e0c 433d 9de5 45bb ee44 3b3d
00000030: 2399 21bd e6ad df3c 0d0f 2b3c 0944 61bc
00000040: c052 efbb e343 013d cd1a 923c 797e bcbc
00000050: c428 ad3c 4f0c 3cbd 8971 17bc 77f5 283d
00000060: 0613 0d3c 7354 4f3b bafb 00bd c7ee 0b3d
00000070: 7cb7 3dbd b51d 3a3d 638e 32bd fb88 ab3c
00000080: 9286 e0bc 3d09 3c3d 95e9 92bc a66a 87bd
00000090: da58 96bc 11d4 e83c 803b 9abd 9dfc b83b
000000a0: 146c 49bb 0614 113d 5256 4abd 5996 583d
000000b0: c120 3cbd 32a9 eebb 902f 22bd b675 8ebc
000000c0: 378c 34bb cfa6 b9bb 56ee 0f3c 9bbd 81bd
000000d0: e83f 0abc 6739 b3bc 8c38 453d 136f b63c
000000e0: ec44 02bd 20f0 8dbd 1e07 07bd 7c64 293c
000000f0: 46c9 bfbc debe e6bb 7685 09bd 0319 bbbc
00000100: f90d 98bc e4b6 05bb f553 3f3d 0ebd 0cbd
00000110: eb06 93bd d1f0 04bd b446 28bd 4ccb b53c
00000120: 1689 b93c 25df 3dbd 8e36 0bbc 013c 263d
00000130: 4809 893c 607a 8d3b 0880 2f3d b270 14bd
00000140: 769a 39bc 120d 0abd 5dfb 7bbd 8654 38bb
00000150: a594 cd3c b1db 143d f701 293d 93f3 023d
00000160: db65 00bd 0244 813c a3b2 7fbd b844 a23b
00000170: 403d a1bc 518f e0bc a18d 053c c9a1 85bc
00000180: b5c3 fabb a1ca 36bd 4415 d7bc 50f6 3f3d
00000190: 68d4 dabc b0b1 283d ee61 b5bc 1604 78bc
000001a0: 60df 123c 38c1 0d3d 7156 42bd aafb 7f3c
000001b0: 7fe8 033d 279e be3b 1f58 083d 46a1 d33c
000001c0: 4aa4 66bd 7093 433d 5340 60bc 9b03 3fbd
000001d0: 3858 ddbc b2b6 293c 48c4 b6bc 8dcf 39bd
000001e0: 5548 debc f939 2b3d e9db 813c e901 2b3d
000001f0: 7292 83bb 7526 b2bb 32ea 78bd c275 d9bc
00000200: b06f 8fbd 2ef2 06bd 093b 223d 57ad fd3c
00000210: 264c 273d 3299 65bc c75b 2b3d a781 9abb
00000220: e6b8 923c 7d20 073d 4deb e33c 4be1 e0bc
00000230: 813c 9cbd 594c c1bc 311a 4ebd 6a47 98bd
00000240: ca7b 243d b195 9ebc c6bf b3bc ede0 4ebb
00000250: 1600 31bd 14f9 d13c 078d df3c 3a83 5ebd
00000260: f68c 28bd 91a6 c6bc f6a2 83bd 4616 83bd
00000270: b6bd a6bc ebcd 6bbc 3f06 17bc e841 373b
00000280: ead3 56bd 7124 b43c 4c1b 0cbd c8d4 73bc
00000290: c714 833b 21cd 1c3c fc40 1ebd c26c 42bd
000002a0: b8c1 a5bc a012 82bd 4245 273d 0360 dabc
000002b0: d0a6 453d b709 3fbb b40f 3fbd 9d35 71bd
000002c0: 0de6 3a3d 9a35 f63c 483a 8fbc 9b37 2fbd
000002d0: 38d6 09bd 627a 7abd 3c12 af3c 667d 4dbd
000002e0: a4a5 6bbd 518d 643c e0ed 23bd d4d9 7dbd
000002f0: 50c3 8dbd bc8f c63c a588 09bc 9baf b23c
00000300: 2cb9 093d c8f0 83bd 8630 41bd 89ee c5bc
00000310: 768b 22bd dd61 82bd ae76 953c d42e 433b
00000320: f089 b93c 11af b4bc bd30 23bc dc0c a1bb
00000330: efe2 89bd e737 f8bc b815 47bd 9971 c1bc
00000340: e824 5fbd c3a5 953c cf68 ee3c 3799 34bd
00000350: 91ab 8abd d66b aebc 42de 23bd d43d 8bbd
00000360: a63b 96bb 12f9 ff3a 2515 3f3d 1a0d bc3c
00000370: 938e 2fbd 87de c9ba 9c06 e83c c4ef 203d
00000380: 0078 243b 8f94 033d 98a3 1abd 547d 5ebc
00000390: 375a b4bc 549c 073c b3a5 21bd 822c 8bbd
000003a0: f134 2d3c 8960 0d3d 0928 85bd 3b9f 30bd
000003b0: 7afa 833c ab87 753c 39ee 94bc 700b 3e3d
000003c0: 87d5 343d dbe6 433d a65d 113d cdf7 433c
000003d0: 4f7c 8cbd a1a1 083d e693 24bd b6e2 283c
000003e0: 7ccd b6bc b0b5 33bd a840 513c e896 ffbb
000003f0: ebf2 003d 9196 693d e442 ef3c 80e1 97bd

layer2.3.bias f4 [256]
-0.10183233 -0.14247425 0.44414383 -0.13394293 36.194378 0.14406876 -0.3177897 -0.105474114
0.9540551 0.08704058 -0.30099493 31.967167 3.9584067 0.038720246 -0.37207535 -0.007371697
-0.03512553 29.212673 36.51925 -0.100444086 0.066409096 16.292953 2.591069 -0.09350674
28.39312 18.22242 36.106293 30.649847 36.36849 -0.1991505 35.927605 -0.01267077
-0.03833713 0.27450255 -0.08395854 -0.2649851 34.41472 11.14687 -0.11895343 -0.5378531
-0.38036227 36.76658 35.350132 15.520523 -0.1668155 37.273796 16.68805 -0.07810471
5.058835 0.1605933 -0.11832802 -0.1566876 -0.17229225 34.360695 32.03314 -0.20231597
34.741295 -0.06114963 26.179422 0.11979477 -0.20129585 8.472786 0.29986694 14.050144
26.275167 -0.1024234 -0.0121049 -0.17257443 0.08552057 -0.0028309668 8.603045 -0.036776368
-0.18084443 -0.34913868 -0.03985002 0.021183288 -0.13416182 0.017875742 -0.19445482 36.498722
0.22274517 33.982338 25.566586 -0.10145152 7.2616453 0.11466489 -0.17686622 32.71462
28.944738 19.27805 0.002068409 -0.06644794 36.021248 12.923613 -0.030365597 35.321575
36.304924 32.00551 0.023281042 -0.1352866 37.19773 0.08025217 -0.046230797 33.278187
19.045172 34.79904 31.616749 37.748188 36.036674 -0.95118266 13.666167 -0.08074905
-0.012592468 -0.7023834 -0.37952292 11.873593 20.993622 24.759535 -0.10057526 -0.25483713
37.342476 0.010674802 33.94171 6.9116015 0.39320907 36.12293 -0.0805942 35.86699
0.61782223 -0.0075734435 3.902824 11.3274975 31.966288 -0.22826703 1.3955135 -0.07757387
34.84455 20.661974 -0.26714844 0.2103455 25.848942 0.6753397 -0.29149783 4.8603067
32.11028 -0.08916051 0.1297811 35.416634 22.221798 1.6903048 -0.07740597 34.073456
-0.37721813 -0.13011248 35.088127 -0.096701615 -0.16073315 -0.06553627 30.48944 0.022836052
0.03353614 35.909046 -0.0024009426 0.10006074 36.498993 0.8461774 0.05403128 -0.16797422
0.017830607 3.890141 1.8045887 -0.15078463 11.884664 0.05546806 -0.11185816 30.357254
26.40585 35.607567 1.8528005 29.61788 -0.08647202 16.818853 36.31604 0.09492186
0.0025398536 9.932983 0.2957587 36.255787 -0.010136113 20.273312 -0.17402491 0.68412095
27.837976 -0.22060932 5.8068852 16.692205 -0.104734644 0.013915097 -0.04248741 37.02133
-0.15568806 35.231293 -0.19913602 -0.88571155 21.283442 22.52542 0.025959661 0.13999264
-0.027076013 -0.10233329 0.88721293 17.485632 19.5225 28.204102 0.10084206 -0.10628005
0.38192815 0.0067537646 -0.053406946 0.9200891 0.22685999 0.0669653 0.1559215 27.712753
-0.0050766375 -1.0736607 -0.15401343 31.092546 0.21403491 -0.21934548 0.3592022 -0.3055169
0.096956626 -0.032031965 3.8545516 -0.29987124 0.05946925 5.778141 -0.013900189 32.659615
-0.03082241 -0.6030985 0.7979756 34.638645 0.6671297 29.664448 -0.110660285 -0.039153248
13.757514 17.522287 33.31047 26.738884 -0.32384014 0.45992017 31.653957 -0.05135576
00000000: 788d d0bd c5e4 11be d266 e33e 5628 09be
00000010: 0bc7 1042 c386 133e 55b5 a2be d002 d8bd
00000020: f43c 743f 5542 b23d 021c 9abe c2bc ff41
00000030: 8956 7d40 1f99 1e3d a980 bebe 478e f1bb
00000040: cadf 0fbd 8eb3 e941 b613 1242 a1b5 cdbd
00000050: 7e01 883d f857 8241 13d4 2540 7680 bfbd
00000060: 1c25 e341 84c7 9141 d86c 1042 e332 f541
00000070: 5579 1142 1cee 4bbe deb5 0f42 1099 4fbc
00000080: 6507 1dbd 998b 8c3e 74f2 abbd 21ac 87be
00000090: aca8 0942 9459 3241 db9d f3bd beb0 09bf
000000a0: d8be c2be fa10 1342 8966 0d42 1054 7841
000000b0: afd1 2abe 5e18 1542 2081 8541 5df5 9fbd
000000c0: fae1 a140 9272 243e f655 f2bd b772 20be
000000d0: 616d 30be 5a71 0942 ef21 0042 eb2b 4fbe
000000e0: 16f7 0a42 0978 7abd 756f d141 f656 f53d
000000f0: 8020 4ebe 8890 0741 2988 993e 64cd 6041
00000100: 8b33 d241 5cc3 d1bd a153 46bc 5ab7 30be
00000110: 6925 af3d be87 39bb 13a6 0941 d1a2 16bd
00000120: 482f 39be 4ec2 b2be c639 23bd 9388 ad3c
00000130: b761 09be 2670 923c 2a1f 47be b1fe 1142
00000140: 4f17 643e eaed 0742 5e88 cc41 d1c5 cfbd
00000150: 665f e840 6dd5 ea3d 6b1c 35be c5db 0242
00000160: d38e e741 7239 9a41 258e 073b dc15 88bd
00000170: c215 1042 1ec7 4e41 46c1 f8bc 4b49 0d42
00000180: 3e38 1142 a405 0042 e2b7 be3c 9288 0abe
00000190: 7aca 1442 405b a43d 815c 3dbd dd1c 0542
000001a0: 835c 9841 3832 0b42 1aef fc41 25fe 1642
000001b0: 8e25 1042 b580 73bf 9fa8 5a41 c25f a5bd
000001c0: a450 4ebc 66cf 33bf d450 c2be 3dfa 3d41
000001d0: f0f2 a741 8713 c641 67fa cdbd 037a 82be
000001e0: b25e 1542 5de5 2e3c 50c4 0742 d72b dd40
000001f0: b352 c93e e17d 1042 920e a5bd cc77 0f42
00000200: 9929 1e3f a62a f8bb dec7 7940 6e3d 3541
00000210: f5ba ff41 d5be 69be 30a0 b23f 0ddf 9ebd
00000220: d260 0b42 b94b a541 aec7 88be d064 573e
00000230: a2ca ce41 10e3 2c3f 343f 95be a287 9b40
00000240: ed70 0042 c999 b6bd 56e5 043e a2aa 0d42
00000250: 3ec6 b141 e85b d83f 0587 9ebd 384b 0842
00000260: bc22 c1be 353c 05be 3e5a 0c42 7f0b c6bd
00000270: 3b97 24be e137 86bd 60ea f341 ac12 bb3c
00000280: 315d 093d dda2 0f42 2259 1dbb a5ec cc3d
00000290: f8fe 1142 159f 583f e74f 5d3d 6f01 2cbe
000002a0: 7e11 923c 12f8 7840 c3fc e63f 4967 1abe
000002b0: 9527 3e41 7a32 633d e415 e5bd a8db f241
000002c0: 2e3f d341 266e 0e42 9128 ed3f 6bf1 ec41
000002d0: 3e18 b1bd 038d 8641 a043 1142 6466 c23d
000002e0: ac73 263b 80ed 1e41 af6d 973e ed05 1142
000002f0: f011 26bc be2f a241 9633 32be 8d22 2f3f
00000300: 2db4 de41 69e7 61be 01d2 b940 a389 8541
00000310: 1e7f d6bd 26fc 633c 4707 2ebd d815 1442
00000320: b16c 1fbe d8ec 0c42 50ea 4bbe febd 62bf
00000330: 7d44 aa41 0f34 b441 5ba9 d43c 3b5a 0f3e
00000340: 84ce ddbc 1e94 d1bd 6320 633f 93e2 8b41
00000350: 142e 9c41 00a2 e141 4886 ce3d 5ba9 d9bd
00000360: 168c c33e af4e dd3b 3ec1 5abd f68a 6b3f
00000370: fc4d 683e 1a25 893d e3a9 1f3e b8b3 dd41
00000380: ec59 a6bb b76d 89bf b2b5 1dbe 89bd f841
00000390: f82b 5b3e 1a9c 60be 5ae9 b73e b66c 9cbe
000003a0: 3291 c63d f333 03bd f9b0 7640 b988 99be
000003b0: 0796 733d 88e6 b840 9ebd 63bc 72a3 0242
000003c0: 477f fcbc aa64 1abf 2148 4c3f f98d 0a42
000003d0: 03c9 2a3f ca50 ed41 dca1 e2bd 285f 20bd
000003e0: c71e 5c41 a52d 8c41 ec3d 0542 3ce9 d541
000003f0: 60ce a5be a87a eb3e 4e3b fd41 6b5a 52bd

layer2.6.weight f4 [1, 256]
-0.039916355 0.0017469119 0.0028618434 -0.022891171 0.106789865 -0.0002143114 -0.012801044 0.0027552906
-0.0023421103 0.025510816 -0.015346408 0.11753554 -0.00016838455 -0.0028897792 -0.0014636716 0.0005593419
-0.02910345 0.15942824 0.058448255 0.0012598165 -0.00040446167 0.1432716 0.00056167226 -0.028663294
0.042424258 0.3423602 0.07109247 0.1708622 0.10950249 0.0026456846 0.04828999 -0.025032662
-0.036256127 0.0029744464 -0.026274312 -0.0028210296 0.10272307 0.050189897 -0.027245766 -0.006878633
-0.004141437 0.082702205 0.0604711 0.02098712 -0.025677813 0.07066521 0.098094575 -0.018744526
0.0012791964 -0.029637052 0.0016643453 0.0003494978 -0.03252966 0.11006879 0.18963577 0.0013776005
0.12778367 -0.0015371112 0.14440712 0.020948533 -0.010186202 0.18849137 -0.0020559942 0.05965801
0.114722095 -0.0030698588 -0.048919667 -0.023905607 0.0019564652 0.0028888206 0.063430294 0.0014809537
-0.010212444 -0.00063272356 -0.003066884 0.03222957 -0.0124892285 -0.0006415491 -0.003034546 0.04652548
-0.00054911705 0.06963329 0.12418832 -0.0016217617 0.063968346 0.0020659235 0.00093294674 0.15490115
0.14800918 0.054496095 -0.021388248 -0.0039836443 0.10777353 0.052964747 -0.00060688047 0.1556668
0.11923137 0.100458674 0.04477818 -0.004204114 0.08102733 0.0026572817 -0.0043039233 0.13950373
0.09794817 0.03133021 0.15207681 0.117528535 0.041086204 -0.03876603 0.12342454 -0.0012037493
-0.00032830102 -0.0010511727 -0.028751306 0.054220855 0.06699704 0.11261553 -0.035493996 -0.015992984
0.11409187 -0.00086191634 0.2546221 0.0018576067 -0.002738022 0.09940109 -0.02529824 0.07241447
0.0015571566 0.0052841795 0.012623974 0.10536891 0.14867733 -0.038976565 0.0025301399 -0.02227611
0.06273577 0.09939769 0.0041702357 -0.00086559315 0.1796521 -0.013296908 -0.0015286653 -0.0148931
0.09156939 -0.037136037 0.04329819 0.102601804 0.12009493 -0.0014711428 -0.01969135 0.05539644
-0.00293063 -0.04071849 0.09446102 -0.0012262826 -0.0100298105 -0.0023753033 0.19738634 -0.0015191541
-0.040307783 0.07228895 -0.00870699 -0.001718874 0.13307472 0.051957343 -0.0026125521 0.0007891077
-0.014596467 -0.0027935556 0.0014860835 0.00089881866 0.06453041 -0.00053905864 -0.018526616 0.17008397
0.27653137 0.1450507 -0.0017863854 0.16832487 0.062248122 -5.4471384e-05 0.16257864 0.02493053
-0.032120924 0.06888402 -0.000834837 0.11106122 0.00022386078 0.04615612 -0.03439244 0.0009225379
0.11688018 -0.022964764 -0.0020582192 0.03701757 -0.026473084 0.00033314395 0.0014676605 0.16438171
0.0016321157 0.12954283 -0.038286198 -0.00084915094 1.3411629 0.1076884 0.011738722 0.0020606369
-0.045432616 -0.027365237 -0.0022724362 0.21676648 0.07646124 0.07763208 0.015583282 -0.036312133
0.00045366664 -0.018287681 -0.0050340733 -0.003154755 0.0025385614 0.0008451257 -0.0009832684 0.07485135
0.02538563 -0.011512175 -0.014935615 0.1406428 -0.0009637571 -0.023488741 -0.0035227768 -0.0114878155
-0.00091883173 -0.0073147775 0.0009261531 -0.012076921 0.01760054 0.05228353 -0.035594758 0.14239362
-0.0008323347 -0.0007138493 -0.0002834135 0.14678974 0.0001262121 0.12605661 -0.03239988 -0.003021722
0.08874383 0.0753583 0.10280345 0.15971123 -0.0544668 0.05638781 0.09197015 -0.0025891815
00000000: 557f 23bd a3f8 e43a c48d 3b3b 4486 bbbc
00000010: a5b4 da3d c7b8 60b9 78bb 51bc 1b92 343b
00000020: 177e 19bb 0ffc d03c 806f 7bbc 79b6 f03d
00000030: 6290 30b9 7362 3dbb abd8 bfba cda0 123a
00000040: 5c6a eebc 2841 233e 7067 6f3d 6d20 a53a
00000050: ed0d d4b9 cab5 123e 303d 133a 49cf eabc
00000060: 0fc5 2d3d d649 af3e ee98 913d 80f6 2e3e
00000070: d742 e03d 3963 2d3b b9cb 453d 4c11 cdbc
00000080: 4e81 14bd eeee 423b 3a3d d7bc 06e1 38bb
00000090: 7960 d23d ec93 4d3d 8332 dfbc 2866 e1bb
000000a0: e4b4 87bb c65f a93d 8bb0 773d 2eed ab3c
000000b0: 475a d2bc ecb8 903d cfe5 c83d 1f8e 99bc
000000c0: b5aa a73a 67c9 f2bc 2926 da3a cd3c b739
000000d0: d23d 05bd bf6b e13d e12f 423e 9a90 b43a
000000e0: b9d9 023e e578 c9ba 76df 133e 429c ab3c
000000f0: 07e4 26bc e203 413e dcbd 06bb f55b 743d
00000100: 6bf3 ea3d af2f 49bb fd5f 48bd b1d5 c3bc
00000110: 0a38 003b 5e52 3d3b bee7 813d 8f1c c23a
00000120: 1852 27bc 5cdd 25ba c6fd 48bb 2703 043d
00000130: 9f9f 4cbc a22d 28ba 3cdf 46bb 8091 3e3d
00000140: 9ff2 0fba e69b 8e3d 7256 fe3d 4b91 d4ba
00000150: d601 833d 7264 073b ff90 743a 689e 1e3e
00000160: b88f 173e 4c37 5f3d 6836 afbc 3b89 82bb
00000170: 5eb8 dc3d 90f1 583d 0f17 1fba 1e67 1f3e
00000180: 942f f43d 47bd cd3d 5369 373d aac2 89bb
00000190: a8f1 a53d ca25 2e3b ed07 8dbb 11da 0e3e
000001a0: 0d99 c83d 1b54 003d 06ba 1b3e cdb2 f03d
000001b0: 024a 283d 21c9 1ebd 01c6 fc3d 20c7 9dba
000001c0: d11f acb9 81c7 89ba dc87 ebbc b016 5e3d
000001d0: be35 893d f9a2 e63d 2762 11bd b803 83bc
000001e0: 00a9 e93d 3af2 61ba d45d 823e f07a f33a
000001f0: 6370 33bb cc92 cb3d 413e cfbc 0a4e 943d
00000200: 8119 cc3a e926 ad3b c9d4 4e3c a8cb d73d
00000210: df3e 183e e4a5 1fbd b4d0 253b 637c b6bc
00000220: 9d7b 803d 0491 cb3d 79a6 883b f9e8 62ba
00000230: b8f6 373e 46db 59bc 7f5d c8ba 3002 74bc
00000240: bb88 bb3d f51b 18bd 7159 313d e520 d23d
00000250: 55f4 f53d 5cd3 c0ba c14f a1bc 61e7 623d
00000260: d00f 40bb 6ec8 26bd c774 c13d 37bb a0ba
00000270: 1354 24bc faaa 1bbb a51f 4a3e 5a1e c7ba
00000280: c619 25bd 3b0c 943d c3a7 0ebc d74b e1ba
00000290: bd44 083e 39d1 543d 5a37 2bbb 1fdc 4e3a
000002a0: 0526 6fbc 1614 37bb b0c8 c23a b39e 6b3a
000002b0: 8528 843d 9d4f 0dba 21c5 97bc 7e2a 2e3e
000002c0: 8595 8d3e 2c88 143e 2625 eaba 5b5d 2c3e
000002d0: e3f7 7e3d 3478 64b8 047b 263e 1c3b cc3c
000002e0: 3b91 03bd 1113 8d3d f6d8 5aba 1174 e33d
000002f0: 2cbc 6a39 330e 3d3d 16df 0cbd 78d6 713a
00000300: e05e ef3d 9a20 bcbc 30e3 06bb bc9f 173d
00000310: 15de d8bc d3a9 ae39 845e c03a ae53 283e
00000320: b7ec d53a e0a6 043e fdd1 1cbd 8e99 5eba
00000330: 3aab ab3f bc8b dc3d c553 403c c00b 073b
00000340: 8d17 3abd 102d e0bc 27ed 14bb 08f8 5d3e
00000350: b697 9c3d 91fd 9e3d 0651 7f3c 08bc 14bd
00000360: 1bda ed39 0cd0 95bc def4 a4bb 02c0 4ebb
00000370: fe5d 263b 6d8b 5d3a 03e1 80ba aa4b 993d
00000380: 86f5 cf3c 909d 3cbc 82b4 74bc ab04 103e
00000390: a5a4 7cba 766b c0bc 63de 66bb 6437 3cbc
000003a0: c1dd 70ba cdb0 efbb 15c9 723a 47de 45bc
000003b0: 022f 903c 4127 563d cfcb 11bd a2cf 113e
000003c0: 0931 5aba 9e21 3bba 1e97 94b9 0d50 163e
000003d0: cd57 0439 fc14 013e bdb5 04bd 1508 46bb
000003e0: 53bf b53d 7455 9a3d 9d8a d23d 578b 233e
000003f0: 9418 5fbd e7f6 663d d95a bc3d 42af 29bb
