Model_Files/bpi/TimestampPredictor_parameters_feedforward_0.0001.pt (torch, 292161 bytes, 5 tensors)

layer2.0.weight f4 [256, 24]
00000000: 20a8 473e fac6 02be 77d8 2bbc 2552 3a3e
00000010: 00cc 89bd c879 ec3d cbe4 80bd 909a 063d
00000020: a1d7 703b d876 fb3c 81db 80bf 3802 58c0
00000030: 9a66 113e b431 e3bc 3692 85bf 5d49 923e
00000040: 4ecc f03c 5c86 33be d5ad af3e 2c14 b5be
00000050: 5527 2abe cfa6 303e fd5c d3be c33e 2bbe
00000060: a6d4 1d3e 5081 a1bd 716e 0ebd 9f4b 923f
00000070: 0a42 42bd d79f 8dbe 8732 95bd fbd1 f6bd
00000080: 3bc0 013a 5308 0b3d c5b9 8dbf 286d 9640
00000090: 3639 abbe 0600 51bd fa0c b33d dee8 343d
000000a0: 9826 8bbe 6531 2abd 8bf6 e43c 524d 493f
000000b0: 4afe ccbd f309 ffbd 765a 3a3d e352 923e
000000c0: e365 77be 5094 81bf f899 693d fdc1 c3c0
000000d0: 5f85 02bd c8e7 3c3e 9e1d bfbc 3a43 2c3e
000000e0: 5115 313e 1627 eebd f161 3dbe f790 21c1
000000f0: b90a 6bbe 4aec 97bd c9a8 153e 15f5 a5bf
00000100: 943c 1ac0 c8b0 c4be 4de6 a73e d07d 04c1
00000110: 1cb8 e9bc 63a4 99bb 259f ec3e 3385 acbf
00000120: d02f 28bf 33ef a5be 0c12 0f3e e8f6 d4c0
00000130: bcfc 04bd c489 833e d78e 28be bdfa b03e
00000140: 197b 67bf 19da 0a3d 4099 6bbd c291 e7c0
00000150: ccab 103e 1ef9 a3bd 0d4d 343e ab41 d8bf
00000160: 820f c3be b95d b5be bb87 65bd d111 fdbf
00000170: 7cf8 e8bd 354a a33d a007 913d 4b2f f2bf
00000180: d23f a73d 288c 103e e365 b3bf 2148 e63f
00000190: 9270 08be ebaa c2bb 12fe 26be 5a0a 11be
000001a0: 8091 6a3c 249b 91bc 87ab 633d 2153 9341
000001b0: b60b 7fbc 3d10 363d 2d23 8b3e e0af c23f
000001c0: 8a03 0f3c 791f eebc 91b8 453e 9850 ed40
000001d0: 7290 f7bd 65bc 31bd 72fe e5be da2d a83f
000001e0: 7787 fd3d df47 8cbe ba63 7cbd 915c 1940
000001f0: 6385 20be cd9c 21be d607 e63c 8045 74be
00000200: ac76 7dbd 478e edbd 736f 99be 6746 6940
00000210: 7c7c bcbb 2fc9 91be ee91 2fbe be68 5dbe
00000220: 21c1 28be fdf4 16bd d171 993d af37 d53f
00000230: 1f64 213e 0b85 f1bd 62d5 3fbe afa4 dbbe
00000240: 8ac2 2c3e 0f88 993e d623 32bf 0cc8 ad3e
00000250: e998 4f3e d2e1 723c 1ba7 c33d aca4 33bd
00000260: 6c19 c8be 2ba7 c1bd 897f 16bf b3b1 87bf
00000270: 33b0 61bf 4e09 a13b 353b 373d c950 1ebe
00000280: 095a 763d 2e87 34bd 45a4 1dbf e7ea 933e
00000290: 1b2d 933c f2e4 543d e883 c93c 736b ebbd
000002a0: 415b 153f df9c 903e e565 01bf b57b 76c0
000002b0: 7cd0 773e 137e 49be 36b4 86bd 2773 e83a
000002c0: 9115 613d eaba 703d 95bf 20bf 893d 45c1
000002d0: 1790 8abe 4aa1 3c3e d65c c4bd 87af c0bf
000002e0: fca9 05be 3a9d 713d 09d7 53bf 9a77 6cc0
000002f0: 0591 7a3e c589 70be 5e1e afbe 8085 5dbf
00000300: 69d3 283e 6b0c 78be b1ad 66bc f2a8 5c40
00000310: f78a 57bf a11c f8be bf44 a03d 46cf 443f
00000320: 5f33 38be 8c1a 6e3b 809e 75be 8ae4 6d3f
00000330: b080 083e c5ba 19bd 6971 bf3e 9d48 d13f
00000340: 4c42 c4be 00d2 543c 9c3f 04bf f30e f33f
00000350: ddeb aebc c3df 553d 6e47 e73e b4c1 d63f
00000360: c812 16bf 749a 7dbe ce61 e83c 2b22 14c0
00000370: de28 5ebe cb87 3e3e 3c71 27be 8f83 89be
00000380: 0187 a1be 4973 25bf 6c53 613d 5603 5ac0
00000390: 3d7b dcbe f0d9 993d ffc5 993e eb6e 94bf
000003a0: b56b 86be ef13 d9bd 558a 35bd 0ff4 53bf
000003b0: 9863 c4bd f8a4 b3bd d107 adbd ee54 a6bf
000003c0: 0b53 8f3c 14e9 41bc ab5a 39bd 46da 8d3f
000003d0: fb6a abbd e45b b03d 128a 0d3d af88 6fbe
000003e0: f7b6 3b3c 31f3 45bd 8678 8bbe 6adb 0840
000003f0: f96b 8f3d 104d 75bd 6d9a d73e 3068 8c3f
0.19497728 -0.12771216 -0.010488621 0.18195398 -0.06728363 0.115466654 -0.06293639 0.032862246
0.0036749619 0.030696318 -1.0066987 -3.3751354 0.14199296 -0.027733661 -1.0435245 0.28571597
0.029394295 -0.17531723 0.3431231 -0.35366952 -0.16616566 0.17251132 -0.41281882 -0.1672316
0.1541315 -0.078859925 -0.034773294 1.1429328 -0.04742626 -0.2766101 -0.07285028 -0.12051769
0.0004949604 0.033943485 -1.1072317 4.7008247 -0.33442086 -0.051025413 0.087427095 0.044167392
-0.27177882 -0.041551013 0.027949592 0.78633606 -0.10009439 -0.124530695 0.045496427 0.28578863
-0.2415996 -1.0123386 0.0570316 -6.11743 -0.031865474 0.18447793 -0.023329552 0.1682252
0.17293288 -0.11628549 -0.18494393 -10.097892 -0.22953309 -0.074181154 0.14615168 -1.2965418
-2.4099474 -0.38416123 0.32792893 -8.280716 -0.028530173 -0.004688786 0.46215168 -1.3478149
-0.65697956 -0.32409057 0.13971728 -6.65514 -0.03246759 0.25691044 -0.16460739 0.34566298
-0.9042221 0.0338994 -0.057519197 -7.2365427 0.14128035 -0.080065 0.17607518 -1.689504
-0.3809777 -0.35423067 -0.056037646 -1.9771062 -0.1137552 0.07973138 0.070815325 -1.8920683
0.0816647 0.14115965 -1.4015468 1.7990762 -0.13324192 -0.005940785 -0.16307858 -0.14164105
0.0143169165 -0.017774172 0.055583503 18.41559 -0.015566757 0.04444908 0.27175274 1.5209923
0.008728871 -0.029067742 0.19308688 7.416088 -0.12088098 -0.043392558 -0.4492069 1.3138993
0.123793535 -0.27398583 -0.061618544 2.3962748 -0.15675883 -0.15782471 0.028079908 -0.23854637
-0.061880752 -0.11599403 -0.29967842 3.644922 -0.0057521444 -0.28473803 -0.17145512 -0.21621987
-0.16479923 -0.036854733 0.07492412 1.6657618 0.1576085 -0.11792954 -0.18733743 -0.4289908
0.16871086 0.29986617 -0.6958593 0.33941686 0.20273174 0.014824348 0.09553357 -0.043858215
-0.39081895 -0.09455713 -0.58788353 -1.0601104 -0.88159484 0.0049144393 0.0447342 -0.15460505
0.060144458 -0.04407423 -0.6157878 0.28890154 0.017965844 0.05197615 0.02459903 -0.11495104
0.5834237 0.28244683 -0.50546104 -3.8513005 0.24200624 -0.19677 -0.06577341 0.0017734513
0.054952208 0.058772005 -0.6279233 -12.327523 -0.27063057 0.18420902 -0.095880195 -1.5053567
-0.13053125 0.058987834 -0.8274999 -3.6948 0.24469383 -0.23490055 -0.34202856 -0.8653183
0.16486897 -0.24223487 -0.014079497 3.4478116 -0.8419642 -0.48459342 0.07825612 0.76878774
-0.17988347 0.003633174 -0.23986244 0.9292685 0.1333034 -0.037531633 0.37391213 1.6350285
-0.3833183 0.012989521 -0.5165956 1.8988937 -0.021352703 0.05221535 0.45171684 1.6777864
-0.5862241 -0.2476595 0.02836695 -2.3145854 -0.21695277 0.18606488 -0.16351789 -0.26858184
-0.31548312 -0.64629036 0.055011198 -3.4064536 -0.43062773 0.075122714 0.30033872 -1.159635
-0.2625405 -0.10599505 -0.044321377 -0.8279428 -0.095893085 -0.087717 -0.084487565 -1.2994668
0.017495653 -0.011835355 -0.045252483 1.1082237 -0.08370014 0.08611277 0.034555502 -0.23391984
0.011457196 -0.04832763 -0.2724039 2.138392 0.07003016 -0.059887946 0.42110005 1.0969296

layer2.0.bias f4 [256]
00000000: 25e4 2bc0 acaa 8040 c99f 1cc1 cad3 0ac1
00000010: 3443 9241 1fe9 5940 01e6 25bf fd18 48c1
00000020: 3c03 6940 7595 84c0 801e 0f40 9266 d5c0
00000030: 1a7d 54c1 d3f4 3e41 4e80 f1bd 1fc6 1fc0
00000040: 1ca0 f2c0 a2fc cdbe a3d8 1e3f 3bb9 83c0
00000050: 62ce a140 3da9 9e41 4fa9 33c1 812e 2741
00000060: 40f6 b0bf de58 9a40 37ae 4f41 96d4 61c1
00000070: e104 c6be a24b 06c1 8480 18c1 4f03 07c0
00000080: a75e 17c0 98a0 a840 7e7d d9c0 5658 0540
00000090: 82b8 8341 1890 48bf 98ad 8341 8365 8341
000000a0: 7cb0 1540 0aaf 383f 00f9 a141 c2a6 3c41
000000b0: bc66 8741 409e 07c1 d9f7 17c0 774e 43bf
000000c0: 0338 9741 4576 86c0 4929 08c1 c89a 84c0
000000d0: b4cc a241 59d8 b3c0 d66c 3cc1 5d99 06c1
000000e0: 9299 c040 87a0 6841 bb19 4340 72b5 053e
000000f0: 15af 0ac1 6157 9f40 fd98 7241 7d10 7fc1
00000100: a027 12c1 ef16 8941 d779 da40 a0ef 7441
00000110: 3c8f 823f eb4a af3e b46e 2641 9e51 09c1
00000120: a713 1641 efd3 4041 8b26 8341 bffe d3c0
00000130: ccc0 ab41 938e 05c1 d24c b3be 84bd d740
00000140: 518e f0c0 a5e8 4741 2b3b 14c1 0c08 b341
00000150: c7a3 c3c0 2aed 73c0 5c96 913f 0478 e3c0
00000160: f1b8 1ec0 0f28 4740 166b 0dc0 455d 9941
00000170: 9e16 ac41 595f c040 283d 13c0 5ab0 69c1
00000180: b3b9 e3c0 bd19 d6c0 4fa5 de40 c83f ec40
00000190: 48ad dac0 ddb2 8441 8180 8041 4e27 0b41
000001a0: ecfd a8c0 33c5 8241 ac40 d8c0 dc08 9f41
000001b0: 72bc 1ec1 502a 4d41 f6b8 3841 a54d 6040
000001c0: 25e2 5b41 afe1 5e41 ff39 c93d a0e1 a140
000001d0: e6c4 e7c0 afac 66c0 6d6f 9041 1f3e 05c0
000001e0: d06e 0941 7ffb 9ec0 485c a53e e48e 17c1
000001f0: bfbe c740 9e14 99c0 5e9a d5bf cf8f 16c1
00000200: 966b 9a40 6a45 fcbe d3fe 16c0 68df c7c0
00000210: 8648 6541 566d 5041 b1b9 bdc0 6660 9f41
00000220: 9bde b440 ade6 ebc0 fb59 a741 7dd9 ab41
00000230: a77b 5641 ce76 83bf 3986 d9c0 9607 d140
00000240: 752e fc3f f613 e4c0 6881 e2c0 435c aa41
00000250: b279 21be 6b31 6941 5bb5 8c41 73cd 8541
00000260: dc3e 1941 d35b 25bf da4e 0141 40e3 9b41
00000270: f12b 5a41 2bd5 16c1 7f40 3541 3bb2 0240
00000280: a2e1 6cc1 57cd 0641 f366 ccc0 beb4 ad40
00000290: eb20 e3c0 fad7 483e 1297 b0c0 74bc 0541
000002a0: 7c84 0fc0 af81 ab40 a84e 1f3e 1aeb 2340
000002b0: 80e3 5441 3f96 20c1 f6ba 5c41 c271 9cc0
000002c0: c94b 843e c7be 9fc0 922b 3741 0faf cc40
000002d0: 1e31 1141 33b7 c1c0 78c5 7b40 5b1e 4641
000002e0: 243a 0f41 468a 8fc0 6006 12c0 1157 e23f
000002f0: 5838 6241 6f60 2440 e488 2341 ff2c 7441
00000300: cd98 a4c0 eda1 01c1 27a6 12c0 1001 1fc0
00000310: 1f1d 9741 0dd6 9840 8df5 55c1 270e 31c1
00000320: 34cb 18c1 1979 2e40 1827 c340 92e6 4dbf
00000330: 19a4 8641 b61d 01c1 1f47 a53f 5ad8 5041
00000340: 7a7c 04bf 3851 8c41 9006 8441 dd72 3dc0
00000350: 389c e8bf bcb3 9d41 755d 86be bfa4 08c1
00000360: c722 6c41 b65d 9dc0 9f25 4340 81ec 403f
00000370: 1dc9 5441 05b9 a2bf 1241 3fc0 5c9f 5f41
00000380: 3e86 1d41 d476 fc3e fc7b 46bf 3907 19c1
00000390: 1210 b0c0 cff5 0dc1 08e7 97c0 b8be dcbd
000003a0: 9fbf 9940 0927 55c1 d241 a241 0e17 b340
000003b0: a463 2841 a7d7 b240 2963 8840 b7af 3d41
000003c0: 2fac 5e40 dd2b 5d40 ae74 17c0 b0fa 463f
000003d0: 1041 7c40 87ba 9b41 a428 3d41 085b c6bf
000003e0: 006b 1f41 29fd 3f41 42d1 4341 7cd0 8f41
000003f0: 17b3 9040 a680 7f40 f646 46be 24cc 17c1
-2.6857998 4.020834 -9.78901 -8.676706 18.282814 3.4048536 -0.64804083 -12.506101
3.6408224 -4.1432443 2.2362366 -6.668771 -13.280542 11.934772 -0.1179205 -2.4964674
-7.5820446 -0.40231806 0.6204931 -4.116361 5.056443 19.832636 -11.228835 10.4488535
-1.382515 4.823348 12.980033 -14.114401 -0.38675597 -8.393465 -9.531376 -2.109577
-2.3651521 5.2696037 -6.796569 2.0835166 16.465092 -0.7834487 16.459763 16.424566
2.3388968 0.7214209 20.246582 11.790712 16.925163 -8.476135 -2.3745024 -0.762916
18.90235 -4.201937 -8.510079 -4.143894 20.349953 -5.6201596 -11.776571 -8.412442
6.0187464 14.539191 3.0484455 0.13057497 -8.667745 4.9794164 15.162351 -15.941525
-9.134674 17.136198 6.827373 15.308502 1.0199962 0.34236845 10.402027 -8.582426
9.379798 12.051742 16.39382 -6.624847 21.46914 -8.347308 -0.35019547 6.741884
-7.5173726 12.494298 -9.264445 22.37893 -6.1137424 -3.8113503 1.1374011 -7.1084003
-2.480038 3.11182 -2.209661 19.170542 21.511044 6.011639 -2.3006077 -14.605555
-7.1164184 -6.690642 6.9576793 7.382786 -6.8336525 16.587336 16.062746 8.697096
-5.2809963 16.346289 -6.7578945 19.879326 -9.921007 12.82283 11.5451565 3.504739
13.742711 13.930099 0.09825515 5.058792 -7.2427855 -3.6042898 18.054407 -2.0819166
8.589554 -4.9682 0.32296968 -9.472385 6.2420344 -4.7837667 -1.6687734 -9.4101095
4.825633 -0.4927171 -2.3593032 -6.2460213 14.330206 13.026693 -5.9289174 19.92207
5.6521735 -7.3719087 20.918936 21.481195 13.405189 -1.0270631 -6.7976346 6.532176
1.9701678 -7.1274366 -7.0782967 21.29505 -0.1576908 14.574565 17.588552 16.725317
9.577847 -0.6459324 8.081751 19.485962 13.635728 -9.427043 11.328246 2.0421283
-14.805086 8.425132 -6.387567 5.4283133 -7.0977683 0.19613639 -5.518441 8.358509
-2.2424612 5.3595805 0.15557349 2.5612245 13.305542 -10.036681 13.795645 -4.8888865
0.2583907 -4.9920382 11.448137 6.3963695 9.0744915 -6.053613 3.9339275 12.382411
8.9516945 -4.485629 -2.281639 1.768282 14.138756 2.5683858 10.220921 15.260985
-5.1436524 -8.102033 -2.2913911 -2.4844398 18.88922 4.7761292 -13.372449 -11.065955
-9.54961 2.7261412 6.098522 -0.8042995 16.830126 -8.069754 1.291233 13.05282
-0.51752436 17.539658 16.503204 -2.9601357 -1.8172674 19.71276 -0.26243177 -8.540221
14.758491 -4.9176893 3.0491712 0.75360876 13.2991 -1.2712713 -2.9883466 13.976406
9.845274 0.4930941 -0.77532935 -9.564263 -5.5019617 -8.872512 -4.746952 -0.10778564
4.8046412 -13.32203 20.282139 5.5965643 10.524326 5.5888247 4.2621045 11.855399
3.4792593 3.4558022 -2.3664966 0.7772627 3.941471 19.466078 11.822422 -1.549653
9.963623 11.999307 12.238588 17.976799 4.5218616 3.992227 -0.19363007 -9.487339

layer2.2.weight f4 [256, 256]
00000000: 3286 25be 0dad f53c 9b5a 42be ea89 953c
00000010: 79f4 b33c a5a1 20bc 80dc 84bd 0db5 0ebe
00000020: 1d6d 103d 9e4d 023c ad64 453d 6c18 62be
00000030: de25 b83d e02c b03d 5997 eebd 05c0 0dbc
00000040: b7e5 9ebd e548 f13d fb4c bebd 26ae c3be
00000050: 719c abba 0698 7e3d c42b a3bd 343b 1e3e
00000060: ef02 733d aefb 173d 59a8 c93d 8962 3b3d
00000070: ae02 40be f8ef 03be a396 acbd e449 a2bd
00000080: a719 89be f86c 92bd 0e0d 40be b76a bebd
00000090: a648 9d3c 6e5b b43d 5b87 803e 8d80 163d
000000a0: 444c 22be 3bda ad3a fe8a a23d e78a ab3e
000000b0: 154b 2d3e 7076 32bc 3769 583e 0f71 b5bd
000000c0: dd90 e83d 166e dbbc 6978 e63c 4cb1 0e3c
000000d0: f235 573e 6c41 dfbd e912 1cbe 73c7 0bbe
000000e0: 5ac5 903c d7d2 07bd e8e0 44bd 06d9 a53d
000000f0: 8fde b1bd 9eca aa3d d4c6 67bb df83 033d
00000100: f212 b93c 2ff8 0e3e 19c8 8c3e 65a7 243e
00000110: 2366 d4bd 0514 523d 21a3 4bbc 28f1 30bd
00000120: 3154 273d ed9e bc3d d5c0 26bd a797 da3c
00000130: 4543 c93d 6e10 853c e908 d6bb 3cb0 783c
00000140: 2fc4 cbbd 246d d83e 2231 973d f5a2 163e
00000150: d1ab b23b 5578 91be ff33 1dbd b8d0 94be
00000160: 7145 47be ae30 a03d 4778 59bd e6c8 953d
00000170: 4cce e43d c55f 7a3d 9bbd f4be 6721 a3be
00000180: bae7 ebbc 2088 94bd 600c ec3c 1d7d c03c
00000190: 8b8d 1bbd e28b de3d b1ec ca3c c770 613e
000001a0: cd24 75be 8d04 403d 467f 05bd 2e10 aa3e
000001b0: 9f7a 1ebe 85e2 f43d 624f 47bb 857c 11bc
000001c0: 1977 d83b 6dd7 893e c6a3 2ebd f75d 5a3b
000001d0: 1a84 9ebc e616 ea3c c9ef 3dbd 1b21 d9bd
000001e0: 88ad c33d 5882 c0be fe9b 7dbd ec2c c4bd
000001f0: 675a d23d 9408 913d 91d1 103b 1713 63bd
00000200: 6611 003e 3293 45be 793f 303e 5336 873d
00000210: 8fbf 143e e98d e13b caad 613d ef59 033e
00000220: 85e1 0a3c 41c2 943d 1377 7dbb 9db3 063e
00000230: c39c 883d ce4b 363d d676 51be 559a 82bd
00000240: 3353 233e df1c 41bd 246c 4fbe 96d5 993d
00000250: 701e f3bd e761 983d ed4d 053d a54c 983d
00000260: d254 dfbd 8649 003d 1229 4c3e d6ec 0c3e
00000270: 4bb8 663e c813 27be 5e88 613e 3d1d 303e
00000280: 96ad 9dbd 1ed9 7dbd deea 8bbe 2cf1 c93c
00000290: 15dc a4be 8321 2f3d 4d13 53bc ca96 943d
000002a0: d235 e0ba b977 6a3e a508 2fbe ea8c 833d
000002b0: 57fb 1e3e 148a 53bd 16fb 19be e431 0d3d
000002c0: 0bab 82bd d145 62be f091 e3bc 8610 5c3e
000002d0: d638 26be 2265 7bbe d78e 8d3e 0a15 abbd
000002e0: 73c2 9d3c e33f 5dbe aa17 903e 5a51 263d
000002f0: 51cd 94bd e1f0 1d3e a10d c83d f18f c43d
00000300: 7fbd 8e3d fb18 48be 1404 183d b561 2c3e
00000310: 70e0 1e3d c2a2 7cbd 1575 e1bd d0b9 1fbe
00000320: d1c8 66bc 5020 833d 07cb c33d 6369 20bd
00000330: 1f91 623c c620 fabd e539 d33b 6a01 953d
00000340: d44f dbbd 2a76 ad3d bb83 4cbd 6c31 78be
00000350: c2ba 73bd 86cc 56bd 5219 b73d f5be 7abd
00000360: edde ea3b 1a32 7abe 7873 3d3e 3265 5dbd
00000370: de7c b63d 8a81 ba3d 54f3 ae3d 8f58 67bc
00000380: ac10 933d 6b67 133e f424 d4bc d76a 12be
00000390: 430d 1ebe ff32 43bd 5d4d 6fbd 7e75 cfbe
000003a0: d764 abbb ce08 90be cbd9 283e fc26 1f3e
000003b0: f2bd ecbd c6a9 903d 5e41 b63e 6d65 a13d
000003c0: e843 b43d 8207 833e fae7 6d3c 0b48 4bbe
000003d0: 38ea ebbc 58db 9e3b 4668 383e a180 653c
000003e0: 1708 b63d 085f 803b b694 d83e ea47 cf3b
000003f0: 4686 c6bd f111 3f3e 309c d13d 76f5 49bd
-0.16164473 0.029989744 -0.18979876 0.01825424 0.02196716 -0.009804164 -0.064873695 -0.13936253
0.03526031 0.007953076 0.048191715 -0.22079629 0.089915976 0.08602309 -0.11649961 -0.008651738
-0.077586584 0.11781482 -0.092920266 -0.38218802 -0.0013092888 0.0621567 -0.07967332 0.15452272
0.05932897 0.037105255 0.09846563 0.045748267 -0.18751022 -0.1288451 -0.08427169 -0.0792425
-0.26777384 -0.071496904 -0.1875498 -0.09297698 0.01919968 0.08806501 0.25103268 0.03674369
-0.15849406 0.001326389 0.07936667 0.33504412 0.16923173 -0.0108924955 0.21133886 -0.08859455
0.113557555 -0.026785892 0.028133588 0.008709263 0.21016672 -0.1090115 -0.15241589 -0.13650303
0.01767223 -0.033160057 -0.04806605 0.080980346 -0.08685028 0.083394274 -0.0035366314 0.032108184
0.022592042 0.13961862 0.27496412 0.16079481 -0.103710435 0.051288623 -0.01242903 -0.043198735
0.040851776 0.0921 -0.040711243 0.026683642 0.09827284 0.016243186 -0.006531824 0.015178736
-0.099495284 0.42270768 0.07382418 0.147106 0.005452611 -0.2841212 -0.038379665 -0.2906549
-0.19460084 0.07821785 -0.05309322 0.07313709 0.111721605 0.06112649 -0.47800907 -0.3186142
-0.02879702 -0.07252526 0.028814495 0.023497159 -0.037976783 0.10866524 0.024771066 0.22015677
-0.2393982 0.04687934 -0.03259208 0.3321547 -0.15476464 0.11957268 -0.0030412306 -0.008879785
0.0066059944 0.2692217 -0.042636655 0.0033320168 -0.0193501 0.028575372 -0.046371255 -0.106020175
0.09554583 -0.37599444 -0.061916344 -0.09578881 0.10271149 0.07081714 0.0022097568 -0.055438127
0.12506637 -0.19294432 0.17211713 0.066021584 0.14526199 0.006883372 0.05509738 0.12827276
0.00847662 0.072636135 -0.003867571 0.13154455 0.06670525 0.044505887 -0.20455489 -0.06377093
0.15949707 -0.047146674 -0.20256096 0.075114414 -0.1187104 0.074405484 0.03254502 0.07436494
-0.1090485 0.031320117 0.19937542 0.1376222 0.2253124 -0.1631614 0.22024676 0.17198654
-0.076991245 -0.061974637 -0.27327627 0.024651133 -0.3219916 0.04275657 -0.01288302 0.07255323
-0.0017105883 0.22897233 -0.17093141 0.064233616 0.15525566 -0.051645353 -0.15037188 0.034471408
-0.0638028 -0.22096945 -0.02777955 0.21490678 -0.16232619 -0.24550298 0.2764804 -0.08353622
0.01925776 -0.21606402 0.28143054 0.040604927 -0.072657235 0.1542392 0.097682245 0.09597767
0.06969737 -0.1954078 0.037113264 0.16834147 0.03878826 -0.061678655 -0.1100866 -0.15598226
-0.014085964 0.064026475 0.09560209 -0.039163005 0.013828545 -0.12213282 0.0064461106 0.0727566
-0.107085854 0.08469804 -0.049930315 -0.24237603 -0.059504278 -0.052441142 0.08940376 -0.061217267
0.007167688 -0.24433175 0.18501079 -0.054051585 0.08910535 0.09106739 0.08542505 -0.014120235
0.07180914 0.1439492 -0.025896527 -0.14298569 -0.15434746 -0.047656056 -0.05842339 -0.40519327
-0.005230527 -0.28131717 0.16489331 0.15542215 -0.11559667 0.07063632 0.35596746 0.078806736
0.088020146 0.25591666 0.01452064 -0.19851701 -0.028798208 0.004847925 0.18008527 0.014007718
0.08888262 0.0039175786 0.42300957 0.0063257115 -0.096935794 0.18659188 0.102348685 -0.049306355

layer2.2.bias f4 [256]
00000000: 0440 6041 4a09 6f40 30a4 55bd 2938 6441
00000010: e9a3 983f 4942 fa40 126b 8abe 465e 8f3f
00000020: f0c2 6041 c564 6bbe 73aa 7abd 94c3 c2be
00000030: 76ec 5341 bcc6 47be 8864 2abe 066a 6441
00000040: 6e71 5641 e480 eebd 737e 4d41 af2a 98bd
00000050: 64c0 b840 7990 93be de13 6441 a0fa 4a41
00000060: 4203 4c41 82c8 a2be e149 3c41 f718 3dbd
00000070: d31e 8f40 d5c7 4fbe 0e2d d9bd 085a debe
00000080: dba8 4fbe eb66 97be a35e fdbc 50dd 4441
00000090: d6a6 5540 8b14 693f 56f5 01be b164 ba3c
000000a0: 3736 8cbe 823f 3b41 7d4d 3941 d2ae 24bd
000000b0: f52a 6b41 bc0d 123f 3c58 4741 5c4c 4ebc
000000c0: 0e16 e840 928a e2be 4a7e 4641 6ff4 d840
000000d0: 2b3b 4a41 b9d3 4d41 090b 6641 78db d6bd
000000e0: 5ca5 6341 6f03 5a41 3eb8 a9bd 9948 1abe
000000f0: 115c 8dbb 7d42 b340 b127 0cbd f74d 5441
00000100: 00aa 5741 8144 3c40 1999 6941 7e81 f6be
00000110: 65c1 7541 aef2 26bd 8fac 4441 1843 6641
00000120: 3ed7 5341 f841 4841 1dac 6341 5329 4dbe
00000130: 6be1 1741 9359 d6be ca69 6841 baf3 f7be
00000140: a15d dfbd 0f3a 3c41 6331 5241 918d 6a41
00000150: 45e1 b9be c824 fbbd be01 6141 c793 5f41
00000160: 267d 5f41 b3a4 f5bd 9edb 2b41 0319 5d41
00000170: 832e 0cc0 fca4 4f41 6a7e 073d 88fe 1fbe
00000180: 85bc 4741 a5fe 7341 b6f2 173e 6ac6 ebbd
00000190: 52ef a3bd 422a 5241 f311 3e41 b3e7 ed3d
000001a0: 7e76 0340 7459 973d 21ea 8ec0 9a9e 4741
000001b0: 85c5 76be b1a4 5941 a572 f6bd ebaf 6a41
000001c0: 3afd 1541 e6ec 5541 df81 5c41 b597 21be
000001d0: eba6 8440 aa74 0441 04c2 5841 3fcc edbf
000001e0: 2ba1 2dbf 281e cb3f 37ad ddbd 1286 33be
000001f0: 6760 5141 47e0 1fbe bbf6 6241 74a4 d840
00000200: 1372 5e41 c37f 573b 5589 4041 5c55 6cbb
00000210: 7c8b 35bd 8e66 13be c3f7 22be 356e 68bd
00000220: 3f53 5741 0ad5 6641 e3d6 8b40 5cf8 5d41
00000230: e926 8dbe 58a3 6041 34cd 6b3e 125a 2141
00000240: 79e5 8fbd f695 0dbe 3228 0641 8820 abbe
00000250: 6816 00be bcb9 b7bd dd55 a2bd c1d4 b2be
00000260: 2603 1040 69c1 85be c33e 2e40 0f88 6341
00000270: f602 4941 9dfc 613b 6ca1 9b40 1009 98bd
00000280: 90b8 6d41 cfb7 6f41 d620 4841 02fb 4abd
00000290: 68bb f1bd 900a 4e41 11f8 6241 4180 63bd
000002a0: 7586 0a41 79b9 f240 3784 2abb e63a 3941
000002b0: 8625 6641 5a20 1041 bf87 5541 2185 9540
000002c0: dd99 63be 7e7a 7041 b2d1 2a41 b7c6 4d41
000002d0: 2d96 4441 dc97 ac40 d5fe 2841 1bf2 30bb
000002e0: 05b9 6141 34ed 40be 2298 19be 225a 6441
000002f0: 4fb9 3e41 35a0 6b41 e6cc 4f41 b0e3 5d41
00000300: 5f95 6b41 3b78 a2bd abdd 04bf 282b 60be
00000310: 48c3 6341 c51e 993f 2c83 4041 1438 5b41
00000320: 55de 04be ea51 4cbe 225d 14be 5c3f 6d41
00000330: e302 09be d96f 5441 d9f6 6641 f1ad c340
00000340: 674f 1741 5f1b 3c41 e9af 6841 c108 4541
00000350: d624 4a41 b1e5 3f41 ca6c 5e41 d434 5641
00000360: 96be 3a3f 416c e3be fb88 f940 7d31 5541
00000370: 5394 6041 c93a 6941 0062 6bbd e116 6241
00000380: 9ae9 cdbe c9b2 be40 8020 4e41 428c 6c41
00000390: 8ff5 4f41 5dee 2341 16fd 2241 4c3b 5e41
000003a0: 1bdd 31be 36be f73e c95c 8abd fbcb df40
000003b0: 1f4e 6541 799d 6441 baad 90be 2109 7041
000003c0: 0bf3 5941 c728 9abd 21c5 1bbe babd 3a41
000003d0: a461 84be 484a 4f41 262d 163c 424d 4141
000003e0: cdce 0dbf 1548 4b41 5d59 6741 4a73 3941
000003f0: fc06 0640 6171 5741 610f 2ebe d8b3 2640
14.015629 3.734942 -0.052158535 14.263711 1.1925021 7.8205914 -0.27034813 1.1200645
14.047592 -0.2298766 -0.06119771 -0.3803984 13.24523 -0.19509405 -0.16639912 14.275885
13.402693 -0.11645678 12.843371 -0.07430016 5.773485 -0.2882116 14.25485 12.686188
12.750795 -0.317936 11.768037 -0.046166386 4.4725127 -0.20291074 -0.106042966 -0.43428063
-0.20279257 -0.29570708 -0.030928915 12.304031 3.3383079 0.9104697 -0.12691244 0.022753092
-0.27385113 11.703005 11.581418 -0.040205784 14.697988 0.57052207 12.459042 -0.012591448
7.252692 -0.44246346 12.405832 6.779838 12.639445 12.86419 14.377694 -0.10491079
14.227871 13.625838 -0.082870945 -0.15066756 -0.0043139537 5.6018662 -0.03421754 13.269034
13.479004 2.9416811 14.599877 -0.4814567 15.359715 -0.04075878 12.292129 14.39138
13.240049 12.516106 14.22952 -0.20035295 9.492534 -0.41865215 14.525827 -0.48428136
-0.1090653 11.764174 13.137057 14.659562 -0.3630468 -0.12262875 14.062925 13.973578
13.968054 -0.119943045 10.7411175 13.818606 -2.1903389 12.977779 0.033079542 -0.1562444
12.483525 15.249669 0.1483868 -0.11512454 -0.08004631 13.135317 11.879382 0.11616459
2.0541072 0.07390109 -4.46608 12.476221 -0.24098785 13.602708 -0.120335855 14.667949
9.374323 13.370337 13.781707 -0.15780528 4.1453757 8.278482 13.547367 -1.8577956
-0.6782405 1.5868578 -0.10824054 -0.17531613 13.086036 -0.15612899 14.185237 6.770075
13.90285 0.0032882548 12.033528 -0.003606162 -0.044322476 -0.1439459 -0.15914826 -0.056745727
13.457824 14.4270115 4.3699813 13.873135 -0.2756875 14.039879 0.23027498 10.08449
-0.0702619 -0.13826737 8.384813 -0.33423257 -0.12508547 -0.08970973 -0.07926533 -0.34927943
2.2501922 -0.26124123 2.7225807 14.220717 12.563223 0.0034482845 4.863455 -0.074236035
14.857559 14.982375 12.508017 -0.049555786 -0.11803323 12.877579 14.185563 -0.055542234
8.657826 7.5851407 -0.0026018748 11.5768795 14.384161 9.007898 13.345641 4.672501
-0.22226663 15.029905 10.676195 12.861014 12.286664 5.3935375 10.562215 -0.0026999775
14.107671 -0.18840486 -0.1499944 14.272005 11.920241 14.726613 12.987524 13.868088
14.723968 -0.079330884 -0.5190074 -0.21891463 14.235176 1.1962515 12.032024 13.701191
-0.12975438 -0.19953123 -0.14488652 14.827969 -0.13380007 13.277307 14.435266 6.114983
9.456885 11.756682 14.542947 12.314637 12.633993 11.993577 13.90156 13.3878975
0.7294706 -0.4441853 7.7979712 13.324582 14.036212 14.576852 -0.057466507 14.130586
-0.40217286 5.9593244 12.882935 14.784243 12.997451 10.245694 10.186789 13.889477
-0.17369501 0.48387307 -0.067559786 6.99365 14.331573 14.288445 -0.28257543 15.002229
13.621837 -0.07527309 -0.15211917 11.67132 -0.25855744 12.955635 0.009166038 12.081362
-0.5539368 12.705098 14.459317 11.590647 2.0941763 13.46518 -0.16998054 2.6047268

layer2.5.weight f4 [1, 256]
00000000: 97ed 843c e3c4 103d 7173 983b 8644 983c
00000010: e7e8 103d da16 8c3c c10c 1fb9 e663 d83d
00000020: 4397 083d 26ae c5bb 64fd 793a f37b 183b
00000030: 10fd c33c e582 8cbc dd60 90ba 29fe 323c
00000040: 10ac c73c c5e0 bcba 8504 023d 2ecf 32bc
00000050: 38f7 ef3c d117 77be da2f 913b 8ede 153d
00000060: c9ed 6a3c a8c0 feba 11a5 a8b9 6b99 4abc
00000070: 3d46 b33c 4ba0 84be 8bf3 22be bfa4 cdbd
00000080: b1aa 1fbe 96a5 29bd 54ac beba 29f5 2a3d
00000090: 887b 7a3c e484 113d c8f5 45bb 7e81 82bb
000000a0: c363 893b 2bfa 4b3c 5818 663c 591d 23bd
000000b0: fe8a 9e3c 7c02 58be d094 e53c 2c30 0f3b
000000c0: 5f77 333d c97e 19bd e72c 133c 5bb8 d63c
000000d0: 4022 ac3c 673f c93c 81d8 8c3c a3c1 dcbc
000000e0: 0e3e 003c f714 873c 20b0 23bd c8de f3bc
000000f0: d997 14bc 5600 383c 8801 b9bc b630 e43c
00000100: c238 a63c 5d16 093c 0809 df3c 0cc5 2b3b
00000110: 7ee1 b93c a09c a4b9 7f8d 0a3d 0eb6 323c
00000120: cba1 f83c 7402 d03c d69e db3c 0bfd 5239
00000130: d698 ea3c 0b22 0fbe f0d6 e13c f151 ad38
00000140: a5a0 e53a 4faa 523c faf1 bc3c e5df dd3b
00000150: c74b 54bc 31a8 d33c 1e09 7f3c dce9 ae3c
00000160: 9ff5 c33c 307a 4c3a 8e77 323c 24e1 033d
00000170: 7458 1dbf 1dae a03c 06c0 1cbb 0b4e 9c3a
00000180: fe7d 3f3c ef09 be3c 0158 afb7 1bcd fe3b
00000190: bd81 55bc 67ca 9a3c 2442 963c 272d e8ba
000001a0: 41a8 2e3d 306f 853c 082e 3abf 6c21 653c
000001b0: 5b15 8bbe a25a e03c 7674 debc ac3d 483b
000001c0: 99af 063d 5f24 c83c db16 a93c dc53 4639
000001d0: a883 c33c cc1b 813c 2702 b73c cb58 4bbe
000001e0: c5a9 51be c65b c43c d1b4 0fbe 6ec7 3ebc
000001f0: f136 823c c8b0 893a fd35 493c 7b27 da3c
00000200: 53bc 943c dfd0 f23a 04b0 943c 2ff1 efbb
00000210: ff3b 16bb f5bb 1eba 6f57 e3bc 2b60 dbbd
00000220: 0f3e 793c cb7b f53b fd17 613c 8de2 743c
00000230: 9aac 6dbe 8d01 a03c e8c5 b33c baea 723c
00000240: ca3d 2dbd 85f2 6cbc 7c2d 603c eeb7 093c
00000250: f359 6c3c fda3 d4bb fc6e e43a 7347 82bc
00000260: a5ea 8b3c c162 09ba d0de 893c 82a9 b53c
00000270: f23b ba3c 83c9 393b 0a75 9d3c 951b 77be
00000280: 6729 203c c0f5 993c 058f 7a3c 5f23 0fbd
00000290: a2f3 913b 22de ab3c 1992 113d 3314 89bb
000002a0: b4b4 643c 827f cb3c fac2 5e3c 257d 043d
000002b0: edd1 ec3c f575 bd3c 462e a93c ae81 ab3b
000002c0: 90c6 9f3b 484e 683c c346 bb3b 62c8 b53c
000002d0: be07 9d3c b933 49be 0788 4f3c 5e5a b8bb
000002e0: ff60 d83c b822 10bd dea1 f5ba c2d3 823c
000002f0: 695c 573b 01fd af3c a28b eb3c 7de7 103d
00000300: 3771 b23c e267 1cbc 6f79 feba 0399 e9bc
00000310: 4cb1 613c 3df2 943c d8ff 733c 33b1 803c
00000320: bf26 97bb e3bb 98bb 971b fc3a 9362 b63c
00000330: bbd0 92bb 5fa8 623c 4c5c 653c c8fd f33c
00000340: f38e 723c 85d6 7f3c ff48 c63c 08f8 243c
00000350: 630f 943c a9b8 033d b551 c13c f08d bc3c
00000360: 20a1 993c 7379 c4bd 6fc6 293c 4079 c83b
00000370: 43c5 593c e221 e73c b5da b8bb 216c 9d3c
00000380: 6783 0e3b 2f5f e63c a3be 423c 67d3 dd3c
00000390: 3279 b83c a90c c03c 0bef b83c 75b0 d53c
000003a0: 281d a4b9 a236 353d 5072 a23a e26c a03c
000003b0: 6d64 643c 3570 e53c 1477 d0bc a845 103c
000003c0: 9666 a13c 9f25 aa3b 460e 9bbc 3145 553d
000003d0: 9aba 84bd ec4e d93c d3b1 bb3b 338f bd3c
000003e0: 1bf3 8a3c fa75 d63c cc51 df3c 617e 313c
000003f0: be37 ac3c 1a33 8d3b f98e d0ba b275 a63c
0.016226573 0.035344016 0.0046524336 0.018587362 0.035378363 0.01710074 -0.00015168173 0.10565929
0.03334738 -0.006032723 0.00095363543 0.002326724 0.02392438 -0.01715226 -0.0011015196 0.010924854
0.024374038 -0.0014410248 0.03174259 -0.010913653 0.029292688 -0.24130179 0.004430753 0.036589198
0.014338919 -0.0019436078 -0.0003216644 -0.012365679 0.021884078 -0.25903544 -0.15913217 -0.100411884
-0.15592457 -0.04141768 -0.0014547207 0.04173771 0.015288241 0.035527125 -0.0030206311 -0.003982722
0.0041928007 0.012449781 0.01404389 -0.03982291 0.019353386 -0.21094698 0.02802506 0.002184878
0.043815013 -0.037474427 0.0089828735 0.026210954 0.021012425 0.024566365 0.01719308 -0.026947802
0.007827295 0.016489489 -0.039962888 -0.029769316 -0.009069406 0.011230549 -0.022583738 0.027855258
0.020290736 0.008367148 0.027225986 0.0026209978 0.02269053 -0.00031397212 0.033826347 0.010907663
0.030350586 0.025391795 0.026809137 0.00020121426 0.028637331 -0.1397783 0.02756831 8.2645456e-05
0.0017519189 0.012857988 0.023064602 0.006771075 -0.01295752 0.025837036 0.015566139 0.021351747
0.023920832 0.000780019 0.010892762 0.032197133 -0.61463094 0.019614274 -0.0023918166 0.0011925114
0.011687754 0.023198096 -2.0902606e-05 0.0077759153 -0.01303142 0.018895341 0.018342085 -0.0017713652
0.04264093 0.01628837 -0.7272649 0.013985019 -0.2716473 0.027386967 -0.027155142 0.0030554337
0.032882307 0.024431406 0.020640781 0.00018913992 0.02386649 0.015760325 0.022339894 -0.1985809
-0.20474918 0.023969542 -0.1403382 -0.011644227 0.015895339 0.0010504955 0.012280938 0.026630154
0.018156206 0.0018525383 0.018150337 -0.0073224525 -0.0022923944 -0.00060552295 -0.027751653 -0.10711702
0.01521255 0.007491564 0.013738629 0.014946592 -0.23210374 0.01953199 0.021944955 0.014826471
-0.042295255 -0.014462118 0.013682719 0.008405669 0.014425742 -0.0064892755 0.0017428095 -0.01590321
0.01707966 -0.0005240851 0.016829878 0.022175554 0.022733662 0.002834887 0.019220848 -0.24131615
0.009775496 0.01879394 0.015292888 -0.034945842 0.004454092 0.020979945 0.03553972 -0.004183316
0.013959099 0.024841074 0.013596291 0.03234591 0.028908694 0.023127535 0.020651948 0.005233965
0.0048759654 0.01417882 0.0057152226 0.022190277 0.01916873 -0.19648637 0.012666709 -0.005626007
0.026413439 -0.03518936 -0.0018740257 0.015970115 0.0032861477 0.021482946 0.028753106 0.035377014
0.0217825 -0.009546252 -0.0019414852 -0.028515344 0.013775181 0.018181914 0.014892541 0.015709495
-0.004612773 -0.0046610697 0.0019234297 0.0222638 -0.004480449 0.013834088 0.013999056 0.029784098
0.01480459 0.01561511 0.02420473 0.010068901 0.018073743 0.032158528 0.023598531 0.0230169
0.018753588 -0.09593477 0.010362252 0.0061179698 0.01329166 0.028214399 -0.0056413063 0.019216599
0.0021745802 0.028121559 0.011886272 0.027078344 0.022518728 0.023443537 0.022574922 0.026085118
-0.0003130224 0.044241555 0.0012393687 0.01958317 0.013939959 0.028007606 -0.025447406 0.00880567
0.019702237 0.005192473 -0.018927705 0.05206794 -0.06480904 0.02652689 0.0057279854 0.023139572
0.016961625 0.026179302 0.027260683 0.010833354 0.021022674 0.0043090703 -0.001591175 0.020319793
