Model_Files/bpi/TimestampPredictor_parameters_binary_0.0001.pt (torch, 274439 bytes, 7 tensors)

layer1.weight f4 [4, 1]
000000 2d 9e 9f 3b be 80 95 39 6a 6f 7b be 6d 52 5e c1
       0.004871151 0.00028515415 -0.2455422 -13.8951235

layer1.bias f4 [6]
000000 ac ef 67 c1 5c af 19 c1 d8 5a a6 c1 51 57 31 c1
       -14.496014 -9.605312 -20.794357 -11.0838175
000010 37 dc 52 c1 d0 46 a1 c0
       -13.178763 -5.039894

layer2.1.weight f4 [256, 6]
000000 84 5c 86 bc 50 5a 47 bd 74 10 14 3d a6 b1 8b 3e
       -0.016401537 -0.048670113 0.036148503 0.27283973
000010 3a 0a e5 bb a4 81 d2 3c dc cf 48 be fa 51 72 bc
       -0.0069897445 0.025696583 -0.19610542 -0.014790053
000020 43 cf dc 3d c1 c5 b0 3d dc 5b 12 bc 71 0a a4 3d
       0.107817195 0.086314686 -0.008933034 0.08009804
000030 a7 06 bb 3c 3d f1 05 3f e3 d3 3b 3e 97 15 00 3e
       0.02283032 0.52321225 0.18342547 0.12508236
000040 5e 57 00 3d d8 b7 69 3d 63 7a ad 3e 5c ca 9a 3b
       0.03133332 0.057060093 0.33882436 0.00472383
000050 74 47 82 3e e6 47 7e 3d c4 ac af 3c 5c 4d 21 3d
       0.2544514 0.062080286 0.021444686 0.039380416
000060 f5 bb 1c 3c 54 a4 ec 3b 9b 9a a6 3e e1 0d 63 3e
       0.009566297 0.007221738 0.3253983 0.22173263
000070 f7 c9 3f be 02 ac 9e 3e 44 8c af 3d 16 51 5e 3f
       -0.18729387 0.30990607 0.085716754 0.8684248
000080 60 09 d7 bc c2 c6 a0 3e c0 b2 ed 3e 46 36 24 be
       -0.026249588 0.3140164 0.46425438 -0.16036329
000090 59 44 a2 3e a2 d9 b9 3e f3 fc a3 be ed 26 83 3e
       0.3169277 0.36298853 -0.32028922 0.25615636
0000a0 00 5c a2 3e 34 82 b4 3e fe db c1 bc 3a 31 79 bd
       0.31710815 0.35255587 -0.02366447 -0.06083796
0000b0 5b 33 48 be 1d 2e 28 bc 54 65 0a 3e 3b 60 9a bd
       -0.1955084 -0.0102649005 0.13515216 -0.07537886
0000c0 fa f2 c7 bc a2 cc 1e 3f bf dd 71 3e 62 e2 a4 3c
       -0.024407852 0.62030995 0.23619746 0.020127479
0000d0 7b 5f 92 3d 00 e9 80 3e 9b 25 7e bd 8d f4 39 3d
       0.07147118 0.25177765 -0.062047582 0.045399237
0000e0 52 5a 48 bd c4 f0 f1 3e 11 c0 85 bc 72 4b dc ba
       -0.04891426 0.47254002 -0.016326936 -0.0016807152
0000f0 17 a8 8c bc 66 4c 61 3a 2b 76 c9 3a e4 59 6d bb
       -0.017169995 0.0008594453 0.00153703 -0.003621691
000100 ef 80 b8 ba a4 de 0b 3c c4 74 0e bd b0 80 54 3c
       -0.0014076511 0.008536968 -0.034779325 0.012970135
000110 11 85 af bb ed 31 20 3d 9b 29 2c ba 2e 3f 33 3b
       -0.005356439 0.039110113 -0.0006567479 0.002735089
000120 26 b9 1a bc 17 4d 5e ba 55 e1 bc b9 7e 7e 46 bd
       -0.009443557 -0.0008480115 -0.0003602604 -0.048460476
000130 c4 46 15 bc 56 9b b1 3d a8 af de bc a0 c8 d4 3e
       -0.00911111 0.08672206 -0.027183369 0.41559315
000140 86 88 a5 3d 0c 60 ee bc 59 56 0c bc 74 c5 ba 3d
       0.080826804 -0.029098533 -0.008565509 0.091196924
000150 f4 c7 96 bc df 29 c3 bc 8b 11 a8 3d 96 89 3d be
       -0.018405892 -0.023823677 0.08206471 -0.18509516
000160 60 27 bb 3e e0 3f 4e 3e 32 ee 0c ba c4 e4 e1 be
       0.36553478 0.20141554 -0.000537607 -0.44119847
000170 c6 e9 c3 3e a1 7d 02 be c0 90 c5 3e bf 82 50 3f
       0.38264292 -0.12743236 0.38586998 0.814495
000180 c5 ab 86 bd 17 1a eb bd 6a c7 3b 3f 5d c5 e7 3d
       -0.06575731 -0.114795856 0.73351157 0.11316941
000190 12 4d 6f be ba 00 4e 3e 06 19 8e bd 31 ba de 3e
       -0.23369244 0.20117465 -0.069383666 0.43501428
0001a0 39 1e 08 3d 0d e0 1f 3d 45 72 0d bd b3 b9 5a bd
       0.033231948 0.03903203 -0.034532804 -0.053399753
0001b0 52 4c 0b bc 02 6d 8b bb 77 31 7a bb 0d 5e 93 3d
       -0.008502083 -0.004254938 -0.0038176456 0.07195673
0001c0 29 23 99 bb 40 67 11 3e ec d5 39 bb 7c 60 02 bc
       -0.004673381 0.14199543 -0.0028356267 -0.007957574
0001d0 78 1e 81 b9 89 c7 45 3d 90 af 79 ba 55 83 3f 3c
       -0.00024627498 0.048285995 -0.0009524757 0.011689027
0001e0 3d cd 03 3c 9b 59 d9 3b 4e 78 17 bc b2 d0 f4 3f
       0.008044538 0.0066329963 -0.0092449915 1.9126189
0001f0 ea b5 4b bc aa 4e ec 3f c5 2a 5a 3f d4 95 b6 3f
       -0.012433508 1.8461506 0.8522151 1.4264474
000200 ab 61 81 bd 01 2f 73 3e c4 88 43 3d 86 2c 03 be
       -0.06317457 0.237484 0.04773785 -0.12809953
000210 73 a5 90 bc 78 c1 13 bd 2c fb 90 3e 90 f4 60 be
       -0.017657017 -0.036073178 0.2831663 -0.21968293
000220 de 14 d1 3e a2 b2 f3 3e cc a3 8c 3e c4 e5 2a be
       0.40836233 0.47597224 0.27468717 -0.16689211
000230 71 bb 44 3d fa f8 22 be c9 05 1c 3d 9a b4 88 3d
       0.04803032 -0.1591529 0.038091455 0.06675072
000240 d0 30 2c 3e 51 c8 33 bc 7b 46 33 3e 0c dc 12 be
       0.16815495 -0.010973052 0.17507355 -0.14341754
000250 24 bd c2 bd 0e 15 1f 3e 9d d3 2a bc f2 aa a1 3d
       -0.09508732 0.15535375 -0.010426429 0.07893933
000260 b8 fd ac 3e 92 8d da be a0 a2 d2 be 30 14 c3 3e
       0.33787322 -0.42686135 -0.41139698 0.3810134
000270 5c 97 a0 bc 30 c8 72 bc 80 b2 68 bc 1f 73 44 3e
       -0.019603424 -0.014818236 -0.014202714 0.1918454
000280 69 21 ce bb b8 1a f7 3e a9 db b7 3c b2 c2 20 be
       -0.006290604 0.48262572 0.02244361 -0.1569927
000290 83 de 0d 3f 48 f8 93 3d 24 8d 35 be 6f b8 a8 3d
       0.5541765 0.0722509 -0.17729622 0.08238303
0002a0 34 08 a1 bc 91 c6 df bc 04 69 1c bd c8 be 9e 3d
       -0.019657232 -0.027316364 -0.03818609 0.077512324
0002b0 d0 8d 63 3e dc 26 b2 3e 7a 59 4c 3e 96 f5 2e 3f
       0.22222066 0.34795272 0.19956008 0.68343484
0002c0 fd 3c 5d 3d cc be 5d bd 9d 1d 2e 3d ee 62 5a bd
       0.05401324 -0.054137036 0.04250871 -0.053317003
0002d0 4b a5 11 be 8c 90 3d 3e c9 d7 8f 3e 84 1f 82 3e
       -0.1422321 0.18512172 0.28094319 0.2541467
0002e0 e3 19 c7 bd 22 b7 a3 bd 85 1d 00 bc 7e 93 06 bc
       -0.097217344 -0.07993914 -0.007819538 -0.008213876
0002f0 b6 20 18 bc b9 17 fb 3d 3f 21 d1 bb d9 80 26 3e
       -0.009285143 0.12260384 -0.006382137 0.16260089
000300 d2 98 5d 3e 17 5b 83 be 56 a2 93 3e 34 92 a6 3c
       0.21640328 -0.25655434 0.2883479 0.020333387
000310 ec f8 e9 3d 38 ef dd 3d d0 a0 7d 3e b0 f1 8d 3d
       0.11424431 0.10836643 0.24768376 0.06930864
000320 74 a0 c9 bd a3 e3 6e be e8 3d bd bd 36 3c 57 3f
       -0.09845057 -0.23329024 -0.09240323 0.8407625
000330 36 f9 b3 3a 63 36 54 3a c8 7f 0a 3f b4 8c b5 3e
       0.0013730887 0.00080952625 0.5410123 0.3545891
000340 10 28 77 3f d1 0a f7 3b bf 62 2b bb ee 94 b1 3b
       0.96545506 0.007539131 -0.0026151387 0.005419365
000350 1b 51 7e 3f ed 34 1a 3f fc fa 08 3f 70 2a 41 3c
       0.9934251 0.6023701 0.5350797 0.011789903
000360 1e 75 7b 3e ea 72 1e 3d 5e 4e 5e 3e e6 1c 29 bd
       0.24556395 0.03868381 0.21709582 -0.041287325
000370 45 52 45 3e 2b d8 13 bc b0 5e 13 bd be ca 08 bd
       0.19269665 -0.009023706 -0.035978973 -0.033396475
000380 ad 84 4e 3e 5e 65 f4 3d b6 c6 3b bd 93 a8 fe bc
       0.201678 0.11933397 -0.045843802 -0.031086242
000390 33 4f 64 3e 61 99 19 be bd 3d 4e 3d 64 18 c4 3e
       0.22295837 -0.14999916 0.050351847 0.3829986
0003a0 8e 1c 4b bb 74 f2 3b 3d b1 f5 7c bc 89 b4 5c 3b
       -0.0030992362 0.04588552 -0.015439437 0.0033676943
0003b0 dc 86 6d ba d0 2f c8 3d 8b c6 15 3d 9a d6 7d 3d
       -0.0009060928 0.097747445 0.0365663 0.061972238
0003c0 f2 ce 8e bc 14 59 b2 3a 53 88 44 be 82 ed 05 be
       -0.017432664 0.001360687 -0.19192629 -0.13078883
0003d0 df b1 01 3e df 3d a4 bd 87 ed 86 bd 44 77 d3 3c
       0.12665509 -0.080196135 -0.065882735 0.025813706
0003e0 d6 43 7e 3e 43 6b 04 bd 60 70 5d 3e a5 73 d3 3c
       0.24830565 -0.032328855 0.21624899 0.02581198
0003f0 5c 5c 2e bd 24 fb 2c bd 85 d4 15 3f 87 0b 7c 3d
       -0.04256855 -0.042231694 0.58527404 0.06153443

layer2.1.bias f4 [256]
000000 17 c2 39 42 85 63 29 42 6e 1c 3d c0 b7 af c5 c0
       46.43954 42.347187 -2.9548602 -6.1776996
000010 b4 d2 f4 c0 10 f5 74 c1 ac 46 60 c1 de e5 2d 42
       -7.6507206 -15.30983 -14.017254 43.47448
000020 1f 4b 7b 41 26 7b 38 42 29 4a 0b 42 fc e9 25 42
       15.70584 46.120262 34.822422 41.4785
000030 ae 1f 1e 42 e5 4c d1 41 6d 1e e1 41 44 97 71 c1
       39.530937 26.162546 28.139856 -15.09943
000040 61 15 1d 42 e0 04 d0 41 32 83 11 42 14 5c 17 42
       39.270878 26.00238 36.37812 37.83992
000050 c5 53 82 c1 d0 27 3a c1 71 d4 dc 41 11 56 01 42
       -16.290903 -11.63472 27.603731 32.33405
000060 00 15 9e 41 69 65 84 3f 4a 6b 16 42 19 12 15 42
       19.760254 1.0343448 37.604774 37.267673
000070 eb 98 01 42 d7 ef d1 41 8a 25 03 42 99 49 16 42
       32.399334 26.24211 32.78666 37.571873
000080 b1 64 00 42 b7 74 11 42 20 39 d3 c0 9f ba a7 c0
       32.09833 36.36398 -6.6007233 -5.241531
000090 30 5b c7 c0 e2 4f 20 42 dc ac 21 42 ec e2 e0 c0
       -6.2298813 40.07801 40.418808 -7.0277004
0000a0 9d b0 2b 42 8d 4d 80 c0 10 ab 15 42 1f 08 10 42
       42.922474 -4.0094666 37.417053 36.00793
0000b0 cc dd 07 42 ba 80 0c 42 f7 6d 66 41 87 2f 9b 41
       33.9666 35.12571 14.401847 19.398207
0000c0 3e 59 de c1 62 09 d2 bf 7f d6 d3 41 a3 d3 e7 41
       -27.793575 -1.6409113 26.479734 28.978338
0000d0 c4 4e e4 41 32 1f ed 41 51 fc 15 42 39 d7 99 c1
       28.53846 29.640232 37.496403 -19.23009
0000e0 bf 77 6b c0 d9 62 3e 42 42 de 29 42 ee 53 24 42
       -3.6791837 47.59653 42.46705 41.081963
0000f0 a3 5b bf 41 4a f5 d6 41 42 18 26 42 da 1c 11 42
       23.919744 26.86977 41.52369 36.278175
000100 a9 27 ac c1 cc 27 2b 42 44 5c a2 41 75 83 07 42
       -21.519365 42.788864 20.295052 33.878376
000110 4c 9b 52 c1 bb 3c 1f 42 5a f2 af c1 f0 9e fb 41
       -13.162914 39.809307 -21.993336 31.452606
000120 40 86 1c 42 63 a6 dc 41 75 b9 25 42 81 3c 95 c0
       39.131104 27.581244 41.43111 -4.6636357
000130 d6 b3 1e 42 7a 63 e0 41 c4 81 fd 41 38 7e 05 42
       39.67562 28.048573 31.688362 33.37326
000140 2f 15 0f 42 72 64 04 42 fd aa 1d 42 c7 02 28 42
       35.770687 33.09809 39.41698 42.002712
000150 f4 3f c9 41 9a 7f 04 3e 48 20 2d c0 14 97 36 c1
       25.156227 0.12939301 -2.7050953 -11.411884
000160 f5 78 11 42 74 3b 7f c0 86 2f b1 c1 32 48 bc 41
       36.368122 -3.9880037 -22.148205 23.535252
000170 1e 4d 38 42 2e e5 96 41 09 f4 32 42 25 70 bb c0
       46.07531 18.861904 44.738316 -5.8574395
000180 87 fe 28 42 30 1d 06 42 b4 9e aa c1 80 2c 13 42
       42.24856 33.528503 -21.327492 36.793457
000190 43 20 13 42 8f e1 31 42 44 84 2c 42 13 70 0a 42
       36.781506 44.470272 43.129166 34.609447
0001a0 a7 28 c3 41 7a 27 09 42 1a fe eb 41 99 b9 af 40
       24.39485 34.28855 29.499073 5.491406
0001b0 d8 b3 85 c1 55 94 69 c0 26 3a 0d 42 ff 80 ec 41
       -16.712814 -3.6496785 35.306786 29.562986
0001c0 ca f9 fa 41 92 f2 0a 42 1d 0c 0d 42 45 77 0f 42
       31.371967 34.736885 35.26183 35.866474
0001d0 0d 9a f1 41 c3 65 1c 42 cb 9d 03 42 64 ed 8b 41
       30.20022 39.099377 32.904095 17.490913
0001e0 ac 4b 8b c1 dc 2c 33 40 ca 4a f1 41 43 4d 33 42
       -17.41195 2.799613 30.161518 44.82545
0001f0 3e 6e 24 42 98 77 14 42 55 4f 30 42 5a 52 f1 41
       41.10766 37.11679 44.077473 30.16521
000200 4e de 2b 42 c1 f7 27 42 c6 be 30 42 32 14 18 42
       42.967094 41.991947 44.186302 38.019722
000210 2e 21 04 42 07 34 f8 41 a2 02 07 42 ed 41 04 c1
       33.032402 31.025404 33.75257 -8.266095
000220 af 7f 26 42 10 19 05 42 dd 05 17 42 0c 1a b2 c0
       41.62469 33.274475 37.755726 -5.5656796
000230 97 49 f5 41 6e 8d f3 c0 19 83 e7 41 a2 06 d4 41
       30.660933 -7.6110144 28.939013 26.503239
000240 b8 95 b3 c0 7c 33 05 42 77 2a ee 41 12 3f 00 42
       -5.612026 33.300278 29.770735 32.061592
000250 2c 31 35 c1 b5 fc 09 42 ea 97 02 42 f6 87 c9 c1
       -11.324505 34.496784 32.648354 -25.191387
000260 6d 53 b0 41 16 07 05 42 d3 4c f9 41 8d e6 e1 41
       22.040735 33.25692 31.162512 28.237574
000270 e8 6a b5 40 4b 8d fa 41 f9 7b 8c 41 45 b7 9c 41
       5.6693 31.31899 17.560534 19.589487
000280 a9 8f 15 42 27 27 1e 42 dc 2f 9b c1 41 a3 27 42
       37.390293 39.538235 -19.398369 41.909428
000290 a1 6e 00 42 45 f7 d3 41 79 7e 11 42 c4 69 94 41
       32.108036 26.495737 36.37351 18.551643
0002a0 ab a3 8d c0 85 e2 0f 42 67 da 9c 3f 6e 7b 4c c1
       -4.426229 35.97121 1.2254151 -12.780134
0002b0 9b c1 0b 42 99 71 9c c1 29 e4 05 42 b9 4c f2 41
       34.939068 -19.555468 33.472813 30.287462
0002c0 27 3c 9a c1 72 c6 58 c1 e7 d3 23 42 7f 31 0e 42
       -19.279371 -13.548449 40.956936 35.548336
0002d0 e6 19 bf 40 74 c8 0e 42 78 b3 06 42 cd f1 b2 41
       5.9719114 35.695755 33.675262 22.368067
0002e0 26 39 df 41 32 fb 15 42 e7 80 1d c1 91 f2 f5 41
       27.902905 37.495308 -9.84397 30.74344
0002f0 ea d6 2d 42 85 78 15 42 2d 27 c1 c0 f5 cb 24 42
       43.459877 37.367695 -6.036032 41.199177
000300 6c c5 43 42 f2 56 0f 42 f8 01 d9 c0 e4 ce 77 c1
       48.942795 35.834908 -6.7814903 -15.48801
000310 11 fa e3 41 76 c3 f7 41 92 45 f9 41 92 d9 3a 42
       28.497103 30.97044 31.15897 46.71247
000320 52 3d ee 41 dd 5e 1c 42 07 b9 a9 41 54 52 2f 42
       29.779942 39.09264 21.215345 43.8304
000330 d6 eb 76 41 88 b1 e8 c0 7b f0 d8 c0 4a fc 97 c0
       15.432577 -7.2716713 -6.7793555 -4.749547
000340 94 4e 0e 42 ac 69 1d 42 3a b3 0b 42 55 1d 1b 42
       35.576736 39.353195 34.925026 38.778645
000350 d2 6b bd 40 e7 8d 32 42 56 df 1b 42 fb 7e f8 41
       5.9194117 44.638577 38.9681 31.062002
000360 4c 03 34 42 22 4e 07 42 e3 49 dd 41 8a c7 f9 41
       45.00322 33.8263 27.661077 31.222431
000370 b8 af a8 c1 3f 1e 11 42 ae 6a 56 c1 ea 3d 37 42
       -21.0858 36.279537 -13.401045 45.810463
000380 29 fa 9e c1 7a b1 11 42 4b 4d a5 c1 eb 17 df 41
       -19.872149 36.423317 -20.66274 27.886679
000390 ea 55 e0 c0 e6 5c 02 42 be 0a f2 41 87 0b a9 41
       -7.0104876 32.59072 30.255245 21.130629
0003a0 33 2c 9c c0 98 54 1a c1 5d a3 1e 42 81 3b 34 c0
       -4.8803954 -9.645653 39.659534 -2.8161318
0003b0 7e 52 3d c0 28 52 9c 41 64 81 38 42 23 3f 29 42
       -2.95816 19.540115 46.126358 42.311657
0003c0 03 8a 25 42 ac 90 0f 42 cc 4d 1e 42 f9 e7 36 42
       41.384777 35.89128 39.575974 45.726536
0003d0 84 e8 de 41 37 04 94 41 ed c8 cc 41 d0 38 3a 41
       27.863533 18.502058 25.598108 11.63887
0003e0 3f c8 8b c1 29 91 a5 41 ea a7 da c0 14 0e cb 41
       -17.472776 20.695879 -6.8329973 25.381874
0003f0 70 86 36 42 75 fa 08 42 dd 62 2e 42 73 42 07 42
       45.631287 34.244587 43.596546 33.81489

layer2.3.weight f4 [256, 256]
000000 82 72 b6 3c e0 4a fa bc b5 7d 26 3d 5c e0 8e bb
       0.022271398 -0.030553281 0.040647227 -0.004360242
000010 cf 2e fe 3c d4 7b 0f 3d 03 75 d7 3c 4c bc 4d bb
       0.03102818 0.0350302 0.026300913 -0.0031392751
000020 ef 9b 6e bd 8e 15 5d bd 21 27 44 3c 9b a9 48 bc
       -0.05825418 -0.053975634 0.01197222 -0.012247468
000030 f8 00 7a bc 6d 5c b9 3c 58 44 64 bd e2 ba f1 3c
       -0.01525902 0.02262708 -0.05572924 0.029508058
000040 8c 71 5e bd 8c ad 46 bd b2 3a a8 3c 7d 97 bd bc
       -0.054307505 -0.04850535 0.0205358 -0.023143524
000050 01 93 6c 3c af 50 4d 3b 1f b4 2c bc f0 f2 04 3d
       0.014439345 0.0031328609 -0.010540991 0.032458246
000060 88 cb 16 3d 3c dc 0e bd ae c8 86 3c ce c4 86 bd
       0.036815196 -0.034878 0.016453113 -0.06580506
000070 54 c9 34 3d 35 ec 12 3d f2 2b 45 3c f0 4d 36 3d
       0.044137314 0.035869796 0.012034403 0.04450792
000080 08 80 8f bd d3 e9 3f bd e8 48 a5 3c 52 f2 fe bc
       -0.07006842 -0.04685385 0.020176366 -0.031121407
000090 34 5c 42 3d 60 7d 2a bc 6e 36 1a 3d 8e 30 2c bd
       0.047451213 -0.010405868 0.037649564 -0.042038493
0000a0 30 c2 e8 bb cb 77 35 bd af 37 1a bc da c3 49 bd
       -0.007103227 -0.044303697 -0.00941269 -0.049259044
0000b0 16 b4 85 bc 87 40 74 bd 10 b9 18 3c d9 fe 01 bc
       -0.016321223 -0.05963185 0.009321466 -0.007934296
0000c0 8a 7b c7 bc 32 5c c5 ba 47 f6 e8 3c 44 6a 31 bd
       -0.0243509 -0.0015057384 0.028437747 -0.043314233
0000d0 1b d2 0a bd fb e8 73 bc ab a0 6f bd f9 7a 28 bd
       -0.03389178 -0.01488709 -0.058502834 -0.0411329
0000e0 89 9e 04 3d d5 18 29 3d f1 0e 02 bc e6 6c 94 bc
       0.032377753 0.041283447 -0.007938133 -0.018118333
0000f0 27 3b 82 bd 28 ea 84 3b 76 b5 57 3b 5a 3b 27 bc
       -0.06358939 0.004056234 0.0032914556 -0.010207022
000100 87 42 7f bd 7d fd ab bc 79 00 3d bd f9 bd c9 3c
       -0.062319305 -0.020994896 -0.04614303 0.024626719
000110 5d 87 c4 bb 34 b0 13 bb a1 b9 f3 3c 64 94 1b 3d
       -0.005997582 -0.0022535445 0.0297516 0.037983313
000120 bf d5 b3 3c 4c b6 01 bd 5a 5c 1c 3d 10 28 b3 3b
       0.021952508 -0.031667992 0.03817401 0.0054674223
000130 29 12 81 bd bf db f5 bc 66 ce df bc 15 43 fe 3c
       -0.06302292 -0.03001201 -0.027320098 0.031037847
000140 cd 8a 52 3d 44 27 88 bc 44 37 5a bd e6 c8 8f bd
       0.051401902 -0.016620286 -0.05327536 -0.0702074
000150 fa 1a 0e 3d ff 6e ae 3c 46 b4 0f 3d 70 50 f7 3b
       0.034693696 0.021293161 0.03508403 0.0075474307
000160 b7 c7 92 bd 6f 86 34 bc 11 c3 94 bd 78 1c d6 3c
       -0.07166999 -0.01101838 -0.072637685 0.026136622
000170 c5 88 62 bb 58 2e 00 bd 2c 3c c0 bd b8 1c 0e 3d
       -0.0034566384 -0.031294197 -0.09386477 0.034695357
000180 3f 62 8f bd 96 70 b2 3a 00 a5 53 bd e0 22 57 3d
       -0.07001161 0.0013613875 -0.051671028 0.052523494
000190 bd a6 4a bd c6 5e 05 bd b2 94 07 bd 94 17 99 bd
       -0.04947542 -0.032561086 -0.03310079 -0.074752
0001a0 52 e7 3d bc 22 ab 59 3c e1 e1 d5 3c 20 5c 2c 3d
       -0.011590796 0.01328543 0.026108684 0.042080045
0001b0 83 78 d9 bc 6e dc 82 bd 6c 8b 8b bd 0d 17 14 3b
       -0.026546722 -0.063897 -0.06813702 0.0022596747
0001c0 29 8a f9 3a 14 6c 84 3c 56 2b 08 3d 63 55 b4 bc
       0.0019038367 0.016164817 0.033244453 -0.022013372
0001d0 db c0 67 3c 82 18 25 3d 4e 73 c8 3c 12 11 c3 3b
       0.014145101 0.040306576 0.024469044 0.0059529627
0001e0 32 88 4e 3c 28 ba 82 3c 37 e0 b6 bb cb e5 d1 ba
       0.012605714 0.015957907 -0.0055809277 -0.0016013918
0001f0 aa d9 89 3c c7 a2 2a 3d dd cc a9 bb 52 e2 81 bd
       0.016827423 0.041659143 -0.0051818923 -0.06341995
000200 bb 13 55 bd 2b 12 0c 3d 31 ee 44 bd b4 22 36 bd
       -0.05202077 0.034197014 -0.04807872 -0.04446669
000210 7b e9 a6 bc 5d e7 09 bd fa 95 8f bd d9 74 42 3d
       -0.020375004 -0.03366791 -0.07011028 0.047474716
000220 4d 6a 12 3d 30 c1 e2 3c 8d d4 66 3c 28 a1 10 3d
       0.035745908 0.02768001 0.014088762 0.03530994
000230 32 d9 70 3b c1 89 32 bc c9 02 62 bc 64 14 0a 3d
       0.0036750552 -0.010897101 -0.013794609 0.033710852
000240 17 10 bb 3c 63 ca 06 3c 89 33 d1 bc 8c 52 a8 bd
       0.02283482 0.008226964 -0.02553727 -0.082188696
000250 40 a0 d9 bc 30 34 69 bd 9e 94 dc 3c 8e 19 28 3d
       -0.026565671 -0.056934536 0.026926335 0.041039996
000260 7e 71 8b bc 86 cd 67 bd bc 48 b3 bc 9b c4 90 3c
       -0.01702189 -0.056592487 -0.021885268 0.017671874
000270 65 94 66 bd 78 b7 04 bd bb 7a 14 bd 3e f7 9f bd
       -0.056293864 -0.032401532 -0.036249857 -0.078108296
000280 d0 26 24 bd cb 5c fc 3c 9e 2d 32 3b e1 74 25 bd
       -0.040076077 0.030805966 0.0027187834 -0.040394668
000290 0e 3f 1f bd 97 8c 71 bd cc 6e 7f bd 3e 54 45 bb
       -0.038878493 -0.058971968 -0.062361524 -0.0030110027
0002a0 49 ff 97 3c be 8d 3e bd 4b 25 36 bd fb 13 a0 bd
       0.018554347 -0.046521895 -0.04446916 -0.07816311
0002b0 1b e7 5d bc e0 47 ea bb 1a 9e e0 3c ff 74 87 bd
       -0.013543869 -0.0071496814 0.027419139 -0.06614112
0002c0 f4 57 89 bd d6 6c 98 3c 5d ce ba bd ca f5 b6 bc
       -0.06706229 0.018606585 -0.09121392 -0.022333998
0002d0 50 3d cb bc 08 08 80 bd 1c 9e 7b bd 24 5f 04 bc
       -0.02480951 -0.06251532 -0.06143008 -0.008079324
0002e0 9b c1 59 3d d5 7c 17 bd 22 69 2b 3c 32 7e 92 bc
       0.053163152 -0.036984283 0.010462077 -0.01788244
0002f0 67 96 8d 3c 12 95 e0 3c e3 4a a9 bc ea e8 8a bd
       0.017283631 0.027414832 -0.020665592 -0.06782706
000300 64 eb 9c bb 16 56 45 bd 00 2c 63 bd ca 49 21 bd
       -0.004788803 -0.0481778 -0.055461884 -0.03937701
000310 1f 6d 72 bd 46 1e 1e bd db 8e 4e bc ac 02 0f bd
       -0.059186097 -0.03860309 -0.012607302 -0.034914657
000320 81 41 98 bd 52 b5 92 3c 8d 6b 0a 3c 99 3f 8c bd
       -0.07434369 0.017908726 0.008448494 -0.06848068
000330 ff c4 3b bc 09 42 1c 3d e7 18 98 bc 69 10 44 bd
       -0.011460542 0.038148914 -0.018566562 -0.047867212
000340 ab a2 8a 3c f9 b9 24 3d fe 7b 22 3c 35 b5 8a bc
       0.01692327 0.04021642 0.009917257 -0.01693211
000350 44 8b 4f bd 48 0b 10 bd 60 27 88 bc 49 68 f5 bc
       -0.050669923 -0.03516701 -0.016620338 -0.029956954
000360 ca 76 08 bd 49 22 bd bc 08 4f 02 3d 93 3d 7f bd
       -0.03331641 -0.023087637 0.03181365 -0.06231458
000370 c2 db 96 bd df fe 85 bd 75 6a 5f bd 04 2a 73 bd
       -0.07366134 -0.065427534 -0.054544885 -0.05936624
000380 ed 45 1e 3c 45 54 d7 3c a7 ef ac b9 2c 71 a2 bc
       0.009660226 0.0262853 -0.0003298495 -0.019829355
000390 98 41 da bc bf 1a 43 bd 63 10 15 3d 0c 93 1d 3d
       -0.026642606 -0.04763293 0.03639258 0.038470313
0003a0 b3 cc 7b bc f2 cd 2f bc 91 84 87 3c b2 48 20 3d
       -0.015368628 -0.0107302535 0.016542705 0.039131828
0003b0 ef 95 ed 3c 21 95 83 bd 1a 36 ec b9 e0 b5 6e bc
       0.029002158 -0.064249285 -0.00045053737 -0.01456973
0003c0 44 0c 2c 3d d2 9a 6d bd 6b d5 63 bd ba 31 ec 3c
       0.042003885 -0.058008976 -0.055623453 0.028832305
0003d0 24 07 78 3c 62 92 75 bd 7d 80 25 bd 3a 23 0a 3d
       0.015138421 -0.059954055 -0.04040574 0.033725
0003e0 d4 f6 02 bd f2 e3 d3 bc 9b 2c d0 3c 9d d9 0c 3b
       -0.031973675 -0.025865529 0.025411895 0.0021492012
0003f0 3d 90 72 bc 82 d3 09 3d 73 dd be bb f9 00 32 bc
       -0.014804897 0.033648975 -0.0058247386 -0.01086449

layer2.3.bias f4 [256]
000000 45 57 3f be 84 74 49 be 62 4a c6 bd 6b 26 19 40
       -0.18685634 -0.19673353 -0.09682156 2.3929698
000010 61 d2 08 42 0a ea fa 41 5c 28 1f be b4 0f 7c bd
       34.20545 31.364277 -0.1554274 -0.061538413
000020 eb 12 09 42 ea 3d 06 42 1a 67 92 bd 70 8a 8b bc
       34.268475 33.560463 -0.07148571 -0.017033786
000030 31 f0 bd bd 3f a9 cb be 85 73 c0 41 6b b3 80 bd
       -0.092743285 -0.39777562 24.056406 -0.06284221
000040 59 31 f5 41 96 66 06 42 fe 2c a3 be e2 cf ce ba
       30.649096 33.60018 -0.31870264 -0.0015778507
000050 9a 2f d6 bd 7f a5 09 42 0f e3 07 42 17 74 86 be
       -0.10458298 34.411617 33.971737 -0.26260445
000060 3f 35 21 bf f7 89 fc 41 d9 49 a1 41 31 cc 01 42
       -0.6297187 31.567366 20.161058 32.449406
000070 85 62 fb bd 9e bd 30 be ee 05 c7 bf 84 0a 4e be
       -0.122746505 -0.17259833 -1.5548685 -0.20121199
000080 59 b4 08 42 77 75 08 42 7c ba b7 41 d0 1e 34 bb
       34.17612 34.11471 22.966057 -0.0027484186
000090 7d f0 f5 41 e2 16 04 42 60 02 03 42 41 20 06 42
       30.742426 33.022346 32.75232 33.531498
0000a0 fa 9b 3b bd 4f a0 02 3f aa 28 35 bd 72 75 b4 be
       -0.045803048 0.5102586 -0.044228233 -0.35245854
0000b0 d7 7c cd bc f2 e9 d4 41 f6 0c 15 be f0 a4 da 41
       -0.025083942 26.614231 -0.14555725 27.330536
0000c0 61 1f 12 41 a6 b3 03 42 41 a1 bb 3e 48 92 ce 3e
       9.132661 32.925438 0.36646464 0.4034598
0000d0 b5 60 cc 41 8c 3f 87 bd 6d dd f1 41 bd ad db 3e
       25.54722 -0.066039175 30.233118 0.4290599
0000e0 da ec 84 be b4 36 5e 3f 09 17 08 3d 21 2a 07 42
       -0.25961953 0.8680222 0.033225093 33.79114
0000f0 bb b7 fd 41 04 f2 3d be b5 26 00 be e1 e0 3f be
       31.714712 -0.18549353 -0.12514766 -0.18738128
000100 7e e0 01 42 c1 df 04 42 a4 4d 46 40 dd 84 0b bd
       32.46923 33.21851 3.0984888 -0.034062255
000110 b8 8e 17 bb 4f 07 0b 42 f3 e6 b4 bc a3 d4 86 be
       -0.0023125838 34.757137 -0.022082781 -0.26334104
000120 e2 b6 72 3f ca 45 f5 bd 63 ae 72 be 7b 63 22 bd
       0.9481031 -0.11976202 -0.23699336 -0.039645653
000130 6c 57 0c 42 a0 53 0c 42 8a 8b 02 42 e0 a5 9a bd
       35.085373 35.081665 32.63627 -0.075511694
000140 5f 1f 0c 42 21 9f 0f 3e 3d 0b 32 3c eb 6b 99 41
       35.030636 0.14025547 0.010866937 19.177694
000150 5f a9 32 41 14 b7 1c 3d e0 be f2 41 11 ea de be
       11.16635 0.038260534 30.3432 -0.43537953
000160 aa e0 9e 41 32 65 00 42 fb 6e e7 41 e8 9f 23 be
       19.8597 32.098824 28.92919 -0.15978968
000170 fa a0 06 be 90 74 87 41 0c f3 09 42 d9 b9 98 be
       -0.13147345 16.931915 34.48735 -0.2982929
000180 38 6a 1a be 85 34 98 be 3a 65 ac 41 5c e5 31 be
       -0.15079582 -0.2972757 21.549427 -0.1737265
000190 c9 ec 33 41 30 b3 6b be 98 9f 09 42 d5 81 1e bf
       11.245309 -0.23017573 34.405853 -0.6191686
0001a0 fb 23 0f 41 06 55 01 be 4b 0e 07 42 87 ef 98 41
       8.946284 -0.1263009 33.763958 19.116957
0001b0 9b b9 f8 3e cf d5 07 3f 92 85 52 bd c6 38 8a be
       0.48579106 0.5306062 -0.051396914 -0.2699644
0001c0 ed 72 fa be cc 05 15 41 70 d6 d2 3f 94 8d 12 3e
       -0.48915806 9.313915 1.6471691 0.1431182
0001d0 7a 25 1b 3e 11 f2 8b 41 47 80 53 bd 38 ac b1 bd
       0.15151015 17.493196 -0.051636007 -0.08675426
0001e0 94 49 d4 3f a6 5e 05 42 14 e2 2d be e8 37 6f 41
       1.6584954 33.34243 -0.16980773 14.951149
0001f0 b7 96 03 42 a4 a3 04 42 14 52 55 be 7c 3a 57 40
       32.897182 33.159805 -0.20832092 3.3629446
000200 d4 bf b8 3e 34 22 50 bd a2 11 86 3d a2 59 5e 41
       0.36083853 -0.05081387 0.06546332 13.896883
000210 47 db 2b 40 e1 df b8 41 19 d9 b8 41 74 af 0a 42
       2.6852586 23.109316 23.106005 34.67134
000220 4e 3d 7f bd a0 67 73 be 9d 09 92 3d d8 37 d6 41
       -0.062314324 -0.23769999 0.0713074 26.777267
000230 19 82 62 bd e6 91 e0 41 0f 7d 06 42 0f 4f c6 41
       -0.055299852 28.07124 33.622128 24.788603
000240 db 7c b3 3f 23 67 47 be 77 ec 0b 42 b6 24 79 bd
       1.4022478 -0.19472937 34.980923 -0.060826026
000250 f6 9d 27 bf 3e 00 d9 41 5c 7d 00 40 e3 c3 0a 42
       -0.65475404 27.125118 2.0076513 34.691296
000260 b2 57 08 42 be 7c d4 3e 8e b4 39 bd 0a ca f0 bd
       34.08564 0.4150142 -0.045338206 -0.11757286
000270 dd 24 48 be 05 21 96 41 25 98 22 3d d0 62 e6 bd
       -0.19545312 18.766123 0.039695878 -0.11249316
000280 34 79 05 42 b8 7e 01 42 62 a6 d5 3e ee ea f5 bd
       33.368362 32.37375 0.41728503 -0.120077
000290 36 fb 7b bd 25 d9 e9 bd f0 9c 2e 40 fb 7a 69 bd
       -0.06151887 -0.1141837 2.7283287 -0.05700205
0002a0 4e 73 67 41 46 2b a6 40 bb e9 1b be 78 5a 08 be
       14.465651 5.1927824 -0.1522588 -0.13315761
0002b0 64 17 89 41 17 91 08 42 fe ad 03 be c0 78 90 41
       17.136421 34.14169 -0.12859342 18.05896
0002c0 27 62 59 41 91 d2 2b 3e f5 ef 2c 40 93 f0 c1 bd
       13.586463 0.16779543 2.7021458 -0.09469714
0002d0 38 f4 fb 41 93 a2 98 41 2a d8 b5 40 ab b9 f9 bc
       31.494247 19.079382 5.682637 -0.030484041
0002e0 d7 ba 2b 41 8b 43 a4 be 5e 22 ed 3e 6c 2e 90 41
       10.733115 -0.3208278 0.46315283 18.022667
0002f0 ab db 08 42 32 82 ef 41 f0 83 c0 41 5f 35 b6 bd
       34.21452 29.938572 24.064423 -0.088968985
000300 d8 0b 22 3f 79 1c 2f be 62 e5 58 bf 3e 49 c1 41
       0.6329932 -0.17100705 -0.8472501 24.160763
000310 d2 d0 02 42 47 27 3f be 60 6f 45 40 6e 06 7b 3f
       32.703926 -0.18667327 3.0849228 0.98056686
000320 2e a9 3b be 51 b1 02 42 62 59 ef 41 4e 38 07 42
       -0.18326256 32.67316 29.918644 33.804985
000330 06 c1 2b bd 84 28 69 3f 0c fe ba 41 c7 44 81 3f
       -0.04193213 0.91077447 23.374046 1.0099114
000340 9b 85 09 42 f6 9d fb 41 cd bf 00 41 bf 4d 41 41
       34.380474 31.45213 8.046826 12.081481
000350 29 6d 82 3c cb 81 01 bc 2b 54 31 3d ed db e9 bd
       0.015921192 -0.00790448 0.04329316 -0.11418901
000360 a5 1f ce be 19 1b 9f be ab aa 09 42 4d 2c fb bd
       -0.40258518 -0.3107536 34.416668 -0.12264309
000370 cf 2b d3 3a b0 5e 07 42 5f 13 a2 40 94 17 ef 3e
       0.0016111078 33.84247 5.0648646 0.46697676
000380 5d 90 09 42 5d 52 5e bd e5 18 ed 41 8d a5 29 be
       34.39098 -0.054277766 29.637156 -0.16567059
000390 af d2 fe bd ec 65 07 42 ad 9e 9f be a5 b4 ff 41
       -0.124425285 33.849533 -0.31175748 31.963205
0003a0 37 97 43 bc 5c 08 fa 41 ba cb 0a 42 ef 19 9f bd
       -0.011937908 31.254082 34.69895 -0.07768618
0003b0 52 f3 09 be 0a ee 84 bd 7b 1e 06 42 83 d0 0b 42
       -0.13471726 -0.06490715 33.529766 34.953625
0003c0 ef 1e 2b bc ae 84 22 be 51 cc 29 3e 45 2e f0 bd
       -0.010444387 -0.15870926 0.16581847 -0.11727575
0003d0 75 34 f8 41 d6 c9 0c 42 c1 d8 0c 42 64 ab af 41
       31.025614 35.197105 35.211674 21.958687
0003e0 7b 22 0c 42 ca 05 a2 41 70 f2 06 42 42 6d 1c 41
       35.033672 20.252827 33.736755 9.776674
0003f0 4e 5f f0 3f f3 d9 1f bf fb 49 b6 bd d4 06 8e 3f
       1.8779085 -0.6244194 -0.089008294 1.1095834

layer2.6.weight f4 [1, 256]
000000 72 31 b6 b8 0f 17 f2 b9 46 e2 3b 3b 6e 19 41 3d
       -8.687646e-05 -0.00046175017 0.0028668805 0.047143392
000010 8c e9 7e 3e a4 07 75 3d e8 35 4c bb a0 46 27 bd
       0.24893779 0.05982174 -0.003116006 -0.040838838
000020 03 55 b4 3d 79 ce 03 3e 99 22 06 bc a1 99 cc 3a
       0.08805277 0.12871732 -0.00818696 0.001560975
000030 96 79 b6 b9 15 82 4b bb e0 39 03 3d 26 59 84 3a
       -0.00034804334 -0.0031052877 0.032037616 0.0010097369
000040 b6 d1 37 3f b3 63 5b 3d dd 3a 44 bb 5c 64 29 bd
       0.7180437 0.053561877 -0.0029942312 -0.041355476
000050 d3 f2 8c ba 4f 60 18 3d 76 61 bd 3d a6 9f 97 bb
       -0.001075352 0.037201222 0.09247105 -0.004627186
000060 d7 27 6b bb 65 02 9c 3d e7 0a cd 3d 53 e9 7d 3c
       -0.00358819 0.07617644 0.10011845 0.015497523
000070 bb 19 0b bc fd 2d 15 bb a2 55 d9 ba 2b 37 97 b8
       -0.008490021 -0.0022763007 -0.0016581307 -7.210517e-05
000080 a1 30 4b 3d 82 b7 96 3d 7b ae 94 3d e0 ce af ba
       0.049606923 0.0735922 0.07259842 -0.0013413094
000090 48 78 73 3d 8e c3 4b 3d cc 46 4f 3d 3e 26 0b 3d
       0.05944088 0.049747042 0.050604627 0.033972017
0000a0 6a 8f 05 bd a5 ca 0d 3b 88 36 22 bd 95 b2 46 bc
       -0.032607473 0.0021635678 -0.039602786 -0.012127538
0000b0 c2 9e db bc cb 7d a8 3c 4a 29 d9 bc c7 f8 38 3d
       -0.0268091 0.020567795 -0.026508946 0.045159128
0000c0 c6 a6 8d bc d0 ed 8a 3d 99 dd f6 3c 78 77 1c 3c
       -0.017291438 0.067836404 0.030134963 0.009549968
0000d0 da 46 a6 3c f1 13 01 ba 1a 9f 34 3e 79 9b 42 3b
       0.020297457 -0.0004923931 0.17638817 0.002969472
0000e0 3c 7a e4 3a 8d b9 d9 3a 85 8e 30 3d 9e d2 97 3d
       0.0017431448 0.0016611085 0.043104667 0.07413219
0000f0 0b b3 ef 3d af bc 94 bc 70 b5 0c bd d1 f8 b9 b9
       0.117040716 -0.018156378 -0.03435272 -0.00035471332
000100 d7 5f ec 3d 50 c9 ca 3d 3c fa 8f 3d 1b 71 01 bd
       0.115417175 0.099016786 0.0703015 -0.031602006
000110 b6 7e d2 39 fa 56 65 3d c0 a1 a4 39 e0 54 02 bd
       0.00040148728 0.05599115 0.0003140103 -0.031819224
000120 06 09 3f bc 13 36 23 bd 99 ea 06 3b 27 67 4c ba
       -0.011659866 -0.03984649 0.0020586608 -0.00077973533
000130 3f 67 5f 3d 59 e1 a9 3d 88 9d 3d 3d d0 a4 48 3a
       0.054541823 0.08294935 0.04629281 0.00076539535
000140 ff 1b c7 3d 6c 0d 7c b9 fa 91 1d 3b 39 fd 14 3d
       0.09722137 -0.00024037593 0.0024043308 0.036374304
000150 10 db 1d 3d 78 e5 02 3d 47 c1 77 3d d4 42 80 3a
       0.038538992 0.03195712 0.060487058 0.0009785541
000160 a0 01 32 3c ec 8f 84 3d 7a d2 be 3d 5c 1f 2c bb
       0.010864645 0.064727634 0.09317489 -0.0026263809
000170 c9 c2 50 bc cd 20 a5 3b 1d 3e 81 3d db de 97 3a
       -0.012741753 0.0050393105 0.06310675 0.0011586802
000180 89 cd 40 3a 38 91 43 39 44 e0 da 3c 69 2c 8a bc
       0.0007354846 0.00018650747 0.026718266 -0.01686688
000190 4d 69 e3 3c 7d 40 86 bc 5a 67 b0 3d e4 e4 66 bc
       0.027760172 -0.016388172 0.08613463 -0.014092658
0001a0 5a 44 d0 3c 98 3d 70 ba 34 f2 da 3d b5 31 19 3d
       0.025423218 -0.00091644516 0.10690728 0.03740092
0001b0 84 3e 1c 3b a1 7f b0 3c d0 f1 16 3a 59 33 5e ba
       0.0023840973 0.021545233 0.0005758079 -0.00084762793
0001c0 5c e7 22 3b 1a 9c 65 b8 f2 64 51 3d 98 9a 16 3c
       0.002485714 -5.4743236e-05 0.05112166 0.009192131
0001d0 33 3c bd ba d5 37 7a 3d 58 9e 1e bb ad c5 d1 bb
       -0.0014437496 0.0610884 -0.0024203267 -0.0064017386
0001e0 aa 10 dd 3a 5b 63 e3 3d a0 12 29 3b a5 a9 3c 3d
       0.0016865928 0.11102935 0.0025798455 0.046060223
0001f0 d1 e8 e6 3d e8 7c dd 3c 63 f8 a7 bb 9a df 50 3d
       0.11274875 0.027037099 -0.0051260456 0.050994493
000200 a6 4c 38 bb 29 86 f5 bc 88 36 4b 3b e5 b8 ae 3c
       -0.0028121858 -0.0299712 0.0031007845 0.021328399
000210 ef dc 0f bb 10 b1 73 3d 78 6c 3a 3d 22 23 50 3d
       -0.0021951755 0.05949503 0.0455136 0.050814755
000220 2b 4f 86 bc 59 08 aa ba 4d f1 80 3a 80 ad 00 3d
       -0.016395172 -0.0012972458 0.0009837538 0.031415462
000230 60 a5 08 bd 56 e2 6d 3f 15 68 ec 3d 77 54 14 3e
       -0.03336084 0.92923486 0.115432896 0.14485346
000240 38 50 25 3d 50 e6 d3 ba 81 e9 4c 3d 91 30 55 bb
       0.040359706 -0.0016166661 0.050027374 -0.0032530169
000250 d7 ed db bc 59 5d 56 3f e2 b0 90 b8 67 48 57 3d
       -0.02684681 0.8373619 -6.899402e-05 0.052559283
000260 50 e2 86 3d 3d 13 07 3a f7 64 46 3b e4 6c d7 39
       0.065861344 0.0005152708 0.0030272582 0.00041089125
000270 e6 e0 b9 ba 25 86 4e 3f fe 4e 06 bb b2 20 09 bc
       -0.0014181405 0.8067344 -0.002049386 -0.008369612
000280 db 2f 81 3d c6 f8 a8 3d 65 bb 2d 3b ac a4 c7 ba
       0.06307956 0.08250575 0.00265094 -0.0015231571
000290 7d 3a 35 bc 6d 7e 92 bc 19 50 8e 3a c1 4b ef bb
       -0.011061308 -0.01788255 0.0010857611 -0.0073027317
0002a0 1f e6 52 3d e3 d6 e4 3a 17 43 11 bc c6 f7 35 bc
       0.05148899 0.0017459061 -0.008866093 -0.011106437
0002b0 71 08 33 3d 26 c8 31 3d d6 32 03 bc 2b a5 18 3d
       0.043709222 0.043403767 -0.008007726 0.03726689
0002c0 d6 83 56 3d cb 2c 33 ba cb 3e 03 3d b6 76 a1 39
       0.052371822 -0.0006834983 0.032042306 0.0003079676
0002d0 18 77 66 3d e0 ef 1a 3d f7 1e c3 3a f5 10 57 3c
       0.05626592 0.03782642 0.0014886548 0.013126601
0002e0 c1 fa 04 3d 10 fd c5 3a 9c 84 00 3b 47 b7 f0 3c
       0.0324657 0.0015105326 0.0019610291 0.029384268
0002f0 b0 19 82 3d 62 45 6e 3f a0 48 84 3d 0a a7 07 bd
       0.06352556 0.9307462 0.064591646 -0.033118285
000300 a5 56 b9 3d 0c 02 d6 ba d2 47 16 3a 53 24 3b 3d
       0.09049729 -0.0016327514 0.0005732748 0.04568894
000310 5a 83 6d 3d ce ca 98 bb 4b 97 3a 3d f4 f4 25 bc
       0.057986595 -0.004662848 0.04555444 -0.010129202
000320 9c 2e 48 3b 79 3e dd 3d d5 19 3a 3d ca b0 9a 3d
       0.003054536 0.10802931 0.04543479 0.07553251
000330 eb 9c 9e bc 8b 4f 39 bb 08 16 87 3d 35 34 90 39
       -0.019361934 -0.002827617 0.06595999 0.00027504718
000340 19 76 22 3d 69 9c 44 3d fb b2 ad 3d ce 24 99 3d
       0.039663408 0.048000727 0.084814034 0.07477723
000350 f7 58 cb bc 48 79 9e 3a 92 5c e7 3a 77 af 80 ba
       -0.024822695 0.0012090588 0.001765149 -0.0009817918
000360 c0 cb 51 bc 3b c2 85 3a ac 30 5e 3d 37 55 ce bc
       -0.012804925 0.001020498 0.054245636 -0.025187118
000370 b4 9c 11 bd 37 64 62 3d 32 b0 33 3d 19 b9 1e 3b
       -0.035549834 0.055271354 0.043869205 0.0024219214
000380 19 2e 14 3c b7 aa 85 bc 35 af 05 3d 23 bd 89 bc
       0.009044194 -0.016316755 0.032637794 -0.01681382
000390 af db 88 bc 63 6b a6 3d 21 1d 04 bc b8 ba 87 3d
       -0.016706316 0.08125951 -0.0080635855 0.06627411
0003a0 a7 b9 28 3a 71 36 ce 3d 62 0c a1 3d a7 9e ed ba
       0.0006436356 0.100689776 0.0786369 -0.0018128947
0003b0 5e 00 16 3b 50 eb 3e bd 8c a3 aa 3d b3 44 9e 3d
       0.0022888402 -0.04661113 0.08331975 0.07727947
0003c0 f5 67 d7 b8 8f 9b 1d 3b f8 5c d9 3c 0e 2f 00 bb
       -0.000102713624 0.002404902 0.026533589 -0.0019559297
0003d0 31 05 25 3e 7b 11 65 3d c1 b5 64 3d e3 db fa 3c
       0.16115262 0.055924874 0.055837397 0.030622428
0003e0 d9 2a 97 3d f7 e7 a8 3d 6f 27 55 3d 54 ec c1 3a
       0.073812194 0.08247369 0.05203956 0.0014795163
0003f0 d6 1d 2a 39 f4 66 af bc f2 53 30 bb cb 36 c8 ba
       0.00016223578 -0.021411397 -0.0026905504 -0.0015275119
