Model_Files/bpi/TimestampPredictor_parameters_weighted_0.0001.pt (torch, 274442 bytes, 7 tensors)

layer1.weight f4 [4, 1]
0.0035837782 0.0031329414 -0.25862306 -8.993655
00000000: d2dd 6a3b 0952 4d3b 3e6a 84be 03e6 0fc1

layer1.bias f4 [6]
-10.653421 -1.0656197 -14.518473 -10.612476 -6.798264 -9.392214
00000000: 6a74 2ac1 3a66 88bf aa4b 68c1 b4cc 29c1
00000010: 618b d9c0 8246 16c1

layer2.1.weight f4 [256, 6]
-0.014830668 -0.048946604 -0.010846221 2.9932551 0.02064178 2.8352811 -0.09567883 0.80122554
0.27194798 -0.006274097 -0.21571922 0.20309074 0.27485105 -0.2450744 0.11915056 0.19421825
0.1353636 -0.31722343 -0.006000537 -0.0056779883 0.0052569653 0.059784137 -0.0015395158 0.038573604
0.00034509372 -0.7772453 -0.124397434 0.0562306 0.23450384 0.0512616 -0.019026559 0.15285248
0.050591227 -0.40076882 -0.28434607 0.50726074 0.38842586 -0.75375867 -0.13780507 -0.06349789
0.09977072 -0.09854752 -0.049212325 0.24543476 0.18909551 -0.20112425 0.0116840415 0.039958064
-0.051431354 -0.07697173 0.21768881 0.11022031 0.060148258 -0.11960446 -0.00855023 -0.0013229445
-0.0016298478 -0.0014621431 -0.0016960391 0.040933035 -0.0023846503 -0.090263754 -0.0045251036 0.06691661
-0.0011621511 0.06825251 -0.004528445 0.3735691 -0.009499162 -0.013096693 -0.010488594 0.20580924
-0.16802543 0.8197718 0.37887025 -0.028239736 0.49441996 -0.44371212 -0.0022037874 -0.1445929
-0.004825756 0.096042685 0.0043752203 -0.0100764455 -0.005906832 -0.20938037 -0.0042355563 0.00043428497
0.0073263855 0.0021923657 -0.17607598 -0.03606396 0.040955145 0.026114253 0.019695189 -0.029391482
-0.14041539 0.002546858 -0.004243107 0.051540382 0.00027967762 0.08780951 -0.0027271723 -0.013255014
0.0040419176 0.0725884 -0.0019285474 0.06670883 0.10705454 -0.09008134 0.1309128 0.086599454
-0.11719172 0.14918257 -0.052749526 0.16384831 0.35911524 0.010621598 0.13351998 -0.075202756
-0.024480687 0.24415164 -0.022168001 -0.12160509 0.19843307 -0.06961175 0.05386062 -0.0054360367
0.10493761 0.00034384493 -0.084074914 0.03147382 -0.0033382333 1.3154957 0.16055872 0.02357068
0.027600607 0.28388134 -0.059905346 0.46826574 0.17629053 0.16365637 -0.13489698 -0.16746648
-0.08881721 0.53326935 0.45840177 -0.018157942 0.20853624 -0.014322471 -0.12957513 0.2367211
-0.19582275 -0.065664776 0.22281323 -0.075115934 0.21541868 -0.021742683 0.06739731 -0.011210605
-0.0021668738 -0.001420744 0.14802733 0.84311616 0.26146004 0.13518976 0.13711813 0.051259372
-0.049182713 -0.039931506 -0.034136303 0.083249114 0.1400911 -0.023191739 -0.24821031 0.38068017
0.09608379 0.53962535 -0.0019185492 -0.13837475 -0.004933951 -0.008599517 -0.0019586927 0.067972004
-0.0035688702 0.041435547 -0.09881747 0.5499652 -0.15023881 0.13613622 0.31773716 -0.33957067
0.09453195 -0.06263746 0.21910788 0.060838558 0.022057658 0.07892151 -0.0089369705 -0.009507797
-0.0071565206 0.01806797 -0.0020345803 -0.008964095 -0.004976531 -0.043124713 0.115317464 -0.40576762
-0.046108775 2.245276 -0.093128 -0.30166838 -0.17871423 -0.3434221 0.7723745 0.2760026
-0.052569438 0.24728106 0.3138945 0.17125872 -0.12388262 -0.23765966 -0.040658556 0.21613064
-0.13720919 -0.29243696 -0.37175226 -0.21386042 -0.005621003 -0.03292492 -0.0039618914 0.1455651
-0.0031575903 0.13057457 0.003737376 -0.28233477 0.58364904 0.57693106 0.25198573 0.05444536
-0.075401664 0.60336447 0.35180247 0.01125145 -0.0074238675 0.062270384 0.07188333 -0.10135865
0.37571427 -0.35481748 0.43594706 -0.04764774 -0.013896464 0.005188144 -0.006324359 0.052063808
00000000: 55fc 72bc 3c7c 48bd 59b4 31bc 7e91 3f40
00000010: f318 a93c 3f75 3540 43f3 c3bd 1e1d 4d3f
00000020: c43c 8b3e f196 cdbb 80e5 5cbe 05f7 4f3e
00000030: 47b9 8c3e c9f4 7abe 3505 f43d 26e1 463e
00000040: c19c 0a3e 1c6b a2be 27a0 c4bb 6b0e babb
00000050: 9f42 ac3b 36e0 743d 94c9 c9ba 5bff 1d3d
00000060: b2ed b439 8cf9 46bf 15c4 febd 0f52 663d
00000070: c621 703e aff7 513d 96dd 9bbc 5c85 1c3e
00000080: bf38 4f3d 9231 cdbe cf95 91be d7db 013f
00000090: c1df c63e 54f6 40bf c61c 0dbe 2f0b 82bd
000000a0: 9754 cc3d 48d3 c9bd dd92 49bd 4053 7b3e
000000b0: 41a2 413e 84f3 4dbe 6c6e 3f3c 11ab 233d
000000c0: afa9 52bd 5ba3 9dbd d1e9 5e3e 30bb e13d
000000d0: 055e 763d 2ff3 f4bd 4416 0cbc a766 adba
000000e0: 9ea0 d5ba 62a5 bfba a14d deba 66a9 273d
000000f0: cb47 1cbb 34dc b8bd 5247 94bb 930b 893d
00000100: 5253 98ba f9c7 8b3d 5a63 94bb 7344 bf3e
00000110: 60a2 1bbc 8393 56bc 5ad8 2bbc a8bf 523e
00000120: dc0e 2cbe 91dc 513f 48fb c13e 0557 e7bc
00000130: 9d24 fd3e 3c2e e3be 6b6d 10bb 2910 14be
00000140: 6021 9ebb 07b2 c43d 025e 8f3b ad17 25bc
00000150: 198e c1bb cf67 56be 6cca 8abb beb0 e339
00000160: 2d12 f03b cbad 0f3b 434d 34be ceb7 13bd
00000170: 95c0 273d 8fed d53c ce57 a13c 68c6 f0bc
00000180: 0dc9 0fbe 30e9 263b c309 8bbb 021c 533d
00000190: b2a1 9239 79d5 b33d 5cba 32bb 8f2b 59bc
000001a0: 1072 843b 3aa9 943d 50c7 fcba a49e 883d
000001b0: 693f db3d 917c b8bd 010e 063e 0e5b b13d
000001c0: 3602 f0bd 51c3 183e e30f 58bd dac7 273e
000001d0: f4dd b73e 3606 2e3c 76b9 083e e703 9abd
000001e0: b98b c8bc e302 7a3e ab99 b5bc 170c f9bd
000001f0: 0a32 4b3e 9b90 8ebd f49c 5c3d c820 b2bb
00000200: 88e9 d63d 1646 b439 782f acbd b1ea 003d
00000210: 43c6 5abb 2a62 a83f 8169 243e 4c17 c13c
00000220: ab1a e23c e558 913e 4f5f 75bd 87c0 ef3e
00000230: 8185 343e 8995 273e 6f22 0abe 557c 2bbe
00000240: cce5 b5bd 5784 083f a3b3 ea3e f7bf 94bc
00000250: 868a 553e cca8 6abc 58af 04be 0467 723e
00000260: c285 48be 417b 86bd 2729 643e 62d6 99bd
00000270: b796 5c3e b61d b2bc 9a07 8a3d afac 37bc
00000280: 1c02 0ebb 4238 baba 7a94 173e 76d6 573f
00000290: 17de 853e 2f6f 0a3e b268 0c3e 59f5 513d
000002a0: d073 49bd 388f 23bd 82d2 0bbd 837e aa3d
000002b0: 0b74 0f3e 9afc bdbc d82a 7ebe 83e8 c23e
000002c0: 94c7 c43d e324 0a3f d477 fbba 1cb2 0dbe
000002d0: fbac a1bb fde4 0cbc 695d 00bb e834 8b3d
000002e0: b5e3 69bb 52b8 293d d060 cabd 85ca 0c3f
000002f0: 34d8 19be 4b67 0b3e 72ae a23e 35dc adbe
00000300: f899 c13d 1248 80bd d15d 603e da31 793d
00000310: 43b2 b43c 9aa1 a13d 5f6c 12bc 97c6 1bbc
00000320: 3f81 eabb 4803 943c 9856 05bb 24de 12bc
00000330: 2b12 a3bb 8aa3 30bd 902b ec3d c6c0 cfbe
00000340: 8edc 3cbd 9ab2 0f40 e5b9 bebd 4774 9abe
00000350: dd00 37be 06d5 afbe 56ba 453f 3650 8d3e
00000360: 0d53 57bd 3f37 7d3e c8b6 a03e 725e 2f3e
00000370: 2cb6 fdbd 0e5d 73be 9689 26bd 5a51 5d3e
00000380: 9180 0cbe 4cba 95be 5056 bebe 3afe 5abe
00000390: 6430 b8bb 48dc 06bd c1d2 81bb 040f 153e
000003a0: 93ef 4ebb 57b5 053e c4ee 743b 2f8e 90be
000003b0: 066a 153f c1b1 133f 4604 813e 1902 5f3d
000003c0: 306c 9abd 1876 1a3f 741f b43e 0058 383c
000003d0: ea43 f3bb 3b0f 7f3d 9137 933d 2095 cfbd
000003e0: 9f5d c03e a3aa b5be 7434 df3e 472a 43bd
000003f0: ffad 63bc 4e01 aa3b 923c cfbb dc40 553d

layer2.1.bias f4 [256]
-11.612769 3.182593 14.951473 37.756096 -19.637672 -20.626991 -12.449284 29.01706
33.709114 36.593624 37.978165 33.497177 24.761335 40.588116 41.547394 38.931095
41.174896 35.55766 35.559856 25.826176 35.21711 33.89485 -4.931692 30.981487
30.313986 32.51156 11.921752 26.747955 29.036707 -11.636826 40.496056 -5.871093
-13.50447 26.062054 -11.52354 5.61242 -2.8578446 -14.248702 40.2203 -13.857614
28.108288 -3.0037014 24.615927 31.114813 -4.81543 25.886713 -1.9924383 33.493942
40.35593 19.42728 28.594627 29.147573 -15.808393 -12.108679 29.409176 -19.566404
-26.873814 36.142426 -1.5519701 -15.070475 29.03707 12.063518 34.99252 24.622974
-19.286007 29.21247 -18.302658 -8.921411 34.14426 30.540813 33.321167 34.38286
-13.307418 33.725563 32.88927 33.833885 0.070905834 35.652237 34.922863 26.71759
34.113926 -5.673597 -0.95048153 21.388523 32.55262 -14.846424 35.191196 -1.7695096
-10.640302 24.653025 32.80511 36.239372 22.7762 -23.86171 -12.16792 -20.49674
35.67933 29.923376 -17.4368 38.737576 29.676899 34.27442 -8.391676 -9.731173
-7.6088953 31.290493 29.671253 24.83924 -9.966154 2.705273 -20.291592 -9.952453
20.951572 -18.675081 28.262743 37.331913 32.309174 39.042828 2.0925407 35.361427
23.39471 -12.936732 -23.438585 32.584267 36.85395 41.55208 -24.821074 27.648067
-14.497604 21.766834 33.747944 -10.660522 35.805534 29.287346 -22.54922 33.910557
20.150076 23.208149 23.162466 -5.732645 34.096638 34.72793 26.43225 1.5995839
11.378088 24.655985 32.21873 -24.957754 37.65056 35.990578 32.758873 -14.675418
-6.9865594 29.798132 19.696646 29.48857 -4.9121394 15.241372 0.6285239 -9.280361
-15.090293 -18.23488 33.987286 40.045372 -13.476987 -6.0900073 32.27043 -12.646665
30.989052 27.486198 24.156166 24.336111 -6.8879814 -19.517267 22.624626 20.007217
-9.238031 35.118744 -3.294395 39.911636 30.68099 31.305866 -11.637638 24.437334
30.820772 33.856983 32.915596 -10.464429 33.542946 -11.839017 31.93846 36.59021
-3.9407496 31.041445 -6.9094005 40.010715 33.55427 41.24665 18.932941 5.474591
26.587772 40.329258 30.722929 35.87414 37.278214 24.468481 -0.997833 28.58923
31.486052 -6.5916758 29.91351 35.83182 27.142025 22.057547 27.993465 34.082485
-18.790138 21.557732 22.580864 -5.74129 31.689543 29.611517 30.570923 38.139698
-8.360089 -14.904062 35.541336 31.229448 -8.259559 38.03768 32.091366 -14.659013
-19.19194 36.817604 31.265566 -11.827828 25.044596 -12.006765 -5.696244 -8.161813
-13.4946 22.400732 32.234077 11.99214 39.16592 34.08741 39.39031 -3.6482208
31.847624 -17.206509 -18.226562 -20.064205 25.692896 38.585976 13.692564 -8.22045
00000000: e7cd 39c1 9baf 4b40 3c39 6f41 3e06 1742
00000010: f419 9dc1 1404 a5c1 4430 47c1 f022 e841
00000020: 22d6 0642 df5f 1242 a4e9 1742 1cfd 0542
00000030: 3717 c641 3b5a 2242 8830 2642 71b9 1b42
00000040: 18b3 2442 0b3b 0e42 4b3d 0e42 029c ce41
00000050: 52de 0c42 5494 0742 6cd0 9dc0 16da f741
00000060: 0b83 f241 d60b 0242 7fbf 3e41 d0fb d541
00000070: 2d4b e841 7030 3ac1 f6fb 2142 fedf bbc0
00000080: 4f12 58c1 167f d041 6b60 38c1 f298 b340
00000090: ede6 36c0 affa 63c1 96e1 2042 c9b8 5dc1
000000a0: c6dd e041 a53c 40c0 6bed c441 23eb f841
000000b0: 0118 9ac0 fd17 cf41 3808 ffbf ccf9 0542
000000c0: 796c 2142 126b 9b41 ccc1 e441 3b2e e941
000000d0: 2def 7cc1 26bd 41c1 fe45 eb41 ff87 9cc1
000000e0: 92fd d6c1 d891 1042 f5a6 c6bf aa20 71c1
000000f0: eb4b e841 2b04 4141 57f8 0b42 dafb c441
00000100: be49 9ac1 23b3 e941 d86b 92c1 19be 0ec1
00000110: b993 0842 9653 f441 e048 0542 0c88 0942
00000120: 2feb 54c1 fae6 0642 9d8e 0342 e655 0742
00000130: 1437 913d e49b 0e42 03b1 0b42 a0bd d541
00000140: a974 0842 1b8e b5c0 c252 73bf b21b ab41
00000150: e235 0242 f48a 6dc1 c9c3 0c42 4a7f e2bf
00000160: ad3e 2ac1 6539 c541 6f38 0342 1ef5 1042
00000170: a835 b641 c8e4 bec1 cdaf 42c1 53f9 a3c1
00000180: a2b7 0e42 1363 ef41 917e 8bc1 47f3 1a42
00000190: 4a6a ed41 0219 0942 4e44 06c1 e2b2 1bc1
000001a0: 127c f3c0 ee52 fa41 ba5e ed41 c3b6 c641
000001b0: 5e75 1fc1 3123 2d40 2e55 a2c1 3f3d 1fc1
000001c0: d29c a741 9166 95c1 191a e241 e153 1542
000001d0: 983c 0142 db2b 1c42 30ec 0540 1a72 0d42
000001e0: 5e28 bb41 dbfc 4ec1 3982 bbc1 4a56 0242
000001f0: 726a 1342 5435 2642 8f91 c6c1 3e2f dd41
00000200: 30f6 67c1 7a22 ae41 e5fd 0642 8091 2ac1
00000210: de38 0f42 7c4c ea41 cd64 b4c1 69a4 0742
00000220: 5b33 a141 4aaa b941 bb4c b941 d471 b7c0
00000230: f562 0842 66e9 0a42 3f75 d341 2abf cc3f
00000240: a60c 3641 753f c541 fbdf 0042 7ba9 c7c1
00000250: 2c9a 1642 5af6 0f42 1609 0342 83ce 6ac1
00000260: e591 dfc0 9362 ee41 bb92 9d41 97e8 eb41
00000270: 3f30 9dc0 a9dc 7341 f1e6 203f 5c7c 14c1
00000280: d771 71c1 09e1 91c1 fbf2 0742 762e 2042
00000290: bda1 57c1 57e1 c2c0 ec14 0142 bd58 4ac1
000002a0: 94e9 f741 bce3 db41 d43f c141 5bb0 c241
000002b0: 586a dcc0 5d23 9cc1 3cff b441 c80e a041
000002c0: face 13c1 9879 0c42 5ed7 52c0 84a5 1f42
000002d0: ab72 f541 6a72 fa41 c433 3ac1 a97f c341
000002e0: f190 f641 8d6d 0742 92a9 0342 4d6e 27c1
000002f0: fa2b 0642 9d6c 3dc1 f781 ff41 605c 1242
00000300: 3e35 7cc0 e154 f841 cf19 ddc0 f90a 2042
00000310: 9337 0642 92fc 2442 aa76 9741 d92f af40
00000320: c2b3 d441 2951 2142 8fc8 f541 1f7f 0f42
00000330: e41c 1542 73bf c341 fc71 7fbf beb6 e441
00000340: 6fe3 fb41 02ef d2c0 de4e ef41 c953 0f42
00000350: de22 d941 db75 b041 9ef2 df41 7754 0842
00000360: 3452 96c1 3c76 ac41 9ca5 b441 a6b8 b7c0
00000370: 2f84 fd41 63e4 ec41 4091 f441 0d8f 1842
00000380: edc2 05c1 0a77 6ec1 542a 0e42 e9d5 f941
00000390: 2727 04c1 9626 1842 8f5d 0042 518b 6ac1
000003a0: 1889 99c1 3a45 1342 e11f fa41 c93e 3dc1
000003b0: 555b c841 b61b 40c1 a147 b6c0 c996 02c1
000003c0: e2e9 57c1 b334 b341 b2ef 0042 cedf 3f41
000003d0: e7a9 1c42 8259 0842 ad8f 1d42 737c 69c0
000003e0: efc7 fe41 eea6 89c1 00d0 91c1 7e83 a0c1
000003f0: 0d8b cd41 0a58 1a42 be14 5b41 f786 03c1

layer2.3.weight f4 [256, 256]
-0.048455734 0.0528028 0.01912314 0.20931514 0.07334159 -0.061710235 0.029968873 0.21321493
0.165692 0.2859436 0.19380607 -0.07291195 0.061434247 0.22887233 0.28170335 0.111153655
0.18910901 0.2758791 0.0045924736 0.011005844 0.12598778 0.20607327 -0.10417457 0.0779083
0.049098786 0.27396002 0.027581878 -0.069839835 0.11044963 0.09912886 0.2864464 0.14330669
0.015559056 0.06925595 -0.09134412 0.11926047 0.08165415 0.07045754 0.020410862 -0.009989327
0.083857924 0.12440748 0.1702881 0.13504533 -0.07559645 -0.06309375 -0.091713965 0.076306924
0.081814975 -0.045279667 0.071006656 0.04699422 -0.10374366 0.010219046 0.08206113 0.08871339
0.13365944 0.16523963 -0.031515695 0.057890594 0.051208895 0.1525869 0.0204271 0.038852964
0.0662186 0.019719804 0.11804928 0.02828505 0.16983968 0.059679314 -0.023810327 0.0054101935
-0.07260326 0.09959298 -0.0498554 0.10637679 -0.05130232 0.09979702 0.07368367 -0.040679354
0.37245703 0.16472533 0.018406112 0.059539355 0.07536532 0.016362151 0.14111131 0.119993344
0.1699421 -0.0047146683 0.15127783 0.16241923 -0.043318294 0.054572195 -0.054807607 0.09949486
0.18497948 -0.07558339 0.019518366 0.1252723 -0.08972074 0.21218716 0.099036716 -0.035440892
-0.12621926 0.18738222 0.042633522 0.12467239 0.042182855 -0.0017343471 -0.08581608 -0.038324498
-0.046302315 0.026392337 0.09226964 0.21107781 0.009021294 0.113154665 0.10562974 0.057478923
0.07352004 0.24496442 0.0783717 0.23255773 0.07256035 0.1894746 0.07162194 -0.04973554
0.1236226 -0.03885328 0.09619921 0.09632697 0.07995767 0.0886889 0.091047265 0.15933666
0.010767223 0.066680774 -0.04651687 0.1498578 -0.044649944 0.17475009 0.04793101 -0.0181114
0.12283861 -0.0013264618 0.16395482 0.120040946 0.21648005 0.2139399 0.036151722 -0.09615818
-0.0016438526 0.23350808 0.17927645 0.08201034 0.029966088 0.13195388 0.017989893 -0.06345872
0.003389378 0.11707149 0.2371307 0.19203518 -0.15191942 0.0037215655 0.09942544 0.025546573
0.11841778 0.08442654 0.13354993 -0.015448457 0.019511092 -0.027608037 0.03568356 0.05643641
-0.10004787 0.16787758 -0.031842105 0.18693879 -0.072640784 0.15233305 0.13630033 0.075199366
0.06382576 0.08067301 -0.017587371 0.03822748 0.12129043 -0.07789773 0.015844742 0.15780933
0.19622356 0.097958304 0.054534692 0.07882251 0.1631745 0.119580925 0.057131656 -0.16339253
0.11537109 0.13046634 -0.00074462994 0.043181207 0.1776421 0.029905435 0.0970529 0.22883005
0.15240946 -0.034489408 0.26228413 0.08645688 0.10867647 0.13903324 0.04092227 -0.005155665
-0.096641615 0.016226843 -0.017033229 -0.020031316 0.07674128 0.07393731 0.020580377 0.11066688
0.031910766 0.1245222 0.1572406 0.10163361 0.13690944 0.059485383 -0.0014640761 0.15652557
-0.029570295 0.10102667 0.15320544 -0.09155162 -0.008479247 -0.11855205 -0.063204356 0.12707868
0.06053237 0.10139734 0.060897335 0.014178726 0.10347546 0.11834505 0.37541598 0.14812267
0.0421754 0.0007837858 0.083655246 0.1353553 0.12662022 0.18501072 0.024540137 0.22535434
00000000: 8579 46bd c047 583d 22a8 9c3c b556 563e
00000010: 1e34 963d dfc3 7cbd 4881 f53c 0455 5a3e
00000020: 2aab 293e 3367 923e 1975 463e dc52 95bd
00000030: 7aa2 7b3d 825d 6a3e 6c3b 903e 87a4 e33d
00000040: cba5 413e 0740 8d3e 767c 963b db51 343c
00000050: f102 013e df04 533e 7a59 d5bd 638e 9f3d
00000060: cf1b 493d 7d44 8c3e 64f3 e13c 3008 8fbd
00000070: 6a33 e23d 1204 cb3d 1aa9 923e fdbe 123e
00000080: 69eb 7e3c 10d6 8d3d a012 bbbd d53e f43d
00000090: 4a3a a73d 0b4c 903d ae34 a73c 46aa 23bc
000000a0: b4bd ab3d 59c9 fe3d 0160 2e3e 5349 0a3e
000000b0: 50d2 9abd 4c37 81bd 88d4 bbbd ce46 9c3d
000000c0: 9c8e a73d 2c77 39bd f06b 913d 037d 403d
000000d0: 8e77 d4bd c96d 273c aa0f a83d 5eaf b53d
000000e0: 05de 083e 9434 293e 9a16 01bd b01e 6d3d
000000f0: 6bc0 513d be3f 1c3e bc56 a73c 4924 1f3d
00000100: 9e9d 873d 6d8b a13c d2c3 f13d 0db6 e73c
00000110: 74ea 2d3e 4c72 743d e00d c3bc fe47 b13b
00000120: 05b1 94bd 68f7 cb3d 2d35 4cbd 13dc d93d
00000130: 6222 52bd 6162 cc3d 77e7 963d 659f 26bd
00000140: b0b2 be3e c2ad 283e 6ac8 963c 8adf 733d
00000150: 2259 9a3d eb09 863c 7c7f 103e 12bf f53d
00000160: 4d05 2e3e 817d 9abb 93e8 1a3e 3a51 263e
00000170: 866e 31bd 1887 5f3d f17d 60bd f6c3 cb3d
00000180: 436b 3d3e 77cb 9abd fbe4 9f3c 6247 003e
00000190: 82bf b7bd 9747 593e c3d3 ca3d 782a 11bd
000001a0: 9f3f 01be 20e1 3f3e 7da0 2e3d 3d54 ff3d
000001b0: eec7 2c3d 0853 e3ba 57c0 afbd 26fa 1cbd
000001c0: 7fa7 3dbd be34 d83c ddf7 bc3d c824 583e
000001d0: 0dce 133c a2bd e73d 6854 d83d 056f 6b3d
000001e0: ad91 963d f4d7 7a3e 5881 a03d 9d23 6e3e
000001f0: 859a 943d a105 423e 86ae 923d 7eb7 4bbd
00000200: d92d fd3d 9e24 1fbd 1704 c53d 1347 c53d
00000210: d9c0 a33d 87a2 b53d fd76 ba3d 2629 233e
00000220: 0269 303c ee8f 883d 7988 3ebd 5374 193e
00000230: dce2 36bd b0f1 323e 4f53 443d 5c5e 94bc
00000240: cf92 fb3d acdc adba c6e3 273e 07d8 f53d
00000250: f2ac 5d3e 1013 5b3e d413 143d 94ee c4bd
00000260: 8a76 d7ba be1c 6f3e 3f94 373e 0af5 a73d
00000270: 717b f53c eb1e 073e 8a5f 933c a5f6 81bd
00000280: 5420 5e3b 2dc3 ef3d 64d2 723e dfa4 443e
00000290: c490 1bbe 82e5 733b 919f cb3d 0c47 d13c
000002a0: 0585 f23d d2e7 ac3d 50c1 083e 861b 7dbc
000002b0: bad5 9f3c 402a e2bc ed28 123d dd29 673d
000002c0: e6e5 ccbd 1ae8 2b3e de6c 02bd e26c 3f3e
000002d0: b1c4 94bd 32fd 1b3e 5092 0b3e 2002 9a3d
000002e0: 14b7 823d e437 a53d 6413 90bc 6b94 1c3d
000002f0: 1e67 f83d d888 9fbd d5cc 813c c598 213e
00000300: d4ee 483e 5d9e c83d c55f 5f3d b26d a13d
00000310: 3717 273e d8e6 f43d e202 6a3d 5f50 27be
00000320: ae47 ec3d f898 053e 4533 43ba c7de 303d
00000330: d0e7 353e 3efc f43c acc3 c63d 6d52 6a3e
00000340: 3a11 1c3e c444 0dbd 1b4a 863e 4e10 b13d
00000350: c591 de3d bb5e 0e3e 1c9e 273d daf0 a8bb
00000360: 0aec c5bd 28ee 843c 4589 8bbc b718 a4bc
00000370: 882a 9d3d 726c 973d 2e98 a83c 51a5 e23d
00000380: ddb4 023d 7f05 ff3d ae03 213e 4825 d03d
00000390: fd31 0c3e f2a6 733d 3ee6 bfba 3d48 203e
000003a0: 673d f2bc 12e7 ce3d e3e1 1c3e 6a7f bbbd
000003b0: 8aec 0abc 6bcb f2bd 4971 81bd ea20 023e
000003c0: caf0 773d 69a9 cf3d 7c6f 793d e34d 683c
000003d0: f1ea d33d e45e f23d 8636 c03e 78ad 173e
000003e0: 1dc0 2c3d fa76 4d3a 7153 ab3d 949a 0a3e
000003f0: bba8 013e 7373 3d3e 6608 c93c 4ac3 663e

layer2.3.bias f4 [256]
19.725376 -0.08415743 -0.22649577 -0.07057313 0.6523535 0.25634205 -0.008605409 25.914015
11.15933 28.69703 -0.08093191 -0.1373071 2.6932142 -0.10508124 0.081473865 -0.12703517
1.8771832 23.602976 -0.0706028 -0.13375583 -0.016980054 -0.10774978 21.512623 -0.078898154
27.317709 -0.136239 -0.14935994 0.19753991 27.842949 -0.021420857 1.850194 29.319824
-0.14881554 -0.22644107 10.539616 27.891685 27.40415 -0.07132596 -0.010392335 -0.14512376
0.88992095 28.936554 29.03006 -0.09681077 28.645615 0.001012281 -0.33687428 -0.16451934
-2.310276 -0.051125426 0.21166164 -0.050489817 26.950872 28.90192 27.42953 7.3854403
3.4937475 17.431698 1.8193326 -0.06524973 0.0061313272 -0.023254056 28.592367 -0.26932228
0.098905474 1.8173147 -0.09383618 27.445076 -0.03794098 2.6121893 27.5946 29.525372
11.668048 -0.040144876 0.4236666 25.709433 24.817574 19.262915 -0.39774445 25.557365
-0.22598629 1.5519388 -0.106635004 27.938023 -0.62127817 -1.3372676 -0.0020925582 20.28937
-0.08070888 28.534698 -0.0030605886 29.101694 0.76859975 -0.2180769 -0.19628757 22.242058
28.852278 -0.884505 29.346045 26.116568 0.15511401 19.91928 0.0021343448 -0.14759393
-0.11284462 26.715336 -0.19990422 28.52064 -0.21603258 1.4041886 -0.07668582 11.930618
-0.034022875 -0.11295432 -0.080922596 -0.013286195 -0.107920796 26.91418 28.580418 -0.036713317
-0.16539192 -0.18452418 -0.059383005 -0.3087354 -0.37362128 -0.08991772 4.646075 -0.12793188
-0.06920168 28.433912 -0.031599753 -0.058453802 -0.17150554 28.65757 -0.07928659 28.99816
0.003323214 0.35785294 21.30904 -0.12214035 27.421566 -0.07628847 1.7511243 3.5750508
27.06827 16.07645 -0.15671715 -0.23453069 1.8743583 -0.1780882 0.4374955 25.041483
27.260492 -0.0935741 26.401794 27.613754 -0.07895246 -0.0065765865 -0.15304913 -0.1274619
26.542635 -0.02345295 -0.06333615 28.168322 -0.2558838 25.666475 27.997557 -0.102623045
29.292696 29.30394 25.974524 0.019129833 -0.054034293 27.074102 29.061543 -0.021499254
1.3454188 28.599304 27.069242 -0.15830334 23.121447 14.54538 26.164433 0.04062005
26.92469 0.32439184 0.18236028 -0.13557452 23.63728 -0.2294624 -0.009263161 1.1985705
-0.11896732 -0.67867 25.738024 1.4590814 26.07772 -0.101441555 -0.15087934 -0.07090658
-0.123225905 27.124943 -0.050005104 -0.18480605 -0.12411044 28.084312 -0.035789218 1.288608
-0.06367515 26.278713 -0.55788153 29.22528 -0.0011186685 1.1635131 -0.046289112 -0.12307807
-0.02112253 28.20585 26.772911 28.888079 24.772146 29.314062 -0.15177414 0.04647509
0.36163557 28.68579 28.006647 27.288786 27.646296 27.090221 0.09730406 -0.053497203
-0.040871207 -0.23212998 28.042896 -0.06791421 27.944727 28.414364 27.94701 26.254745
0.79188687 -0.06452617 -0.13316184 26.154074 15.318146 4.9766917 23.358833 -0.061040696
28.079163 2.6307259 1.5873659 -0.26265514 -0.17508504 -0.06270865 -0.05252487 -0.009494266
00000000: 92cd 9d41 bb5a acbd 82ee 67be a588 90bd
00000010: a400 273f 443f 833e b4fd 0cbc e74f cf41
00000020: 9e8c 3241 8493 e541 a1bf a5bd 3c9a 0cbe
00000030: 9f5d 2c40 d534 d7bd c5db a63d 8215 02be
00000040: 8a47 f03f e5d2 bc41 3398 90bd 4af7 08be
00000050: c119 8bbc ebab dcbd da19 ac41 5b95 a1bd
00000060: ab8a da41 3d82 0bbe d0f1 18be e747 4a3e
00000070: 5cbe de41 cb7a afbc 28d3 ec3f 008f ea41
00000080: 1a63 18be 2be0 67be 44a2 2841 2c22 df41
00000090: b33b db41 5813 92bd 9d44 2abc 539b 14be
000000a0: dcd1 633f 107e e741 903d e841 ba44 c6bd
000000b0: 382a e541 84ae 843a c97a acbe c277 28be
000000c0: 90db 13c0 e568 51bd d4bd 583e 69ce 4ebd
000000d0: 639b d741 2237 e741 ad6f db41 8755 ec40
000000e0: 8f99 5f40 1e74 8b41 e4df e83f a7a1 85bd
000000f0: 4de9 c83b 4a7f bebc 2bbd e441 9ce4 89be
00000100: f48e ca3d c59d e83f 2f2d c0bd 848f db41
00000110: 0068 1bbd 1c2e 2740 bec1 dc41 f633 ec41
00000120: 53b0 3a41 f46e 24bd d4ea d83e ebac cd41
00000130: 648a c641 731a 9a41 29a5 cbbe 7c75 cc41
00000140: f368 67be eea5 c63f 7463 dabd 1281 df41
00000150: 160c 1fbf 962b abbf 4d23 09bb a150 a241
00000160: b34a a5bd 1047 e441 2894 48bb 45d0 e841
00000170: f4c2 443f 8d4f 5fbe 9cff 48be bcef b141
00000180: 77d1 e641 eb6e 62bf b3c4 ea41 bbee d041
00000190: 35d6 1e3e af5a 9f41 5de0 0b3b dd22 17be
000001a0: 151b e7bd 02b9 d541 b1b3 4cbe 452a e441
000001b0: a537 5dbe 74bc b33f 750d 9dbd d0e3 3e41
000001c0: 925b 0bbd 9854 e7bd bfba a5bd 57ae 59bc
000001d0: 9405 ddbd 3e50 d741 b2a4 e441 b460 16bd
000001e0: 805c 29be e8f3 3cbe 983b 73bd 9112 9ebe
000001f0: 4a4b bfbe c826 b8bd a5ac 9440 9300 03be
00000200: 9cb9 8dbd a778 e341 be6e 01bd 416d 6fbd
00000210: 269f 2fbe b442 e541 0261 a2bd 3bfc e741
00000220: 47ca 593b 8038 b73e ea78 aa41 b824 fabd
00000230: 5e5f db41 213d 9cbd d724 e03f a2cd 6440
00000240: d18b d841 929c 8041 767a 20be d028 70be
00000250: f9ea ef3f c15c 36be 69ff df3e f554 c841
00000260: 7d15 da41 c7a3 bfbd e036 d341 f8e8 dc41
00000270: d4b1 a1bd 6880 d7bb e9b8 1cbe 5f85 02be
00000280: 5157 d441 6720 c0bc 62b6 81bd b958 e141
00000290: 3403 83be f154 cd41 fffa df41 082c d2bd
000002a0: 7157 ea41 786e ea41 d3cb cf41 2bb6 9c3c
000002b0: 1053 5dbd c397 d841 0a7e e841 341f b0bc
000002c0: af36 ac3f 60cb e441 cf8d d841 451a 22be
000002d0: b9f8 b841 e0b9 6841 c250 d141 3661 263d
000002e0: c465 d741 b016 a63e a7bc 3a3e 0cd4 0abe
000002f0: 2619 bd41 31f8 6abe 83c4 17bc c26a 993f
00000300: 23a5 f3bd 51bd 2dbf 79e7 cd41 2ec3 ba3f
00000310: 2c9f d041 97c0 cfbd 1d80 1abe 7837 91bd
00000320: dd5d fcbd e2ff d841 27d2 4cbd cc3d 3dbe
00000330: 9d2d febd acac e041 b797 12bd 1bf1 a43f
00000340: 1e68 82bd ce3a d241 53d1 0ebf 60cd e941
00000350: 49a0 92ba ffed 943f a799 3dbd 5b10 fcbd
00000360: 2809 adbc 95a5 e141 ec2e d641 c91a e741
00000370: 5b2d c641 3383 ea41 ae6a 1bbe aa5c 3e3d
00000380: 4c28 b93e 7f7c e541 9d0d e041 6f4f da41
00000390: 9d2b dd41 c6b8 d841 5a47 c73d e21f 5bbd
000003a0: 9168 27bd 7bb3 6dbe da57 e041 9b16 8bbd
000003b0: cd8e df41 9e50 e341 7a93 df41 b809 d241
000003c0: 19b9 4a3f 4c26 84bd 945b 08be 8b3b d141
000003d0: 2017 7541 0f41 9f40 e4de ba41 cf05 7abd
000003e0: 20a2 e041 d05d 2840 ce2e cb3f bc7a 86be
000003f0: 7e49 33be 656d 80bd 5124 57bd d68d 1bbc

layer2.6.weight f4 [1, 256]
0.026256915 -0.015590037 0.0015315808 -0.0075323833 0.0045766286 0.037040945 0.002069917 0.0112567395
0.036044538 0.05125252 0.0018020232 -0.0022013858 0.03925425 -0.0045889826 0.0022772471 -0.018957725
-0.0027240172 0.73918974 -0.038655054 -0.02817322 0.00020741868 -0.03212311 0.02228582 0.0011877373
0.430546 -0.004356505 0.0020845926 0.0017392132 0.059377816 -0.041856833 0.034051113 0.07866078
-0.017478207 0.0014333137 -0.00040133297 0.31809577 0.021781186 -0.011296579 -0.007018336 -0.029177802
0.0007535657 0.1849522 0.26258433 0.00059684383 0.049619067 -0.033260573 -0.03276475 -0.0046604574
-0.021217993 0.00085955 0.0012907999 -0.027494159 0.0483489 0.039919727 0.0461141 0.0026214984
0.015413729 0.041811157 0.049286295 -0.0075014816 -0.0022576277 -0.022904376 0.035075396 0.0018462877
-0.0016873765 5.1149236e-05 -0.017663956 0.8333376 -0.0014876653 -0.0011465175 0.09304017 0.070372164
0.0051502185 -0.023326157 0.010872656 0.05465957 0.05437376 0.028646016 -0.01988005 0.07110412
-0.00961621 -0.0011417513 0.0018789545 0.057227243 -0.010881551 0.0010131701 -0.030947868 0.00436824
-0.0018417058 0.08149104 -0.00015001433 0.23915704 0.0018381844 -0.030617185 -0.0020184459 0.062569365
0.06036738 -0.046392884 0.016124811 0.037907436 -0.0028542832 0.06021387 -0.041348293 -0.006434886
-0.009039312 0.05985371 -0.027175631 0.26356623 -0.016697438 -0.0017066173 -0.04651397 0.032674402
-0.017587913 -0.016984124 -0.03123207 -0.0008423323 -0.0029668037 0.062947206 0.033647835 -0.027483702
-0.019331267 -0.0022249825 -0.00065641355 -4.3700024e-06 0.0026104052 -0.040922876 0.0026831366 -0.015589249
-0.013536182 0.056367416 0.04640367 -0.002589404 -0.026426248 0.050862335 -0.02577742 0.04480626
-0.0018987157 -0.0024628937 0.8795056 -0.026268674 0.0076429937 -0.028608762 0.003736186 0.044772137
0.053820863 0.043279618 0.00037149666 -0.001333909 0.012497692 -0.031887844 -0.0017580817 0.0146426745
0.14276753 -0.026026612 0.00434845 0.05721115 -0.0066630333 -0.038905505 0.0012529065 -0.015177656
0.9677574 -0.029683009 -0.05578748 0.0737625 -0.00015236776 0.016369253 0.17302631 -0.017162059
0.078866705 0.065291844 0.09703372 -0.008679235 -0.0023870398 0.04493137 0.02958778 -0.041238613
-0.0015799357 0.031987336 0.044744726 0.0028355084 0.03504052 0.030271426 0.0635922 -9.9075514e-05
0.04847006 0.002689662 0.0030035493 0.0008136653 0.2374716 -0.0053789997 -0.001632242 -0.00023283692
-0.00774445 -0.039121386 0.031825554 0.0012871003 0.05573921 0.00039519768 -0.0333348 -0.0029139235
-0.02472509 0.03858472 -0.00042275662 -0.029059399 -0.036496278 0.6691958 -0.037067413 9.772322e-06
-0.00357132 0.7454509 -0.0010744246 0.05193672 -0.057757832 -0.0008695422 -0.027252315 -0.00095271476
-0.03780972 0.03629383 0.5844852 0.024928419 1.1516814 0.05783535 -0.015437066 -0.02088185
0.0023814458 0.10875307 0.81475186 0.19765028 0.9180022 0.10207763 -0.001680568 -0.016446052
-0.03029467 -0.0023774304 0.045737356 -0.0004690111 0.075456336 0.074707866 0.0715067 0.077046625
0.0019290005 0.0017414937 -0.050123286 0.4609755 0.02925 -0.00011549687 0.04707279 -0.04970879
0.048280366 0.04041422 0.00013352254 0.0004770816 -0.001546691 -0.0022933905 -0.019192657 -0.013181952
00000000: be18 d73c 5b6d 7fbc 53bf c83a 36d2 f6bb
00000010: 8bf7 953b 3fb8 173d 72a7 073b 306e 383c
00000020: 70a3 133d 2aee 513d dd31 ec3a 2045 10bb
00000030: 10c9 203d 2d5f 96bb de3d 153b 3b4d 9bbc
00000040: 6d85 32bb 8a3b 3d3f c354 1ebd 86cb e6bc
00000050: 877e 5939 8693 03bd c190 b63c daad 9b3a
00000060: 8670 dc3e 03c1 8ebb a99d 083b 50f6 e33a
00000070: 2736 733d 1272 2bbd 2e79 0b3d e718 a13d
00000080: 752e 8fbc 07de bb3a 006a d2b9 73dd a23e
00000090: 756e b23c 4915 39bc 12fa e5bb 4906 efbc
000000a0: f08a 453a 1c64 3d3e 7471 863e 8375 1c3a
000000b0: 5d3d 4b3d 3d3c 08bd 5534 06bd c0b6 98bb
000000c0: 5bd1 adbc 6d53 613a 0f30 a93a 6e3b e1bc
000000d0: 7f09 463d de82 233d 23e2 3c3d 72cd 2b3b
000000e0: dd89 7c3c 2d42 2b3d 6de0 493d fdce f5bb
000000f0: b5f4 13bb f5a1 bbbc 38ab 0f3d 23ff f13a
00000100: f62a ddba 1389 5638 00b4 90bc 9d55 553f
00000110: c4fd c2ba be46 96ba d88b be3d 481f 903d
00000120: 2ac3 a83b 7f16 bfbc 3923 323c b7e2 5f3d
00000130: 05b7 5e3d 0dab ea3c 7ddb a2bc 099f 913d
00000140: 4f8d 1dbc d1a6 95ba 4047 f63a 1d67 6a3d
00000150: 8848 32bc 59cc 843a 6286 fdbc 7423 8f3b
00000160: 6465 f1ba c6e4 a63d 2a4d 1db9 95e5 743e
00000170: 3cef f03a e4d0 fabc e747 04bb 5e24 803d
00000180: c943 773d 7706 3ebd 2e18 843c d444 1b3d
00000190: ed0e 3bbb d2a2 763d d45c 29bd bcdb d2bb
000001a0: 9f19 14bc 2a29 753d 6e9f debc 27f2 863e
000001b0: 11c9 88bc 93b0 dfba 6f85 3ebd 98d5 053d
000001c0: 8714 90bc 4a22 8bbc 66da ffbc f7cf 5cba
000001d0: b56e 42bb 77ea 803d 50d2 093d 8025 e1bc
000001e0: 9b5c 9ebc 03d1 11bb 2b13 2cba 09a2 92b6
000001f0: 5513 2b3b bf9e 27bd 90d7 2f3b 0d6a 7fbc
00000200: ddc6 5dbc 85e1 663d c611 3e3d fdb2 29bb
00000210: dc7b d8bc 0655 503d 2b2b d3bc c586 373d
00000220: 54de f8ba 8068 21bb 4727 613f 6731 d7bc
00000230: 1472 fa3b ec5c eabc cdda 743b fd62 373d
00000240: 4473 5c3d f845 313d 70c5 c239 8fd6 aeba
00000250: 1fc3 4c3c d49c 02bd 6f6f e6ba d4e7 6f3c
00000260: a731 123e c335 d5bc 717d 8e3b 3d56 6a3d
00000270: 9355 dabb 615b 1fbd 9138 a43a b4ab 78bc
00000280: f3be 773f c829 f3bc 6a81 64bd cb10 973d
00000290: e9c4 1fb9 d018 863c cf2d 313e 7297 8cbc
000002a0: de84 a13d bbb7 853d 9db9 c63d 5a33 0ebc
000002b0: e26f 1cbb f509 383d 1262 f23c d2e9 28bd
000002c0: d815 cfba 2705 033d 3f46 373d f0d3 393b
000002d0: a686 0f3d c8fb f73c a13c 823d c3c6 cfb8
000002e0: 8b88 463d 0a45 303b 32d7 443b 274c 553a
000002f0: c12b 733e 5242 b0bb f4f0 d5ba af25 74b9
00000300: 28c5 fdbb bf3d 20bd 835b 023d ebb3 a83a
00000310: cc4e 643d 8932 cf39 128a 08bd 86f7 3ebb
00000320: 468c cabc 030b 1e3d 6fa5 ddb9 fa0d eebc
00000330: 1f7d 15bd 6a50 2b3f 00d4 17bd cef3 2337
00000340: cf0c 6abb dfd5 3e3f b5d3 8cba 99bb 543d
00000350: 7a93 6cbd fdf1 63ba 3f40 dfbc 9bbf 79ba
00000360: 5dde 1abd d7a8 143d d2a0 153f af36 cc3c
00000370: 4c6a 933f c3e4 6c3d bfeb 7cbc 6a10 abbc
00000380: 0812 1c3b eeb9 de3d 9493 503f d664 4a3e
00000390: 3102 6b3f 140e d13d 8146 dcba dfb9 86bc
000003a0: 872c f8bc aace 1bbb 1857 3b3d 9be5 f5b9
000003b0: da88 9a3d 7000 993d 1b72 923d 9fca 9d3d
000003c0: 84d6 fc3a d542 e43a 134e 4dbd fb04 ec3e
000003d0: b29d ef3c e936 f2b8 66cf 403d 729b 4bbd
000003e0: a2c1 453d 6289 253d 2f02 0c39 cf20 fa39
000003f0: 57ba caba b54c 16bb eb39 9dbc 1df9 57bc
