Model_Files/bpi/TimestampPredictor_parameters_laplacianOnWeighted_0.0001.pt (torch, 274439 bytes, 7 tensors)

layer1.weight f4 [4, 1]
-0.0027211595 -0.0018885926 -0.21704821 -27.323238
00000000: 7b55 32bb a78a f7ba e341 5ebe fe95 dac1

layer1.bias f4 [6]
7.372871 13.810183 -13.551666 -12.860131 -0.1425252 11.349927
00000000: 8fee eb40 82f6 5c41 a0d3 58c1 19c3 4dc1
00000010: 20f2 11be 4d99 3541

layer2.1.weight f4 [256, 6]
0.10517861 -0.117021 -0.114363775 0.15789498 -0.13378407 0.20243455 -0.064712234 -0.6508168
-0.40423697 -0.88523376 0.16184501 0.5314357 0.012692172 -0.38685232 0.011520704 0.10461354
-0.09118369 -0.021988127 0.14522636 -0.16224001 0.24983785 -0.08334343 -0.110185705 0.014801777
0.008967089 -0.06479181 -0.107312374 -0.44321525 0.5196638 0.032619584 -0.05080607 -0.9381248
0.15216668 0.11611735 0.044676993 -0.064982094 0.008346801 -0.32771194 -0.027673805 -0.033958137
-0.016780278 0.017865878 -0.047823712 -0.08011854 -0.06721162 0.067385845 -0.2889638 0.5680236
0.028487502 -0.11071248 0.005566755 0.14784105 -0.11394191 -0.013693984 -0.06368738 -0.61911577
-0.048801724 -0.21941607 -0.37337 0.64446664 0.11156474 -0.5036535 0.14159207 -0.032644015
0.48594135 0.011791939 -0.025964204 -0.4403226 0.08710866 -0.33999115 -0.016867178 -0.037994474
-0.010251625 -0.38605177 0.02632256 0.14744702 -0.08573817 0.046679307 0.011776867 0.16637912
0.07878815 0.23889516 -0.25333315 0.45614943 -0.006715652 -0.008328218 0.055083357 -0.0012125175
-0.28917518 -0.14723426 0.02905045 -0.048353545 0.06308387 -0.4463974 0.15583563 0.042919558
-0.015188754 -0.5774806 0.041839607 -0.17520174 -0.0028650688 0.054692913 -0.107567124 -1.0958976
-0.0070376373 -0.8199262 -0.00023804023 0.6495035 0.14572063 0.023115246 0.24782288 -0.14095688
0.1229879 -0.08449653 0.03210165 -0.33417028 -0.022484895 0.07725947 -0.01948578 0.05081542
0.09017163 0.020513399 0.04462105 0.01784341 0.117586054 0.022614906 0.09421832 -0.025018109
-0.09906372 0.073274575 -0.12194479 -0.0453864 0.0074024326 -0.6532363 0.113794655 -0.014063852
0.1383105 0.024513625 -0.09323612 -0.70060956 -0.36439556 0.28308573 -0.17083892 -0.03723095
0.014001212 -0.062019292 -0.12989575 0.48032573 -0.19129863 0.06856533 -0.017837688 -0.0178845
0.0001567484 -0.07438701 -0.010520429 -0.06516047 0.033725504 0.11294176 0.060157478 -0.028605862
0.028109355 -0.03652816 -0.010152431 0.05908013 -0.060654838 -0.42289388 0.0038400262 0.5689349
-0.1438779 0.31202295 -0.16114725 0.19425331 0.48038867 0.66194594 -3.7557133e-05 0.20156322
0.082317874 -0.030602917 0.05625183 -0.012140571 -0.0133945085 0.039509267 -0.018352244 0.009697206
-0.13464443 -0.11592378 -0.07898389 -0.7580396 -0.11906441 -0.043414764 -0.29952466 -0.18976395
-0.08893983 -1.0083581 -0.15292567 -1.0117128 -0.44642866 -0.26513198 -0.04858909 -0.4162702
0.5563295 0.24932577 -0.10614073 -0.0034254324 -0.045904078 -0.48980078 -0.07011363 -0.48259816
-0.084542885 -0.110088244 -0.10153275 0.06981067 -0.06221962 0.0061687976 -0.12498036 -0.023374636
0.04135067 0.025291797 0.0110004945 0.013468209 -0.01796429 0.42212358 0.1272621 -0.6966174
0.15524559 0.2572344 0.44019994 0.019900154 -0.010040741 -0.11304379 -0.04613088 -0.6002523
-0.2122616 0.30033645 0.035292152 -0.7363666 0.11528482 0.34529412 -0.14430286 0.0056853215
0.033268586 0.5925493 -0.015206001 -0.05085158 -0.042576768 0.0057149753 -0.03794906 -0.020193402
-0.010379378 0.103420325 -0.10571855 0.0031455173 0.16454914 -0.25827098 0.290614 -0.09288628
00000000: e267 d73d b5a8 efbd 8e37 eabd 39af 213e
00000010: b1fe 08be 014b 4f3e d987 84bd ee9b 26bf
00000020: 26f8 cebe ae9e 62bf b3ba 253e 2c0c 083f
00000030: d4f2 4f3c 8211 c6be 56c1 3c3c a03f d63d
00000040: 84be babd 7220 b4bc 38b6 143e 3f22 26be
00000050: 7ed5 7f3e f6af aabd 0ba9 e1bd 2783 723c
00000060: b2ea 123c 92b1 84bd 97c6 dbbd 1ced e2be
00000070: b008 053f 1d9c 053d 071a 50bd f228 70bf
00000080: 95d1 1b3e efce ed3d 39ff 363d 5515 85bd
00000090: 05c1 083c dcc9 a7be 2db4 e2bc b017 0bbd
000000a0: cb76 89bc 765b 923c cce2 43bd 3015 a4bd
000000b0: 3fa6 89bd 9701 8a3d 10f3 93be ff69 113f
000000c0: 9f5e e93c 3abd e2bd 5369 b63b a563 173e
000000d0: 605a e9bd bb5c 60bc 876e 82bd 5f7e 1ebf
000000e0: 51e4 47bd 9bae 60be 5a2a bfbe c4fb 243f
000000f0: 0e7c e43d 70ef 00bf 83fd 103e bbb5 05bd
00000100: 4ecd f83e fa32 413c e2b2 d4bc f771 e1be
00000110: 0666 b23d 5213 aebe 092d 8abc 18a0 1bbd
00000120: 6ff6 27bc 94a8 c5be 69a2 d73c 5afc 163e
00000130: 7e97 afbd cd32 3f3d c3f3 403c 4a5f 2a3e
00000140: ae5b a13d efa0 743e e2b4 81be 6b8c e93e
00000150: f90e dcbb 1473 08bc 169f 613d 56ed 9eba
00000160: c50e 94be 94c4 16be 36fb ed3c 5e0e 46bd
00000170: 1e32 813d 338e e4be 6093 1f3e 6bcc 2f3d
00000180: 40da 78bc c5d5 13bf 0260 2b3d 1668 33be
00000190: e1c3 3bbb ad05 603d 274c dcbd 5f46 8cbf
000001a0: fb9b e6bb afe6 51bf 709a 79b9 dd45 263f
000001b0: ca37 153e 2f5c bd3c 48c5 7d3e 0057 10be
000001c0: 15e1 fb3d 840c adbd 057d 033d 5e18 abbe
000001d0: 3e32 b8bc 373a 9e3d a4a0 9fbc d423 503d
000001e0: e7ab b83d b70b a83c 90c4 363d 582c 923c
000001f0: f5d0 f03d e542 b93c 89f5 c03d c7f2 ccbc
00000200: ebe1 cabd fb10 963d 31be f9bd 17e7 39bd
00000210: 1b90 f23b 7f3a 27bf 2c0d e93d 126c 66bc
00000220: 45a1 0d3e ccd0 c83c 94f2 bebd 265b 33bf
00000230: 0e92 babe 9df0 903e 66f0 2ebe 7b7f 18bd
00000240: 5765 653c f107 7ebd 6403 05be 41ed f53e
00000250: cae3 43be fb6b 8c3d 5820 92bc 8482 92bc
00000260: d45c 2439 3758 98bd e15d 2cbc da72 85bd
00000270: c123 0a3d 024e e73d b067 763d d756 eabc
00000280: 9745 e63c 8d9e 15bd 6256 26bc 02fe 713d
00000290: 3571 78bd 8c85 d8be f3a8 7b3b b8a5 113f
000002a0: ba54 13be 79c1 9f3e c903 25be 57ea 463e
000002b0: 81f5 f53e 4a75 293f aa86 1db8 9766 4e3e
000002c0: 4696 a83d f8b2 fabc 5268 663d 3fe9 46bc
000002d0: a474 5bbc 78d4 213d 7257 96bc 08e1 1e3c
000002e0: 3be0 09be 7269 edbd 4ec2 a1bd e20e 42bf
000002f0: 0bd8 f3bd aed3 31bd 4c5b 99be 7b51 42be
00000300: 1626 b6bd e111 81bf 8c98 1cbe ce7f 81bf
00000310: 4c92 e4be 61bf 87be 5b05 47bd 5e21 d5be
00000320: 9c6b 0e3f 414f 7f3e 5060 d9bd 387d 60bb
00000330: ea05 3cbd 2bc7 fabe bc97 8fbd 1b17 f7be
00000340: d224 adbd f275 e1bd 67f0 cfbd e6f8 8e3d
00000350: 00da 7ebd a023 ca3b b4f5 ffbd 2a7c bfbc
00000360: 525f 293d be30 cf3c 6b3b 343c c3a9 5c3c
00000370: d929 93bc 9520 d83e ff50 023e 8555 32bf
00000380: b3f8 1e3e 3ab4 833e e361 e13e a605 a33c
00000390: ec81 24bc 8183 e7bd bcf3 3cbd 22aa 19bf
000003a0: 1b5b 59be b3c5 993e 818e 103d 8682 3cbf
000003b0: 731a ec3d 64ca b03e 21c4 13be ef4b ba3b
000003c0: a444 083d 50b1 173f 9722 79bc bf49 50bd
000003d0: fa64 2ebd b044 bb3b 7970 1bbd a26c a5bc
000003e0: 440e 2abc 09ce d33d f882 d8bd 0625 4e3b
000003f0: 927f 283e 183c 84be 5ccb 943e 293b bebd

layer2.1.bias f4 [256]
33.13218 -7.01778 -7.6244 32.173233 19.160742 25.636667 -7.4864993 30.369736
6.144649 24.482727 12.844521 -9.964641 -5.4532733 32.948143 29.084671 16.006638
-9.196435 -16.457954 34.260212 -8.477889 36.028282 35.44186 -9.495818 -5.107852
-9.348175 30.708223 36.349728 -7.7551875 -20.695354 36.848015 22.971584 -4.2250776
22.340149 -11.951137 -4.870898 35.918053 -18.45652 10.379082 27.203526 -10.923493
39.18762 32.78832 28.220644 26.632711 -20.226944 -14.169681 30.258501 -12.071841
-4.749005 38.800465 -16.637579 36.447968 38.17635 -9.550951 29.167662 -5.797497
-23.268902 35.730045 36.665874 19.233524 -0.50492656 -12.167629 -10.516859 -13.556865
38.846893 -14.300667 -10.199914 -5.9084926 -11.226604 -1.0449506 27.544153 -17.783821
-1.5425253 -11.207298 18.324852 -20.274105 30.586287 -22.800797 -2.0185413 -6.9453335
-11.171974 33.70068 9.447596 -8.149229 28.088747 -21.409985 32.69376 -9.964838
33.620815 -6.52841 33.99549 -10.261573 -4.039544 -20.50581 -11.974398 16.684044
3.7057106 25.54805 -7.486978 36.328796 -7.4243226 -2.7058597 14.522663 3.3282142
-15.515525 31.18653 0.6402575 36.402393 33.448143 26.862452 32.584236 6.241014
20.783665 -7.0578213 -9.356372 28.398117 23.302893 -18.844831 -9.281226 -10.046977
-7.400072 29.3919 30.214222 35.62621 -13.015143 26.502308 -12.145103 -12.080111
32.73828 33.946754 38.602306 -5.5850725 -8.037341 28.91702 36.611923 -15.637124
36.49038 -20.438704 -12.536931 36.36105 -3.8352745 30.639496 -4.9864655 15.989638
34.7338 36.661797 31.496628 37.94167 -5.7394733 25.74277 -10.313254 37.764862
-21.072817 26.477625 27.34256 38.272835 38.6559 25.439737 -9.064308 25.465614
0.45362324 37.639828 34.90772 -16.024517 21.449907 38.08463 33.221245 32.480465
28.285582 37.39794 36.228138 -10.103055 -9.736753 -6.443777 -13.615947 -3.8506293
23.657564 35.23121 36.97523 -11.412922 37.285072 -11.359831 -10.218067 2.615661
-13.456791 13.526958 -8.411614 37.45997 -1.1280015 35.96398 8.199672 23.653913
-14.384656 -0.7039336 -12.504978 -11.695476 -10.531236 -8.473068 19.473103 -23.740774
35.60608 38.379734 -7.6499863 -2.2598891 -5.9591823 35.8765 34.244503 -7.946747
-13.554241 33.747265 -11.718035 -18.401138 29.43156 31.743189 17.757603 -11.950866
37.065815 34.55296 -17.285805 -12.273085 23.506983 36.93892 35.268734 -6.161712
10.708191 13.200669 -10.886784 27.059639 -13.287517 23.208134 -2.4586046 -22.133818
-14.946769 34.526367 -7.9448504 38.154972 -6.568675 36.04872 37.56975 -8.218704
33.395573 33.4096 26.779514 37.30672 37.084557 -18.680986 0.7160302 10.068402
-4.4189234 -13.730287 6.4071507 25.867022 20.77856 28.187634 2.6623847 -9.927467
00000000: 5a87 0442 a791 e0c0 16fb f3c0 64b1 0042
00000010: 3349 9941 e517 cd41 6791 efc0 38f5 f241
00000020: f7a0 c440 a0dc c341 2883 4d41 2b6f 1fc1
00000030: 3781 aec0 e6ca 0342 68ad e841 980d 8041
00000040: 9924 13c1 e4a9 83c1 750a 0942 6fa5 07c1
00000050: f61c 1042 77c4 0d42 dfee 17c1 8673 a3c0
00000060: 2092 15c1 71aa f541 1f66 1142 7f2a f8c0
00000070: 1690 a5c1 5e64 1342 cec5 b741 d633 87c0
00000080: a0b8 b241 db37 3fc1 65de 9bc0 16ac 0f42
00000090: f4a6 93c1 b810 2641 d2a0 d941 a1c6 2ec1
000000a0: 1fc0 1c42 3d27 0342 e1c3 e141 cb0f d541
000000b0: c8d0 a1c1 03b7 62c1 6911 f241 4326 41c1
000000c0: d9f7 97c0 ad33 1b42 c319 85c1 b8ca 1142
000000d0: 95b4 1842 b2d0 18c1 5f57 e941 1885 b9c0
000000e0: b626 bac1 91eb 0e42 dba9 1242 42de 9941
000000f0: de42 01bf 9cae 42c1 0e45 28c1 ebe8 58c1
00000100: 3863 1b42 88cf 64c1 d932 23c1 5f12 bdc0
00000110: 2ca0 33c1 f1c0 85bf 6d5a dc41 4445 8ec1
00000120: 7871 c5bf 1851 33c1 4c99 9241 5e31 a2c1
00000130: b7b0 f441 0868 b6c1 c82f 01c0 2c40 dec0
00000140: 68c0 32c1 7fcd 0642 5a29 1741 3e63 02c1
00000150: c1b5 e041 a647 abc1 69c6 0242 fa6f 1fc1
00000160: b77b 0642 bce8 d0c0 62fb 0742 672f 24c1
00000170: f243 81c0 e60b a4c1 2297 3fc1 ec78 8541
00000180: 5d2a 6d40 6862 cc41 5395 efc0 b050 1142
00000190: 0d94 edc0 ce2c 2dc0 d45c 6841 7601 5540
000001a0: 973f 78c1 037e f941 eae7 233f 0d9c 1142
000001b0: e6ca 0542 4de6 d641 4256 0242 63b6 c740
000001c0: f244 a641 acd9 e1c0 b3b3 15c1 582f e341
000001d0: 536c ba41 37c2 96c1 e77f 14c1 6bc0 20c1
000001e0: 64cd ecc0 9c22 eb41 bab6 f141 3d81 0e42
000001f0: 073e 50c1 ba04 d441 5852 42c1 2248 41c1
00000200: 00f4 0242 7ac9 0742 c368 1a42 eab8 b2c0
00000210: f398 00c1 0f56 e741 9c72 1242 a931 7ac1
00000220: 26f6 1142 7782 a3c1 4597 48c1 b771 1142
00000230: 2375 75c0 b01d f541 2091 9fc0 8fd5 7f41
00000240: 69ef 0a42 aea5 1242 18f9 fb41 45c4 1742
00000250: c4a9 b7c0 31f1 cd41 1703 25c1 380f 1742
00000260: 2195 a8c1 2dd2 d341 90bd da41 6217 1942
00000270: a49f 1a42 9584 cb41 6807 11c1 94b9 cb41
00000280: 4e41 e83e 2f8f 1642 81a1 0b42 3632 80c1
00000290: 6999 ab41 a956 1842 8ee2 0442 ffeb 0142
000002a0: df48 e241 7e97 1542 9de9 1042 1da6 21c1
000002b0: bec9 1bc1 6c33 cec0 ebda 59c1 b670 76c0
000002c0: b142 bd41 c2ec 0c42 a3e6 1342 549b 36c1
000002d0: ea23 1542 dec1 35c1 347d 23c1 fd66 2740
000002e0: 044f 57c1 6c6e 5841 f995 06c1 02d7 1542
000002f0: 5a62 90bf 1edb 0f42 db31 0341 373b bd41
00000300: 8d27 66c1 fe34 34bf 6414 48c1 ab20 3bc1
00000310: f17f 28c1 b091 07c1 eac8 9b41 1bed bdc1
00000320: a06c 0e42 d984 1942 b0cc f4c0 06a2 10c0
00000330: 9fb1 bec0 8981 0f42 5ffa 0842 c04b fec0
00000340: 2cde 58c1 33fd 0642 127d 3bc1 8835 93c1
00000350: d673 eb41 0df2 fd41 920f 8e41 bf36 3fc1
00000360: 6543 1442 3b36 0a42 5449 8ac1 8e5e 44c1
00000370: 4d0e bc41 74c1 1342 2f13 0d42 bf2c c5c0
00000380: c054 2b41 f135 5341 4430 2ec1 247a d841
00000390: ab99 54c1 42aa b941 c759 1dc0 0f12 b1c1
000003a0: f725 6fc1 001b 0a42 373c fec0 b19e 1842
000003b0: 9632 d2c0 e431 1042 6d47 1642 d07f 03c1
000003c0: 1195 0542 6ea3 0542 723c d641 153a 1542
000003d0: 9656 1442 a972 95c1 c14d 373f 2d18 2141
000003e0: d267 8dc0 41af 5bc1 6107 cd40 a9ef ce41
000003f0: 7e3a a641 4680 e141 8364 2a40 e8d6 1ec1

layer2.3.weight f4 [256, 256]
0.17499927 0.07118346 0.0484062 0.1163778 0.12322877 0.5037075 -0.028039953 -0.04557384
-0.08049348 -0.0144101875 -0.110701054 0.0005080384 0.08781961 0.16576011 0.21025914 0.24048066
0.0833658 -0.15430306 0.35462427 -0.09034619 0.26394156 0.16489267 -0.055931177 0.010783253
-0.11024924 0.12834544 0.31291625 0.11619476 -0.19935085 0.16121481 0.024933212 -0.064218484
0.0501593 -0.2085257 0.0704162 0.17267968 0.019369643 -0.028200231 0.22109486 -0.14806819
0.46328747 0.07358574 -0.00019010204 0.28115314 -0.21841986 -0.15721153 0.1229655 -0.09531177
0.0728317 0.43776366 -0.10411569 0.15760475 0.12571318 -1.0806174 0.1098172 -0.48916283
-0.29721662 0.2698587 0.47695997 0.04760511 -0.011042262 7.837528e-05 -1.0328764 -0.03229476
0.38852966 -0.06979217 -0.030314466 -0.048287176 -0.51212275 -0.14609224 0.071344815 -0.12205256
0.036415786 0.118677564 0.06903805 -0.0028321093 0.02119517 -0.12933215 -0.038750816 -0.04644641
0.03781557 0.2693487 0.12977168 0.0076190336 0.33658388 -0.19658297 0.31347096 0.11733397
0.09639025 -0.58751 0.20859568 0.010664948 0.17226987 -0.26578304 0.01708627 0.091598906
-0.039382346 0.09246546 -0.18387836 -0.11376595 0.0065368707 0.11450244 0.051680345 0.14678422
-0.11411808 0.4526163 0.014067093 0.18380117 0.048851237 0.06520959 0.20554991 -0.19010161
0.12095487 -0.020141173 0.057503473 0.21267949 0.23891042 0.004362836 -0.023681521 0.074575804
-0.0035052116 0.060903914 0.45935476 0.040161535 -0.12860446 -0.015572414 0.0577634 -0.14715524
0.28796077 0.3607465 -0.004076066 -0.17256273 0.041403703 -0.027463557 0.2934536 -0.15572844
0.5039289 0.06548412 -0.15931477 0.5685435 -0.6330716 0.20034695 -0.14501499 0.048953846
0.054974023 0.45001796 0.14769451 0.3673579 -0.010466789 -0.014926593 -0.11644027 0.07580608
-0.009872276 0.28692678 0.11407251 0.23856936 0.38581046 0.24335726 -0.15036103 0.28465092
0.0015976357 0.28535107 0.23274979 -0.05129839 0.16785954 0.1719742 0.10833324 0.14398742
0.08827812 0.034702588 0.20978156 -0.016364798 -0.14930032 0.057537466 -0.06385205 0.057584394
0.23695731 -0.03388714 0.22842413 0.012191344 0.15481734 0.047495726 -1.1396629 0.025036145
-0.057374448 -0.009004963 -0.017248599 0.25867924 -0.07588065 0.4476752 0.06716758 0.2560731
-0.11053001 -0.7175054 -0.0007569056 0.06490109 0.17651556 -0.044282258 -0.061234742 -0.29156822
0.20304726 0.3830686 -0.050134335 0.12553252 0.3124547 0.2554705 0.15795119 -0.5679409
0.07093007 0.36336547 -0.03688357 -0.09438037 0.42115414 -0.03377101 0.09407344 -0.17524682
0.27421728 -0.01104885 -0.09381883 -0.122998394 0.07857523 0.23531769 1.13786 0.050707243
-0.06343077 -0.10231986 -0.1516255 0.24164355 0.14751157 0.21364693 -0.04446621 -0.14939493
-0.13179484 -0.08808785 -0.102570556 0.42876205 0.16095665 0.24866039 0.038480435 -0.024464952
0.16370702 0.29560766 0.17071718 0.2563438 0.31622732 -0.20775674 0.07424047 -0.033935662
0.13868281 0.0023754577 0.062460322 0.044432692 0.57343286 0.42867294 -0.0029413844 0.032131363
00000000: 0233 333e a2c8 913d 9445 463d 7c57 ee3d
00000010: 5e5f fc3d faf2 003f 0bb4 e5bc a3ab 3abd
00000020: c4d9 a4bd b518 6cbc 3cb7 e2bd e12d 053a
00000030: c5da b33d 05bd 293e 2c4e 573e 9040 763e
00000040: b0bb aa3d 9f01 1ebe 5091 b53e 6c07 b9bd
00000050: 5923 873e a0d9 283e 1718 65bd 3eac 303c
00000060: 5bca e1bd fd6c 033e 8f36 a03e 85f7 ed3d
00000070: a122 4cbe 7f15 253e bc40 cc3c fb84 83bd
00000080: d773 4d3d c387 55be 5e36 903d f1d2 303e
00000090: 16ad 9e3c 2c04 e7bc b166 623e 309f 17be
000000a0: 0434 ed3e 1fb4 963d 2156 47b9 4ef3 8f3e
000000b0: 75a9 5fbe 0ffc 20be 56d5 fb3d d132 c3bd
000000c0: c928 953d 8f22 e03e 9b3a d5bd 2463 213e
000000d0: f5ba 003e ac51 8abf d7e7 e03d 8d73 fabe
000000e0: c72c 98be eb2a 8a3e 1934 f43e 93fd 423d
000000f0: 9bea 34bc 685d a438 4b35 84bf 8347 04bd
00000100: 5ced c63e 32ef 8ebd 0b56 f8bc c6c8 45bd
00000110: 7a1a 03bf 3499 15be 3b1d 923d b1f6 f9bd
00000120: b828 153d 390d f33d d263 8d3d e99a 39bb
00000130: 7ea1 ad3c a66f 04be 2db9 1ebd 973e 3ebd
00000140: 80e4 1a3d 13e8 893e dee2 043e 16a9 f93b
00000150: b954 ac3e 0c4d 49be 447f a03e cb4c f03d
00000160: 4068 c53d 0e67 16bf 1b9a 553e 09bc 2e3c
00000170: 8367 303e b714 88be 81f8 8b3c 3598 bb3d
00000180: 624f 21bd 885e bd3d 9c4a 3cbe 1ffe e8bd
00000190: 3f33 d63b 4180 ea3d c5ae 533d 9a4e 163e
000001a0: bdb6 e9bd 53bd e73e aa79 663c 6036 3c3e
000001b0: 3c18 483d 9b8c 853d ad7b 523e ffa9 42be
000001c0: 30b7 f73d 1aff a4bc c388 6b3d a7c8 593e
000001d0: efa4 743e 1ff6 8e3b c0ff c1bc 33bb 983d
000001e0: b1b7 65bb 6276 793d 8c30 eb3e 6c80 243d
000001f0: e3b0 03be 7023 7fbc 5199 6c3d ddaf 16be
00000200: 986f 933e c4b3 b83e 8590 85bb 49b4 30be
00000210: ee96 293d 41fb e0bc 8d3f 963e 4777 1fbe
00000220: 7c01 013f 8a1c 863d 6923 23be 118c 113f
00000230: fb10 22bf c027 4d3e cf7e 14be d483 483d
00000240: 712c 613d c168 e63e 3b3d 173e 5616 bc3e
00000250: e57c 2bbc ab8e 74bc 3c78 eebd 3840 9b3d
00000260: 54bf 21bc 11e8 923e d99e e93d 874b 743e
00000270: f388 c53e a532 793e 3ef8 19be c4bd 913e
00000280: c267 d13a 8919 923e f655 6e3e 431e 52bd
00000290: 5fe3 2b3e 011a 303e d1dd dd3d 7071 133e
000002a0: 29cb b43d 4d24 0e3d fad0 563e 780f 86bc
000002b0: 2fe2 18be 68ac 6b3d ddc4 82bd 9ddd 6b3d
000002c0: f0a4 723e 3ecd 0abd 04e8 693e 34be 473c
000002d0: 7088 1e3e e18a 423d 79e0 91bf 9a18 cd3c
000002e0: 7801 6bbd 8d89 13bc ef4c 8dbc 9b71 843e
000002f0: 5067 9bbd af35 e53e 288f 893d 031c 833e
00000300: 8f5d e2bd 6fae 37bf 136b 46ba ddea 843d
00000310: 7fc0 343e 5061 35bd 48d1 7abd 6e48 95be
00000320: 9feb 4f3e 9121 c43e a959 4dbd 998b 003e
00000330: 10fa 9f3e 08cd 823e f5bd 213e 9364 11bf
00000340: c943 913d 0a0b ba3e 3a13 17bd 7f4a c1bd
00000350: 84a1 d73e 7853 0abd 93a9 c03d e773 33be
00000360: 3566 8c3e 3c06 35bc 1624 c0bd 95e6 fbbd
00000370: 0dec a03d 1ff7 703e 65a5 913f 66b2 4f3d
00000380: fee7 81bd 138d d1bd b743 1bbe 6871 773e
00000390: 460d 173e 43c6 5a3e 3322 36bd fcfa 18be
000003a0: 3af5 06be 6767 b4bd 8310 d2bd b386 db3e
000003b0: d2d1 243e d4a0 7e3e a99d 1d3d b96a c8bc
000003c0: d0a2 273e e359 973e 7cd0 2e3e 7f3f 833e
000003d0: 8ce8 a13e 2fbe 54be 630b 983d 1f00 0bbd
000003e0: de02 0e3e 91ad 1b3b 65d6 7f3d 0eff 353d
000003f0: 7fcc 123f 057b db3e 3ec4 40bb 2d9c 033d

layer2.3.bias f4 [256]
25.235033 -0.8416892 -1.0573535 24.043528 26.507914 0.21642789 25.76793 -0.650398
24.475115 -0.049600318 26.520523 -0.021912241 0.021462847 25.588642 0.25771105 -0.06438295
26.099073 0.044962697 25.240387 -0.07914178 13.573541 -0.11510795 -0.22766662 0.03555957
27.267307 -0.32159716 -0.004982358 -0.047195558 -0.20058814 0.04516986 25.630964 -0.46493512
24.225906 -0.033535756 23.304268 -0.920824 -0.28559065 -0.08319088 -1.7679918 0.32216647
27.403286 3.3911576 -2.9656658 -0.49965143 25.952526 0.015404804 -0.9235655 23.866438
-0.17073885 -0.14888248 19.89402 6.8494096 -0.12411081 26.62342 5.2983284 -0.055689413
0.31901437 -0.26781896 24.370283 0.104199216 25.512278 0.0017880724 21.840788 -0.07717075
24.301739 -0.15193158 26.116827 -0.24846037 -0.21992086 25.848635 25.869751 24.708126
11.63866 -0.06672533 23.289469 3.5519984 -0.15332034 24.8226 -0.15746549 2.7851207
0.8835608 -0.10674199 -0.6575359 27.7553 -0.16817804 11.432175 1.0189742 25.22234
26.778645 17.811293 -0.6963759 -0.72370267 -0.18413186 3.0384312 -1.3786292 24.95165
5.6815987 7.813308 24.422382 -0.20678668 25.311378 -0.0588678 -0.08257701 -0.11623935
-0.08354386 0.17006376 26.313198 -0.33776024 25.662167 23.29794 2.5445735 -1.4185976
-0.13056168 -0.7783579 25.722479 23.828852 23.831892 24.595892 22.075693 24.718027
27.32895 -0.5908472 -0.6744582 0.120392464 -0.4844711 -0.09474028 22.621283 25.068727
-0.26435128 -0.9005893 -0.061407432 24.271385 26.53753 26.127132 2.7139103 -0.09508313
-0.9290286 8.627253 24.626616 -0.05088644 0.34184253 -0.251514 -0.019456012 8.14231
19.716888 24.871372 14.709937 24.894684 0.06455188 25.478168 -0.019314723 -2.999486
-0.027541172 -0.008229782 24.779915 27.049507 26.904951 19.106438 -0.18342943 -0.2383121
-0.12659039 23.979792 22.928408 26.98364 -0.10773348 -0.14540087 0.040212695 25.480368
-0.010611935 -0.37377647 0.81187326 0.10454868 23.445688 5.8110933 -0.10123883 23.55823
-0.6505485 -0.00081774674 26.252457 25.576294 -0.020995347 -0.13434474 26.780497 -0.18840449
0.6064436 25.510366 -0.15789479 -0.06687779 -0.14246768 23.936115 26.648008 -0.22759551
25.426968 -0.21825777 -0.06312804 23.993166 0.16219005 -0.39204028 25.42836 1.4733098
-1.176785 -0.58008605 24.022995 0.005915648 -0.29268375 -0.07493146 24.42621 24.963768
22.396143 26.888023 20.238588 27.535212 0.077085346 24.13825 -0.035630126 22.949877
0.015921464 26.992487 -0.1673064 19.115744 -0.07971943 14.675258 0.04008066 23.705713
0.002779373 11.819131 -0.24881072 -4.5569377 -0.07704318 15.931156 26.612001 0.033505294
-0.31233186 0.07340823 25.750082 23.98973 -0.08654555 27.04561 0.2363954 -0.21832955
23.998907 14.207971 26.483624 23.129187 -0.6714435 26.862179 -0.06389838 -0.26524305
25.054592 0.021186016 24.438274 -1.4491695 25.589298 -0.3632933 25.889668 19.621582
00000000: 59e1 c941 f278 57bf 5c57 87bf 2559 c041
00000010: 3510 d441 469f 5d3e b824 ce41 7c80 26bf
00000020: 09cd c341 b429 4bbd 082a d441 4d81 b3bc
00000030: dad2 af3c 8ab5 cc41 b4f2 833e 35db 83bd
00000040: e7ca d041 ce2a 383d 50ec c941 1615 a2bd
00000050: 392d 5941 b8bd ebbd 7021 69be e9a6 113d
00000060: 7223 da41 62a8 a4be 0c43 a3bb 2150 41bd
00000070: fa66 4dbe 0804 393d 370c cd41 fa0b eebe
00000080: a8ce c141 ca5c 09bd 246f ba41 1fbb 6bbf
00000090: f038 92be fb5f aabd 8e4d e2bf 01f3 a43e
000000a0: ee39 db41 ba08 5940 78cd 3dc0 50d2 ffbe
000000b0: c69e cf41 6e64 7c3c ca6e 6cbf 77ee be41
000000c0: 2ad6 2ebe a674 18be f426 9f41 5d2e db40
000000d0: cf2d febd c4fc d441 e88b a940 951a 64bd
000000e0: da55 a33e 911f 89be 57f6 c241 6666 d53d
000000f0: 2519 cc41 c15d ea3a efb9 ae41 b30b 9ebd
00000100: f669 c241 f493 1bbe 43ef d041 656c 7ebe
00000110: ef32 61be 01ca ce41 40f5 ce41 3eaa c541
00000120: f437 3a41 4aa7 88bd d550 ba41 f153 6340
00000130: 0200 1dbe af94 c641 a23e 21be 6b3f 3240
00000140: 0a31 623f 8b9b dabd 4654 28bf db0a de41
00000150: dd36 2cbe 30ea 3641 bf6d 823f 5ac7 c941
00000160: aa3a d641 877d 8e41 b145 32bf 9444 39bf
00000170: 108d 3cbe a875 4240 ec76 b0bf fb9c c741
00000180: a8cf b540 9e06 fa40 0a61 c341 e3bf 53be
00000190: b47d ca41 5d1f 71bd 231e a9bd e50e eebd
000001a0: 0b19 abbd 3225 2e3e 6e81 d241 e9ee acbe
000001b0: 1e4c cd41 2e62 ba41 4bda 2240 9b94 b5bf
000001c0: f6b1 05be 7742 47bf a3c7 cd41 7da1 be41
000001d0: b7a7 be41 63c4 c441 059b b041 85be c541
000001e0: b1a1 da41 c341 17bf 4ba9 2cbf 5390 f63d
000001f0: 990c f8be 3107 c2bd 63f8 b441 c18c c841
00000200: 0d59 87be 058d 66bf 5c86 7bbd cc2b c241
00000210: dd4c d441 5e04 d141 b5b0 2d40 f2ba c2bd
00000220: d1d4 6dbf 3a09 0a41 4f03 c541 4d6e 50bd
00000230: fc05 af3e 71c6 80be 3762 9fbc e746 0241
00000240: 30bc 9d41 92f8 c641 e75b 6b41 5028 c741
00000250: c733 843d 4ad3 cb41 e939 9ebc 94f7 3fc0
00000260: 069e e1bc 35d6 06bc 443d c641 6465 d841
00000270: 573d d741 fcd9 9841 edd4 3bbe 1608 74be
00000280: e9a0 01be 9dd6 bf41 616d b741 7fde d741
00000290: 5fa3 dcbd f7e3 14be 11b6 243d cbd7 cb41
000002a0: aedd 2dbc a15f bfbe edd6 4f3f 9e1d d63d
000002b0: c590 bb41 7af4 b940 4e56 cfbd 4177 bc41
000002c0: 598a 26bf 0e5e 56ba 0805 d241 409c cc41
000002d0: 6ffe abbc ab91 09be 753e d641 1bed 40be
000002e0: e33f 1b3f 3b15 cc41 2caf 21be 39f7 88bd
000002f0: 0ce3 11be 2a7d bf41 1f2f d541 cc0e 69be
00000300: 6e6a cb41 f77e 5fbe 4649 81bd 01f2 bf41
00000310: 2615 263e 81b9 c8be 486d cb41 6a95 bc3f
00000320: e4a0 96bf 8580 14bf 182f c041 0dd8 c13b
00000330: a5da 95be aa75 99bd e168 c341 ccb5 c741
00000340: 4d2b b341 ac1a d741 a1e8 a141 1d48 dc41
00000350: ecde 9d3d 231b c141 e5f0 11bd 5999 b741
00000360: bb6d 823c 9df0 d741 5e52 2bbe 0bed 9841
00000370: f143 a3bd dbcd 6a41 9e2b 243d 4da5 bd41
00000380: 2426 363b 291b 3d41 3dc8 7ebe 6fd2 91c0
00000390: d1c8 9dbd 04e6 7e41 61e5 d441 d93c 093d
000003a0: f6e9 9fbe 0e57 963d 2b00 ce41 f8ea bf41
000003b0: cb3e b1bd 695d d841 a311 723e c891 5fbe
000003c0: c3fd bf41 d953 6341 76de d341 9308 b941
000003d0: b9e3 2bbf bee5 d641 27dd 82bd f0cd 87be
000003e0: ce6f c841 4c8e ad3c 9681 c341 637e b9bf
000003f0: e2b6 cc41 9401 babe 0a1e cf41 00f9 9c41

layer2.6.weight f4 [1, 256]
0.21929106 -0.03578839 -0.031785168 0.17494692 0.11062506 0.008554652 0.11899528 -0.027785022
0.37921068 -0.046159133 0.088679 -0.035719905 -0.028305765 0.20175512 0.00064108334 -0.03951502
0.2321772 0.020152086 0.09401321 -0.023442196 0.27069333 -0.0014779995 -0.0027766079 0.0018541706
0.0752654 -0.04476685 -0.011274406 0.0010938887 0.0029410461 0.01630921 0.13713887 -0.00096330006
0.3993136 -0.033360682 0.39569312 -0.04555148 -0.01391563 -0.0127203325 -0.00034308172 7.306982e-05
0.024830166 0.04738015 -0.46855518 -0.012565074 0.15868783 0.04206159 -0.0100079505 0.2745825
-0.0118283415 0.0021567869 0.15613429 0.05001817 -0.0047508287 0.2125537 0.0812819 -0.04347611
0.020262506 -0.011875942 0.32857513 0.0029100818 0.30756155 -0.036175583 0.1161556 -0.03850475
0.19042379 0.002003269 0.16325915 -0.007271919 -0.023905158 0.26790717 0.11935662 0.2479766
0.11976494 -0.029868193 0.5679702 -0.002717284 -0.016280646 0.19293132 -0.011620896 0.0013078924
0.054566957 -0.0187908 -0.03822504 0.048534967 0.0011033779 0.17937216 0.026634535 0.21610762
0.12020206 1.8322233 -0.0086929845 -0.015117536 0.0017491282 0.0028055876 -0.014126133 0.19906771
0.06270869 0.23027389 0.07047336 -0.03924724 0.23236237 -9.572149e-05 -0.040719375 -0.0063059167
-0.033175904 0.0016571704 0.08569827 -0.001364156 0.12718628 0.25073308 0.015004405 -0.0001576116
-0.036363907 -0.048383668 0.12575707 0.27446756 0.29355267 0.36843115 0.2166701 0.1481341
0.12645027 0.0009052407 0.0005991305 -0.0025371942 -0.0111998785 -0.02655551 0.20705949 0.16942583
-0.030096961 -0.024653459 -0.0012983399 0.26333222 0.19496985 0.17898646 0.0730873 -0.020999694
-0.02246265 0.28060898 0.30919996 -0.0017169163 0.02437292 -0.03640549 -0.023733562 -0.0021597547
0.060565695 0.30306202 0.34565184 0.17493962 0.0021181114 0.13242804 0.009632888 -0.8781548
-0.05148395 0.0011250986 0.13793407 0.05807497 0.06843194 0.053841937 -0.039377302 -0.042376757
-0.0021255289 0.43339208 1.1904856 0.14557219 -0.03715595 -0.009696023 -0.0018198593 0.3546905
0.0014234192 0.0015213288 0.0018063227 0.011505712 0.20825675 0.16544975 0.0026720315 0.6384454
-0.020249456 0.002354863 0.29187444 0.15406172 -0.0058031385 -0.037951168 0.11679114 -0.04600021
0.018913297 0.15650117 -0.021304056 -0.00029961707 -0.035113193 0.27915737 0.0794863 -0.019836187
0.080187306 0.00284316 -0.042572 0.50635886 0.037092704 -0.0014378967 0.16287546 -0.0030264691
-0.0030076667 -0.029666478 0.63866186 -0.041220844 -0.01676645 -0.013600695 0.13194741 0.23485734
0.36045828 0.0702546 0.06312905 0.12534681 0.009126406 0.18714617 -0.025418911 0.51068914
-0.03393447 0.077319786 -0.011605754 0.45981252 -0.023567546 0.1682329 0.000473604 0.2193002
-0.009347835 -0.0030538507 0.002774138 -0.4932018 -0.00014924265 0.12419082 0.16959807 -0.041584313
-0.054321148 -0.0027360625 0.21365418 0.195128 -0.0035807702 0.16406786 0.013238398 -0.00043083687
0.23987038 0.057112888 0.13067205 0.73126054 -0.05015776 0.058852416 -0.045279924 -0.019162543
0.38126105 -0.0006905202 0.3378538 -0.0005250424 0.36413231 -0.015207734 0.087316275 0.29778126
00000000: d68d 603e d996 12bd 2a31 02bd 4925 333e
00000010: 648f e23d d028 0c3c ccb3 f33d 6a9d e3bc
00000020: e727 c23e 5c11 3dbd 569d b53d 094f 12bd
00000030: 7ee1 e7bc e598 4e3e 600e 283a 80da 21bd
00000040: dcbf 6d3e fd15 a53c ff89 c03d d909 c0bc
00000050: 5198 8a3e 6fb9 c1ba c0f7 35bb a407 f33a
00000060: bf24 9a3d 725d 37bd 49b8 38bc d060 8f3a
00000070: 91be 403b e49a 853c 226e 0c3e f985 7cba
00000080: d572 cc3e 36a5 08bd 4a98 ca3e 3094 3abd
00000090: 62fe 63bc f168 50bc a6df b3b9 103d 9938
000000a0: a268 cb3c b011 423d 77e6 efbe bddd 4dbc
000000b0: 107f 223e c648 2c3d 63f8 23bc 1496 8c3e
000000c0: a9cb 41bc e158 0d3b abe1 1f3e dadf 4c3d
000000d0: d7ac 9bbb ada7 593e 2077 a63d 0114 32bd
000000e0: 8efd a53c 5093 42bc 003b a83e 12b7 3e3b
000000f0: b578 9d3e d92c 14bd fde2 ed3d 28b7 1dbd
00000100: 74fe 423e 4749 033b 682d 273e 4749 eebb
00000110: c0d4 c3bc 212b 893e 3e71 f43d 94ed 7d3e
00000120: 5247 f53d 24ae f4bc 7f66 113f 7614 32bb
00000130: fd5e 85bc ca8f 453e 9265 3ebc 966d ab3a
00000140: 9a81 5f3d 2aef 99bc dc91 1cbd 9acc 463d
00000150: 389f 903a 56ad 373e ab30 da3c 514b 5d3e
00000160: 7f2c f63d 4b86 ea3f 056d 0ebc 8baf 77bc
00000170: 0143 e53a f3dd 373b 4c71 67bc 68d8 4b3e
00000180: 6a6d 803d ebcc 6b3e 5654 903d b7c1 20bd
00000190: 67f0 6d3e 15be c8b8 5cc9 26bd dda1 cebb
000001a0: 75e3 07bd 6935 d93a 9382 af3d 7bcd b2ba
000001b0: 1f3d 023e 1660 803e 09d5 753c 8b44 25b9
000001c0: 52f2 14bd f42d 46bd 76c6 003e 0387 8c3e
000001d0: 894c 963e 02a3 bc3e c4de 5d3e 77b0 173e
000001e0: 2e7c 013e ad4d 6d3a f80e 1d3a 0e47 26bb
000001f0: b27f 37bc f18a d9bc 6707 543e f77d 2d3e
00000200: e78d f6bc 0df6 c9bc 0f2d aaba 7bd3 863e
00000210: 2da6 473e 3a48 373e cbae 953d 8d07 acbc
00000220: 9703 b8bc fbab 8f3e 754f 9e3e 270a e1ba
00000230: b8a9 c73c ec1d 15bd e36c c2bc ac8a 0dbb
00000240: bc13 783d f22a 9b3e 47f9 b03e 5f23 333e
00000250: 03d0 0a3b 379b 073e 43d3 1d3c c1ce 60bf
00000260: d6e0 52bd 0b78 933a 973e 0d3e 05e0 6d3d
00000270: 0c26 8c3d 5d89 5c3d 184a 21bd 4093 2dbd
00000280: 754c 0bbb 91e5 dd3e d561 983f e010 153e
00000290: d630 18bd 11dc 1ebc 5888 eeba fe99 b53e
000002a0: 0692 ba3a 5367 c73a 22c2 ec3a 7482 3c3c
000002b0: 4241 553e a96b 293e 401d 2f3b 2871 233f
000002c0: 30e2 a5bc 0c54 1a3b 9170 953e 5bc2 1d3e
000002d0: 4128 bebb af72 1bbd 3130 ef3d b76a 3cbd
000002e0: 0ff0 9a3c d841 203e d885 aebc ec15 9db9
000002f0: dad2 0fbd b7ed 8e3e b7c9 a23d 807f a2bc
00000300: 3e39 a43d 4f54 3a3b fa5f 2ebd bca0 013f
00000310: 85ee 173d cf77 bcba d3c8 263e ba57 46bb
00000320: 461c 45bb 1d07 f3bc 587f 233f 30d7 28bd
00000330: cb59 89bc 73d5 5ebc 391d 073e 717e 703e
00000340: fd8d b83e a5e1 8f3d ce49 813d ea5a 003e
00000350: ec86 153c 3fa3 3f3e 523b d0bc 86bc 023f
00000360: dffe 0abd d659 9e3d 0f26 3ebc 8c6c eb3e
00000370: ba10 c1bc 3f45 2c3e 0e4e f839 3b90 603e
00000380: a927 19bc 1d23 48bb 50ce 353b f284 fcbe
00000390: 057e 1cb9 c257 fe3d 1eab 2d3e 5054 2abd
000003a0: da7f 5ebd 834f 33bb 29c8 5a3e a2cf 473e
000003b0: 5bab 6abb 6801 283e dee5 583c f2e1 e1b9
000003c0: 95a0 753e 34ef 693d e5ce 053e e433 3b3f
000003d0: 3972 4dbd 3b0f 713d 7177 39bd c4fa 9cbc
000003e0: a634 c33e 0704 35ba 2cfb ac3e 00a3 09ba
000003f0: 8d6f ba3e dc29 79bc e0d2 b23d c976 983e
